experiments/checkpoints/20251210_110803/best_model.pt (torch, 246325 bytes, 24 tensors)

network.0.weight f4 [128, 43]
-0.005038105 -0.33842817 0.14206205 -1.0075887 -0.9053417 -0.16009825 -0.29013097 0.13742939
0.16417558 -0.16214162 -0.017676832 -0.11556667 1.2215302 0.46226156 -0.5185836 -0.8074939
-1.3154869 1.8766817 1.5120283 -0.07991984 -0.13716109 -0.087766334 0.12985319 -0.0012772282
-0.091350935 0.16759537 -0.046019875 -1.1476688 1.6151431 -1.09018 0.06823768 0.49694112
-0.1823939 -0.8997118 0.15984195 -0.13198361 -0.8514934 0.36320993 -2.641078 -2.9170747
2.3129978 -2.0917795 0.03774549 -0.16519095 1.6964273 -1.5484447 -0.53072035 -0.38344377
-0.18459105 -4.890562 0.082657486 0.09166626 -0.038023453 0.041999325 0.044109125 -0.8533877
-1.4523712 1.3972948 1.1731178 -1.3190944 0.2917509 0.33813187 -0.18591627 0.06141204
0.082058065 -0.081380576 0.11609866 -0.046586253 -0.096358 0.09693809 1.1214683 -1.5163139
0.92142063 0.15682924 -1.6639702 -0.06700719 1.099873 -0.1232115 -1.046977 1.9766165
-3.092094 -0.096322425 0.44655854 3.027452 -0.5999819 0.09680121 0.08296055 -0.42261386
0.4840489 1.3806914 -1.3837107 -0.08080126 1.9099708 0.043407675 0.040695835 -0.0936578
-0.033666972 -0.004744466 -5.061331 -1.0179377 -1.0266982 0.6081864 -2.4334462 3.360704
1.2337154 0.038169313 -0.18390925 0.15968771 0.09758513 -0.1756292 0.059935182 -0.15009323
0.016646305 -0.40497294 0.3149319 -1.5061607 -0.16686353 -0.84465235 0.13773379 -0.4362447
-0.09910957 -0.85991836 1.4463934 1.3359668 -1.0579923 -0.88087755 1.8521112 1.588373
-0.036285426 0.011200433 1.4824889 -1.4640698 0.5816965 -1.233391 -0.18180686 -2.6433809
-0.17965011 -0.026955638 0.058513746 -0.13424315 0.01246308 -0.055432435 -4.254957 -1.5358253
-0.31799543 -2.141629 1.3388833 -0.6342037 0.08835625 -0.071242444 0.18370159 -0.017899908
-0.019534081 -0.120459475 0.08572864 -0.18668589 -0.21295314 0.45831543 -0.031697776 -0.10307467
-2.5204043 0.08387708 -0.14175113 -0.031754166 -0.4941397 2.7674928 0.12905577 -0.9994587
2.3749187 0.7118078 -1.0084102 0.03809116 -0.14574891 1.2240274 -1.2294137 0.78623164
-1.5300126 0.1341519 1.0410314 -0.08717285 -0.045906283 0.14056504 -0.10394172 -0.17114513
0.28312182 -1.5881895 -0.17893131 -0.39358371 1.0174569 0.07675862 -0.72435236 -0.08383517
0.17296724 -0.17466044 0.03444508 0.15730797 -0.016495243 0.08065083 0.1395174 -1.0235081
3.0317397 -6.8473663 -0.040309727 0.06669205 -0.17990011 -1.3749115 0.1069037 0.86836153
1.5140693 0.9667795 -1.5016638 0.51352763 0.36087325 -1.6918461 0.11721236 -0.031579234
-0.8680019 1.081698 0.9591875 0.041762672 0.12952831 1.158502 0.022331666 0.036364317
-0.15786575 0.04979279 -0.04501753 0.3678428 -0.5326829 1.3757998 -0.066829644 0.86071104
-2.25633 -1.947941 0.0633418 0.08143682 0.11926313 0.10132679 -0.12744011 -0.07973378
-0.12745032 -0.11795269 -0.5870802 -0.21182564 -1.3982552 0.13541089 -0.160491 0.013468754
-0.5723172 0.09618714 -0.54124844 -0.31019226 -0.008011249 -1.7993051 0.9677338 -0.5293293
00000000: b016 a5bb 7546 adbe b778 113e abf8 80bf
00000010: 79c4 67bf ccf0 23be 0c8c 94be 4aba 0c3e
00000020: a51d 283e 7408 26be 01cf 90bc 38ae ecbd
00000030: 1a5b 9c3f 8cad ec3e e5c1 04bf ecb7 4ebf
00000040: e061 a8bf 1b37 f03f 258a c13f 03ad a3bd
00000050: f573 0cbe d6be b3bd 3cf8 043e ab68 a7ba
00000060: 3316 bbbd 1f9e 2b3e 567f 3cbd d0e6 92bf
00000070: 02bd ce3f 058b 8bbf 32c0 8b3d 116f fe3e
00000080: 77c5 3abe 8353 66bf 9cad 233e b626 07be
00000090: 79fb 59bf a7f6 b93e 6c07 29c0 5ab1 3ac0
000000a0: 2808 1440 b7df 05c0 049b 1a3d d127 29be
000000b0: 8824 d93f 7033 c6bf 4add 07bf be52 c4be
000000c0: 7005 3dbe 7c7f 9cc0 5448 a93d 85bb bb3d
000000d0: 7bbe 1bbd 7c07 2c3d c5ab 343d 9e77 5abf
000000e0: 4de7 b9bf 8eda b23f b928 963f 16d8 a8bf
000000f0: 6060 953e 9f1f ad3e d660 3ebe 318b 7b3d
00000100: 0f0e a83d dcaa a6bd 22c5 ed3d 3ad1 3ebd
00000110: 5857 c5bd 7a87 c63d 468c 8f3f 9316 c2bf
00000120: 39e2 6b3f d897 203e fafc d4bf 113b 89bd
00000130: a3c8 8c3f 5056 fcbd 5803 86bf c501 fd3f
00000140: dee4 45c0 b144 c5bd 52a3 e43e c6c1 4140
00000150: 6a98 19bf b63f c63d 39e7 a93d d860 d8be
00000160: 42d5 f73e 7fba b03f 6f1d b1bf 227b a5bd
00000170: ec79 f43f 3fcc 313d adb0 263d a9cf bfbd
00000180: 61e6 09bd 7777 9bbb 6cf6 a1c0 c84b 82bf
00000190: d96a 83bf 1bb2 1b3f 95bd 1bc0 c615 5740
000001a0: 63ea 9d3f 6d57 1c3d b552 3cbe 2d85 233e
000001b0: b6da c73d 24d8 33be 987e 753d 0ab2 19be
000001c0: d55d 883c 9d58 cfbe c13e a13e e0c9 c0bf
000001d0: 46de 2abe 233b 58bf 160a 0d3e 775b dfbe
000001e0: f5f9 cabd 9c23 5cbf 6b23 b93f f600 ab3f
000001f0: 4b6c 87bf 3181 61bf fb11 ed3f ce4f cb3f
00000200: 07a0 14bd 0582 373c 32c2 bd3f a466 bbbf
00000210: 10ea 143f c2df 9dbf 942b 3abe 272d 29c0
00000220: 33f6 37be 12d2 dcbc 1cac 6f3d 0977 09be
00000230: f231 4c3c 1f0d 63bd 9c28 88c0 ec95 c4bf
00000240: 4cd0 a2be 7310 09c0 8760 ab3f 2c5b 22bf
00000250: 1ff4 b43d 8fe7 91bd 451c 3c3e d4a2 92bc
00000260: f005 a0bc 75b3 f6bd 7f92 af3d 962a 3fbe
00000270: 6310 5abe 52a8 ea3e 87d5 01bd d018 d3bd
00000280: 4e4e 21c0 bfc7 ab3d 3527 11be a810 02bd
00000290: e1ff fcbe 9a1e 3140 3227 043e 86dc 7fbf
000002a0: abfe 1740 0939 363f 9613 81bf 7a05 1c3d
000002b0: 343f 15be eeac 9c3f 6e5d 9dbf 7a46 493f
000002c0: 74d7 c3bf 1e5f 093e 8440 853f ae87 b2bd
000002d0: 3a08 3cbd 48f0 0f3e 66df d4bd ab40 2fbe
000002e0: 58f5 903e cb49 cbbf c539 37be ce83 c9be
000002f0: 073c 823f a033 9d3d 286f 39bf c6b1 abbd
00000300: 531e 313e 30da 32be 4916 0d3d 5715 213e
00000310: 0821 87bc 432c a53d a6dd 0e3e 5002 83bf
00000320: 0608 4240 a01d dbc0 d01b 25bd d795 883d
00000330: bc37 38be 1afd afbf 54f0 da3d f14c 5e3f
00000340: 06cd c13f dc7e 773f 8536 c0bf 8c76 033f
00000350: 61c4 b83e 6a8e d8bf 090d f03d 3a59 01bd
00000360: 5f35 5ebf 1475 8a3f 508d 753f 560f 2b3d
00000370: 12a3 043e cb49 943f e6f0 b63c c0f2 143d
00000380: 8fa7 21be 86f3 4b3d 4d64 38bd e455 bc3e
00000390: e85d 08bf 351a b03f fbdd 88bd 8f57 5c3f
000003a0: b667 10c0 2156 f9bf 58b9 813d 59c8 a63d
000003b0: 3a40 f43d 6c84 cf3d a97f 02be 774b a3bd
000003c0: 5682 02be 2e91 f1bd e34a 16bf d2e8 58be
000003d0: 07fa b2bf 27a9 0a3e c157 24be 0cac 5c3c
000003e0: 6183 12bf c3fd c43d 428f 0abf 85d1 9ebe
000003f0: 9d41 03bc a14f e6bf 67bd 773f 2082 07bf

network.0.bias f4 [128]
-10.743439 -9.995234 -5.1815977 -9.903228 -9.3270235 -9.156703 -8.266617 -10.399482
-6.694694 -7.9998174 -8.742676 -4.6774898 -9.951306 -9.482544 -9.3890085 -9.507348
-7.9334164 -10.511962 -3.8593054 -9.260496 -10.032712 -8.374445 -7.851833 -8.764041
-6.9761434 -7.889801 -5.6089997 -6.185377 -7.4442883 -8.217639 -10.079186 -8.361765
-4.484378 -7.7505093 -9.931364 -3.0667336 -11.052716 -8.977895 -9.208074 -8.676433
-9.8079 -7.7120366 -9.513322 -5.0353346 -9.62782 -9.87341 -8.187843 -8.970228
-9.550899 -8.837068 -10.401509 -7.7654657 -6.0153813 -10.31644 -6.3053155 -10.195621
-8.934293 -9.364872 -8.369182 -8.898371 -9.617017 -8.818438 -5.1490426 -6.7804446
-5.543912 -6.8793244 -6.668828 -6.277718 -7.2172008 -9.427904 -10.749404 -6.5251617
-5.693972 -7.968098 -10.389807 -9.289032 -5.879341 -5.656372 -9.51035 -7.347115
-9.368255 -6.4779086 -7.773537 -1.9289516 -8.673872 -7.666443 -7.291621 -9.05473
-8.781109 -5.0026135 -8.696804 -10.993941 -4.3200846 -7.7802463 -3.3387299 -10.155655
-8.0144005 -8.830421 -10.137082 -5.0413437 -10.232785 -6.1957927 -10.112991 -7.937045
-9.87147 -9.366702 -7.771124 -7.573375 -7.0802803 -8.025444 -7.850304 -6.0402026
-10.4660015 -9.752855 -9.188021 -9.89691 -11.174892 -7.047833 -6.1823664 -6.913913
-4.614611 -7.0827694 -3.1140714 -8.512429 -10.473725 -9.069394 -4.425102 -8.439207
00000000: 20e5 2bc1 7aec 1fc1 a6cf a5c0 9f73 1ec1
00000010: 7d3b 15c1 db81 12c1 1044 04c1 4764 26c1
00000020: ef3a d6c0 81fe ffc0 00e2 0bc1 ffad 95c0
00000030: 8d38 1fc1 80b8 17c1 6139 16c1 191e 18c1
00000040: 8cde fdc0 ff30 28c1 dcfe 76c0 fe2a 14c1
00000050: fd85 20c1 bafd 05c1 3742 fbc0 8339 0cc1
00000060: 913c dfc0 4079 fcc0 ed7c b3c0 9cee c5c0
00000070: 9c37 eec0 737b 03c1 5944 21c1 cac9 05c1
00000080: 0680 8fc0 2c04 f8c0 dee6 1ec1 5d45 44c0
00000090: edd7 30c1 75a5 0fc1 4554 13c1 abd2 0ac1
000000a0: 29ed 1cc1 01c9 f6c0 9136 18c1 7621 a1c0
000000b0: 8d0b 1ac1 7df9 1dc1 6801 03c1 0e86 0fc1
000000c0: 7bd0 18c1 a164 0dc1 956c 26c1 b27e f8c0
000000d0: 017e c0c0 2310 25c1 25c5 c9c0 4321 23c1
000000e0: ddf2 0ec1 84d6 15c1 2be8 05c1 ba5f 0ec1
000000f0: 4ddf 19c1 5218 0dc1 f5c4 a4c0 67f9 d8c0
00000100: ba67 b1c0 6d23 dcc0 0a67 d5c0 11e3 c8c0
00000110: 4ff3 e6c0 b2d8 16c1 8ffd 2bc1 20ce d0c0
00000120: 0535 b6c0 a9fa fec0 a63c 26c1 e09f 14c1
00000130: 9023 bcc0 0001 b5c0 652a 18c1 911b ebc0
00000140: 5fe4 15c1 074b cfc0 d1c0 f8c0 e3e7 f6bf
00000150: 2ec8 0ac1 8053 f5c0 f654 e9c0 2de0 10c1
00000160: 6c7f 0cc1 6915 a0c0 1c26 0bc1 2fe7 2fc1
00000170: 223e 8ac0 c7f7 f8c0 c0ad 55c0 907d 22c1
00000180: fc3a 00c1 6849 0dc1 7d31 22c1 b052 a1c0
00000190: 7db9 23c1 ef43 c6c0 d0ce 21c1 46fc fdc0
000001a0: 8bf1 1dc1 03de 15c1 0cad f8c0 1759 f2c0
000001b0: a891 e2c0 3868 00c1 b135 fbc0 5749 c1c0
000001c0: be74 27c1 b20b 1cc1 2202 13c1 be59 1ec1
000001d0: 5ccc 32c1 d987 e1c0 f2d5 c5c0 c63e ddc0
000001e0: e5aa 93c0 0ca6 e2c0 f24c 47c0 e932 08c1
000001f0: 6194 27c1 3d1c 11c1 709a 8dc0 fe06 07c1

network.3.weight f4 [64, 128]
-0.060806017 -0.06439843 -0.085266605 -0.59798235 -0.060084023 0.11206979 -0.24649991 -0.16609035
-0.31800002 0.14675213 -0.13462414 -0.2699036 -0.2246838 -0.34937152 -0.22538161 -0.6384847
-0.07423435 -0.3060975 -0.22292858 -0.18358858 -0.51230764 -0.5757672 -0.96449625 -0.3350941
-0.041997775 -0.06321095 0.024660507 -0.57618636 -1.1953039 -0.66356105 0.05296651 -0.45474964
0.0025038123 -0.4107077 -0.16068551 -0.6313543 -0.49268466 -0.29774988 -0.24670523 -0.55432004
-0.39222544 -0.35235104 -0.115349755 -0.86775696 -0.7246712 -0.79469097 -0.35781556 0.15791139
-0.3999016 -0.31538364 -0.41474986 -0.6061311 -0.18465653 0.09996243 -0.6713531 -0.0018046976
-0.33731264 -0.374825 -0.21174854 -0.40102342 -0.12766375 -0.18671156 -0.48572865 -0.14830017
-0.05655113 -0.19117995 -0.10021164 -0.055189442 -0.36002943 -0.11753408 0.2098401 -0.57368064
-0.9283001 -0.2069672 -0.37491435 -0.19855502 -0.2628316 -0.43221065 -0.20824787 -0.8092895
-0.43504637 -0.1798712 -0.39329857 -0.5328708 -0.36477527 -0.22591615 -0.29610732 -0.43696788
-0.56702244 -0.013544622 -0.57388115 -0.20187782 -0.36705396 -0.34347078 -0.50755656 -0.2657048
-0.3379187 0.105224825 -0.5580487 -0.27622503 -0.287087 -0.28930637 -0.15690559 0.2702545
-0.05522723 -0.054707404 -0.5049689 -0.14465511 -1.0113434 -0.041203998 -0.5636169 -0.41702983
-0.062676385 -0.021838564 0.016965713 -0.11527273 -0.30336997 -0.15308027 0.13406925 -0.66366416
-0.09452588 -0.1932252 -0.32032856 -0.42540553 -0.15919514 -0.009731192 -0.120852225 -0.3098873
-0.0806992 -0.47440937 -0.32286814 -0.2999626 -0.33880496 -0.105881855 -0.35245252 -0.09947534
-0.30603603 -0.48570162 -0.2086172 -0.20686176 -0.47518206 -0.3023161 -0.96439344 -1.2289163
-0.090190545 -0.2786361 -0.5976827 -5.6392387e-06 -0.026413899 -0.4205657 -0.43025252 -0.39559916
-0.28857785 -0.2587369 -0.05882889 0.029114699 -0.03619891 -0.7297967 -0.32405367 -1.1458653
-1.0875441 -0.26417843 -0.08874082 -0.5059026 -0.16549242 -0.30430475 -0.48123154 -0.7537644
-0.25875568 -1.5081445 -0.035819072 -0.41577995 -0.017801827 -0.71517307 -1.4850472 -0.33345374
-0.6991202 -0.039868783 -0.9362148 -0.04920702 -0.4522478 -0.23470508 -1.8821374 0.013598822
-0.66737944 -0.13875864 -0.38656306 -0.9683578 -0.30149326 -0.15384041 -0.1866671 -0.5856239
-0.6221188 -0.6392066 0.11638261 -0.118862934 -0.37440243 -0.19320154 0.025832433 -0.37367696
-0.11832947 -0.42981526 -0.41802093 -0.14266494 -0.09903101 -0.31425703 -0.45272246 -0.4770137
0.023612564 -0.10892623 -0.46435475 -0.5686714 -0.7040246 -1.1030954 -0.6665054 -0.7101794
-0.26342264 -0.20522922 -0.2409348 -0.54153603 -0.57763463 -0.32694256 -0.93269026 -0.53285164
-0.39029863 -0.4463307 -0.60353464 -0.56048524 -0.8486726 -0.049493067 -0.5901727 -0.09789841
0.022765202 -0.12665004 -0.60891324 -0.46257395 -0.11807727 -0.038817227 -0.3589592 -0.11718408
-0.8823233 -0.1111768 -0.43747127 -0.44115847 -0.35911846 -0.30209616 0.10498207 -0.24046043
-0.3231531 -0.14956619 -0.28688818 -1.0562632 -0.6932687 0.018597824 -0.8849854 -1.336622
00000000: bb0f 79bd 53e3 83bd 42a0 aebd 5f15 19bf
00000010: aa1a 76bd d984 e53d 796a 7cbe 9713 2abe
00000020: e6d0 a2be 3146 163e e9da 09be ce30 8abe
00000030: 8313 66be d3e0 b2be 70ca 66be bc73 23bf
00000040: 2e08 98bd d0b8 9cbe 6447 64be a5fe 3bbe
00000050: 9826 03bf 7b65 13bf 3ae9 76bf 7491 abbe
00000060: dc05 2cbd be74 81bd d504 ca3c f380 13bf
00000070: b8ff 98bf 23df 29bf 69f3 583d f2d4 e8be
00000080: 0017 243b 4848 d2be be8a 24be 6fa0 21bf
00000090: 2a41 fcbe ac72 98be 4ca0 7cbe ebe7 0dbf
000000a0: c6d1 c8be 5b67 b4be 7e3c ecbd 5225 5ebf
000000b0: 0d84 39bf de70 4bbf 9a33 b7be 86b3 213e
000000c0: e7bf ccbe f779 a1be 185a d4be 682b 1bbf
000000d0: 9a16 3dbe 1ab9 cc3d ccdd 2bbf 9a8b ecba
000000e0: 3eb4 acbe 10e9 bfbe 9cd4 58be f152 cdbe
000000f0: 49ba 02be 5131 3fbe 6db1 f8be 00dc 17be
00000100: 28a2 67bd adc4 43be c33b cdbd 530e 62bd
00000110: c755 b8be b5b5 f0bd 53e0 563e bcdc 12bf
00000120: 13a5 6dbf 36ef 53be c6f4 bfbe 0252 4bbe
00000130: dd91 86be b74a ddbe ee3e 55be 992d 4fbf
00000140: 66be debe 2830 38be 6e5e c9be 396a 08bf
00000150: d3c3 babe 9056 67be 619b 97be 41ba dfbe
00000160: 6228 11bf 43ea 5dbc e0e9 12bf 0fb9 4ebe
00000170: 7fee bbbe 67db afbe 3aef 01bf 760a 88be
00000180: ae03 adbe 1d80 d73d 48dc 0ebf 5e6d 8dbe
00000190: 11fd 92be f71f 94be dcab 20be cc5e 8a3e
000001a0: f335 62bd df14 60bd a445 01bf 7820 14be
000001b0: b373 81bf 86c5 28bd 3249 10bf ef84 d5be
000001c0: 7a5c 80bd cae6 b2bc aefb 8a3c 1c14 ecbd
000001d0: 4f53 9bbe 13c1 1cbe 7349 093e e5e5 29bf
000001e0: c996 c1bd d4dc 45be 1b02 a4be c1ce d9be
000001f0: 0d04 23be 946f 1fbc 5f81 f7bd 8ca9 9ebe
00000200: 9f45 a5bd c9e5 f2be f94e a5be b394 99be
00000210: d877 adbe 96d8 d8bd a874 b4be bab9 cbbd
00000220: c1b0 9cbe e2ad f8be bf9f 55be 92d3 53be
00000230: 104b f3be 2dc9 9abe 7de2 76bf 214d 9dbf
00000240: d2b5 b8bd 64a9 8ebe bc01 19bf b138 bdb6
00000250: f661 d8bc 6354 d7be 0f4a dcbe f98b cabe
00000260: 7ac0 93be 2a79 84be 90f6 70bd f381 ee3c
00000270: 4f45 14bd f5d3 3abf 5dea a5be b7ab 92bf
00000280: a534 8bbf 6542 87be bfbd b5bd d582 01bf
00000290: d876 29be d5cd 9bbe fb63 f6be b4f6 40bf
000002a0: a07b 84be e10a c1bf 05b7 12bd 1ce1 d4be
000002b0: 23d5 91bc 9515 37bf 0716 bebf 73ba aabe
000002c0: 8bf9 32bf 734d 23bd c6ab 6fbf 4d8d 49bd
000002d0: 068d e7be 8756 70be e1e9 f0bf 98cd 5e3c
000002e0: 61d9 2abf bf16 0ebe 98eb c5be 4ce6 77bf
000002f0: 535d 9abe 5788 1dbe a925 3fbe 73eb 15bf
00000300: 2d43 1fbf 0ba3 23bf 015a ee3d 696e f3bd
00000310: adb1 bfbe a0d6 45be 8a9e d33c 9652 bfbe
00000320: b956 f2bd bf10 dcbe d706 d6be c216 12be
00000330: c5d0 cabd 4ce6 a0be 3dcb e7be 243b f4be
00000340: 236f c13c b714 dfbd e8bf edbe 7394 11bf
00000350: f53a 34bf 3b32 8dbf 19a0 2abf 51ce 35bf
00000360: 55df 86be 9c27 52be 9db7 76be 1ba2 0abf
00000370: dddf 13bf 0465 a7be cac4 6ebf f768 08bf
00000380: 39d5 c7be 7585 e4be 3f81 1abf f67b 0fbf
00000390: 9c42 59bf 3eb9 4abd 8f15 17bf f67e c8bd
000003a0: 177e ba3c 8cb0 01be bde1 1bbf 7ed6 ecbe
000003b0: 7fd2 f1bd d0fe 1ebd 80c9 b7be 35fe efbd
000003c0: f1df 61bf aab0 e3bd 3cfc dfbe 86df e1be
000003d0: 60de b7be 59ac 9abe d700 d73d 423b 76be
000003e0: 5374 a5be e127 19be 02e3 92be a233 87bf
000003f0: 0f7a 31bf 775a 983c 678e 62bf 6e16 abbf

network.3.bias f4 [64]
-2.4771814 -2.1485562 -1.9235756 0.04210405 -2.141919 -2.2017865 -2.083126 -2.5519783
-1.5734735 -1.8882995 -2.2700045 -1.8803477 -2.2425659 -3.2340572 -2.0342925 -1.8656043
-1.6642405 -3.5583544 -1.4195051 -2.3268847 -2.2138982 -2.1740382 -1.8940432 -1.8688662
-1.9003648 -1.0911621 -2.4619386 -2.4132688 -2.6095133 -1.9275392 -2.96479 -2.5270922
-1.04478 -2.067457 -3.0765135 -1.8531629 -2.584344 -2.3817787 1.0569829 -1.3971037
-1.8585165 -2.714804 -1.7611055 -2.719127 -2.7784076 -2.47842 -3.180242 -1.951391
-1.21099 -2.0115855 -1.5069206 -2.4079976 -3.1611404 1.6546707 -3.6415608 -3.416844
-3.7528574 -1.2889512 -2.9239347 -1.5700778 -1.6610199 -2.3141372 1.1762298 -1.7752178
00000000: 248a 1ec0 f281 09c0 ba37 f6bf 4c75 2c3d
00000010: 3315 09c0 12ea 0cc0 f051 05c0 9d53 23c0
00000020: 9467 c9bf ccb3 f1bf c147 11c0 3caf f0bf
00000030: 3386 0fc0 cbfa 4ec0 d931 02c0 1fcc eebf
00000040: d505 d5bf 14bc 63c0 58b2 b5bf aeeb 14c0
00000050: 82b0 0dc0 7123 0bc0 0270 f2bf 0237 efbf
00000060: 273f f3bf 33ab 8bbf 6790 1dc0 ff72 1ac0
00000070: 4402 27c0 9bb9 f6bf 1fbf 3dc0 e1bb 21c0
00000080: 5abb 85bf 3751 04c0 99e5 44c0 7134 edbf
00000090: e465 25c0 106f 18c0 374b 873f 4bd4 b2bf
000000a0: dee3 edbf 59bf 2dc0 e86b e1bf 2d06 2ec0
000000b0: 6ed1 31c0 6f9e 1ec0 1689 4bc0 2ec7 f9bf
000000c0: b801 9bbf d1bd 00c0 c6e2 c0bf a21c 1ac0
000000d0: 2050 4ac0 40cc d33f 550f 69c0 92ad 5ac0
000000e0: d12e 70c0 5afc a4bf bf21 3bc0 4ff8 c8bf
000000f0: 4d9c d4bf d31a 14c0 b38e 963f 563a e3bf

network.6.weight f4 [5, 64]
0.039047644 -0.169149 -0.08184196 0.028932966 -0.17645752 0.018543994 0.19423771 -0.13628143
-0.15016983 0.23065545 -0.24768296 -0.18248616 0.006834911 0.05789272 0.13001876 -0.2747062
0.22673912 -0.0062759346 0.118263304 -0.09872073 -0.23441872 -0.18767387 -0.23189817 0.11443673
-0.05809191 -0.12014519 -0.20835955 0.22883286 0.21659802 -0.099807136 0.06340777 -0.08247459
0.036752496 0.29720297 0.27229294 0.0901528 0.04772149 -0.20805275 -0.09588242 0.13835388
-0.28369558 -0.13695142 0.28584945 0.16332535 -0.0752246 0.18587501 0.011936769 0.22705139
-0.121821746 0.06761704 0.04315537 -0.18975793 0.289478 -0.079370804 0.03481008 -0.16160823
-0.29373 -0.21930712 0.10118953 -0.12998337 0.30242875 -0.20121194 -0.113314085 -0.17694038
-0.047550626 0.23218323 0.20623735 0.062734656 -0.45042714 0.14596456 -0.13057514 0.09262877
0.044179007 0.06301328 -0.25861096 -0.219808 0.20011877 0.14498638 -0.13009581 -0.11834477
-0.06551449 0.48280796 -0.37871692 0.0067100157 0.21219635 -0.11698642 -0.31161925 0.2090351
-0.11013488 -0.29640374 -0.58013946 -0.10660894 -0.17292513 0.13331985 -0.19866444 -0.060479272
-0.46125582 0.370186 0.005877733 0.16787708 -0.17663467 0.23207457 0.06088734 -0.14229064
-0.10221848 -0.24871975 0.16352987 -0.30971944 -0.035817884 0.037843805 0.32464597 0.022310585
0.011102104 -0.21521418 -0.25197646 0.10049937 0.4158948 -0.23986845 -0.286442 -0.46599713
-0.7804141 0.2085828 0.17476521 -0.0654388 0.24102856 -0.12725124 -0.16405328 -0.38640872
0.06632583 -0.14562246 -0.33066586 -0.010708311 0.018077493 -0.18910244 0.24592215 0.2131152
0.12626776 -0.5814778 -0.19884832 0.3399969 -0.08610032 0.15525123 -0.2211672 -0.22249995
-0.009747398 -0.14341404 -0.03847612 0.41935438 0.14503597 -0.105872065 0.07587008 -0.042312775
0.214169 -0.22536246 0.14741866 0.077600375 0.022211118 -0.20043647 0.24958752 -0.06716764
0.09572614 -0.017534692 -0.013381727 0.08209771 -0.26174384 -0.13361093 0.21254024 -0.16182761
-0.20600657 0.1926604 0.234117 -0.37014157 0.26302698 -0.32284907 -0.062352944 -0.3041263
-0.031752687 -0.01627508 -0.20179658 0.3067272 -0.2579365 0.17487977 -0.13768907 -0.27634537
0.2626569 -0.24535014 -0.34297094 0.31384432 -0.081049986 0.47054777 -0.5361844 0.12448521
-0.23092377 0.14763942 -0.051628213 -0.1088736 0.017777383 0.05158075 0.22316606 -0.3919326
-0.18411236 -0.4637525 0.09374242 -0.11048099 0.08778834 0.03646491 0.09288264 0.1294175
-0.17757946 0.11515099 0.12790905 0.43906897 0.099701345 0.11758746 -0.044915937 0.06075191
-0.056955777 0.038563333 -0.16668326 -0.024952075 -0.106972694 -0.0435491 0.054157853 -0.031967916
0.027040482 0.22227749 0.12186378 -0.15907337 -0.33149135 -0.16848013 0.3566622 -0.112756126
0.08884613 0.106836684 -0.12157877 0.33255982 -0.034411304 0.12190837 -0.07326855 0.07513556
0.11562931 0.031483997 0.040353686 -0.1884831 0.15359575 0.19839785 0.10818742 0.3580021
0.24233682 0.025437305 0.07781113 0.055183172 -0.100284845 -0.20030884 -0.00067837955 0.13890389
00000000: 6cf0 1f3d 6535 2dbe c29c a7bd d404 ed3c
00000010: 48b1 34be 93e9 973c 40e6 463e 5c8d 0bbe
00000020: 1fc6 19be f130 6c3e 9aa0 7dbe a7dd 3abe
00000030: 64f7 df3b eb20 6d3d a323 053e 4ba6 8cbe
00000040: 4d2e 683e 5ba6 cdbb 0834 f23d 182e cabd
00000050: 760b 70be 942d 40be b776 6dbe ce5d ea3d
00000060: c8f1 6dbd ae0e f6bd 355c 55be 2953 6a3e
00000070: dfcb 5d3e af67 ccbd efdb 813d 70e8 a8bd
00000080: c989 163d fd2a 983e fb69 8b3e 08a2 b83d
00000090: 9c77 433d c80b 55be 015e c4bd a4ac 0d3e
000000a0: 8c40 91be fe3c 0cbe dc5a 923e c33e 273e
000000b0: 5b0f 9abd 0556 3e3e 7092 433c 2980 683e
000000c0: ae7d f9bd cd7a 8a3d afc3 303d e74f 42be
000000d0: 7636 943e 298d a2bd 0495 0e3d a17c 25be
000000e0: c763 96be 0c92 60be 753c cf3d 5c1a 05be
000000f0: f1d7 9a3e 810a 4ebe 3711 e8bd dc2f 35be
00000100: 72c4 42bd 71c1 6d3e e22f 533e 077b 803d
00000110: 639e e6be bc77 153e 7db5 05be 27b4 bd3d
00000120: 0cf5 343d 1b0d 813d a868 84be 5915 61be
00000130: efeb 4c3e 4f77 143e d637 05be be5e f2bd
00000140: 762c 86bd 9b32 f73e 2fe7 c1be b1df db3b
00000150: 004a 593e 9396 efbd 8f8c 9fbe 4c0d 563e
00000160: 658e e1bd 3bc2 97be 0584 14bf ca55 dabd
00000170: 4913 31be 0085 083e b16e 4bbe 1db9 77bd
00000180: b929 ecbe 0589 bd3e 009a c03b f8e7 2b3e
00000190: b8df 34be f5a4 6d3e 0165 793d a3b4 11be
000001a0: ec57 d1bd 64b0 7ebe 6074 273e 8c93 9ebe
000001b0: c6b5 12bd 1b02 1b3d ff37 a63e b0c4 b63c
000001c0: 99e5 353c 1b61 5cbe 0f03 81be 9dd2 cd3d
000001d0: 2af0 d43e 13a0 75be 87a8 92be 2d97 eebe
000001e0: 38c9 47bf bb96 553e a7f5 323e c704 86bd
000001f0: 31d0 763e 264e 02be 95fd 27be 5dd7 c5be
00000200: d6d5 873d 0e1e 15be 094d a9be e971 2fbc
00000210: 4017 943c 12a4 41be 04d3 7b3e df3a 5a3e
00000220: 564c 013e bbdb 14bf e59e 4bbe 1314 ae3e
00000230: 5d55 b0bd 2efa 1e3e a879 62be 07d7 63be
00000240: 8db3 1fbc 21db 12be 2399 1dbd 9eb5 d63e
00000250: 4f84 143e 74d3 d8bd c661 9b3d 2950 2dbd
00000260: 1e4f 5b3e 6bc5 66be ebf4 163e f2ec 9e3d
00000270: 17f4 b53c 383f 4dbe df93 7f3e 308f 89bd
00000280: 110c c43d eaa4 8fbc 083f 5bbc d822 a83d
00000290: 4a03 86be 4ed1 08be 26a4 593e 23b6 25be
000002a0: 63f3 52be c548 453e 5ebc 6f3e 3283 bdbe
000002b0: 79ab 863e 794c a5be cd65 7fbd 71b6 9bbe
000002c0: 1b0f 02bd 5153 85bc c3a3 4ebe 590b 9d3e
000002d0: 4110 84be af13 333e 5dfe 0cbe 247d 8dbe
000002e0: f77a 863e 113d 7bbe e399 afbe 34b0 a03e
000002f0: 89fd a5bd a3eb f03e 6143 09bf 1af2 fe3d
00000300: 4877 6cbe ca2e 173e 1b78 53bd 1ff9 debd
00000310: e0a1 913c 5646 533d a585 643e 64ab c8be
00000320: f387 3cbe f870 edbe 07fc bf3d db43 e2bd
00000330: 60ca b33d 3b5c 153d 4139 be3d 0586 043e
00000340: 64d7 35be 48d4 eb3d 97fa 023e a6cd e03e
00000350: 3830 cc3d b2d1 f03d c6f9 37bd ffd6 783d
00000360: 764a 69bd 96f4 1d3d 04af 2abe 4b68 ccbc
00000370: 8014 dbbd 8b60 32bd a0d4 5d3d caf0 02bd
00000380: 0084 dd3c b69c 633e b893 f93d 21e4 22be
00000390: 3cb9 a9be 0e86 2cbe 6e9c b63e afec e6bd
000003a0: f6f4 b53d 31cd da3d 4afe f8bd 4845 aa3e
000003b0: def2 0cbd 18ab f93d d20d 96bd ace0 993d
000003c0: 0fcf ec3d 5df5 003d e849 253d b701 41be
000003d0: 3448 1d3e ce28 4b3e 5e91 dd3d 0d4c b73e
000003e0: 2527 783e e561 d03c 715b 9f3d c007 623d
000003f0: 2462 cdbd c31d 4dbe 48d5 31ba d23c 0e3e

network.6.bias f4 [5]
0.15673938 -0.14673185 0.019473227 0.28226858 0.032190315
00000000: 4a80 203e e040 16be 5186 9f3c 8285 903e
00000010: fed9 033d

network.0.weight f4 [128, 43]
-0.005038105 -0.5673964 0.3710308 -0.7923021 -0.61347854 -0.16009825 -0.5641527 0.13742939
0.16417558 -0.16214162 -0.017676832 -0.11556667 0.8491648 0.61271906 -0.72684693 -0.8372196
-1.286908 1.9380729 1.5250514 -0.07991984 -0.13716109 -0.087766334 0.12985319 -0.0012772287
-0.091350935 0.16759537 -0.046019875 -0.95034593 1.0719754 -0.60603213 0.0682377 0.3813984
-0.1823939 -0.70239216 0.15984195 0.012097226 -0.59557813 0.1899816 -1.9764404 -2.614265
2.0406911 -1.9687468 0.03774549 -0.16519095 1.4991287 -1.3511434 -0.38049772 -0.41748193
-0.18459105 -4.6215763 0.082657486 0.09166626 -0.038023453 0.041999336 0.044109125 -0.23302096
-0.74788207 1.6177835 1.0727212 -1.3397266 0.39211568 0.2289651 -0.18591627 0.06141204
0.082058065 -0.081380576 0.11609866 -0.046586253 -0.096358 0.09693809 0.97769046 -1.3581884
0.8283684 0.15682924 -1.7987252 -0.06700719 0.9560962 -0.1232115 -0.7381963 2.071863
-2.5365825 0.44989198 0.29622826 2.41436 -0.37016034 0.09680121 0.08296055 -0.38607636
0.44751254 1.8800778 -1.4277339 -0.08080126 1.2987844 0.043407675 0.040695835 -0.0936578
-0.033666972 -0.004744466 -3.8164122 -0.7894445 -1.3189411 0.5228773 -1.9900577 2.952903
0.26454937 0.038169313 -0.18390925 0.15968771 0.09758513 -0.1756292 0.059935182 -0.15009323
0.016646305 -0.4433802 0.15442902 -1.8243971 -0.16686353 -0.48196298 0.13773379 -0.47465256
-0.09910957 -0.7079238 0.9735802 0.3447558 -0.80802226 -1.0625634 1.0766884 0.8932929
-0.036285426 0.011200433 1.2142831 -1.1958648 0.34451202 -0.88272214 -0.18180686 -2.6139734
-0.17965011 -0.026955638 0.058513746 -0.1342432 0.01246308 0.45858574 -3.227962 -0.7183471
-0.5132246 -1.5995587 0.949809 -1.3066348 0.08835625 -0.071242444 0.18370159 -0.017899908
-0.019534081 -0.120459475 0.0857287 -0.18668589 -0.86481875 0.35032335 0.47035146 -0.10307467
-2.0304565 0.08387708 -0.7936176 -0.031754166 -0.9527954 2.0081563 -0.84124637 -0.12346348
1.8806959 0.5759377 -0.94660443 0.03809116 -0.14574891 1.0856911 -1.0910769 0.046048373
-1.3154647 0.1341519 0.65865153 -0.08717285 -0.045906283 0.14056504 -0.10394172 -0.17114513
-0.17375173 -1.4355209 -0.14304358 0.45628825 0.51219046 -0.0909442 -1.2728666 -0.08383517
0.17296724 -0.17466044 0.03444508 0.15730797 -0.016495243 0.08065083 0.1395174 -0.9446964
2.6803484 -5.057226 -0.040309727 0.78350496 -0.17990011 -1.2961001 0.1069037 -0.1706321
1.6331214 1.0359826 -1.004502 0.58629006 0.3699075 -1.3240117 0.11721236 -0.031579234
-0.66523284 0.87893 1.2568276 -0.5328953 0.12952831 0.52968943 0.022331666 0.036364317
-0.15786575 0.04979279 -0.04501757 0.07515635 -0.5724785 1.7628887 0.2402397 0.5294837
-2.1046019 -1.9160334 0.0633418 0.08143682 0.11926313 0.10132679 -0.12744011 -0.07973378
-0.12745032 -0.11795269 -0.7607355 -0.21663105 -0.8355887 0.13541089 -0.9012504 0.013468754
-0.74597096 0.09618714 -0.21852247 -0.29782158 0.1572405 -1.3075229 0.71825856 -0.8501588
00000000: b016 a5bb e440 11bf c0f7 bd3e 4fd4 4abf
00000010: ee0c 1dbf ccf0 23be 506c 10bf 4aba 0c3e
00000020: a51d 283e 7408 26be 01cf 90bc 38ae ecbd
00000030: dd62 593f 28db 1c3f a412 3abf 0654 56bf
00000040: 67b9 a4bf c612 f83f e234 c33f 03ad a3bd
00000050: f573 0cbe d6be b3bd 3cf8 043e af68 a7ba
00000060: 3316 bbbd 1f9e 2b3e 567f 3cbd df49 73bf
00000070: 7d36 893f ec24 1bbf 35c0 8b3d a746 c33e
00000080: 77c5 3abe f9cf 33bf 9cad 233e 7233 463c
00000090: cf77 18bf 898a 423e 00fc fcbf 1e50 27c0
000000a0: af9a 0240 e5ff fbbf 049b 1a3d d127 29be
000000b0: 73e3 bf3f 44f2 acbf 99d0 c2be 31c0 d5be
000000c0: 7005 3dbe f4e3 93c0 5448 a93d 85bb bb3d
000000d0: 7bbe 1bbd 7f07 2c3d c5ab 343d 0c9d 6ebe
000000e0: 3375 3fbf 8813 cf3f ee4e 893f 297c abbf
000000f0: 63c3 c83e d475 6a3e d660 3ebe 318b 7b3d
00000100: 0f0e a83d dcaa a6bd 22c5 ed3d 3ad1 3ebd
00000110: 5857 c5bd 7a87 c63d ec49 7a3f 1ed9 adbf
00000120: f40f 543f d897 203e a13c e6bf 113b 89bd
00000130: b8c2 743f 5056 fcbd 6ffa 3cbf 6799 0440
00000140: 5e57 22c0 3e58 e63e 3bab 973e e084 1a40
00000150: a885 bdbe b63f c63d 39e7 a93d cdab c5be
00000160: 5d20 e53e 64a6 f03f fcbf b6bf 227b a5bd
00000170: 913e a63f 3fcc 313d adb0 263d a9cf bfbd
00000180: 61e6 09bd 7777 9bbb 1940 74c0 0919 4abf
00000190: 10d3 a8bf 49db 053f 36ba febf 5dfc 3c40
000001a0: 0473 873e 6d57 1c3d b552 3cbe 2d85 233e
000001b0: b6da c73d 24d8 33be 987e 753d 0ab2 19be
000001c0: d55d 883c bb02 e3be a422 1e3e d885 e9bf
000001d0: 46de 2abe dac3 f6be 160a 0d3e a905 f3be
000001e0: f5f9 cabd 7f3a 35bf 8d3c 793f d583 b03e
000001f0: 8cda 4ebf 1402 88bf edd0 893f d8ae 643f
00000200: 07a0 14bd 0582 373c a16d 9b3f 1912 99bf
00000210: e163 b03e 14fa 61bf 942b 3abe 574b 27c0
00000220: 33f6 37be 12d2 dcbc 1cac 6f3d 0d77 09be
00000230: f231 4c3c c0cb ea3e ee96 4ec0 98e5 37bf
00000240: b062 03bf 57be ccbf af26 733f cf3f a7bf
00000250: 1ff4 b43d 8fe7 91bd 451c 3c3e d4a2 92bc
00000260: f005 a0bc 75b3 f6bd 8792 af3d 962a 3fbe
00000270: c364 5dbf 955d b33e e8d1 f03e d018 d3bd
00000280: 00f3 01c0 bfc7 ab3d 862a 4bbf a810 02bd
00000290: 66ea 73bf a285 0040 ec5b 57bf 6cda fcbd
000002a0: a5ba f03f a770 133f ab54 72bf 7a05 1c3d
000002b0: 343f 15be edf7 8a3f 68a8 8bbf 389d 3c3d
000002c0: 2661 a8bf 1e5f 093e 639d 283f ae87 b2bd
000002d0: 3a08 3cbd 48f0 0f3e 66df d4bd ab40 2fbe
000002e0: f9eb 31be 26bf b7bf 047a 12be 9d9e e93e
000002f0: ea1e 033f f440 babd 4bed a2bf c6b1 abbd
00000300: 531e 313e 30da 32be 4916 0d3d 5715 213e
00000310: 0821 87bc 432c a53d a6dd 0e3e a0d7 71bf
00000320: d48a 2b40 ccd4 a1c0 d01b 25bd c893 483f
00000330: bc37 38be 9ce6 a5bf 54f0 da3d 2eba 2ebe
00000340: 1f0a d13f 149b 843f 8693 80bf 1b17 163f
00000350: 8464 bd3e 3779 a9bf 090d f03d 3a59 01bd
00000360: b34c 2abf 8e01 613f badf a03f d46b 08bf
00000370: 12a3 043e ba99 073f e6f0 b63c c0f2 143d
00000380: 8fa7 21be 86f3 4b3d 5864 38bd 93eb 993d
00000390: f38d 12bf 56a6 e13f 6501 763e 3e8c 073f
000003a0: ccb1 06c0 9540 f5bf 58b9 813d 59c8 a63d
000003b0: 3a40 f43d 6c84 cf3d a97f 02be 774b a3bd
000003c0: 5682 02be 2e91 f1bd 90bf 42bf 88d4 5dbe
000003d0: 24e9 55bf 27a9 0a3e 59b8 66bf 0cac 5c3c
000003e0: f4f7 3ebf c3fd c43d 5bc4 5fbe 127c 98be
000003f0: a703 213e e95c a7bf cbdf 373f 02a4 59bf

network.0.bias f4 [128]
-9.309297 -8.512863 -4.4338274 -8.5151 -8.338186 -7.544953 -7.157397 -8.316061
-5.764549 -7.0163603 -7.6674376 -2.6868477 -8.352657 -7.834891 -7.791456 -7.8484364
-6.768431 -9.063723 -3.3521101 -7.8870387 -8.955674 -7.64381 -6.7621837 -7.6628017
-6.1341867 -5.8687577 -4.9552236 -5.165179 -6.605574 -7.216465 -8.895102 -7.73176
-4.030573 -6.652898 -8.322359 -2.6974475 -9.396404 -7.682112 -7.6824307 -6.9214525
-8.075184 -6.9764414 -8.488261 -4.8452663 -8.502905 -8.216237 -6.4212365 -7.286083
-7.6678004 -7.1624722 -8.637896 -6.2082314 -5.7287254 -8.688202 -4.5523963 -8.580165
-7.3604116 -8.350655 -7.4015017 -7.5700917 -8.21436 -7.869197 -4.183931 -5.827071
-4.656676 -4.8512816 -5.8758283 -5.154603 -6.3307137 -7.972868 -9.452095 -4.1476264
-4.713665 -6.37011 -8.524848 -7.6157627 -4.810174 -5.4659534 -8.245412 -5.433889
-8.212702 -5.2192903 -6.9387264 -0.851889 -7.6794066 -6.723187 -6.19944 -7.208926
-7.0885653 -4.805157 -7.006249 -9.143615 -3.0697024 -5.663929 -3.2364373 -8.75995
-6.3031483 -7.269177 -8.736189 -4.8155394 -8.921074 -5.3347206 -8.596333 -7.224324
-8.536906 -8.4981785 -5.5569377 -5.9686413 -5.404955 -6.1746736 -6.011381 -5.1715326
-8.665685 -8.560181 -8.481887 -8.741759 -9.760961 -6.806392 -4.409262 -5.891206
-4.0507407 -6.232034 -2.9834738 -6.825038 -8.733532 -8.217759 -3.7012181 -7.227809
00000000: e1f2 14c1 b034 08c1 eae1 8dc0 d93d 08c1
00000010: 3669 05c1 4170 f1c0 6509 e5c0 960e 05c1
00000020: 2f77 b8c0 0686 e0c0 a65b f5c0 50f5 2bc0
00000030: 7ca4 05c1 6db7 fac0 9c53 f9c0 6426 fbc0
00000040: fd96 d8c0 0205 11c1 f988 56c0 9f62 fcc0
00000050: 714a 0fc1 179a f4c0 cf63 d8c0 ac35 f5c0
00000060: 424b c4c0 ddcc bbc0 3191 9ec0 2549 a5c0
00000070: dd60 d3c0 48ed e6c0 5652 0ec1 946a f7c0
00000080: 74fa 80c0 8ae4 d4c0 6228 05c1 fba2 2cc0
00000090: ac57 16c1 ddd3 f5c0 79d6 f5c0 8a7c ddc0
000000a0: f433 01c1 023f dfc0 ebcf 07c1 6c0c 9bc0
000000b0: e60b 08c1 b575 03c1 c57a cdc0 9827 e9c0
000000c0: 9f5e f5c0 f932 e5c0 d234 0ac1 d5a9 c6c0
000000d0: b851 b7c0 e002 0bc1 3bad 91c0 5b48 09c1
000000e0: 7e88 ebc0 489c 05c1 1ad9 ecc0 313e f2c0
000000f0: 056e 03c1 76d0 fbc0 c3e2 85c0 5e77 bac0
00000100: 7d03 95c0 b33d 9bc0 c906 bcc0 82f2 a4c0
00000110: 3595 cac0 bc21 ffc0 c83b 17c1 5bb9 84c0
00000120: 58d6 96c0 f1d7 cbc0 c765 08c1 54b4 f3c0
00000130: f2ec 99c0 17e9 aec0 35ed 03c1 6be2 adc0
00000140: 3a67 03c1 6d04 a7c0 0c0a dec0 6615 5abf
00000150: b3bd f5c0 5924 d7c0 d061 c6c0 86af e6c0
00000160: 87d5 e2c0 d9c3 99c0 3133 e0c0 3f4c 12c1
00000170: 0176 44c0 e83e b5c0 ca21 4fc0 c128 0cc1
00000180: 64b3 c9c0 199d e8c0 6ec7 0bc1 e618 9ac0
00000190: b8bc 0ec1 08b6 aac0 948a 09c1 aa2d e7c0
000001a0: 2b97 08c1 8af8 07c1 6fd2 b1c0 1cff bec0
000001b0: 64f5 acc0 ed96 c5c0 3c5d c0c0 327d a5c0
000001c0: a5a6 0ac1 80f6 08c1 cfb5 07c1 3fde 0bc1
000001d0: e52c 1cc1 f7cd d9c0 ad18 8dc0 c284 bcc0
000001e0: ab9f 81c0 d36c c7c0 3cf1 3ec0 b666 dac0
000001f0: 8cbc 0bc1 f17b 03c1 c2e0 6cc0 364a e7c0

network.3.weight f4 [64, 128]
-0.057149358 -0.06434204 -0.085405536 -0.5906861 -0.059448466 0.112015106 -0.24563326 -0.16449028
-0.31266555 0.14668988 -0.134523 -0.2669796 -0.21854766 -0.33846635 -0.22462054 -0.62980074
-0.07419264 -0.30399644 -0.2220179 -0.17853348 -0.50618374 -0.56645876 -0.9436385 -0.32915503
-0.041151017 -0.016668314 0.02304629 -0.5698152 -1.1791803 -0.65088946 0.053450752 -0.44935718
0.0043768603 -0.40208623 -0.15776898 -0.62467283 -0.48618707 -0.29292533 -0.2426603 -0.5392345
-0.3876243 -0.34694272 -0.114936285 -0.8568611 -0.70731586 -0.77903545 -0.35097972 0.15753952
-0.39528272 -0.3113258 -0.40905425 -0.5997907 -0.18221864 0.099152215 -0.6615887 -0.00094561244
-0.3305083 -0.36961618 -0.20961067 -0.39226133 -0.12749684 -0.18228357 -0.47901815 -0.14716966
-0.062453195 -0.19022687 -0.09755353 -0.05410594 -0.35605866 -0.113861226 0.2073557 -0.56549335
-0.8685436 -0.2059202 -0.37197188 -0.19659963 -0.25965008 -0.4252185 -0.20680715 -0.79060155
-0.42346898 -0.1796798 -0.38995677 -0.5157493 -0.35685986 -0.21982515 -0.2919027 -0.41820163
-0.55839616 -0.01440417 -0.5567159 -0.1994285 -0.36306682 -0.3373542 -0.5007999 -0.2635129
-0.3341644 0.101689726 -0.5493918 -0.273905 -0.27443388 -0.27554372 -0.15628123 0.2629234
-0.054538935 -0.054556675 -0.49746495 -0.14391221 -0.9972301 -0.033315867 -0.55703354 -0.4103446
-0.06176298 -0.021096721 0.0188251 -0.11216532 -0.3016485 -0.1518044 0.13640513 -0.64948994
-0.094325505 -0.19107156 -0.3153497 -0.4203235 -0.15095854 -0.009658707 -0.117419995 -0.30271095
-0.0795604 -0.4696388 -0.31758144 -0.29583973 -0.33594546 -0.105110005 -0.34619543 -0.098685786
-0.3028193 -0.47747213 -0.20585355 -0.20399284 -0.47115263 -0.29983214 -0.95149755 -1.2101531
-0.09230545 -0.27687243 -0.59089446 0.018895915 -0.025559155 -0.41518974 -0.42450947 -0.39192605
-0.2830971 -0.25554824 -0.060015354 0.028356804 -0.020529123 -0.7189548 -0.30260056 -1.1307527
-1.0725533 -0.26278737 -0.08665038 -0.48814008 -0.16510843 -0.30193162 -0.47491434 -0.742561
-0.25289768 -1.485523 -0.033494756 -0.41113085 -0.017089227 -0.7066156 -1.4669383 -0.32728487
-0.6878038 -0.038806133 -0.9221686 -0.049079232 -0.4436493 -0.23099679 -1.8542551 0.023666462
-0.65864545 -0.1362732 -0.37952355 -0.95621675 -0.29562983 -0.15022485 -0.18668643 -0.57828575
-0.61476743 -0.6294736 0.115024984 -0.11531173 -0.37157732 -0.18767391 0.025032751 -0.3694264
-0.11797803 -0.42405283 -0.41374508 -0.14269592 -0.09835222 -0.30759317 -0.44160447 -0.47016492
0.024643494 -0.10859752 -0.45542407 -0.55970883 -0.6891034 -1.0880238 -0.6598967 -0.7004319
-0.26206657 -0.20379221 -0.23564386 -0.534395 -0.56787384 -0.32135507 -0.9164833 -0.5277103
-0.3868204 -0.4421822 -0.5940041 -0.5505052 -0.8361127 -0.046133008 -0.58233994 -0.089872964
0.02474566 -0.12441671 -0.60141486 -0.45779884 -0.11610326 -0.03358159 -0.35404676 -0.116091214
-0.8694729 -0.10758971 -0.43319798 -0.43840474 -0.35553285 -0.297202 0.10577341 -0.24258782
-0.31972563 -0.14598861 -0.28449646 -1.041964 -0.6812241 0.028774947 -0.8697219 -1.3102924
00000000: 7215 6abd c2c5 83bd 19e9 aebd 3437 17bf
00000010: 3c80 73bd 2d68 e53d 4987 7bbe 2470 28be
00000020: b315 a0be df35 163e 66c0 09be 8db1 88be
00000030: f5ca 5fbe 764b adbe ed02 66be 9f3a 21bf
00000040: 50f2 97bd 6ca5 9bbe a958 63be 7bd1 36be
00000050: 4295 01bf 7103 11bf 4b92 71bf 0287 a8be
00000060: f88d 28bd fd8b 88bc 93cb bc3c 69df 11bf
00000070: 61ef 96bf b1a0 26bf 2def 5a3d 2512 e6be
00000080: c46b 8f3b 3fde cdbe 318e 21be 8fea 1fbf
00000090: 83ed f8be 4ffa 95be f17b 78be 460b 0abf
000000a0: b176 c6be 7aa2 b1be b763 ebbd 405b 5bbf
000000b0: a712 35bf de6e 47bf 9db3 b3be 0a52 213e
000000c0: 7f62 cabe 1866 9fbe 8f6f d1be e28b 19bf
000000d0: 8697 3abe 5110 cb3d e15d 29bf fae2 77ba
000000e0: 6238 a9be 553e bdbe 2ea4 56be 7ad6 c8be
000000f0: 888e 02be 8ba8 3abe de41 f5be a5b3 16be
00000100: ecce 7fbd d5ca 42be 25ca c7bd 319e 5dbd
00000110: 524d b6be 1330 e9bd 0d55 543e 2cc4 10bf
00000120: e058 5ebf bfdc 52be 1973 bebe 6a51 49be
00000130: dbf0 84be 3db6 d9be 41c5 53be dd64 4abf
00000140: edd0 d8be fbfd 37be 6aa8 c7be 2508 04bf
00000150: 56b6 b6be d819 61be 4574 95be 861e d6be
00000160: 0df3 0ebf 78ff 6bbc ef84 0ebf fc36 4cbe
00000170: e5e3 b9be b1b9 acbe 6c34 00bf 2aeb 86be
00000180: 9917 abbe b442 d03d f1a4 0cbf 473d 8cbe
00000190: 9982 8cbe 1114 8dbe 3008 20be e59d 863e
000001a0: 3864 5fbd d276 5fbd bab3 febe b95d 13be
000001b0: 794a 7fbf 3876 08bd c099 0ebf b018 d2be
000001c0: 2efb 7cbd 08d3 acbc 1937 9a3c eeb6 e5bd
000001d0: ac71 9abe 9d72 1bbe c9ad 0b3e f944 26bf
000001e0: bb2d c1bd 43a8 43be 8475 a1be a434 d7be
000001f0: e094 1abe 8e3f 1ebc e579 f0bd eefc 9abe
00000200: 90f0 a2bd 7f74 f0be 099a a2be 4e78 97be
00000210: 0b01 acbe ea43 d7bd 8740 b1be c61b cabd
00000220: 220b 9bbe 3a77 f4be 46cb 52be 80e3 50be
00000230: eb3a f1be 9983 99be 5895 73bf 4ce6 9abf
00000240: a40a bdbd 39c2 8dbe dc44 17bf 9bcb 9a3c
00000250: 6f61 d1bc c093 d4be 4e59 d9be 88aa c8be
00000260: 1af2 90be 38d7 82be a9d2 75bd 874c e83c
00000270: b12c a8bc 6c0d 38bf 76ee 9abe 81bc 90bf
00000280: 6d49 89bf 118c 86be c175 b1bd 7fed f9be
00000290: 2f12 29be c896 9abe f927 f3be 7a18 3ebf
000002a0: ce7b 81be 9e25 bebf cc31 09bd be7f d2be
000002b0: b5fe 8bbc c3e4 34bf a2c4 bbbf e291 a7be
000002c0: e913 30bf 2ef3 1ebd 3e13 6cbf 4e07 49bd
000002d0: 0026 e3be 6c8a 6cbe 3b58 edbf 2be0 c13c
000002e0: fd9c 28bf 348b 0bbe e950 c2be 9fca 74bf
000002f0: cb5c 97be 8bd4 19be ba2a 3fbe 890a 14bf
00000300: 6661 1dbf 2f25 21bf 3892 eb3d 8e28 ecbd
00000310: 623f bebe 972d 40be 7c11 cd3c 7525 bdbe
00000320: 779e f1bd 741d d9be 65d6 d3be e11e 12be
00000330: e46c c9bd da7c 9dbe fb19 e2be 75b9 f0be
00000340: 27e1 c93c 6068 debd 582d e9be 1449 0fbf
00000350: 1569 30bf 5d44 8bbf fdee 28bf 814f 33bf
00000360: 972d 86be e8ae 50be a04c 71be 1cce 08bf
00000370: 2e60 11bf a788 a4be a69e 6abf 0618 07bf
00000380: 530d c6be b565 e2be a710 18bf e9ed 0cbf
00000390: 7b0b 56bf f7f5 3cbd 3b14 15bf 510f b8bd
000003a0: 69b7 ca3c 30ce febd 53f6 19bf 9c64 eabe
000003b0: 8cc7 edbd d98c 09bd 9e45 b5be 3bc1 edbd
000003c0: c795 5ebf fe57 dcbd 20cc ddbe 9676 e0be
000003d0: 6708 b6be dc2a 98be bb9f d83d f168 78be
000003e0: 14b3 a3be 0a7e 15be 85a9 91be 145f 85bf
000003f0: b464 2ebf 70b9 eb3c 18a6 5ebf a9b7 a7bf

network.3.bias f4 [64]
-2.378112 -2.077075 -1.7795861 -0.0031451734 -2.0599236 -2.043099 -2.0156264 -1.947189
-1.3622208 -1.6433617 -1.9193765 -1.8209465 -1.9890882 -2.8639393 -1.837556 -1.748118
-1.6005539 -3.3536222 -1.3686912 -2.0284822 -2.0816236 -2.1055045 -1.6724805 -1.7822994
-1.4007456 -0.9697855 -2.1571 -2.1455746 -2.3161895 -1.8362322 -2.3526888 -2.097811
-0.12119205 -1.8712672 -2.9695961 -1.7718662 -2.2146502 -2.2461364 0.7979798 -1.3625773
-1.5278834 -2.566639 -1.626771 -2.604548 -2.534133 -2.2516212 -3.0381699 -1.7672454
-1.1786368 -1.8699634 -1.4504762 -2.133099 -2.2242305 2.1888723 -2.7769668 -2.9027293
-3.3293831 -1.1742738 -2.804378 -1.3797277 -1.5956917 -2.114623 0.9521461 -1.4549383
00000000: fd32 18c0 ccee 04c0 7ac9 e3bf 411f 4ebb
00000010: cad5 03c0 22c2 02c0 0600 01c0 7d3d f9bf
00000020: 405d aebf ad59 d2bf 21ae f5bf c614 e9bf
00000030: 719a febf c84a 37c0 0935 ebbf 55c2 dfbf
00000040: f3de ccbf bfa1 56c0 4631 afbf a7d2 01c0
00000050: 5239 05c0 96c0 06c0 d713 d6bf 6322 e4bf
00000060: a24b b3bf dd43 78bf ed0d 0ac0 1851 09c0
00000070: 733c 14c0 a809 ebbf 7492 16c0 8942 06c0
00000080: 8a33 f8bd af85 efbf dd0d 3ec0 83cc e2bf
00000090: d4bc 0dc0 b3c0 0fc0 6748 4c3f ef68 aebf
000000a0: af91 c3bf d043 24c0 083a d0bf eab0 26c0
000000b0: 3c2f 22c0 901a 10c0 6071 42c0 1935 e2bf
000000c0: 92dd 96bf f65a efbf 34a9 b9bf b284 08c0
000000d0: cb59 0ec0 7c16 0c40 d3b9 31c0 51c6 39c0
000000e0: 9d14 55c0 9b4e 96bf ee7a 33c0 eb9a b0bf
000000f0: a03f ccbf fc55 07c0 d9bf 733f 6b3b babf

network.6.weight f4 [5, 64]
0.0117111895 -0.15894236 -0.020030366 0.0257737 -0.15910272 -0.010362877 0.17688347 0.012508746
-0.16874194 0.055203214 0.019037563 -0.16283919 0.05147276 -0.012689305 0.085405 -0.2098777
0.19923487 -0.0016935893 0.093175456 -0.058085967 -0.18124077 -0.17217618 -0.13575748 0.088756606
-0.011728026 -0.1232713 -0.13676095 0.1544216 0.1248684 -0.10936855 0.09995596 -0.088502616
0.032326955 0.16009739 0.23965028 0.061651785 0.020181814 -0.14950211 -0.10319518 0.11764365
-0.12170872 -0.1281634 0.19390023 0.13662933 0.03316219 0.046079177 0.014045366 0.15444994
-0.11795818 0.0023219695 0.049472958 -0.07999556 -0.026170926 -0.077989824 0.05342086 0.065958284
-0.099996775 -0.1557716 0.08170504 -0.030253097 0.26366425 -0.117401615 -0.09005809 -0.08211586
-0.047550626 0.22933206 0.20646048 0.064653136 -0.44427755 0.14337237 -0.12822504 0.0929554
0.04227012 0.06283644 -0.2563779 -0.21772474 0.19883284 0.14354657 -0.13017993 -0.11903383
-0.06658625 0.47516966 -0.3732967 0.0050518867 0.21157217 -0.11762496 -0.30848205 0.2081998
-0.11194284 -0.29423866 -0.57524604 -0.107582144 -0.17360361 0.13194458 -0.19861163 -0.060641915
-0.45030448 0.36587152 0.0020708074 0.16463213 -0.17741248 0.23091522 0.06454584 -0.14103727
-0.10007243 -0.2472181 0.16250125 -0.3038556 -0.036506593 0.034433197 0.3224085 0.01698255
0.009472779 -0.21355863 -0.24509571 0.10049937 0.41424066 -0.23313412 -0.28333575 -0.46003866
-0.7698738 0.2077161 0.17449653 -0.066747025 0.23824438 -0.12245636 -0.16136685 -0.3842076
0.06632588 -0.14825982 -0.32592 -0.009983397 0.017415196 -0.18849064 0.24336414 0.2079011
0.12733282 -0.57671344 -0.19279578 0.3378459 -0.085020065 0.15153761 -0.2181282 -0.21870404
-0.008812264 -0.14089769 -0.04006267 0.41468278 0.14465119 -0.09999189 0.07396568 -0.044746645
0.21130212 -0.22517844 0.1459286 0.07733195 0.023325708 -0.20150773 0.24907379 -0.06453546
0.09689464 -0.01849933 -0.009986987 0.08556707 -0.2554998 -0.13248366 0.21075839 -0.16240469
-0.20678236 0.19277316 0.2334161 -0.3689014 0.26302698 -0.318352 -0.06184453 -0.2984171
-0.03461389 -0.016452847 -0.20201182 0.30272397 -0.2577504 0.17461479 -0.1347448 -0.2745812
0.2605398 -0.24530183 -0.3413386 0.31270155 -0.082871735 0.46658528 -0.5240531 0.12461002
-0.23092377 0.14512213 -0.051583525 -0.109521024 0.017538594 0.050889883 0.21621373 -0.38744736
-0.18452832 -0.45344403 0.08948115 -0.109898925 0.08570526 0.037709065 0.09058162 0.124502726
-0.17219174 0.11090252 0.12678203 0.42750016 0.09727522 0.11740326 -0.042486466 0.060089372
-0.05993721 0.038636062 -0.16584753 -0.02308603 -0.106345035 -0.04393587 0.056268323 -0.028089216
0.029849019 0.21546216 0.12431306 -0.15848085 -0.32357723 -0.16954213 0.3492681 -0.11291315
0.085801624 0.10756643 -0.12360699 0.32687953 -0.035158698 0.11963174 -0.0745789 0.0780155
0.11642693 0.030512732 0.041077502 -0.18968454 0.15503798 0.19848393 0.10793633 0.35266683
0.23738521 0.024748769 0.07989185 0.054917537 -0.100205 -0.19445223 -0.0017645473 0.13977306
00000000: 4ae0 3f3c c9c1 22be b916 a4bc 5e23 d33c
00000010: d3eb 22be 0ec9 29bc f120 353e 7cf1 4c3c
00000020: b0ca 2cbe c41c 623d aaf4 9b3c 51bf 26be
00000030: 1ad5 523d cde6 4fbc d1e8 ae3d 2eea 56be
00000040: 3a04 4c3e 6dfb ddba c6d2 be3d 8deb 6dbd
00000050: 2e97 39be f44e 30be 0204 0bbe 06c6 b53d
00000060: e826 40bc aa75 fcbd 100b 0cbe b220 1e3e
00000070: 01bb ff3d 9efc dfbd b6b5 cc3d dc40 b5bd
00000080: 4569 043d 92f0 233e e266 753e 9586 7c3d
00000090: 5554 a53c 1517 19be ff57 d3bd 27ef f03d
000000a0: 6c42 f9bd 443d 03be c88d 463e 8fe8 0b3e
000000b0: 14d5 073d 85bd 3c3d 891e 663c 2028 1e3e
000000c0: 0f94 f1bd 2f2c 183b 28a4 4a3d b6d4 a3bd
000000d0: 6964 d6bc 21b9 9fbd d5cf 5a3d 2315 873d
000000e0: 1ccb ccbd 9782 1fbe f954 a73d 58d5 f7bc
000000f0: 00ff 863e 4270 f0bd 6070 b8bd 5c2c a8bd
00000100: 72c4 42bd 06d6 6a3e 606a 533e dd68 843d
00000110: 5978 e3be 35d0 123e 6d4d 03be 675f be3d
00000120: 6f23 2d3d 64b0 803d f743 83be 3cf3 5ebe
00000130: d69a 4b3e dffd 123e e34d 05be 02c8 f3bd
00000140: 5f5e 88bd 7049 f33e bf20 bfbe 4c8a a53b
00000150: 60a6 583e 5be5 f0bd 5cf1 9dbe 5432 553e
00000160: 4a42 e5bd 73a6 96be 5343 13bf 0754 dcbd
00000170: 25c5 31be 7b1c 073e d960 4bbe a863 78bd
00000180: 4f8e e6be 8353 bb3e 62b6 073b 5395 283e
00000190: 9eab 35be 0a75 6c3e 9c30 843d 136c 10be
000001a0: c6f2 ccbd be26 7dbe ba66 263e f692 9bbe
000001b0: f087 15bd d309 0d3d ba12 a53e fd1e 8b3c
000001c0: b733 1b3c 1daf 5abe 5ffa 7abe 9dd2 cd3d
000001d0: 5a17 d43e b6ba 6ebe 6211 91be 308a ebbe
000001e0: 7316 45bf 88b3 543e 38af 323e aab2 88bd
000001f0: 56f6 733e 66ca fabd 5a3d 25be dcb6 c4be
00000200: ddd5 873d 6cd1 17be fcde a6be 6791 23bc
00000210: 50aa 8e3c b103 41be 7334 793e 07e4 543e
00000220: 8963 023e 7ea3 13bf 426c 45be 23fa ac3e
00000230: 001f aebd ad2c 1b3e 005d 5fbe f4f3 5fbe
00000240: 5061 10bc 7c47 10be c118 24bd 4d51 d43e
00000250: 711f 143e 8cc8 ccbd 527b 973d 4248 37bd
00000260: 955f 583e 2d95 66be 4f6e 153e 3760 9e3d
00000270: 8e15 bf3c 0b58 4ebe 330d 7f3e 2b2b 84bd
00000280: b270 c63d e88b 97bc 76a0 23bc ca3d af3d
00000290: dfd0 82be cca9 07be 0cd1 573e 6a4d 26be
000002a0: c1be 53be 5466 453e a104 6f3e a5e0 bcbe
000002b0: 79ab 863e 09ff a2be b150 7dbd 20ca 98be
000002c0: 4bc7 0dbd 1fc8 86bc 30dc 4ebe a3fe 9a3e
000002d0: dcf7 83be 38ce 323e 8afa 09be e895 8cbe
000002e0: 7965 853e 6730 7bbe efc3 aebe 6b1a a03e
000002f0: a8b8 a9bd 44e4 ee3e 5828 06bf 8a33 ff3d
00000300: 4877 6cbe e59a 143e 3f49 53bd 8f4c e0bd
00000310: 19ad 8f3c e971 503d 2267 5d3e 805f c6be
00000320: fef4 3cbe d129 e8be e541 b73d b012 e1bd
00000330: 3d86 af3d d274 1a3d db82 b93d 49fb fe3d
00000340: 0853 30be dc20 e33d 26d3 013e 4de1 da3e
00000350: 3b38 c73d 1f71 f03d 4a06 2ebd 4620 763d
00000360: b880 75bd d940 1e3d efd3 29be ea1e bdbc
00000370: 6dcb d9bd 19f6 33bd 9d79 663d 5b1b e6bc
00000380: ee85 f43c 1da2 5c3e d897 fe3d ce48 22be
00000390: eaab a5be 749c 2dbe 45d3 b23e 023f e7bd
000003a0: c3b8 af3d ca4b dc3d a925 fdbd c15c a73e
000003b0: 9102 10bd 7c01 f53d d3bc 98bd 97c6 9f3d
000003c0: 3e71 ee3d d6f5 f93c e240 283d aa3c 42be
000003d0: 47c2 1e3e 5f3f 4b3e b90d dd3d bf90 b43e
000003e0: 1c15 733e eebd ca3c 579e a33d 36f1 603d
000003f0: 4738 cdbd 7c1e 47be 6248 e7ba ab20 0f3e

network.6.bias f4 [5]
0.09574186 -0.14350939 0.019987745 0.27884468 0.03346382
00000000: 4f14 c43d 20f4 12be 57bd a33c bbc4 8e3e
00000010: 5c11 093d
