experiments/checkpoints/20251210_110803/checkpoint_ep219.pt (torch, 246605 bytes, 24 tensors)

network.0.weight f4 [128, 43]
-0.005038105 -0.8140372 0.6176653 -1.5634402 -1.9119979 -0.16009825 1.3844858 0.13742939
0.16417558 -0.16214162 -0.017676832 -0.11556667 1.1220182 -0.45420974 0.13091601 -0.596126
-1.6388303 1.8964678 0.8482228 -0.07991984 -0.13716109 -0.087766334 0.12985319 -0.0012772282
-0.091350935 0.16759537 -0.046019875 -1.6111324 2.4391177 -1.1582326 0.06823768 1.5960264
-0.1823939 -1.3631716 0.15984195 0.19120394 -0.8310387 1.6157072 -2.3801806 -3.0203485
2.9404902 -2.271599 0.03774549 -0.16519095 1.4895657 -1.3415757 -0.96894526 -0.33705482
-0.18459105 -4.558616 0.082657486 0.09166626 -0.038023453 0.041999325 0.044109125 -2.0976655
-3.5189285 -0.5630738 0.6665241 -1.9984518 -0.020933336 0.2702049 -0.18591627 0.06141204
0.082058065 -0.081380576 0.11609866 -0.046586253 -0.096358 0.09693809 1.0580561 -1.5621613
1.5041026 0.15682924 -0.5913707 -0.06700719 1.0364605 -0.1232115 -2.1244674 1.69695
-1.6411345 -1.313476 -0.18069085 3.1449192 -1.4707402 0.09680121 0.08296055 -1.1928192
1.2542585 4.733819 -6.2339067 -0.08080126 6.0225844 0.043407675 0.040695835 -0.0936578
-0.033666972 -0.004744466 -8.316222 -3.6135602 -2.840081 -0.290538 -2.2989142 5.1007977
-3.8854716 0.038169313 -0.18390925 0.15968771 0.09758513 -0.1756292 0.059935182 -0.15009323
0.016646305 -0.24169485 -1.421243 -8.787859 -0.16686353 0.13681099 0.13773379 -0.27296954
-0.09910957 0.338402 3.0283444 0.11098044 -2.090698 -6.1783247 1.8577669 -0.8004524
-0.036285426 0.011200433 0.95247996 -0.9340633 -0.73971915 -0.5754459 -0.18180686 -3.2820542
-0.17965011 -0.026955638 0.058513746 -0.13424315 0.01246308 -0.8307656 -6.528805 -1.4500177
1.0164942 -3.2357311 3.420964 0.8999909 0.08835625 -0.071242444 0.18370159 -0.017899908
-0.019534081 -0.120459475 0.08572864 -0.18668589 -0.92447466 1.1953418 -0.99028033 -0.10307467
1.7794648 0.08387708 -0.8532725 -0.031754166 -1.5911372 0.17352591 -0.23925799 -1.5980891
2.5128021 0.0901897 -1.1906534 0.03809116 -0.14574891 0.93911004 -0.94449633 2.273939
-1.5138209 0.1341519 1.7863636 -0.08717285 -0.045906283 0.14056504 -0.10394172 -0.17114513
-0.27220216 -3.5720146 0.34400985 0.44948366 0.16508591 0.057932522 1.3219726 -0.08383517
0.17296724 -0.17466044 0.03444508 0.15730797 -0.016495243 0.08065083 0.1395174 -0.7998723
3.9283638 -6.236867 -0.040309727 1.7201128 -0.17990011 -1.1512738 0.1069037 1.7846041
0.7052565 1.3677185 -3.4786139 0.05906142 0.15428919 -1.4093302 0.11721236 -0.031579234
-0.8680019 1.081698 0.9591875 0.041762672 0.12952831 1.158502 0.022331666 0.036364317
-0.15786575 0.04979279 -0.04501753 0.3678428 -0.5326829 1.3757998 -0.066829644 0.86071104
-2.25633 -1.947941 0.0633418 0.08143682 0.11926313 0.10132679 -0.12744011 -0.07973378
-0.12745032 -0.11795269 -0.5870802 -0.21182564 -1.3982552 0.13541089 -0.160491 0.013468754
-0.5723172 0.09618714 -0.54124844 -0.31019226 -0.008011249 -1.7993051 0.9677338 -0.5293293
00000000: b016 a5bb be64 50bf 501f 1e3f cf1e c8bf
00000010: 59bc f4bf ccf0 23be d536 b13f 4aba 0c3e
00000020: a51d 283e 7408 26be 01cf 90bc 38ae ecbd
00000030: 4b9e 8f3f 2e8e e8be d90e 063e b79b 18bf
00000040: 31c5 d1bf 75bf f23f 2125 593f 03ad a3bd
00000050: f573 0cbe d6be b3bd 3cf8 043e ab68 a7ba
00000060: 3316 bbbd 1f9e 2b3e 567f 3cbd 9639 cebf
00000070: 811a 1c40 f740 94bf 32c0 8b3d 984a cc3f
00000080: 77c5 3abe 687c aebf 9cad 233e f7ca 433e
00000090: f4be 54bf 7ecf ce3f e154 18c0 644d 41c0
000000a0: fe30 3c40 e161 11c0 049b 1a3d d127 29be
000000b0: 17aa be3f c1b8 abbf cc0c 78bf 7392 acbe
000000c0: 7005 3dbe 2fe0 91c0 5448 a93d 85bb bb3d
000000d0: 7bbe 1bbd 7c07 2c3d c5ab 343d 2740 06c0
000000e0: 2036 61c0 9b25 10bf 53a1 2a3f 45cd ffbf
000000f0: 637c abbc 4c58 8a3e d660 3ebe 318b 7b3d
00000100: 0f0e a83d dcaa a6bd 22c5 ed3d 3ad1 3ebd
00000110: 5857 c5bd 7a87 c63d 626e 873f e7f4 c7bf
00000120: 6f86 c03f d897 203e 1264 17bf 113b 89bd
00000130: bdaa 843f 5056 fcbd 46f7 07c0 a835 d93f
00000140: b210 d2bf fb1f a8bf 0607 39be 5b46 4940
00000150: 3741 bcbf b63f c63d 39e7 a93d 4dae 98bf
00000160: 8b8b a03f 727b 9740 2a7c c7c0 227b a5bd
00000170: 03b9 c040 3fcc 313d adb0 263d a9cf bfbd
00000180: 61e6 09bd 7777 9bbb 3f0f 05c1 9244 67c0
00000190: e3c3 35c0 66c1 94be 6921 13c0 bc39 a340
000001a0: 91ab 78c0 6d57 1c3d b552 3cbe 2d85 233e
000001b0: b6da c73d 24d8 33be 987e 753d 0ab2 19be
000001c0: d55d 883c db7e 77be 4aeb b5bf 129b 0cc1
000001d0: 46de 2abe 2e18 0c3e 160a 0d3e aac2 8bbe
000001e0: f5f9 cabd 0743 ad3e 65d0 4140 b749 e33d
000001f0: ffcd 05c0 d6b4 c5c0 4ecb ed3f 73ea 4cbf
00000200: 07a0 14bd 0582 373c bad5 733f c61e 6fbf
00000210: 3c5e 3dbf 6c50 13bf 942b 3abe 2d0d 52c0
00000220: 33f6 37be 12d2 dcbc 1cac 6f3d 0977 09be
00000230: f231 4c3c 0ead 54bf f8eb d0c0 2e9a b9bf
00000240: 7b1c 823f 3816 4fc0 13f1 5a40 ce65 663f
00000250: 1ff4 b43d 8fe7 91bd 451c 3c3e d4a2 92bc
00000260: f005 a0bc 75b3 f6bd 7f92 af3d 962a 3fbe
00000270: 5faa 6cbf f600 993f 0383 7dbf d018 d3bd
00000280: 81c5 e33f bfc7 ab3d 1170 5abf a810 02bd
00000290: 62aa cbbf c7b0 313e 0c00 75be 2f8e ccbf
000002a0: c0d1 2040 61b5 b83d 5567 98bf 7a05 1c3d
000002b0: 343f 15be 8469 703f 83ca 71bf 3788 1140
000002c0: e2c4 c1bf 1e5f 093e 90a7 e43f ae87 b2bd
000002d0: 3a08 3cbd 48f0 0f3e 66df d4bd ab40 2fbe
000002e0: 155e 8bbe e39b 64c0 0f22 b03e b922 e63e
000002f0: 480c 293e a74a 6d3d 6636 a93f c6b1 abbd
00000300: 531e 313e 30da 32be 4916 0d3d 5715 213e
00000310: 0821 87bc 432c a53d a6dd 0e3e 6ec4 4cbf
00000320: 506a 7b40 6a94 c7c0 d01b 25bd a82c dc3f
00000330: bc37 38be f15c 93bf 54f0 da3d e86d e43f
00000340: b18b 343f 6611 af3f 9ca1 5ec0 63ea 713d
00000350: fcfd 1d3e ef64 b4bf 090d f03d 3a59 01bd
00000360: 5f35 5ebf 1475 8a3f 508d 753f 560f 2b3d
00000370: 12a3 043e cb49 943f e6f0 b63c c0f2 143d
00000380: 8fa7 21be 86f3 4b3d 4d64 38bd e455 bc3e
00000390: e85d 08bf 351a b03f fbdd 88bd 8f57 5c3f
000003a0: b667 10c0 2156 f9bf 58b9 813d 59c8 a63d
000003b0: 3a40 f43d 6c84 cf3d a97f 02be 774b a3bd
000003c0: 5682 02be 2e91 f1bd e34a 16bf d2e8 58be
000003d0: 07fa b2bf 27a9 0a3e c157 24be 0cac 5c3c
000003e0: 6183 12bf c3fd c43d 428f 0abf 85d1 9ebe
000003f0: 9d41 03bc a14f e6bf 67bd 773f 2082 07bf

network.0.bias f4 [128]
-12.855004 -11.900466 -8.846082 -13.086953 -13.195492 -9.156703 -12.064486 -12.433662
-12.952596 -12.641654 -11.524911 -7.806051 -9.214339 -18.439447 -9.245168 -12.63507
-17.166616 -12.271338 -8.838594 -10.278757 -10.032712 -8.374445 -7.851833 -14.396053
-6.9761434 -10.735414 -6.982336 -12.802559 -7.4442883 -8.217639 -14.937356 -11.0434265
-6.7613044 -9.944092 -13.704883 -8.11027 -11.052716 -17.450502 -12.339092 -9.094792
-11.023649 -7.7120366 -9.830516 -5.0353346 -17.464525 -14.643878 -13.346889 -11.523111
-19.053392 -12.408907 -16.975046 -10.184963 -6.0153813 -10.31644 -8.451843 -17.859777
-11.739678 -11.309001 -12.401719 -8.898371 -11.202051 -8.818438 -8.326555 -10.569559
-9.604948 -11.8618965 -8.721432 -8.842158 -9.48613 -10.389535 -11.358176 -9.098883
-9.013936 -11.526458 -13.394868 -13.102365 -7.551479 -5.656372 -12.582836 -10.013479
-13.015772 -15.523478 -7.773537 -5.259738 -10.787352 -14.356089 -13.6310005 -10.40592
-10.021966 -5.0026135 -13.97793 -13.940528 -11.43936 -8.468311 -3.3387299 -10.455224
-8.556945 -14.457451 -10.942669 -5.0413437 -10.232785 -7.2502713 -10.112991 -7.937045
-12.3347645 -9.796421 -10.755838 -9.164454 -9.168134 -15.920606 -8.224415 -6.2137485
-14.249277 -14.482305 -9.188021 -11.858344 -12.327169 -7.047833 -11.531219 -13.28178
-12.16582 -14.824884 -8.363008 -9.99022 -11.163579 -9.069394 -9.395279 -10.438581
00000000: 19ae 4dc1 4f68 3ec1 8d89 0dc1 2964 51c1
00000010: bc20 53c1 db81 12c1 2208 41c1 48f0 46c1
00000020: d53d 4fc1 3744 4ac1 0966 38c1 2bcb f9c0
00000030: ef6d 13c1 fd83 93c1 35ec 13c1 3f29 4ac1
00000040: 3b55 89c1 6757 44c1 e26a 0dc1 ca75 24c1
00000050: fd85 20c1 bafd 05c1 3742 fbc0 3c56 66c1
00000060: 913c dfc0 41c4 2bc1 4c6f dfc0 48d7 4cc1
00000070: 9c37 eec0 737b 03c1 69ff 6ec1 e0b1 30c1
00000080: 9b5c d8c0 001b 1fc1 3347 5bc1 aac3 01c1
00000090: edd7 30c1 a19a 8bc1 ec6c 45c1 4584 11c1
000000a0: de60 30c1 01c9 f6c0 cb49 1dc1 7621 a1c0
000000b0: 59b7 8bc1 534d 6ac1 db8c 55c1 aa5e 38c1
000000c0: 596d 98c1 e28a 46c1 e5cc 87c1 9cf5 22c1
000000d0: 017e c0c0 2310 25c1 c03a 07c1 d3e0 8ec1
000000e0: b9d5 3bc1 abf1 34c1 716d 46c1 ba5f 0ec1
000000f0: 9a3b 33c1 5218 0dc1 9239 05c1 ea1c 29c1
00000100: dead 19c1 54ca 3dc1 fc8a 0bc1 7b79 0dc1
00000110: 30c7 17c1 893b 26c1 17bb 35c1 0695 11c1
00000120: 1539 10c1 5f6c 38c1 6151 56c1 49a3 51c1
00000130: b7a5 f1c0 0001 b5c0 4c53 49c1 3637 20c1
00000140: 9a40 50c1 2a60 78c1 d1c0 f8c0 c64f a8c0
00000150: fe98 2cc1 8ab2 65c1 9418 5ac1 a67e 26c1
00000160: f959 20c1 6915 a0c0 9aa5 5fc1 670c 5fc1
00000170: 9e07 37c1 347e 07c1 c0ad 55c0 9948 27c1
00000180: 3fe9 08c1 b851 67c1 2c15 2fc1 b052 a1c0
00000190: 7db9 23c1 3902 e8c0 d0ce 21c1 46fc fdc0
000001a0: 325b 45c1 24be 1cc1 ea17 2cc1 9ba1 12c1
000001b0: adb0 12c1 cdba 7ec1 3497 03c1 07d7 c6c0
000001c0: 0afd 63c1 85b7 67c1 2202 13c1 c7bb 3dc1
000001d0: 163c 45c1 d987 e1c0 df7f 38c1 2c82 54c1
000001e0: 33a7 42c1 ba32 6dc1 e1ce 05c1 f1d7 1fc1
000001f0: 059e 32c1 3d1c 11c1 1053 16c1 6e04 27c1

network.3.weight f4 [64, 128]
-0.060806017 -0.06439843 -0.085266605 -0.59798235 -0.060084023 0.11206979 -0.24649991 -0.16609035
-0.31800002 0.14675213 -0.13462414 -0.2699036 -0.2246838 -0.34937152 -0.22538161 -0.6384847
-0.07423435 -0.3060975 -0.22292858 -0.18358858 -0.51230764 -0.5757672 -0.96449625 -0.3350941
-0.041997775 -0.06321095 0.024660507 -0.57618636 -1.1953039 -0.66356105 0.05296651 -0.45474964
0.0025038123 -0.4107077 -0.16068551 -0.6313543 -0.49268466 -0.29774988 -0.24670523 -0.55432004
-0.39222544 -0.35235104 -0.115349755 -0.86775696 -0.7246712 -0.79469097 -0.35781556 0.15791139
-0.3999016 -0.31538364 -0.41474986 -0.6061311 -0.18465653 0.09996243 -0.6713531 -0.0018046976
-0.33731264 -0.374825 -0.21174854 -0.40102342 -0.12766375 -0.18671156 -0.48572865 -0.14830017
-0.05655113 -0.19117995 -0.10021164 -0.055189442 -0.36002943 -0.11753408 0.2098401 -0.57368064
-0.9283001 -0.2069672 -0.37491435 -0.19855502 -0.2628316 -0.43221065 -0.20824787 -0.8092895
-0.43504637 -0.1798712 -0.39329857 -0.5328708 -0.36477527 -0.22591615 -0.29610732 -0.43696788
-0.56702244 -0.013544622 -0.57388115 -0.20187782 -0.36705396 -0.34347078 -0.50755656 -0.2657048
-0.3379187 -0.21242775 -0.5580487 -0.27622503 -0.287087 -0.28930637 -0.15690559 0.2702545
-0.05522723 -0.054707404 -0.5049689 -0.14465511 -1.0113434 -0.041203998 -0.5636169 -0.41702983
-0.062676385 -0.021838564 0.016965713 -0.11527273 -0.30336997 -0.15308027 -0.18358824 -0.66366416
-0.09452588 -0.1932252 -0.32032856 -0.42540553 -0.15919514 -0.009731192 -0.120852225 -0.3098873
-0.0806992 -0.47440937 -0.32286814 -0.2999626 -0.33880496 -0.105881855 -0.35245252 -0.09947534
-0.30603603 -0.48570162 -0.2086172 -0.20686176 -0.47518206 -0.3023161 -0.96439344 -1.2289163
-0.090190545 -0.2786361 -0.5976827 -5.6392387e-06 -0.026413899 -0.4205657 -0.43025252 -0.39559916
-0.28857785 -0.2587369 -0.05882889 0.029114699 -0.03619891 -0.7297967 -0.32405367 -1.1458653
-1.0875441 -0.26417843 -0.08874082 -0.5059026 -0.16549242 -0.30430475 -0.48123154 -0.7537644
-0.25875568 -1.5081445 -0.035819072 -0.41577995 -0.017801827 -0.71517307 -1.4850472 -0.33345374
-0.6991202 -0.039868783 -0.9362148 -0.04920702 -0.4522478 -0.23470508 -1.8821374 0.013598822
-0.66737944 -0.13875864 -0.38656306 -0.9683578 -0.30149326 -0.15384041 -0.1866671 -0.5856239
-0.6221188 -0.6392066 -0.20126857 -0.118862934 -0.37440243 -0.19320154 0.025832433 -0.37367696
-0.11832947 -0.42981526 -0.41802093 -0.14266494 -0.09903101 -0.31425703 -0.45272246 -0.4770137
0.023612564 -0.10892623 -0.46435475 -0.5686714 -0.7040246 -1.1030954 -0.6665054 -0.7101794
-0.26342264 -0.20522922 -0.2409348 -0.54153603 -0.57763463 -0.32694256 -0.93269026 -0.53285164
-0.39029863 -0.4463307 -0.60353464 -0.56048524 -0.8486726 -0.049493067 -0.5901727 -0.09789841
0.022765202 -0.12665004 -0.60891324 -0.46257395 -0.11807727 -0.038817227 -0.3589592 -0.11718408
-0.8823233 -0.1111768 -0.43747127 -0.44115847 -0.35911846 -0.30209616 -0.2126673 -0.24046043
-0.3231531 -0.14956619 -0.28688818 -1.0562632 -0.6932687 0.018597824 -0.8849854 -1.336622
00000000: bb0f 79bd 53e3 83bd 42a0 aebd 5f15 19bf
00000010: aa1a 76bd d984 e53d 796a 7cbe 9713 2abe
00000020: e6d0 a2be 3146 163e e9da 09be ce30 8abe
00000030: 8313 66be d3e0 b2be 70ca 66be bc73 23bf
00000040: 2e08 98bd d0b8 9cbe 6447 64be a5fe 3bbe
00000050: 9826 03bf 7b65 13bf 3ae9 76bf 7491 abbe
00000060: dc05 2cbd be74 81bd d504 ca3c f380 13bf
00000070: b8ff 98bf 23df 29bf 69f3 583d f2d4 e8be
00000080: 0017 243b 4848 d2be be8a 24be 6fa0 21bf
00000090: 2a41 fcbe ac72 98be 4ca0 7cbe ebe7 0dbf
000000a0: c6d1 c8be 5b67 b4be 7e3c ecbd 5225 5ebf
000000b0: 0d84 39bf de70 4bbf 9a33 b7be 86b3 213e
000000c0: e7bf ccbe f779 a1be 185a d4be 682b 1bbf
000000d0: 9a16 3dbe 1ab9 cc3d ccdd 2bbf 9a8b ecba
000000e0: 3eb4 acbe 10e9 bfbe 9cd4 58be f152 cdbe
000000f0: 49ba 02be 5131 3fbe 6db1 f8be 00dc 17be
00000100: 28a2 67bd adc4 43be c33b cdbd 530e 62bd
00000110: c755 b8be b5b5 f0bd 53e0 563e bcdc 12bf
00000120: 13a5 6dbf 36ef 53be c6f4 bfbe 0252 4bbe
00000130: dd91 86be b74a ddbe ee3e 55be 992d 4fbf
00000140: 66be debe 2830 38be 6e5e c9be 396a 08bf
00000150: d3c3 babe 9056 67be 619b 97be 41ba dfbe
00000160: 6228 11bf 43ea 5dbc e0e9 12bf 0fb9 4ebe
00000170: 7fee bbbe 67db afbe 3aef 01bf 760a 88be
00000180: ae03 adbe a986 59be 48dc 0ebf 5e6d 8dbe
00000190: 11fd 92be f71f 94be dcab 20be cc5e 8a3e
000001a0: f335 62bd df14 60bd a445 01bf 7820 14be
000001b0: b373 81bf 86c5 28bd 3249 10bf ef84 d5be
000001c0: 7a5c 80bd cae6 b2bc aefb 8a3c 1c14 ecbd
000001d0: 4f53 9bbe 13c1 1cbe 8efe 3bbe e5e5 29bf
000001e0: c996 c1bd d4dc 45be 1b02 a4be c1ce d9be
000001f0: 0d04 23be 946f 1fbc 5f81 f7bd 8ca9 9ebe
00000200: 9f45 a5bd c9e5 f2be f94e a5be b394 99be
00000210: d877 adbe 96d8 d8bd a874 b4be bab9 cbbd
00000220: c1b0 9cbe e2ad f8be bf9f 55be 92d3 53be
00000230: 104b f3be 2dc9 9abe 7de2 76bf 214d 9dbf
00000240: d2b5 b8bd 64a9 8ebe bc01 19bf b138 bdb6
00000250: f661 d8bc 6354 d7be 0f4a dcbe f98b cabe
00000260: 7ac0 93be 2a79 84be 90f6 70bd f381 ee3c
00000270: 4f45 14bd f5d3 3abf 5dea a5be b7ab 92bf
00000280: a534 8bbf 6542 87be bfbd b5bd d582 01bf
00000290: d876 29be d5cd 9bbe fb63 f6be b4f6 40bf
000002a0: a07b 84be e10a c1bf 05b7 12bd 1ce1 d4be
000002b0: 23d5 91bc 9515 37bf 0716 bebf 73ba aabe
000002c0: 8bf9 32bf 734d 23bd c6ab 6fbf 4d8d 49bd
000002d0: 068d e7be 8756 70be e1e9 f0bf 98cd 5e3c
000002e0: 61d9 2abf bf16 0ebe 98eb c5be 4ce6 77bf
000002f0: 535d 9abe 5788 1dbe a925 3fbe 73eb 15bf
00000300: 2d43 1fbf 0ba3 23bf 5919 4ebe 696e f3bd
00000310: adb1 bfbe a0d6 45be 8a9e d33c 9652 bfbe
00000320: b956 f2bd bf10 dcbe d706 d6be c216 12be
00000330: c5d0 cabd 4ce6 a0be 3dcb e7be 243b f4be
00000340: 236f c13c b714 dfbd e8bf edbe 7394 11bf
00000350: f53a 34bf 3b32 8dbf 19a0 2abf 51ce 35bf
00000360: 55df 86be 9c27 52be 9db7 76be 1ba2 0abf
00000370: dddf 13bf 0465 a7be cac4 6ebf f768 08bf
00000380: 39d5 c7be 7585 e4be 3f81 1abf f67b 0fbf
00000390: 9c42 59bf 3eb9 4abd 8f15 17bf f67e c8bd
000003a0: 177e ba3c 8cb0 01be bde1 1bbf 7ed6 ecbe
000003b0: 7fd2 f1bd d0fe 1ebd 80c9 b7be 35fe efbd
000003c0: f1df 61bf aab0 e3bd 3cfc dfbe 86df e1be
000003d0: 60de b7be 59ac 9abe 75c5 59be 423b 76be
000003e0: 5374 a5be e127 19be 02e3 92be a233 87bf
000003f0: 0f7a 31bf 775a 983c 678e 62bf 6e16 abbf

network.3.bias f4 [64]
-3.1123455 -2.466138 -2.2412045 -3.6829894 -2.2529743 -2.7156882 -2.8316326 -3.55201
-1.5734735 -2.2059386 -2.4389825 -1.8803477 -2.9544907 -3.2340572 -2.2862992 -2.3541663
-2.3081224 -3.6410701 -1.4195051 -2.3268847 -2.5313728 -2.9150183 -2.0641134 -2.4325943
-2.1746726 -1.5644509 -2.5453215 -3.4110026 -2.9269207 -1.9275392 -3.2823 -2.8445344
-1.3459728 -3.117251 -3.7102256 -2.3785975 -2.584344 -2.3817787 0.48761603 -1.7129875
-2.4933069 -3.368341 -2.3957489 -3.3177133 -2.7784076 -3.4312017 -3.8148696 -2.4851673
-1.7918186 -2.0115855 -1.8245082 -3.0698657 -3.9449215 0.940813 -4.508827 -3.7343905
-4.38774 -1.2889512 -3.6937416 -2.2053554 -2.3596048 -2.6316776 0.7328837 -2.1212156
00000000: ab30 47c0 34d5 1dc0 e56f 0fc0 19b6 6bc0
00000010: bb30 10c0 d6cd 2dc0 7839 35c0 2254 63c0
00000020: 9467 c9bf 192e 0dc0 4a18 1cc0 3caf f0bf
00000030: 6016 3dc0 cbfa 4ec0 ba52 12c0 a9aa 16c0
00000040: 47b8 13c0 4b07 69c0 58b2 b5bf aeeb 14c0
00000050: 0302 22c0 a98f 3ac0 6f1a 04c0 a0af 1bc0
00000060: d62d 0bc0 ed3f c8bf 8ce6 22c0 de4d 5ac0
00000070: ab52 3bc0 9bb9 f6bf 3411 52c0 da0c 36c0
00000080: d648 acbf 0a81 47c0 5674 6dc0 f13a 18c0
00000090: e465 25c0 106f 18c0 cfa8 f93e 2d43 dbbf
000000a0: 5792 1fc0 e692 57c0 f353 19c0 6a55 54c0
000000b0: 6ed1 31c0 cf98 5bc0 d326 74c0 fb0c 1fc0
000000c0: 505a e5bf d1bd 00c0 7c89 e9bf ae78 44c0
000000d0: 9879 7cc0 1fd9 703f 5048 90c0 4100 6fc0
000000e0: 5e68 8cc0 5afc a4bf 4366 6cc0 8b24 0dc0
000000f0: c403 17c0 686d 28c0 449e 3b3f ffc1 07c0

network.6.weight f4 [5, 64]
0.038811933 0.14827263 0.23572315 0.13281362 -0.14902073 -0.09991849 -0.17672385 -0.18394484
-0.15016983 -0.08693549 -0.06155297 -0.18248616 -0.08875621 0.05789272 -0.06873474 -0.21749082
0.040701713 0.07387937 0.118263304 -0.09872073 0.08303114 0.077354215 0.024245132 0.11798537
0.13098498 0.0262281 -0.04956185 -0.25488806 -0.10091367 -0.099807136 -0.25423983 0.23511377
0.018994702 0.274866 0.2722061 -0.13508986 0.04772149 -0.20805275 -0.13029833 -0.17261632
-0.28872463 -0.15898748 0.29586482 0.35240093 -0.0752246 -0.13164029 0.011893368 0.14009719
-0.10907332 0.06761704 -0.27450037 -0.17007467 -0.17336826 -0.1171357 0.2809164 0.15575299
-0.29372686 -0.21930712 0.0055479314 -0.12998267 -0.29835236 0.11544164 -0.08159965 0.024213448
-0.047550626 0.23218323 0.20623735 0.062734656 -0.45042714 0.14596456 -0.13057514 0.09262877
0.044179007 0.06301328 -0.25861096 -0.219808 0.20011877 0.14498638 -0.13009581 -0.11834477
-0.06551449 0.48280796 -0.37871692 0.0067100157 0.21219635 -0.11698642 -0.31161925 0.2090351
-0.11013488 -0.29640374 -0.58013946 -0.10660894 -0.17292513 0.13331985 -0.19866444 -0.060479272
-0.46125582 0.370186 0.005877733 0.16787708 -0.17663467 0.23207457 0.06088734 -0.14229064
-0.10221848 -0.24871975 0.16352987 -0.30971944 -0.035817884 0.037843805 0.32464597 0.022310585
0.011102104 -0.21521418 -0.25197646 0.10049937 0.4158948 -0.23986845 -0.286442 -0.46599713
-0.7804141 0.2085828 0.17476521 -0.0654388 0.24102856 -0.12725124 -0.16405328 -0.38640872
0.06632583 -0.14562246 -0.33066586 -0.010708311 0.018077493 -0.18910244 0.24592215 0.2131152
0.12626776 -0.5814778 -0.19884832 0.3399969 -0.08610032 0.15525123 -0.2211672 -0.22249995
-0.009747398 -0.14341404 -0.03847612 0.41935438 0.14503597 -0.105872065 0.07587008 -0.042312775
0.214169 -0.22536246 0.14741866 0.077600375 0.022211118 -0.20043647 0.24958752 -0.06716764
0.09572614 -0.017534692 -0.013381727 0.08209771 -0.26174384 -0.13361093 0.21254024 -0.16182761
-0.20600657 0.1926604 0.234117 -0.37014157 0.26302698 -0.32284907 -0.062352944 -0.3041263
-0.031752687 -0.01627508 -0.20179658 0.3067272 -0.2579365 0.17487977 -0.13768907 -0.27634537
0.2626569 -0.24535014 -0.34297094 0.31384432 -0.081049986 0.47054777 -0.5361844 0.12448521
-0.23092377 0.14763942 -0.051628213 -0.1088736 0.017777383 0.05158075 0.22316606 -0.3919326
-0.18411236 -0.4637525 0.09374242 -0.11048099 0.08778834 0.03646491 0.09288264 0.1294175
-0.17757946 0.11515099 0.12790905 0.43906897 0.099701345 0.11758746 -0.044915937 0.06075191
-0.056955777 0.038563333 -0.16668326 -0.024952075 -0.106972694 -0.0435491 0.054157853 -0.031967916
0.027040482 0.22227749 0.12186378 -0.15907337 -0.33149135 -0.16848013 0.3566622 -0.112756126
0.08884613 0.106836684 -0.12157877 0.33255982 -0.034411304 0.12190837 -0.07326855 0.07513556
0.11562931 0.031483997 0.040353686 -0.1884831 0.15359575 0.19839785 0.10818742 0.3580021
0.24233682 0.025437305 0.07781113 0.055183172 -0.100284845 -0.20030884 -0.00067837955 0.13890389
00000000: 43f9 1e3d c8d4 173e 6961 713e 4b00 083e
00000010: e498 18be 11a2 ccbd 19f7 34be 095c 3cbe
00000020: 1fc6 19be 3c0b b2bd f81e 7cbd a7dd 3abe
00000030: d1c5 b5bd eb20 6d3d cdc4 8cbd eab5 5ebe
00000040: d7b6 263d 114e 973d 0834 f23d 182e cabd
00000050: 3b0c aa3d e36b 9e3d ba9d c63c 50a2 f13d
00000060: ed20 063e 50dc d63c 5e01 4bbd b080 82be
00000070: d4ab cebd af67 ccbd b92b 82be aac1 703e
00000080: c79a 9b3c 3dbb 8c3e 995e 8b3e ff54 0abe
00000090: 9c77 433d c80b 55be ed6c 05be 55c2 30be
000000a0: b7d3 93be 9dcd 22be 987b 973e e56d b43e
000000b0: 5b0f 9abd b6cc 06be 67dc 423c a375 0f3e
000000c0: d561 dfbd cd7a 8a3d 508b 8cbe 0e28 2ebe
000000d0: 7387 31be d8e4 efbd 46d4 8f3e b67d 1f3e
000000e0: 5e63 96be 0c92 60be 6ccb b53b 2d1a 05be
000000f0: a4c1 98be ab6c ec3d b81d a7bd 485b c63c
00000100: 72c4 42bd 71c1 6d3e e22f 533e 077b 803d
00000110: 639e e6be bc77 153e 7db5 05be 27b4 bd3d
00000120: 0cf5 343d 1b0d 813d a868 84be 5915 61be
00000130: efeb 4c3e 4f77 143e d637 05be be5e f2bd
00000140: 762c 86bd 9b32 f73e 2fe7 c1be b1df db3b
00000150: 004a 593e 9396 efbd 8f8c 9fbe 4c0d 563e
00000160: 658e e1bd 3bc2 97be 0584 14bf ca55 dabd
00000170: 4913 31be 0085 083e b16e 4bbe 1db9 77bd
00000180: b929 ecbe 0589 bd3e 009a c03b f8e7 2b3e
00000190: b8df 34be f5a4 6d3e 0165 793d a3b4 11be
000001a0: ec57 d1bd 64b0 7ebe 6074 273e 8c93 9ebe
000001b0: c6b5 12bd 1b02 1b3d ff37 a63e b0c4 b63c
000001c0: 99e5 353c 1b61 5cbe 0f03 81be 9dd2 cd3d
000001d0: 2af0 d43e 13a0 75be 87a8 92be 2d97 eebe
000001e0: 38c9 47bf bb96 553e a7f5 323e c704 86bd
000001f0: 31d0 763e 264e 02be 95fd 27be 5dd7 c5be
00000200: d6d5 873d 0e1e 15be 094d a9be e971 2fbc
00000210: 4017 943c 12a4 41be 04d3 7b3e df3a 5a3e
00000220: 564c 013e bbdb 14bf e59e 4bbe 1314 ae3e
00000230: 5d55 b0bd 2efa 1e3e a879 62be 07d7 63be
00000240: 8db3 1fbc 21db 12be 2399 1dbd 9eb5 d63e
00000250: 4f84 143e 74d3 d8bd c661 9b3d 2950 2dbd
00000260: 1e4f 5b3e 6bc5 66be ebf4 163e f2ec 9e3d
00000270: 17f4 b53c 383f 4dbe df93 7f3e 308f 89bd
00000280: 110c c43d eaa4 8fbc 083f 5bbc d822 a83d
00000290: 4a03 86be 4ed1 08be 26a4 593e 23b6 25be
000002a0: 63f3 52be c548 453e 5ebc 6f3e 3283 bdbe
000002b0: 79ab 863e 794c a5be cd65 7fbd 71b6 9bbe
000002c0: 1b0f 02bd 5153 85bc c3a3 4ebe 590b 9d3e
000002d0: 4110 84be af13 333e 5dfe 0cbe 247d 8dbe
000002e0: f77a 863e 113d 7bbe e399 afbe 34b0 a03e
000002f0: 89fd a5bd a3eb f03e 6143 09bf 1af2 fe3d
00000300: 4877 6cbe ca2e 173e 1b78 53bd 1ff9 debd
00000310: e0a1 913c 5646 533d a585 643e 64ab c8be
00000320: f387 3cbe f870 edbe 07fc bf3d db43 e2bd
00000330: 60ca b33d 3b5c 153d 4139 be3d 0586 043e
00000340: 64d7 35be 48d4 eb3d 97fa 023e a6cd e03e
00000350: 3830 cc3d b2d1 f03d c6f9 37bd ffd6 783d
00000360: 764a 69bd 96f4 1d3d 04af 2abe 4b68 ccbc
00000370: 8014 dbbd 8b60 32bd a0d4 5d3d caf0 02bd
00000380: 0084 dd3c b69c 633e b893 f93d 21e4 22be
00000390: 3cb9 a9be 0e86 2cbe 6e9c b63e afec e6bd
000003a0: f6f4 b53d 31cd da3d 4afe f8bd 4845 aa3e
000003b0: def2 0cbd 18ab f93d d20d 96bd ace0 993d
000003c0: 0fcf ec3d 5df5 003d e849 253d b701 41be
000003d0: 3448 1d3e ce28 4b3e 5e91 dd3d 0d4c b73e
000003e0: 2527 783e e561 d03c 715b 9f3d c007 623d
000003f0: 2462 cdbd c31d 4dbe 48d5 31ba d23c 0e3e

network.6.bias f4 [5]
0.21090177 -0.14673185 0.019473227 0.28226858 0.032190315
00000000: a2f6 573e e040 16be 5186 9f3c 8285 903e
00000010: fed9 033d

network.0.weight f4 [128, 43]
-0.005038105 -0.81404114 0.61767936 -1.5633982 -1.9119748 -0.16009825 1.3844236 0.13742939
0.16417558 -0.16214162 -0.017676832 -0.11556667 1.1220374 -0.454158 0.13092904 -0.5961483
-1.6387931 1.8965348 0.8482735 -0.07991984 -0.13716109 -0.087766334 0.12985319 -0.0012772287
-0.091350935 0.16759537 -0.046019875 -1.6111623 2.4390354 -1.1582817 0.0682377 1.5959299
-0.1823939 -1.3632067 0.15984195 0.19116652 -0.8310817 1.6156749 -2.380159 -3.020361
2.9404638 -2.271557 0.03774549 -0.16519095 1.4897205 -1.3417339 -0.968846 -0.33713937
-0.18459105 -4.558807 0.082657486 0.09166626 -0.038023453 0.041999336 0.044109125 -2.097503
-3.5187378 -0.5629194 0.6667034 -1.9985074 -0.021053432 0.26998472 -0.18591627 0.06141204
0.082058065 -0.081380576 0.11609866 -0.046586253 -0.096358 0.09693809 1.0579119 -1.5622748
1.5042142 0.15682924 -0.5916118 -0.06700719 1.0363111 -0.1232115 -2.124431 1.696831
-1.6414337 -1.3133798 -0.18080397 3.144864 -1.4706032 0.09680121 0.08296055 -1.7604979
1.8219367 4.6607156 -6.0220428 -0.08080126 5.8122096 0.043407675 0.040695835 -0.0936578
-0.033666972 -0.004744466 -8.443525 -3.4030676 -2.6511266 -0.030988785 -2.508247 4.832319
-2.1124399 0.038169313 -0.18390925 0.15968771 0.09758513 -0.1756292 0.059935182 -0.15009323
0.016646305 -0.18011938 -1.382592 -8.559466 -0.16686353 -0.18187746 0.13773379 -0.21139362
-0.09910957 -0.34492868 2.6714525 -0.17631531 -2.3433363 -5.64929 1.7544385 -0.5244057
-0.036285426 0.011200433 1.0068171 -0.9883904 -0.7212087 -0.5968078 -0.18180686 -3.3522954
-0.17965011 -0.026955638 0.058513746 -0.1342432 0.01246308 -0.84291595 -6.4854293 -1.3981804
1.0223843 -3.2717109 3.3968818 0.943343 0.08835625 -0.071242444 0.18370159 -0.017899908
-0.019534081 -0.120459475 0.0857287 -0.18668589 -0.9693329 1.1543405 -0.9926087 -0.10307467
1.7111624 0.08387708 -0.89813507 -0.031754166 -1.5804032 0.21391135 -0.27372244 -1.5776519
2.5486593 0.0645862 -1.1750696 0.03809116 -0.14574891 0.93914443 -0.9445327 2.2739108
-1.5138793 0.1341519 1.7863629 -0.08717285 -0.045906283 0.14056504 -0.10394172 -0.17114513
-0.27217373 -3.571901 0.34387702 0.44950017 0.16514505 0.05794637 1.3219715 -0.08383517
0.17296724 -0.17466044 0.03444508 0.15730797 -0.016495243 0.08065083 0.1395174 -0.79993105
3.9283097 -6.236894 -0.040309727 1.7200419 -0.17990011 -1.151336 0.1069037 1.7846006
0.7053504 1.3677014 -3.4784298 0.059102505 0.1543441 -1.4094124 0.11721236 -0.031579234
-0.8679935 1.0816942 0.95918864 0.041758128 0.12952831 1.158489 0.022331666 0.036364317
-0.15786575 0.04979279 -0.04501757 0.36784148 -0.53269315 1.3758076 -0.06682778 0.8607098
-2.2563243 -1.9479413 0.0633418 0.08143682 0.11926313 0.10132679 -0.12744011 -0.07973378
-0.12745032 -0.11795269 -0.5870884 -0.21182765 -1.398243 0.13541089 -0.16049773 0.013468754
-0.5723184 0.09618714 -0.5412405 -0.3101918 -0.008009907 -1.7992872 0.9677241 -0.52933145
00000000: b016 a5bb 0065 50bf 3c20 1e3f 6f1d c8bf
00000010: 97bb f4bf ccf0 23be cb34 b13f 4aba 0c3e
00000020: a51d 283e 7408 26be 01cf 90bc 38ae ecbd
00000030: ec9e 8f3f 6687 e8be 4312 063e 2d9d 18bf
00000040: f9c3 d1bf a7c1 f23f 7428 593f 03ad a3bd
00000050: f573 0cbe d6be b3bd 3cf8 043e af68 a7ba
00000060: 3316 bbbd 1f9e 2b3e 567f 3cbd 913a cebf
00000070: 2819 1c40 9342 94bf 35c0 8b3d 6e47 cc3f
00000080: 77c5 3abe 8f7d aebf 9cad 233e 28c1 433e
00000090: c5c1 54bf 6fce ce3f 8654 18c0 984d 41c0
000000a0: 8f30 3c40 3161 11c0 049b 1a3d d127 29be
000000b0: 29af be3f f0bd abbf 4b06 78bf 889d acbe
000000c0: 7005 3dbe bfe1 91c0 5448 a93d 85bb bb3d
000000d0: 7bbe 1bbd 7f07 2c3d c5ab 343d 7d3d 06c0
000000e0: 0033 61c0 7c1b 10bf 13ad 2a3f 17cf ffbf
000000f0: 3f78 acbc 703b 8a3e d660 3ebe 318b 7b3d
00000100: 0f0e a83d dcaa a6bd 22c5 ed3d 3ad1 3ebd
00000110: 5857 c5bd 7a87 c63d a869 873f 9ff8 c7bf
00000120: 178a c03f d897 203e df73 17bf 113b 89bd
00000130: d8a5 843f 5056 fcbd adf6 07c0 c231 d93f
00000140: 801a d2bf d41c a8bf ad24 39be 7445 4940
00000150: ba3c bcbf b63f c63d 39e7 a93d ff57 e1bf
00000160: 3935 e93f 9524 9540 93b4 c0c0 227b a5bd
00000170: 9ffd b940 3fcc 313d adb0 263d a9cf bfbd
00000180: 61e6 09bd 7777 9bbb ae18 07c1 dccb 59c0
00000190: 0fac 29c0 31dc fdbc 1e87 20c0 5ba2 9a40
000001a0: 3732 07c0 6d57 1c3d b552 3cbe 2d85 233e
000001b0: b6da c73d 24d8 33be 987e 753d 0ab2 19be
000001c0: d55d 883c 3771 38be c6f8 b0bf 93f3 08c1
000001d0: 46de 2abe 163e 3abe 160a 0d3e 9277 58be
000001e0: f5f9 cabd 7e9a b0be 14f9 2a40 008c 34be
000001f0: 39f9 15c0 fcc6 b4c0 7191 e03f 743f 06bf
00000200: 07a0 14bd 0582 373c 62df 803f 2707 7dbf
00000210: 22a1 38bf 65c8 18bf 942b 3abe 028c 56c0
00000220: 33f6 37be 12d2 dcbc 1cac 6f3d 0d77 09be
00000230: f231 4c3c 57c9 57bf a388 cfc0 93f7 b2bf
00000240: 7ddd 823f b663 51c0 8366 5940 ed7e 713f
00000250: 1ff4 b43d 8fe7 91bd 451c 3c3e d4a2 92bc
00000260: f005 a0bc 75b3 f6bd 8792 af3d 962a 3fbe
00000270: 3326 78bf 6ec1 933f 9b1b 7ebf d018 d3bd
00000280: 5f07 db3f bfc7 ab3d 2eec 65bf a810 02bd
00000290: a74a cabf 940b 5b3e 5925 8cbe 7ff0 c9bf
000002a0: 3c1d 2340 c545 843d ae68 96bf 7a05 1c3d
000002b0: 343f 15be c56b 703f e5cc 71bf c187 1140
000002c0: ccc6 c1bf 1e5f 093e 8aa7 e43f ae87 b2bd
000002d0: 3a08 3cbd 48f0 0f3e 66df d4bd ab40 2fbe
000002e0: 5b5a 8bbe 079a 64c0 a610 b03e e324 e63e
000002f0: c91b 293e 2c59 6d3d 5d36 a93f c6b1 abbd
00000300: 531e 313e 30da 32be 4916 0d3d 5715 213e
00000310: 0821 87bc 432c a53d a6dd 0e3e 48c8 4cbf
00000320: 6d69 7b40 a394 c7c0 d01b 25bd 552a dc3f
00000330: bc37 38be fa5e 93bf 54f0 da3d cb6d e43f
00000340: d891 343f d710 af3f 989e 5ec0 7815 723d
00000350: 610c 1e3e a067 b4bf 090d f03d 3a59 01bd
00000360: d234 5ebf f574 8a3f 638d 753f 920a 2b3d
00000370: 12a3 043e 5e49 943f e6f0 b63c c0f2 143d
00000380: 8fa7 21be 86f3 4b3d 5864 38bd b855 bc3e
00000390: 945e 08bf 771a b03f 01dd 88bd 7a57 5c3f
000003a0: 9e67 10c0 2456 f9bf 58b9 813d 59c8 a63d
000003b0: 3a40 f43d 6c84 cf3d a97f 02be 774b a3bd
000003c0: 5682 02be 2e91 f1bd 6d4b 16bf 59e9 58be
000003d0: a0f9 b2bf 27a9 0a3e 8459 24be 0cac 5c3c
000003e0: 7583 12bf c3fd c43d bd8e 0abf 76d1 9ebe
000003f0: fc3b 03bc 0b4f e6bf c4bc 773f 4482 07bf

network.0.bias f4 [128]
-12.854835 -11.900242 -8.535487 -13.003567 -13.1951885 -9.156523 -11.736526 -12.345041
-12.772191 -12.540367 -11.449953 -7.4979706 -9.222804 -17.794039 -9.193732 -12.001576
-16.618801 -12.270752 -7.872892 -10.278617 -10.032569 -8.374318 -7.8517513 -14.419672
-6.9760866 -9.686315 -6.3675966 -12.456419 -7.444246 -8.217534 -14.244239 -11.042436
-6.8723073 -9.921759 -13.704333 -7.4507895 -11.05262 -16.792526 -12.449789 -9.078175
-11.023628 -7.712038 -9.830389 -5.0352626 -17.16242 -14.580219 -13.292467 -11.520177
-18.659206 -12.413208 -17.078608 -10.184852 -6.0153546 -10.316382 -8.4517565 -17.296389
-11.636048 -11.308968 -12.137954 -8.898267 -11.201965 -8.818349 -8.216593 -10.962976
-9.603659 -11.815849 -8.349969 -8.84187 -9.486113 -10.414083 -11.651283 -9.098492
-8.97707 -11.117513 -13.391154 -12.595452 -7.430912 -5.656296 -12.727443 -9.71644
-12.991515 -14.939934 -7.7734547 -4.9246087 -10.452515 -13.767895 -12.8789835 -10.405412
-10.021493 -5.0025516 -13.968409 -13.934862 -10.001068 -8.467523 -3.338698 -10.099644
-8.551902 -14.294379 -10.942565 -5.0412707 -10.23265 -7.1922574 -10.112868 -7.93701
-12.264631 -10.012133 -10.741113 -9.164343 -9.167899 -15.48546 -8.2244005 -6.2624483
-14.100034 -14.180652 -9.187994 -11.298052 -12.320526 -7.0478034 -10.616616 -13.336402
-11.012463 -14.169714 -8.374833 -10.280338 -11.163437 -9.069357 -9.737714 -10.438453
00000000: 67ad 4dc1 6467 3ec1 5b91 08c1 9c0e 50c1
00000010: 7e1f 53c1 1e81 12c1 cfc8 3bc1 4a85 45c1
00000020: e55a 4cc1 58a5 48c1 0233 37c1 60ef efc0
00000030: 9b90 13c1 315a 8ec1 8719 13c1 7506 40c1
00000040: 4ef3 84c1 0055 44c1 bbee fbc0 3775 24c1
00000050: 6785 20c1 35fd 05c1 8c41 fbc0 fab6 66c1
00000060: 1a3c dfc0 25fb 1ac1 5ac3 cbc0 7e4d 47c1
00000070: 4337 eec0 057b 03c1 67e8 63c1 d1ad 30c1
00000080: f1e9 dbc0 86bf 1ec1 f344 5bc1 de6c eec0
00000090: 88d7 30c1 1857 86c1 5632 47c1 3440 11c1
000000a0: c860 30c1 04c9 f6c0 4649 1dc1 df20 a1c0
000000b0: a34c 89c1 9448 69c1 f2ad 54c1 a552 38c1
000000c0: 0e46 95c1 809c 46c1 fda0 88c1 27f5 22c1
000000d0: c97d c0c0 e70f 25c1 653a 07c1 015f 8ac1
000000e0: 412d 3ac1 88f1 34c1 0f35 42c1 4d5f 0ec1
000000f0: 403b 33c1 f517 0dc1 2a77 03c1 5a68 2fc1
00000100: 96a8 19c1 b80d 3dc1 7999 05c1 4d78 0dc1
00000110: 1ec7 17c1 15a0 26c1 a86b 3ac1 6c93 11c1
00000120: 14a2 0fc1 55e1 31c1 2b42 56c1 f986 49c1
00000130: 08ca edc0 6000 b5c0 9ba3 4bc1 8a76 1bc1
00000140: 3fdd 4fc1 f809 6fc1 24c0 f8c0 6596 9dc0
00000150: 803d 27c1 4c49 5cc1 5110 4ec1 917c 26c1
00000160: 0958 20c1 e714 a0c0 9a7e 5fc1 32f5 5ec1
00000170: 6004 20c1 f97a 07c1 3aad 55c0 2498 21c1
00000180: 97d4 08c1 c7b5 64c1 bf14 2fc1 1752 a1c0
00000190: efb8 23c1 f926 e6c0 4fce 21c1 fcfb fdc0
000001a0: ee3b 44c1 b231 20c1 99db 2bc1 26a1 12c1
000001b0: b7af 12c1 72c4 77c1 2597 03c1 fa65 c8c0
000001c0: bd99 61c1 f3e3 62c1 0602 13c1 d2c4 34c1
000001d0: e020 45c1 9b87 e1c0 a9dd 29c1 e761 55c1
000001e0: 0c33 30c1 26b7 62c1 51ff 05c1 447c 24c1
000001f0: 709d 32c1 161c 11c1 adcd 1bc1 e703 27c1

network.3.weight f4 [64, 128]
-0.060805365 -0.06439767 -0.085266754 -0.5979723 -0.060083404 0.11206951 -0.24649972 -0.16609
-0.31800005 0.14675125 -0.1346217 -0.26989904 -0.22468142 -0.34937 -0.22538178 -0.63847965
-0.074233934 -0.30609697 -0.22292607 -0.18358696 -0.5122965 -0.5757636 -0.9644935 -0.3350887
-0.0419971 -0.06321005 0.024660515 -0.5761808 -1.1953008 -0.6635613 0.0529666 -0.45474514
0.0025038398 -0.41070324 -0.16068386 -0.63135093 -0.49268353 -0.29774636 -0.24670535 -0.5543178
-0.39222577 -0.35235023 -0.115349256 -0.86775506 -0.724668 -0.7946916 -0.35781002 0.15790926
-0.3998969 -0.3153834 -0.41474444 -0.6061262 -0.18465388 0.0999623 -0.67134565 -0.0018046837
-0.33731195 -0.3748212 -0.2117472 -0.40102342 -0.12766285 -0.18671024 -0.48572767 -0.148298
-0.05655182 -0.19117762 -0.10021115 -0.055189114 -0.3600273 -0.11753377 0.20983985 -0.5736774
-0.9282896 -0.2069669 -0.3749106 -0.1985537 -0.26282993 -0.4322086 -0.20824543 -0.80928284
-0.43504578 -0.1798706 -0.39329866 -0.5328601 -0.36477184 -0.22591524 -0.29610723 -0.43696505
-0.5670136 -0.013544702 -0.5738801 -0.20187666 -0.36704874 -0.3434691 -0.50755197 -0.26570287
-0.33791396 -0.21242085 -0.558049 -0.2762231 -0.2870831 -0.28930634 -0.15690492 0.2702507
-0.055227112 -0.05470706 -0.5049651 -0.14465317 -1.0113369 -0.041203614 -0.56361616 -0.4170273
-0.06267547 -0.021838233 0.016965918 -0.11527177 -0.30336708 -0.15307829 -0.16072814 -0.66365665
-0.09452487 -0.19322504 -0.32032463 -0.42540175 -0.15919374 -0.0097311195 -0.12085226 -0.30988187
-0.080698065 -0.47440875 -0.3228638 -0.2999577 -0.33880207 -0.10588105 -0.35245156 -0.09947503
-0.3060314 -0.48569787 -0.20861498 -0.20685962 -0.47517765 -0.30231208 -0.9643862 -1.228894
-0.090191595 -0.27863112 -0.59767425 -5.4862376e-06 -0.026413638 -0.42056185 -0.4302476 -0.3955994
-0.2885732 -0.2587351 -0.058829468 0.029114475 -0.03619831 -0.729794 -0.32404992 -1.1458528
-1.0875355 -0.264177 -0.08874023 -0.50589496 -0.16549097 -0.30430287 -0.48122752 -0.75375515
-0.25875297 -1.5081302 -0.035819076 -0.4157756 -0.017801505 -0.71516705 -1.4850273 -0.33344957
-0.69910955 -0.03986847 -0.9362051 -0.049207035 -0.4522477 -0.23470396 -1.8821378 0.013598905
-0.667376 -0.13875826 -0.38656333 -0.9683559 -0.30148953 -0.15383825 -0.1866685 -0.5856222
-0.62211215 -0.6392068 -0.19823395 -0.11886296 -0.374398 -0.1932012 0.02583212 -0.37367678
-0.118329495 -0.4298125 -0.41801673 -0.14266534 -0.09903098 -0.31425688 -0.4527186 -0.47701347
0.023612589 -0.10892536 -0.4643534 -0.56867063 -0.704021 -1.1030804 -0.66650575 -0.7101722
-0.26342002 -0.20522645 -0.24093264 -0.5415266 -0.57763517 -0.32694075 -0.9326884 -0.5328482
-0.39029458 -0.44632897 -0.6035274 -0.5604809 -0.84866965 -0.049492393 -0.59016407 -0.09789849
0.022765456 -0.12664957 -0.60890377 -0.46257123 -0.118076175 -0.03881719 -0.35895443 -0.11718359
-0.8823225 -0.11117544 -0.43746573 -0.44115528 -0.35911536 -0.30209154 -0.20963046 -0.24046175
-0.3231499 -0.1495646 -0.2868864 -1.056255 -0.6932683 0.01859797 -0.88498086 -1.3366116
00000000: 0c0f 79bd ede2 83bd 56a0 aebd b614 19bf
00000010: 041a 76bd b384 e53d 6c6a 7cbe 7f13 2abe
00000020: e7d0 a2be f645 163e 45da 09be 3530 8abe
00000030: e312 66be a0e0 b2be 7bca 66be 6773 23bf
00000040: f607 98bd beb8 9cbe bb46 64be 38fe 3bbe
00000050: dd25 03bf 3e65 13bf 0ce9 76bf bf90 abbe
00000060: 2705 2cbd 4574 81bd d904 ca3c 9680 13bf
00000070: 9eff 98bf 27df 29bf 81f3 583d 5bd4 e8be
00000080: 7617 243b b247 d2be 4f8a 24be 37a0 21bf
00000090: 0441 fcbe 3672 98be 54a0 7cbe c5e7 0dbf
000000a0: d1d1 c8be 4067 b4be 3b3c ecbd 3225 5ebf
000000b0: d883 39bf e970 4bbf e032 b7be f7b2 213e
000000c0: 49bf ccbe ef79 a1be 6259 d4be 162b 1bbf
000000d0: e815 3dbe 09b9 cc3d 4fdd 2bbf 238b ecba
000000e0: 27b4 acbe 90e8 bfbe 42d4 58be f152 cdbe
000000f0: 0dba 02be f830 3fbe 4cb1 f8be 6edb 17be
00000100: e2a2 67bd 11c4 43be 813b cdbd fb0d 62bd
00000110: 8055 b8be 8cb5 f0bd 42e0 563e 86dc 12bf
00000120: 63a4 6dbf 22ef 53be 48f4 bfbe a951 4bbe
00000130: a591 86be 724a ddbe 4a3e 55be 292d 4fbf
00000140: 52be debe 0030 38be 715e c9be 8569 08bf
00000150: 60c3 babe 5356 67be 5e9b 97be e2b9 dfbe
00000160: ce27 11bf 99ea 5dbc cee9 12bf c1b8 4ebe
00000170: d0ed bbbe 2fdb afbe edee 01bf 350a 88be
00000180: 0f03 adbe da84 59be 4ddc 0ebf 1d6d 8dbe
00000190: 8efc 92be f61f 94be afab 20be 4d5e 8a3e
000001a0: d335 62bd 8314 60bd 6545 01bf f61f 14be
000001b0: 7d73 81bf 1fc5 28bd 2649 10bf 9a84 d5be
000001c0: ff5b 80bd 18e6 b2bc 1cfc 8a3c 9b13 ecbd
000001d0: ee52 9bbe 8ec0 1cbe eb95 24be 67e5 29bf
000001e0: 4196 c1bd c9dc 45be 9701 a4be 42ce d9be
000001f0: af03 23be 466f 1fbc 6481 f7bd d6a8 9ebe
00000200: 0745 a5bd b4e5 f2be 674e a5be 0e94 99be
00000210: 7777 adbe 2ad8 d8bd 8874 b4be 91b9 cbbd
00000220: 26b0 9cbe 64ad f8be 2a9f 55be 02d3 53be
00000230: 7c4a f3be a6c8 9abe 04e2 76bf 664c 9dbf
00000240: 5fb6 b8bd bda8 8ebe 2e01 19bf 6c16 b8b6
00000250: 6a61 d8bc e253 d7be 6a49 dcbe 018c cabe
00000260: debf 93be ed78 84be 2bf7 70bd 7b81 ee3c
00000270: ae44 14bd c8d3 3abf dfe9 a5be 4eab 92bf
00000280: 5d34 8bbf 3542 87be 70bd b5bd 5582 01bf
00000290: 7776 29be 96cd 9bbe 7463 f6be 19f6 40bf
000002a0: 457b 84be 690a c1bf 06b7 12bd 8ae0 d4be
000002b0: 76d4 91bc 3015 37bf 6015 bebf e7b9 aabe
000002c0: d8f8 32bf 1f4d 23bd 23ab 6fbf 518d 49bd
000002d0: 038d e7be 3c56 70be e4e9 f0bf f1cd 5e3c
000002e0: 27d9 2abf a516 0ebe a1eb c5be 2ce6 77bf
000002f0: d65c 9abe c687 1dbe 0726 3fbe 56eb 15bf
00000300: be42 1fbf 0fa3 23bf d7fd 4abe 6c6e f3bd
00000310: 18b1 bfbe 89d6 45be e29d d33c 9052 bfbe
00000320: bc56 f2bd 6210 dcbe 4a06 d6be dd16 12be
00000330: c1d0 cabd 47e6 a0be bbca e7be 1c3b f4be
00000340: 306f c13c 4214 dfbd bbbf edbe 6694 11bf
00000350: b83a 34bf bd31 8dbf 1fa0 2abf d8cd 35bf
00000360: fdde 86be e226 52be 0cb7 76be 7da1 0abf
00000370: e6df 13bf c764 a7be abc4 6ebf bd68 08bf
00000380: b1d4 c7be 3b85 e4be c680 1abf ad7b 0fbf
00000390: 6a42 59bf 89b8 4abd fe14 17bf 017f c8bd
000003a0: 9f7e ba3c 6db0 01be 1ee1 1bbf 23d6 ecbe
000003b0: ecd1 f1bd c6fe 1ebd e0c8 b7be f3fd efbd
000003c0: e3df 61bf f3af e3bd 82fb dfbe 1bdf e1be
000003d0: f8dd b7be beab 9abe 5ea9 56be 9b3b 76be
000003e0: e773 a5be 7627 19be c6e2 92be 5d33 87bf
000003f0: 087a 31bf c55a 983c 1b8e 62bf 1716 abbf

network.3.bias f4 [64]
-3.0894966 -2.4631205 -2.238984 -3.5270357 -2.2529387 -2.7084608 -2.6430311 -3.5373936
-1.5734569 -2.2059224 -2.4383762 -1.8803258 -2.9544477 -3.234032 -2.2554495 -2.3541076
-2.3052943 -3.6410606 -1.419486 -2.3268485 -2.5303245 -2.9139938 -2.0628185 -2.4325633
-2.1746418 -1.5644447 -2.5450008 -3.4109864 -2.9265382 -1.9275327 -3.0717409 -2.8434863
-1.33581 -3.1025016 -3.7086918 -2.2873888 -2.5843408 -2.3817801 0.5519732 -1.7129796
-2.4932647 -3.3681853 -2.206699 -3.3088994 -2.778366 -3.4311519 -3.8146763 -2.484628
-1.7537695 -2.0115635 -1.8243701 -3.048744 -3.9435897 1.0131854 -4.5076823 -3.7340906
-4.387663 -1.2889518 -3.6838973 -2.2053041 -2.35878 -2.631643 0.8211523 -2.1210907
00000000: 50ba 45c0 c4a3 1dc0 844b 0fc0 f4ba 61c0
00000010: 2630 10c0 6c57 2dc0 6c27 29c0 a864 62c0
00000020: 0967 c9bf d52d 0dc0 5b0e 1cc0 84ae f0bf
00000030: ac15 3dc0 61fa 4ec0 4959 10c0 b3a9 16c0
00000040: f189 13c0 2307 69c0 b8b1 b5bf 16eb 14c0
00000050: d6f0 21c0 e07e 3ac0 3805 04c0 1eaf 1bc0
00000060: 552d 0bc0 b93f c8bf 4be1 22c0 9a4d 5ac0
00000070: 674c 3bc0 64b9 f6bf 6797 44c0 aefb 35c0
00000080: d2fb aabf 638f 46c0 355b 6dc0 9464 12c0
00000090: d765 25c0 166f 18c0 1e4e 0d3f ea42 dbbf
000000a0: a691 1fc0 5990 57c0 8e3a 0dc0 02c5 53c0
000000b0: c0d0 31c0 fe97 5bc0 a823 74c0 2504 1fc0
000000c0: 857b e0bf 75bd 00c0 f684 e9bf 9f1e 43c0
000000d0: c663 7cc0 0fb0 813f ef3e 90c0 57fb 6ec0
000000e0: bc67 8cc0 5ffc a4bf f9c4 6bc0 b423 0dc0
000000f0: 40f6 16c0 d76c 28c0 0a37 523f f3bf 07c0

network.6.weight f4 [5, 64]
0.01598015 0.14523873 0.23352572 -0.023031227 -0.14902218 -0.107236445 0.05179699 -0.16942723
-0.15017255 -0.08692331 -0.06220947 -0.18248427 -0.08874266 0.05789195 -0.026606098 -0.21746396
0.039640997 0.07387879 0.11826244 -0.098719545 0.081968345 0.07637606 0.022273358 0.117984615
0.13097547 0.026227457 -0.050149307 -0.25488314 -0.10053083 -0.09980732 -0.043603778 0.23407653
0.018427117 0.26138207 0.27068022 -0.23020254 0.04772139 -0.20805171 -0.16328393 -0.1726127
-0.2887193 -0.15885052 0.10880257 0.33937168 -0.0752233 -0.13158435 0.011686378 0.13951498
-0.08718745 0.06761632 -0.2743739 -0.15778042 -0.17214659 -0.10709583 0.2798825 0.15544823
-0.2936467 -0.21930508 0.0061719017 -0.12991902 -0.2975511 0.11543602 -0.12064006 0.024194492
-0.047550626 0.23218267 0.20623972 0.06273581 -0.4504238 0.14596447 -0.13057454 0.092629425
0.044178635 0.06301186 -0.25860992 -0.21980576 0.20011832 0.14498398 -0.13009769 -0.11834588
-0.06551525 0.48280704 -0.3787134 0.006709953 0.21219423 -0.116986886 -0.31161636 0.20903519
-0.11013533 -0.2963993 -0.58013856 -0.10660971 -0.17292665 0.13331933 -0.19866396 -0.06047977
-0.46125397 0.37018394 0.0058777225 0.16787516 -0.17663704 0.2320724 0.060888063 -0.14228985
-0.102218345 -0.24871701 0.16352998 -0.30971497 -0.035818327 0.0378434 0.32464597 0.0223106
0.011102028 -0.21521321 -0.25197592 0.10049937 0.4158948 -0.23986572 -0.28643936 -0.46599254
-0.78041035 0.2085822 0.17476249 -0.065439254 0.24102801 -0.1272486 -0.16405152 -0.38640836
0.06632588 -0.14562471 -0.33066604 -0.010708264 0.018077176 -0.1891004 0.24592155 0.21311513
0.12626809 -0.5814737 -0.19884576 0.33999416 -0.086099744 0.15525088 -0.22116475 -0.22249989
-0.0097473245 -0.1434134 -0.038476694 0.41935188 0.14503464 -0.10587211 0.07587008 -0.042313002
0.21416715 -0.22536092 0.14741585 0.07760011 0.022211505 -0.20043719 0.24958724 -0.067166306
0.095727384 -0.01753477 -0.013381721 0.08209877 -0.26173916 -0.13360842 0.21253994 -0.16182825
-0.20600726 0.19266176 0.23411684 -0.37013626 0.26302698 -0.3228459 -0.06235285 -0.30412406
-0.031753287 -0.01627525 -0.20179915 0.30672282 -0.2579364 0.17487872 -0.13768835 -0.2763423
0.26265708 -0.24534935 -0.34296843 0.31383964 -0.081051216 0.47054636 -0.5361741 0.12448665
-0.23092377 0.14763936 -0.051627733 -0.108874686 0.01777729 0.051580794 0.22316448 -0.39192775
-0.18411444 -0.4637514 0.09374106 -0.110481046 0.087788045 0.036465038 0.09288126 0.12941523
-0.1775788 0.11515107 0.12790723 0.43906912 0.09970004 0.11758742 -0.044915497 0.06075172
-0.056956388 0.038563866 -0.16668306 -0.024951832 -0.106971815 -0.043549802 0.054157946 -0.031967867
0.027040603 0.22227637 0.12186404 -0.15907155 -0.33148858 -0.16848311 0.35665965 -0.112756446
0.08884603 0.1068377 -0.12157943 0.3325555 -0.034411654 0.121907264 -0.07326982 0.07513694
0.11563088 0.03148358 0.040354244 -0.18848348 0.15359683 0.19839871 0.10818626 0.35800076
0.24233633 0.02543724 0.077811696 0.055183154 -0.10028417 -0.20030607 -0.0006783853 0.13890427
00000000: cee8 823c 76b9 143e 5e21 6f3e fcab bcbc
00000010: 4599 18be c89e dbbd 1529 543d 557e 2dbe
00000020: d5c6 19be d904 b2bd 5bcf 7ebd 28dd 3abe
00000030: b6be b5bd 1c20 6d3d 08f5 d9bc dfae 5ebe
00000040: 995e 223d c34d 973d 9433 f23d 792d cabd
00000050: 05df a73d 0d6b 9c3d 9e76 b63c eba1 f13d
00000060: 6f1e 063e f7da d63c 5c69 4dbd 0b80 82be
00000070: 1ce3 cdbd c867 ccbd e099 32bd c2b1 6f3e
00000080: 77f4 963c dfd3 853e 9996 8a3e 37ba 6bbe
00000090: 8177 433d 820b 55be e733 27be 62c1 30be
000000a0: 04d3 93be b6a9 22be e2d3 de3d 20c2 ad3e
000000b0: ac0e 9abd 0cbe 06be 3978 3f3c 04dd 0e3e
000000c0: 558f b2bd 6d7a 8a3d bc7a 8cbe 3191 21be
000000d0: 3247 30be 0f55 dbbd c24c 8f3e d22d 1f3e
000000e0: dc58 96be 8391 60be aa3d ca3b 7e09 05be
000000f0: 9e58 98be b869 ec3d 2312 f7bd 8733 c63c
00000100: 72c4 42bd 4bc1 6d3e 8130 533e a27b 803d
00000110: f39d e6be b677 153e 55b5 05be 7fb4 bd3d
00000120: a8f4 343d 5d0c 813d 8568 84be c314 61be
00000130: d1eb 4c3e ae76 143e 5438 05be 535f f2bd
00000140: dc2c 86bd 7c32 f73e b9e6 c1be 2adf db3b
00000150: 7249 593e d296 efbd 2e8c 9fbe 520d 563e
00000160: a28e e1bd a6c1 97be f683 14bf 3156 dabd
00000170: af13 31be dd84 083e 916e 4bbe a3b9 77bd
00000180: 7b29 ecbe c088 bd3e e999 c03b 77e7 2b3e
00000190: 57e0 34be 63a4 6d3e c365 793d 6eb4 11be
000001a0: da57 d1bd acaf 7ebe 6774 273e f692 9ebe
000001b0: 3db6 12bd ae01 1b3d ff37 a63e b8c4 b63c
000001c0: 48e5 353c da60 5cbe fd02 81be 9dd2 cd3d
000001d0: 2af0 d43e 5c9f 75be 2ea8 92be 9396 eebe
000001e0: f9c8 47bf 9296 553e f0f4 323e 0405 86bd
000001f0: 0cd0 763e 754d 02be 1ffd 27be 51d7 c5be
00000200: ddd5 873d a51e 15be 0f4d a9be b771 2fbc
00000210: 9616 943c 89a3 41be dcd2 7b3e da3a 5a3e
00000220: 6c4c 013e 76db 14bf 399e 4bbe b713 ae3e
00000230: 1055 b0bd 16fa 1e3e 0379 62be 03d7 63be
00000240: 3eb3 1fbc f6da 12be bd99 1dbd 4ab5 d63e
00000250: f683 143e 7ad3 d8bd c661 9b3d 6650 2dbd
00000260: a24e 5b3e 03c5 66be 2ef4 163e ceec 9e3d
00000270: e7f4 b53c 683f 4dbe cc93 7f3e 7d8e 89bd
00000280: b80c c43d 14a5 8fbc 023f 5bbc 6623 a83d
00000290: ad02 86be a5d0 08be 12a4 593e 4eb6 25be
000002a0: 91f3 52be 2049 453e 53bc 6f3e 8082 bdbe
000002b0: 79ab 863e 0f4c a5be b465 7fbd 26b6 9bbe
000002c0: bc0f 02bd ac53 85bc 70a4 4ebe c60a 9d3e
000002d0: 3d10 84be 6813 333e 2dfe 0cbe bd7c 8dbe
000002e0: fd7a 863e dc3c 7bbe 8f99 afbe 97af a03e
000002f0: 2efe a5bd 74eb f03e b542 09bf dbf2 fe3d
00000300: 4877 6cbe c62e 173e 9a77 53bd b1f9 debd
00000310: aea1 913c 6246 533d 3b85 643e c1aa c8be
00000320: 7f88 3cbe d370 edbe 50fb bf3d e343 e2bd
00000330: 38ca b33d 5d5c 153d 8838 be3d 6d85 043e
00000340: 38d7 35be 53d4 eb3d 1dfa 023e abcd e03e
00000350: 892f cc3d acd1 f03d 50f9 37bd ccd6 783d
00000360: 1a4b 69bd 25f5 1d3d f7ae 2abe c967 ccbc
00000370: 0a14 dbbd 4761 32bd b9d4 5d3d bdf0 02bd
00000380: 4184 dd3c 6b9c 633e db93 f93d a7e3 22be
00000390: dfb8 a9be d686 2cbe 189c b63e daec e6bd
000003a0: e8f4 b53d b9cd da3d a3fe f8bd b744 aa3e
000003b0: 3cf3 0cbd 84aa f93d 7d0e 96bd 65e1 993d
000003c0: e2cf ec3d edf4 003d 7e4a 253d d001 41be
000003d0: 7d48 1d3e 0829 4b3e c290 dd3d e04b b73e
000003e0: 0427 783e c261 d03c bd5b 9f3d bb07 623d
000003f0: c961 cdbd 091d 4dbe abd5 31ba ec3c 0e3e

network.6.bias f4 [5]
0.19956467 -0.1467304 0.019473413 0.28226703 0.032190636
00000000: ae5a 4c3e 7e40 16be b586 9f3c 4e85 903e
00000010: 54da 033d
