experiments/checkpoints/20251210_110803/checkpoint_ep9.pt (torch, 244741 bytes, 24 tensors)

network.0.weight f4 [128, 43]
0	0xbba516b0	-0.005038105
1	0xbd33f01e	-0.043930165
2	0xbe1c193a	-0.15243998
3	0x3ceed1f9	0.029152857
4	0xbda361f1	-0.07977665
5	0xbe23f0cc	-0.16009825
6	0xbe5c4136	-0.21509251
7	0x3e0cba4a	0.13742939
8	0x3e281da5	0.16417558
9	0xbe260874	-0.16214162
10	0xbc90cf01	-0.017676832
11	0xbdecae38	-0.11556667
12	0xbe3fef0b	-0.18743531
13	0x3d8bd150	0.068270326
14	0x3beb9f6e	0.0071906364
15	0xbc8f777e	-0.017513033
16	0xbde093f2	-0.10965718
17	0x3c66ad54	0.014079411
18	0x3c88109d	0.016609484
19	0xbda3ad03	-0.07991984
20	0xbe0c73f5	-0.13716109
21	0xbdb3bed6	-0.087766334
22	0x3e04f83c	0.12985319
23	0xbaa768ab	-0.0012772282
24	0xbdbb1633	-0.091350935
25	0x3e2b9e1f	0.16759537
26	0xbd3c7f56	-0.046019875
27	0xbe084500	-0.13307571
28	0xbd3dab45	-0.046305913
29	0xbc061671	-0.008184061
30	0x3d8bc032	0.06823768
31	0x3dc02a89	0.09383113
32	0xbe3ac577	-0.1823939
33	0x3deb4594	0.1148788
34	0x3e23ad9c	0.15984195
35	0xbc0a1607	-0.008428103
36	0x3e209269	0.15680851
37	0x3e019503	0.126545
38	0x3c1d6317	0.009606144
39	0xbe9acc6e	-0.30234092
40	0x3c698ea6	0.014255201
41	0x3d0a758d	0.03380351
42	0x3d1a9b04	0.03774549
43	0xbe2927d1	-0.16519095
44	0x3e692551	0.22768141
45	0xbda337ce	-0.07969628
46	0xbd4c82e1	-0.049929503
47	0xbbc837f7	-0.006110187
48	0xbe3d0570	-0.18459105
49	0x3e113c23	0.14183097
50	0x3da94854	0.082657486
51	0x3dbbbb85	0.09166626
52	0xbd1bbe7b	-0.038023453
53	0x3d2c077c	0.041999325
54	0x3d34abc5	0.044109125
55	0xbd7f09fd	-0.062265385
56	0xbe01d317	-0.1267818
57	0xbd08f170	-0.033433378
58	0x3d749f24	0.05972208
59	0xbe460c5f	-0.19340657
60	0x3bb905fb	0.005646465
61	0xbe541da5	-0.20714433
62	0xbe3e60d6	-0.18591627
63	0x3d7b8b31	0.06141204
64	0x3da80e0f	0.082058065
65	0xbda6aadc	-0.081380576
66	0x3dedc522	0.11609866
67	0xbd3ed13a	-0.046586253
68	0xbdc55758	-0.096358
69	0x3dc6877a	0.09693809
70	0x3c4d5b9e	0.01253405
71	0x3d348698	0.04407367
72	0xbe1b6d69	-0.15178455
73	0x3e2097d8	0.15682924
74	0xbd8de6eb	-0.0692881
75	0xbd893b11	-0.06700719
76	0xbc14662c	-0.009057563
77	0xbdfc5650	-0.1232115
78	0x3e6e3b06	0.23264703
79	0xbe10597b	-0.14096634
80	0xbd0da27a	-0.034578778
81	0x3ddc763f	0.10764741
82	0x3cb912e6	0.02259202
83	0x3de1781b	0.110092364
84	0xbea4d69d	-0.32194987
85	0x3dc63fb6	0.09680121
86	0x3da9e739	0.08296055
87	0x3d270349	0.040774617
88	0x3ca9482a	0.020664293
89	0xbda9a55c	-0.08283493
90	0x3e004424	0.12525994
91	0xbda57b22	-0.08080126
92	0xbc342775	-0.010995735
93	0x3d31cc3f	0.043407675
94	0x3d26b0ad	0.040695835
95	0xbdbfcfa9	-0.0936578
96	0xbd09e661	-0.033666972
97	0xbb9b7777	-0.004744466
98	0xbe95a470	-0.29227018
99	0xbe85580c	-0.26043737
100	0xbc7ba080	-0.01535809
101	0x3e1141b2	0.14185217
102	0xbe1464fa	-0.14491645
103	0x3e6dbc6b	0.23216407
104	0x3e27ee73	0.16399555
105	0x3d1c576d	0.038169313
106	0xbe3c52b5	-0.18390925
107	0x3e23852d	0.15968771
108	0x3dc7dab6	0.09758513
109	0xbe33d824	-0.1756292
110	0x3d757e98	0.059935182
111	0xbe19b20a	-0.15009323
112	0x3c885dd5	0.016646305
113	0x3df5b5f5	0.11997596
114	0xbcd188f4	-0.025578
115	0x3daf2c11	0.08553327
116	0xbe2ade46	-0.16686353
117	0x3c926c0e	0.01787379
118	0x3e0d0a16	0.13773379
119	0x3db5aaf3	0.088704966
120	0xbdcaf9f5	-0.09910957
121	0xbe3e92ae	-0.18610641
122	0x3e706356	0.23475394
123	0x3edd6292	0.43239266
124	0x3cacc672	0.02109072
125	0xbbf71c78	-0.0075412355
126	0xbc5761d8	-0.013145886
127	0xbd5e1f1d	-0.05422889
128	0xbd14a007	-0.036285426
129	0x3c378205	0.011200433
130	0xbdb85657	-0.09000843
131	0x3dde0f5f	0.108427756
132	0xbda8cb85	-0.08241943
133	0x3e2b6759	0.16738643
134	0xbe3a2b94	-0.18180686
135	0xbe2d97e8	-0.16952479
136	0xbe37f633	-0.17965011
137	0xbcdcd212	-0.026955638
138	0x3d6fac1c	0.058513746
139	0xbe097709	-0.13424315
140	0x3c4c31f2	0.01246308
141	0xbe492802	-0.19644168
142	0xbea4ee86	-0.3221323
143	0x3ed6138c	0.41811788
144	0x3de17e41	0.11010409
145	0xbeb8fd7e	-0.361309
146	0x3e6d3a6a	0.23166814
147	0x3e519d88	0.2047025
148	0x3db4f41f	0.08835625
149	0xbd91e78f	-0.071242444
150	0x3e3c1c45	0.18370159
151	0xbc92a2d4	-0.017899908
152	0xbca005f0	-0.019534081
153	0xbdf6b375	-0.120459475
154	0x3daf927f	0.08572864
155	0xbe3f2a96	-0.18668589
156	0xbdd29101	-0.102815636
157	0xbde2d12e	-0.11075054
158	0x3ea3e2ad	0.32008877
159	0xbdd318d0	-0.10307467
160	0xbd059884	-0.032616153
161	0x3dabc7bf	0.08387708
162	0xbd01804d	-0.031616498
163	0xbd0210a8	-0.031754166
164	0x3ab63f94	0.0013904446
165	0x3e4711ef	0.19440435
166	0x3e578581	0.21047021
167	0x3c7012be	0.014652906
168	0xbd17e9b0	-0.037088096
169	0xbdda3c4f	-0.10656034
170	0xbe268ad2	-0.16263893
171	0x3d1c057a	0.03809116
172	0xbe153f34	-0.14574891
173	0xbe16e39f	-0.14735268
174	0x3e115fce	0.14196703
175	0xbe8d8e84	-0.27647793
176	0xbc1af06d	-0.009456736
177	0x3e095f1e	0.1341519
178	0x3dc4d596	0.09611051
179	0xbdb287ae	-0.08717285
180	0xbd3c083a	-0.045906283
181	0x3e0ff048	0.14056504
182	0xbdd4df66	-0.10394172
183	0xbe2f40ab	-0.17114513
184	0xbd9fefcc	-0.078094095
185	0xbe15c5ef	-0.14626287
186	0xbd96ca36	-0.073627874
187	0xbd08c6b5	-0.033392627
188	0xbdc03a70	-0.09386146
189	0xbdba0d7e	-0.09084605
190	0xbdc8990f	-0.097948186
191	0xbdabb1c6	-0.08383517
192	0x3e311e53	0.17296724
193	0xbe32da30	-0.17466044
194	0x3d0d1649	0.03444508
195	0x3e211557	0.15730797
196	0xbc872108	-0.016495243
197	0x3da52c43	0.08065083
198	0x3e0edda6	0.1395174
199	0x3db60736	0.08888094
200	0x3de38782	0.111098304
201	0x3db53f24	0.08849934
202	0xbd251bd0	-0.040309727
203	0xba720b41	-0.00092332443
204	0xbe3837bc	-0.17990011
205	0xbe866867	-0.26251528
206	0x3ddaf054	0.1069037
207	0xbe051324	-0.12995583
208	0x3e2b46fb	0.16726296
209	0x3e12a5c9	0.14321055
210	0xbcab2a81	-0.02089429
211	0xbe15c6ba	-0.1462659
212	0x3bc30fa6	0.005952793
213	0x3e80934d	0.25112382
214	0x3df00d09	0.11721236
215	0xbd01593a	-0.031579234
216	0x3db4e90c	0.08833513
217	0x3e005e64	0.12536007
218	0xbdb7faaa	-0.08983357
219	0x3e0f9deb	0.14025085
220	0x3e04a312	0.12952831
221	0x3e5739e3	0.21018176
222	0x3cb6f0e6	0.022331666
223	0x3d14f2c0	0.036364317
224	0xbe21a78f	-0.15786575
225	0x3d4bf386	0.04979279
226	0xbd38644d	-0.04501753
227	0xbea01849	-0.31268528
228	0xbd4755ab	-0.048665684
229	0x3f03112e	0.5119809
230	0x3ef1699f	0.47150895
231	0xbec18cf6	-0.37802857
232	0xbdfaf01e	-0.1225283
233	0xbe7cd2f0	-0.24689841
234	0x3d81b958	0.0633418
235	0x3da6c859	0.08143682
236	0x3df4403a	0.11926313
237	0x3dcf846c	0.10132679
238	0xbe027fa9	-0.12744011
239	0xbda34b77	-0.07973378
240	0xbe028256	-0.12745032
241	0xbdf1912e	-0.11795269
242	0x3e433019	0.19061317
243	0x3eab1d07	0.33420584
244	0x3e93b8ab	0.28851828
245	0x3e0aa927	0.13541089
246	0x3c60f232	0.013729619
247	0x3c5cac0c	0.013468754
248	0x3e524e93	0.20537786
249	0x3dc4fdc3	0.09618714
250	0x3d0844be	0.033268683
251	0x3deee97c	0.11665627
252	0xbe291a65	-0.16513975
253	0xbe18670e	-0.14883062
254	0xbd9818c1	-0.074265964
255	0xbd52c8c6	-0.051461004

network.0.bias f4 [128]
0	0xbe91ca48	-0.2847464
1	0xbeb756b8	-0.3580835
2	0xbeab3ba1	-0.3344393
3	0xbe7cd11a	-0.24689141
4	0xbee55274	-0.4478947
5	0xbe6a6db8	-0.22893417
6	0xbecbe543	-0.3982335
7	0xbe692022	-0.22766164
8	0xbe80898f	-0.2510495
9	0xbe942ea4	-0.28941834
10	0xbebbd8e2	-0.36688906
11	0xbeeb021a	-0.4590004
12	0xbe8cdc4c	-0.27511823
13	0xbe1cabe7	-0.1529995
14	0xbe2c2525	-0.16811045
15	0xbe634a25	-0.22196253
16	0xbef23737	-0.4730775
17	0xbe077814	-0.132294
18	0xbe4efdb8	-0.20213974
19	0xbe074907	-0.13211451
20	0xbe872619	-0.26396254
21	0xbe8c8e97	-0.27452537
22	0xbb9fea3d	-0.0048802183
23	0xbece3879	-0.4027746
24	0xbe71e70c	-0.23623294
25	0xbde12e46	-0.10995154
26	0xbd0c0274	-0.034182027
27	0xbebd2f6e	-0.36950248
28	0xbe8000dc	-0.25000656
29	0xbe258bf0	-0.16166663
30	0xbedb261a	-0.42802507
31	0xbe873181	-0.26404956
32	0xbe8fd3b1	-0.28091195
33	0xbd60e74e	-0.05490809
34	0xbf08eec1	-0.5348931
35	0x3d880196	0.066409275
36	0xbe925192	-0.28577858
37	0xbebf05a4	-0.3730899
38	0xbde3a913	-0.11116233
39	0xbe82e238	-0.25563216
40	0xbea2b39f	-0.31777665
41	0x3e3cb232	0.18427351
42	0xbea6654a	-0.32499152
43	0x3d941a28	0.072315514
44	0xbf009992	-0.5023433
45	0xbea7aa40	-0.32747078
46	0xbc7f311a	-0.015575672
47	0xbeb6f269	-0.3573182
48	0xbe6edb74	-0.23325902
49	0xbeb94bb9	-0.36190584
50	0xbee18914	-0.44049895
51	0xbe580153	-0.21094255
52	0xbee6029c	-0.44923866
53	0xbe48dcbb	-0.19615452
54	0xbe64b3b4	-0.22334176
55	0xbeab368c	-0.33440053
56	0xbd0d2d51	-0.034467045
57	0xbea036b3	-0.31291732
58	0xbdd388ec	-0.1032885
59	0xbe54d784	-0.20785338
60	0xbe9472ac	-0.28993738
61	0xbebde1cf	-0.3708634
62	0xbde413b7	-0.11136573
63	0xbe7376cf	-0.2377579
64	0xbeaa3144	-0.33240712
65	0x3e1107b3	0.14163093
66	0x3b5165e0	0.0031951591
67	0xbe84d683	-0.2594491
68	0xbe954fc5	-0.29162422
69	0xbe02b982	-0.12766078
70	0xbee8f7a8	-0.45501447
71	0xbd98b1ab	-0.074557625
72	0xbe42c2a8	-0.19019568
73	0xbe1d020c	-0.15332812
74	0xbdac6595	-0.08417813
75	0xbd07900a	-0.03309635
76	0xbd8ea7eb	-0.069656216
77	0xbdc2894d	-0.09498844
78	0xbe8d6397	-0.27615044
79	0x3da31ae4	0.07964113
80	0xbe15db6c	-0.14634484
81	0xbed0ffb9	-0.408201
82	0xbe2a44cb	-0.16627805
83	0xbdfb0b61	-0.1225803
84	0xbe9edf07	-0.3102953
85	0xbe55521e	-0.20832106
86	0x3d34f228	0.04417625
87	0xbe94b1b8	-0.2904184
88	0xbe16312b	-0.14667194
89	0xbe5802be	-0.21094796
90	0xbe5d4a6b	-0.2161042
91	0xbe5cb384	-0.21552855
92	0x3d864ef6	0.06558029
93	0xbf011774	-0.5042641
94	0xbe3a6e2b	-0.18206088
95	0xbdbec91b	-0.093157016
96	0xbdf84199	-0.12121887
97	0xbbbe3230	-0.0058043227
98	0xbcf21df3	-0.029555297
99	0xbe8390e8	-0.25696492
100	0xbe610688	-0.21975148
101	0xbe16d24d	-0.14728661
102	0xbe7ba919	-0.24576224
103	0xbeaf061a	-0.34184343
104	0xbece4773	-0.40288886
105	0xbe98779e	-0.2977876
106	0xbe4eeedd	-0.20208307
107	0xbe1fa164	-0.1558891
108	0x3e28c39c	0.16480869
109	0xbeb1741b	-0.34658894
110	0xbdeeba1d	-0.11656592
111	0xbe20b3a1	-0.15693523
112	0xbd763f7b	-0.060119133
113	0xbec28ad7	-0.3799655
114	0xbec271b5	-0.37977377
115	0xbe4c2691	-0.19936587
116	0xbebead81	-0.37241748
117	0xbdde073d	-0.10841224
118	0xbe90b194	-0.2826048
119	0xbb66ee86	-0.0035237386
120	0x3d498d54	0.049207047
121	0xbe956035	-0.29174963
122	0xbe72550f	-0.2366526
123	0xbd865524	-0.06559208
124	0xbe3f1abc	-0.18662542
125	0xbec4ba01	-0.3842316
126	0xbea579e7	-0.32319567
127	0xbe2bec7b	-0.16789429

network.3.weight f4 [64, 128]
0	0x3d2a60e1	0.041596297
1	0xbd83e353	-0.06439843
2	0xbdaea042	-0.085266605
3	0xbe03b625	-0.12862451
4	0xbd761aaa	-0.060084023
5	0x3de584d9	0.11206979
6	0xbe7c6a79	-0.24649991
7	0xbe2a1397	-0.16609035
8	0xbd646868	-0.055763632
9	0x3e164631	0.14675213
10	0xbe09dae9	-0.13462414
11	0xbdb1e005	-0.086853065
12	0xbcb3a6b9	-0.021930085
13	0x3e2427c3	0.16030793
14	0xbe66ca70	-0.22538161
15	0xbe37e08a	-0.17956749
16	0xbd98082e	-0.07423435
17	0xbe6bce04	-0.23027807
18	0xbe644764	-0.22292858
19	0x3cc895d2	0.024485502
20	0xbea1a4d3	-0.31571063
21	0xbbbdc210	-0.0057909563
22	0xbd85a7b7	-0.0652613
23	0xbd2d7660	-0.04234922
24	0xbded96e7	-0.11601048
25	0x3c85702a	0.016288836
26	0xbe049da9	-0.12950768
27	0xbd53043e	-0.051517718
28	0xbe170da2	-0.14751294
29	0x3e2197dc	0.15780586
30	0x3d8d49c7	0.068988375
31	0xbe0cd03e	-0.13751313
32	0x3e31aec6	0.17351827
33	0xbd7f70ad	-0.062363315
34	0xbe248abe	-0.16068551
35	0xbe4a6e57	-0.19768654
36	0xbde2a715	-0.110670246
37	0xbdbf54d3	-0.09342351
38	0x3b0a5baa	0.0021111765
39	0xbdf5340a	-0.11972816
40	0xbe0d437a	-0.13795272
41	0xbc1047b6	-0.00880616
42	0xbdec3c7e	-0.115349755
43	0xbe285613	-0.16439085
44	0xbdfcd585	-0.12345413
45	0x3dbc4cb2	0.09194316
46	0xbc174016	-0.009231588
47	0x3c132d55	0.008982976
48	0xbeb13fcf	-0.34618995
49	0xbdee4688	-0.116345465
50	0xbe5d5b2a	-0.21616808
51	0xbe07ab54	-0.1324895
52	0xbe3d169a	-0.18465653
53	0x3d3927d0	0.045203984
54	0xbdd0fbad	-0.10204253
55	0x3d2be5b9	0.041967127
56	0x3d62cca6	0.05537095
57	0xbd263dba	-0.04058621
58	0xbe54d21c	-0.20783275
59	0x3d8ac41b	0.067756854
60	0xbe02ba49	-0.12766375
61	0x3d63ecd3	0.055645775
62	0xbd86bb12	-0.065786496
63	0xbe688a0c	-0.2270891
64	0xbea2416b	-0.31690535
65	0xbe43c4ad	-0.19117995
66	0x3d1b35c9	0.03789309
67	0xbd620e53	-0.055189442
68	0xbdd03934	-0.10167161
69	0x3d254f99	0.040359113
70	0x3e56e053	0.2098401
71	0xbe064353	-0.1311162
72	0xbe0499c8	-0.12949288
73	0xbe402962	-0.18765786
74	0xbe055f5f	-0.13024662
75	0xbb94fd2f	-0.0045467834
76	0xbe8691dd	-0.2628316
77	0xbe22735b	-0.15864317
78	0xbe553eee	-0.20824787
79	0x3d0b4f18	0.034010977
80	0xbe246a63	-0.16056208
81	0xbe63db13	-0.22251539
82	0xbe90dbf6	-0.28292817
83	0x3da0082b	0.07814058
84	0x3cd7d9af	0.026348917
85	0x3dbb228e	0.0913745
86	0xbdc90573	-0.098154925
87	0xbdf46efd	-0.11935232
88	0xbe06ff97	-0.13183437
89	0xbe105b35	-0.14097293
90	0x3df61fd1	0.12017787
91	0xbcd663b2	-0.026170585
92	0xbdc39680	-0.0955019
93	0xbcd89011	-0.026435884
94	0xbe3f0d74	-0.18657476
95	0xbd2420e5	-0.040070433
96	0xbdb305f0	-0.08741367
97	0xbd97fdb4	-0.07421437
98	0x3aad4a69	0.0013221028
99	0xbe409278	-0.18805873
100	0x3ceae0fa	0.02867173
101	0x3d4785c7	0.048711564
102	0xbe20abdc	-0.15690559
103	0xbce4366b	-0.02785798
104	0xbd6235f3	-0.05522723
105	0xbde92558	-0.11384076
106	0xbe61b131	-0.2204025
107	0xbe142078	-0.14465511
108	0xbde24969	-0.11049158
109	0xbd1e2c94	-0.03861673
110	0xbe7c994c	-0.24667853
111	0xbddab3a2	-0.106787935
112	0xbd805c7a	-0.062676385
113	0xbcb2e6ca	-0.021838564
114	0xbdf19c85	-0.11797432
115	0xbdec141c	-0.11527273
116	0xbe9b534f	-0.30336997
117	0xbe1cc113	-0.15308027
118	0xbdcb7bed	-0.09935746
119	0xbe55cf06	-0.20879754
120	0xbdc196c9	-0.09452588
121	0xbd35dae0	-0.04439819
122	0xbe228926	-0.1587263
123	0xbe110c65	-0.14164884
124	0xbe8aeb0d	-0.27132455
125	0xbc1f6f94	-0.009731192
126	0x3df8f50a	0.121561125
127	0x3dbb0501	0.09131814
128	0xbd607392	-0.054797716
129	0xbe430853	-0.19046144
130	0xbc72a742	-0.014810385
131	0xbd88ebca	-0.06685598
132	0xbead77d8	-0.33880496
133	0xbdd5732d	-0.10422359
134	0xba89975e	-0.0010497381
135	0xbd5b1bf4	-0.053493455
136	0xbde6cf41	-0.11269999
137	0xbdcaeef3	-0.09908857
138	0xbdb0c601	-0.08631516
139	0xbcb23976	-0.021755915
140	0xbe622e51	-0.22087981
141	0xbdea24aa	-0.11432774
142	0xbd66a1d8	-0.05630669
143	0xbd4571ca	-0.04820422
144	0xbe257074	-0.16156179
145	0xbe15676d	-0.14590235
146	0xbe4d1725	-0.2002836
147	0x3dbc40ba	0.09192033
148	0x3d280c18	0.04102716
149	0xbd9a9ddc	-0.075496405
150	0xbdba4485	-0.090951
151	0xbe83f9e6	-0.25776595
152	0x3d0c746c	0.034290716
153	0xbde90b6c	-0.11379132
154	0xbe56f4b7	-0.20991789
155	0xbe9146ba	-0.28374273
156	0x3de1203e	0.10992478
157	0xbcd91a17	-0.026501698
158	0xbc1e6cb0	-0.009669468
159	0xbe3e8dc0	-0.18608761
160	0xbd879ea5	-0.06622056
161	0xbe8b4a0a	-0.27204925
162	0xbdf68c0b	-0.1203843
163	0x3d23c2d6	0.039980732
164	0xbe4600e0	-0.19336271
165	0xbe6a20d0	-0.2286408
166	0xbdad7cd3	-0.08471074
167	0xbe0e3c91	-0.13890292
168	0x3d6c114c	0.057633683
169	0xbe4359a8	-0.1907717
170	0x3d90a33e	0.07062386
171	0xbde84316	-0.113409206
172	0xbcfee917	-0.031117005
173	0xbe22d92b	-0.15903156
174	0xbe6d5d57	-0.23180138
175	0xbd0d4ac5	-0.034495134
176	0xbd2ca9ed	-0.04215424
177	0xbde9232f	-0.11383664
178	0xbd9ca828	-0.07649261
179	0xbd0b6f3a	-0.03404162
180	0xbe09db4c	-0.13462561
181	0x38fe3f65	0.00012123472
182	0xbe29d99d	-0.16586919
183	0x3d22e9f7	0.039773908
184	0xbe4870ba	-0.19574252
185	0x3d9e7638	0.07737392
186	0x3c5948e5	0.013262008
187	0xbe3bdb5a	-0.18345395
188	0x3d829334	0.06375733
189	0xbbaa3234	-0.005193973
190	0xbdd18d30	-0.102320075
191	0xbdcb42e0	-0.09924865
192	0xbe267381	-0.16254999
193	0xba9a0e2c	-0.0011753491
194	0x3a700b49	0.0009156955
195	0x3e0561d3	0.13025598
196	0xbe6ee7ab	-0.23330562
197	0x3dbfbf1c	0.09362623
198	0xbdc92dc6	-0.09823184
199	0xbe277c36	-0.16355976
200	0xbe6f0ad1	-0.2334397
201	0xbe0f87bd	-0.14016624
202	0xbe1c970b	-0.15291993
203	0xbe0e7114	-0.13910323
204	0xbe0e81f9	-0.13916768
205	0x3dfebef0	0.12438762
206	0xbd4089bc	-0.047006354
207	0xbe3449b0	-0.17606235
208	0x3d7213d3	0.059100937
209	0xbe09ffb7	-0.13476454
210	0xbce775cb	-0.02825441
211	0x3d4d5240	0.050127268
212	0x3d1f4546	0.038884424
213	0xbe33bf39	-0.17553414
214	0xbe95bf21	-0.29247382
215	0xbe646563	-0.22304301
216	0xbdbcb2a1	-0.09213758
217	0xbdb1e0e4	-0.086854726
218	0x3c10d10f	0.008838906
219	0xbd97c16b	-0.074099384
220	0xbd89e9a0	-0.067340136
221	0x3dacea60	0.08443141
222	0x3dd3f6a9	0.10349781
223	0xbe5aaf00	-0.2135582
224	0xbe6aad88	-0.2291776
225	0xbe23d0cd	-0.1599762
226	0xbd9bea7b	-0.07613083
227	0x3ba351e5	0.004984128
228	0xbe15bedf	-0.14623593
229	0x3d8f2fe6	0.06991558
230	0xbe123ff1	-0.14282204
231	0x3db89c30	0.090141654
232	0x3de6eeca	0.11276014
233	0xbd84c262	-0.06482388
234	0xbda08034	-0.07836953
235	0xbe31c47d	-0.1736011
236	0xbb842ebc	-0.0040338915
237	0x3db98ec2	0.09060432
238	0xbe013784	-0.12618834
239	0xbdb8552c	-0.0900062
240	0xbdcf89ea	-0.10133727
241	0x3d9d464f	0.07679426
242	0xbe5aaf10	-0.21355844
243	0xbe2b00fb	-0.16699593
244	0xbe1b4b24	-0.15165383
245	0x3cd0eb31	0.025502773
246	0x3d0a7413	0.033802103
247	0xbe1662c0	-0.14686108
248	0xbded2710	-0.11579716
249	0x3d0af8d7	0.03392872
250	0xbe5ea416	-0.21742281
251	0xbe28d4fd	-0.16487499
252	0xbe4f88ac	-0.2026698
253	0x3de62d43	0.11239102
254	0xbcfb3e0b	-0.030669233
255	0x3d2e438c	0.042544886

network.3.bias f4 [64]
0	0xbe1744b5	-0.14772303
1	0xbd8e3e58	-0.06945485
2	0xbe2decbb	-0.16984837
3	0x3c8d9add	0.017285759
4	0xbe00614e	-0.12537119
5	0xbdcc1c43	-0.09966328
6	0xbe3a73e3	-0.1820827
7	0xbdcf4ebf	-0.101224415
8	0xbe31f8e7	-0.17380105
9	0xbd93651d	-0.0719702
10	0xbe15d118	-0.14630544
11	0xbdc5974f	-0.096480004
12	0xbdf8f8a8	-0.121568024
13	0xbea5fb30	-0.32418203
14	0xbe4384f1	-0.19093682
15	0xbde0a34f	-0.10968649
16	0xbd8ab3da	-0.06772585
17	0xbea937d7	-0.33050415
18	0xbdbcd7c7	-0.09220844
19	0xbd68606d	-0.056732584
20	0xbe494559	-0.1965536
21	0xbdde779a	-0.10862656
22	0xbe8bcb43	-0.27303514
23	0xbdb6e4c3	-0.089303516
24	0xbde808e9	-0.113298245
25	0x3d14156e	0.03615325
26	0xbebe9b4f	-0.37227866
27	0xbde7a219	-0.113102145
28	0xbdfa89e0	-0.12233329
29	0xbe021ee9	-0.12707104
30	0xbd9a4878	-0.075333536
31	0xbd45fae0	-0.048334956
32	0xbddb2289	-0.106999464
33	0xbe0e5c84	-0.1390248
34	0xbe349b7d	-0.17637439
35	0xbe462ba2	-0.19352582
36	0xbe9bc5c8	-0.30424333
37	0xbdb4b3fb	-0.08823391
38	0x3e276395	0.16346581
39	0xbe381b38	-0.17979133
40	0xbdbe8a37	-0.09303706
41	0xbde116ac	-0.109906524
42	0xbe2534e5	-0.16133459
43	0xbe6d78f9	-0.23190679
44	0xbe03408e	-0.12817594
45	0xbed3eb23	-0.41390333
46	0x3dd2b026	0.10287504
47	0xbd0ba5b3	-0.03409357
48	0xbe8659ec	-0.2624048
49	0xbe15082d	-0.145539
50	0xbdf0aa81	-0.11751271
51	0xbdbd8012	-0.09252943
52	0xbd874a61	-0.066059835
53	0xbc083f86	-0.008315926
54	0xbdb2595b	-0.087084495
55	0xbd6a7b19	-0.0572463
56	0xbd62378f	-0.055228766
57	0xbdc936b0	-0.09824884
58	0xbe2cfc22	-0.16893056
59	0xbd94d041	-0.07266284
60	0xbd63ee70	-0.055647314
61	0xbdbcd866	-0.09220962
62	0xbdab88c5	-0.08375696
63	0x3ddacb5c	0.10683319

network.6.weight f4 [5, 64]
0	0x3de7a6a7	0.11311083
1	0xbe2f31e3	-0.17108874
2	0xbc9b2b0c	-0.018941425
3	0x3cbe5046	0.023231637
4	0xbd1d5cc0	-0.03841853
5	0xbde956f4	-0.11393538
6	0x3d886f1e	0.06661819
7	0x3a460897	0.00075543806
8	0xbc14a100	-0.0090715885
9	0x3c8cf7ea	0.017208058
10	0xbbcded1e	-0.00628437
11	0xbd4a7e5a	-0.049436904
12	0x3cc19f29	0.023635464
13	0xbd96bf0d	-0.07360659
14	0xbe86c6ef	-0.2632365
15	0x3d6d238e	0.057895236
16	0x3d59981e	0.053123586
17	0xbcd4ae22	-0.02596194
18	0xbdff0910	-0.124529004
19	0xbe2da0e9	-0.16955914
20	0xbd109767	-0.03530064
21	0x3e12c476	0.14332756
22	0xbdc135a6	-0.09434061
23	0x3c1c22e4	0.009529803
24	0x39fbbed0	0.00048016617
25	0xbd7f3bbf	-0.062312838
26	0x3b86ee8b	0.004117792
27	0x3d4c7342	0.049914606
28	0x3dd6305d	0.10458443
29	0xbdc75e75	-0.09734813
30	0x3c96e7ee	0.01842114
31	0x3d9c9156	0.07644908
32	0xbd8a6d5d	-0.06759141
33	0xbcabe8a4	-0.020984955
34	0xbe48b48f	-0.19600128
35	0xbd259df6	-0.040433846
36	0xbdaea13a	-0.08526845
37	0x3cef78a0	0.029232323
38	0x3cf3f484	0.02977968
39	0xbd345057	-0.04402193
40	0x3d0dfb56	0.03466352
41	0xbdd9dfa1	-0.10638357
42	0xbd88ef6e	-0.066862926
43	0xbdae567c	-0.08512589
44	0x3e0f8333	0.14014892
45	0x3d40dd89	0.047086272
46	0x3d1fc3a8	0.03900495
47	0xbdb45540	-0.08805323
48	0x3d206803	0.039161693
49	0x3c8f2bc6	0.017476927
50	0x3e0f530d	0.13996525
51	0xbdaf9bee	-0.08574663
52	0xbd1977fd	-0.037467945
53	0xbd855d76	-0.06511967
54	0x3d4d7912	0.05016429
55	0xbdc820e0	-0.097718954
56	0xbdace3a7	-0.08441859
57	0x3de66cd0	0.11251223
58	0xbdbd027c	-0.092289895
59	0x3da9c5ed	0.082897045
60	0x3d60543f	0.054767843
61	0x3d0c47d5	0.034248192
62	0xbd13bc71	-0.036068384
63	0xbd19c6f5	-0.037543256
64	0xbd42c472	-0.047550626
65	0x3d6ece30	0.058302104
66	0x3e532fe2	0.20623735
67	0x3e3031df	0.17206524
68	0xbe07fa43	-0.13279061
69	0x3e1577bc	0.14596456
70	0x3db212bc	0.086949795
71	0x3dbdb427	0.09262877
72	0x3d36f2a9	0.044665013
73	0x3d810d1b	0.06301328
74	0xbd0c17e2	-0.034202464
75	0xbc0353ed	-0.008015615
76	0x3e4cebef	0.20011877
77	0x3e146eba	0.14495364
78	0xbdfb0498	-0.122567356
79	0xbdf25ebe	-0.11834477
80	0xbd862c76	-0.06551449
81	0xbdd51566	-0.10404472
82	0xbd7dafbe	-0.06193518
83	0x3bf4cc69	0.0074706567
84	0x3e594a00	0.21219635
85	0xbdf47f53	-0.11938348
86	0x3b4c8148	0.0031204987
87	0x3e560d4c	0.2090351
88	0xbde18e65	-0.11013488
89	0xbe9be50e	-0.30448192
90	0xbe880361	-0.26565078
91	0xbdda55ca	-0.10660894
92	0xbe311349	-0.17292513
93	0x3e088500	0.13331985
94	0xbdeb55a3	-0.11490943
95	0xbcf4a63a	-0.02986442
96	0x3e88947e	0.2667579
97	0x3ea4e511	0.32206014
98	0xbe57cf21	-0.21075107
99	0x3d637e9d	0.05554067
100	0xbe34dfb8	-0.17663467
101	0x3e6da4f5	0.23207457
102	0x3eaa5c54	0.33273566
103	0xbe11b4a3	-0.14229064
104	0x3e4973ef	0.19673131
105	0xbe776eda	-0.2416338
106	0x3eb1ceb7	0.34728023
107	0xbcbd6972	-0.02312157
108	0xbd12b5c6	-0.035817884
109	0x3d1b022c	0.037843868
110	0x3dfabcb1	0.12243021
111	0xbe6989b3	-0.22806434
112	0x3c35e599	0.011102104
113	0xbe5c611b	-0.21521418
114	0x3ea141b6	0.31495446
115	0x3dcdd29d	0.10049937
116	0x3eac6a4d	0.3367485
117	0x3d796355	0.060885746
118	0xbe56a76a	-0.20962301
119	0xbe9b6d53	-0.30356845
120	0xbde670e3	-0.11252
121	0x3e5596bb	0.2085828
122	0x3da6e049	0.08148248
123	0xbd7e8ef1	-0.06214804
124	0x3e0f94ee	0.14021656
125	0x3caf05fa	0.021365155
126	0x3cc8fe63	0.024535364
127	0xbe32b00c	-0.17449969
128	0x3d87d5d6	0.06632583
129	0xbe95acc6	-0.29233378
130	0x3e11f678	0.14254177
131	0xbd7c1c6e	-0.06155055
132	0x3c941740	0.018077493
133	0xbe9d6feb	-0.3074945
134	0x3e857d08	0.26071954
135	0xbdca2ac8	-0.09871441
136	0x3e014c56	0.12626776
137	0xbe8066aa	-0.25078326
138	0x3e7da0c7	0.24768363
139	0x3e3231a3	0.17401747
140	0xbda58f20	-0.080839396
141	0x3e1ebbae	0.15501282
142	0xbe673c1d	-0.22581525
143	0x3d832081	0.06402684
144	0xbc1fb38d	-0.009747398
145	0xbe12db21	-0.14341404
146	0xbda6ebbf	-0.08150434
147	0x3e0a3d60	0.13499975
148	0x3e14844f	0.14503597
149	0x3e41af90	0.18914628
150	0x3c8979d4	0.016781725
151	0xbe8d961e	-0.27653593
152	0x3d9c47a2	0.076308504
153	0x3e0b6e2f	0.1361625
154	0xbdbfbe23	-0.093624376
155	0x3d9eecf2	0.077600375
156	0x3cb5f417	0.022211118
157	0xbe4d3f38	-0.20043647
158	0x3e68fbd8	0.22752321
159	0xba9fc4fa	-0.0012189441
160	0x3e0f6662	0.140039
161	0xbd3420e3	-0.043976676
162	0x3e79ad6a	0.24382558
163	0x3eb3a032	0.35083157
164	0x3d387595	0.04503401
165	0x3cea5e64	0.028609462
166	0x3da1bc6f	0.07897269
167	0xbe876c2d	-0.2644972
168	0xbe52f363	-0.20600657
169	0x3dc3ec29	0.09566528
170	0x3e6fbc5e	0.234117
171	0xbe9d811d	-0.30762568
172	0x3e86ab79	0.26302698
173	0xbea54663	-0.32280263
174	0x3e1a6f90	0.1508162
175	0xbda92fcc	-0.0826107
176	0xbd020f1b	-0.031752687
177	0xbc855351	-0.01627508
178	0xbc9de0b9	-0.019272195
179	0x3d56731b	0.052355867
180	0xbe14940f	-0.14509605
181	0x3e2e3693	0.17013006
182	0x3c4e9272	0.0126081575
183	0xbe196815	-0.1498111
184	0x3e6b59dd	0.22983499
185	0xbe7b3d11	-0.24535014
186	0xbe448e52	-0.19194916
187	0x3d380e7d	0.044935692
188	0x3cc9a67d	0.02461552
189	0x3e8da8b3	0.2766777
190	0x3ca8ca01	0.020604135
191	0x3e40bb97	0.1882156
192	0xbe6c7748	-0.23092377
193	0xbb9232aa	-0.004461606
194	0xbd53781b	-0.051628213
195	0xbdc65e63	-0.096859716
196	0x3c91a1e0	0.017777383
197	0x3d534656	0.05158075
198	0xbe5ffa78	-0.2187289
199	0xbdae8348	-0.08521134
200	0xbe3c87f3	-0.18411236
201	0x3d9a9968	0.07548791
202	0xbe2dfd79	-0.16991223
203	0xbdd34dab	-0.10317548
204	0x3db3ca60	0.08778834
205	0x3e2a2b21	0.16618015
206	0x3d0ac618	0.033880323
207	0xbdf65367	-0.120276265
208	0x3e0d2950	0.1378529
209	0x3da82271	0.08209694
210	0x3d895af9	0.06706805
211	0xbdc1bfec	-0.09460434
212	0x3dcc3038	0.099701345
213	0x3dfbd489	0.12296397
214	0xbd37f9c6	-0.044915937
215	0x3d78d6ff	0.06075191
216	0xbe85858e	-0.26078457
217	0x3ded5670	0.11588752
218	0xbe2aaf04	-0.16668326
219	0x3e111b10	0.1417048
220	0xbddb12b2	-0.10696925
221	0xbd32608b	-0.0435491
222	0x3e54cb4f	0.20780681
223	0x3cc888f3	0.024479365
224	0xbe23ff7e	-0.16015431
225	0x3bee25ca	0.0072676884
226	0x3e60e51b	0.21962397
227	0x3dec7ce1	0.11547256
228	0xbc757652	-0.014981823
229	0xbe44eb30	-0.19230342
230	0xbdda3bee	-0.10655962
231	0x3dc5cb4b	0.09657916
232	0x3db5ad94	0.08870998
233	0x3e02f1b4	0.12787515
234	0xbe5cf1d9	-0.21576633
235	0x3e294c9f	0.16533135
236	0xbd0cf2de	-0.034411304
237	0x3e0ed8b3	0.13949852
238	0xbd3d410c	-0.04620461
239	0x3e19e5e8	0.15029109
240	0x3deccf0f	0.11562931
241	0x3cb2b1c0	0.021813273
242	0x3d143d37	0.03619119
243	0xbe4101b7	-0.1884831
244	0x3e86e7ec	0.26348817
245	0x3e26b880	0.16281319
246	0x3d11c23b	0.035585623
247	0x3db6ad60	0.089197874
248	0x3da794f1	0.08182705
249	0x3cd061e5	0.025437305
250	0x3e6791de	0.22614238
251	0x3d760bd1	0.060069863
252	0xbe260669	-0.16213383
253	0x3bac58b1	0.0052595963
254	0x3b94d2b5	0.00454172
255	0x3dc76ed6	0.09737937

network.6.bias f4 [5]
0	0x3e8643de	0.26223654
1	0x3e23a523	0.15980963
2	0x3e9f8148	0.3115332
3	0x3f1b30ea	0.6062151
4	0x3ef69a89	0.48164776

network.0.weight f4 [128, 43]
0	0xbba516b0	-0.005038105
1	0xbd803524	-0.06260136
2	0xbe08fab4	-0.13376886
3	0x3de7d62e	0.113201484
4	0xbdfc7ca8	-0.12328464
5	0xbe23f0cc	-0.16009825
6	0xbe135b91	-0.14390399
7	0x3e0cba4a	0.13742939
8	0x3e281da5	0.16417558
9	0xbe260874	-0.16214162
10	0xbc90cf01	-0.017676832
11	0xbdecae38	-0.11556667
12	0xbda5ab92	-0.08089365
13	0x3e374875	0.17898734
14	0x3c51fc71	0.012816534
15	0xbdde9610	-0.10868466
16	0xbb0ba4af	-0.0021307876
17	0x3db10f7a	0.0864553
18	0x3c68122b	0.014164488
19	0xbda3ad03	-0.07991984
20	0xbe0c73f5	-0.13716109
21	0xbdb3bed6	-0.087766334
22	0x3e04f83c	0.12985319
23	0xbaa768af	-0.0012772287
24	0xbdbb1633	-0.091350935
25	0x3e2b9e1f	0.16759537
26	0xbd3c7f56	-0.046019875
27	0xbe115e84	-0.14196211
28	0xbde7bc48	-0.11315209
29	0x3b6953ee	0.0035603005
30	0x3d8bc035	0.0682377
31	0x3d88c77b	0.06678673
32	0xbe3ac577	-0.1823939
33	0x3dd91297	0.10599249
34	0x3e23ad9c	0.15984195
35	0x3d04fbbe	0.032466643
36	0x3e1d0cb2	0.15336874
37	0x3db9dcca	0.09075315
38	0x3dd71337	0.10501712
39	0xbe1f8597	-0.15578304
40	0x3daf75f7	0.08567422
41	0xbe24800d	-0.16064472
42	0x3d1a9b04	0.03774549
43	0xbe2927d1	-0.16519095
44	0x3e325053	0.17413454
45	0xbcd63721	-0.026149334
46	0x3d06f35a	0.032946922
47	0xbd9b02e0	-0.07568908
48	0xbe3d0570	-0.18459105
49	0x3dafb4a3	0.085793756
50	0x3da94854	0.082657486
51	0x3dbbbb85	0.09166626
52	0xbd1bbe7b	-0.038023453
53	0x3d2c077f	0.041999336
54	0x3d34abc5	0.044109125
55	0x3e282afd	0.16422649
56	0x3e12d4b9	0.1433896
57	0xbd4a7979	-0.04943225
58	0x3d88affb	0.066741906
59	0x3e0c8e92	0.13726261
60	0x3dfc314a	0.12314089
61	0xbe16f8c4	-0.14743334
62	0xbe3e60d6	-0.18591627
63	0x3d7b8b31	0.06141204
64	0x3da80e0f	0.082058065
65	0xbda6aadc	-0.081380576
66	0x3dedc522	0.11609866
67	0xbd3ed13a	-0.046586253
68	0xbdc55758	-0.096358
69	0x3dc6877a	0.09693809
70	0x3e1e783b	0.15475552
71	0x3e329d55	0.1744283
72	0xbe0e4b67	-0.13895951
73	0x3e2097d8	0.15682924
74	0xbe37cf8c	-0.17950267
75	0xbd893b11	-0.06700719
76	0x3e085c23	0.13316397
77	0xbdfc5650	-0.1232115
78	0x3d7c64b6	0.061619483
79	0xbe1fa51c	-0.15590328
80	0xbca64e17	-0.020300908
81	0x3e0bf52d	0.13667746
82	0xbc00d0e2	-0.007862302
83	0xbc1cc0e8	-0.009567477
84	0xbb0a31d2	-0.0021086824
85	0x3dc63fb6	0.09680121
86	0x3da9e739	0.08296055
87	0x3cc75a8b	0.024335166
88	0x3d17fa17	0.03710374
89	0xbd4ffead	-0.050779987
90	0x3dffdaa4	0.12492874
91	0xbda57b22	-0.08080126
92	0x3d75b659	0.059988353
93	0x3d31cc3f	0.043407675
94	0x3d26b0ad	0.040695835
95	0xbdbfcfa9	-0.0936578
96	0xbd09e661	-0.033666972
97	0xbb9b7777	-0.004744466
98	0xbd3540cf	-0.04425126
99	0xbd544d39	-0.051831458
100	0x3c090727	0.008363522
101	0xbe12675c	-0.14297241
102	0xbc500be8	-0.012698151
103	0xbd0a57c4	-0.033775106
104	0x3e11e963	0.14249186
105	0x3d1c576d	0.038169313
106	0xbe3c52b5	-0.18390925
107	0x3e23852d	0.15968771
108	0x3dc7dab6	0.09758513
109	0xbe33d824	-0.1756292
110	0x3d757e98	0.059935182
111	0xbe19b20a	-0.15009323
112	0x3c885dd5	0.016646305
113	0x3dee7b5f	0.11644625
114	0xbde9d3d0	-0.11417353
115	0xbb24bc5f	-0.0025136692
116	0xbe2ade46	-0.16686353
117	0x3d557f3e	0.0521233
118	0x3e0d0a16	0.13773379
119	0x3dae7054	0.08517519
120	0xbdcaf9f5	-0.09910957
121	0xbe379ee6	-0.17931709
122	0x3e3ea352	0.1861699
123	0x3de5cdbb	0.112208806
124	0x3e065ac7	0.13120566
125	0x3cbb8e51	0.02289501
126	0x3d97cb8a	0.07411869
127	0xbdfb96a6	-0.12284593
128	0xbd14a007	-0.036285426
129	0x3c378205	0.011200433
130	0x3ddf1680	0.108929634
131	0xbdb95d7c	-0.09051034
132	0x3e1d82cf	0.15381931
133	0xbda3a5ff	-0.079906456
134	0xbe3a2b94	-0.18180686
135	0xbdf6d1e7	-0.120517544
136	0xbe37f633	-0.17965011
137	0xbcdcd212	-0.026955638
138	0x3d6fac1c	0.058513746
139	0xbe09770d	-0.1342432
140	0x3c4c31f2	0.01246308
141	0x3d8a106f	0.06741416
142	0xbd7f74ff	-0.062367436
143	0x3e1586b3	0.14602165
144	0xbdbfea89	-0.09370906
145	0xbdfaac08	-0.122398436
146	0x3dd94f8e	0.10610877
147	0x3e3e664d	0.18593712
148	0x3db4f41f	0.08835625
149	0xbd91e78f	-0.071242444
150	0x3e3c1c45	0.18370159
151	0xbc92a2d4	-0.017899908
152	0xbca005f0	-0.019534081
153	0xbdf6b375	-0.120459475
154	0x3daf9287	0.0857287
155	0xbe3f2a96	-0.18668589
156	0xbe2788e8	-0.1636082
157	0xbdd9056b	-0.105967365
158	0x3e3219a8	0.173926
159	0xbdd318d0	-0.10307467
160	0xbe2938cb	-0.16525571
161	0x3dabc7bf	0.08387708
162	0xbdbd40f3	-0.09240904
163	0xbd0210a8	-0.031754166
164	0xbdf7576d	-0.12077222
165	0x3e0d969c	0.13826984
166	0x3af8db66	0.0018986284
167	0x3e3ae993	0.18253164
168	0xbd562067	-0.052276995
169	0xbe14d6c1	-0.14535047
170	0xbdddf726	-0.108381554
171	0x3d1c057a	0.03809116
172	0xbe153f34	-0.14574891
173	0xbe3f2816	-0.18667635
174	0x3e39a445	0.1812907
175	0xbdfd2b44	-0.12361768
176	0xbe105f64	-0.14098889
177	0x3e095f1e	0.1341519
178	0x3e07fb09	0.13279356
179	0xbdb287ae	-0.08717285
180	0xbd3c083a	-0.045906283
181	0x3e0ff048	0.14056504
182	0xbdd4df66	-0.10394172
183	0xbe2f40ab	-0.17114513
184	0x3db9e483	0.09076788
185	0x3d485cf4	0.048916772
186	0xbe02d166	-0.12775192
187	0x3c319491	0.010838644
188	0x3d97606a	0.073914364
189	0xbe0115dd	-0.12605996
190	0x3a96740b	0.0011478675
191	0xbdabb1c6	-0.08383517
192	0x3e311e53	0.17296724
193	0xbe32da30	-0.17466044
194	0x3d0d1649	0.03444508
195	0x3e211557	0.15730797
196	0xbc872108	-0.016495243
197	0x3da52c43	0.08065083
198	0x3e0edda6	0.1395174
199	0x3e3c7768	0.18404925
200	0x3cae0504	0.021242626
201	0x3dd40042	0.10351612
202	0xbd251bd0	-0.040309727
203	0x3c631d0f	0.013861909
204	0xbe3837bc	-0.17990011
205	0xbe2b5cf8	-0.16734684
206	0x3ddaf054	0.1069037
207	0xbe0f0283	-0.13965802
208	0x3e0f1b08	0.13975155
209	0xbe08c17b	-0.13355057
210	0x3c893fdc	0.016754083
211	0xbe1dff6e	-0.1542947
212	0xbbc2f665	-0.0059497827
213	0x3dff4b31	0.124655135
214	0x3df00d09	0.11721236
215	0xbd01593a	-0.031579234
216	0x3e3d3f5d	0.18481202
217	0x3cec9c77	0.028883202
218	0x3cfa23cb	0.030534646
219	0xbbc85f8e	-0.0061149066
220	0x3e04a312	0.12952831
221	0x3ded11a1	0.11575628
222	0x3cb6f0e6	0.022331666
223	0x3d14f2c0	0.036364317
224	0xbe21a78f	-0.15786575
225	0x3d4bf386	0.04979279
226	0xbd386455	-0.04501756
227	0xbd67f76b	-0.05663244
228	0x3e15f8c2	0.14645675
229	0x3e36736e	0.1781747
230	0x3e0832b5	0.13300593
231	0xbc0a42c1	-0.008438767
232	0x3dc1bb73	0.09459581
233	0xbdbeeb82	-0.09322263
234	0x3d81b958	0.0633418
235	0x3da6c859	0.08143682
236	0x3df4403a	0.11926313
237	0x3dcf846c	0.10132679
238	0xbe027fa9	-0.12744011
239	0xbda34b77	-0.07973378
240	0xbe028256	-0.12745032
241	0xbdf1912e	-0.11795269
242	0xbe108571	-0.14113404
243	0x3db41925	0.087938584
244	0x3e304d3a	0.1721696
245	0x3e0aa927	0.13541089
246	0xbd31cb85	-0.043406982
247	0x3c5cac0c	0.013468754
248	0xbe0166f3	-0.12636928
249	0x3dc4fdc3	0.09618714
250	0x3dded050	0.10879576
251	0x3df64026	0.12023954
252	0xbd2af12a	-0.0417339
253	0x3d97bc56	0.07408969
254	0xbd085598	-0.033284754
255	0xbdc9d7f6	-0.098556444

network.0.bias f4 [128]
0	0xbc0d231d	-0.008614329
1	0xbc0eabda	-0.008707965
2	0xbc0477f7	-0.0080852425
3	0xbbce56e4	-0.0062969793
4	0xbc5c19f5	-0.013433923
5	0xbb8d65c9	-0.0043151123
6	0xbc29705e	-0.010341732
7	0xbbbbe05c	-0.005733533
8	0xbbc14c1a	-0.0058989646
9	0xbc0fbf5a	-0.008773649
10	0xbbefcc12	-0.0073180282
11	0xbc3c3c76	-0.011489024
12	0xbb98e844	-0.00466636
13	0xbb3e4e04	-0.00290382
14	0xbbb0c238	-0.0053942464
15	0xbba30d06	-0.0049759177
16	0xbc52b6f8	-0.012861006
17	0xbb34db52	-0.0027596545
18	0xbbab15da	-0.005221111
19	0xbb43d36d	-0.0029880658
20	0xbbb85bdc	-0.005626185
21	0xbbf275bd	-0.0073992894
22	0xba8af472	-0.0010601415
23	0xbc1f8ce4	-0.009738181
24	0xbbe1190d	-0.0068694414
25	0xbb91c135	-0.004448081
26	0xba2e9554	-0.0006659825
27	0xbc2027c5	-0.009775107
28	0xbbcc9799	-0.006243658
29	0xbb1cdf0d	-0.002393666
30	0xbc2e947e	-0.0106555205
31	0xbc1bc44c	-0.00950725
32	0xbbc0eb7c	-0.005887447
33	0xbb3d1828	-0.002885351
34	0xbc48d41c	-0.012257602
35	0xba9c5ae9	-0.0011928949
36	0xbc0e58c0	-0.008688152
37	0xbc0744b2	-0.008256124
38	0xbb6f92e9	-0.003655607
39	0xbc07757a	-0.008267755
40	0xbc1c7f6e	-0.009551866
41	0x3baea30d	0.0053294958
42	0xbbf1a48b	-0.0073743514
43	0x38c2e6b8	9.2936156e-05
44	0xbc54404e	-0.012954785
45	0xbc31d0a2	-0.010852965
46	0xbb144dc5	-0.0022629362
47	0xbc145d95	-0.009055515
48	0xbba7b413	-0.005117902
49	0xbc0941f7	-0.008377544
50	0xbc3927bc	-0.011300977
51	0xbbe7fe2f	-0.0070798616
52	0xbc240a92	-0.010012286
53	0xbb2c934e	-0.0026332918
54	0xbbadc49c	-0.0053029787
55	0xbc2e87ec	-0.0106525235
56	0xb9735c46	-0.0002320866
57	0xbc258fe5	-0.010105108
58	0xbb4fdd6f	-0.0031717678
59	0xbbd9e429	-0.0066495133
60	0xbc1097cf	-0.0088252565
61	0xbc2f62ad	-0.0107046785
62	0xbbaf46db	-0.005349023
63	0xbb9191cb	-0.0044424287
64	0xbbf3513d	-0.007425456
65	0x39ca381a	0.0003857024
66	0x3904a92a	0.0001265152
67	0xbc02ed28	-0.007991113
68	0xbbd496cc	-0.006487703
69	0xbb2dba73	-0.0026508837
70	0xbc45aba1	-0.012064845
71	0xbacc66d0	-0.0015594605
72	0xbbee8135	-0.0072785863
73	0xbb9e972a	-0.0048397975
74	0xbb7d6d47	-0.003866987
75	0xba13ff10	-0.0005645612
76	0xba76ff60	-0.0009422209
77	0xbb22e1cb	-0.0024853821
78	0xbbd058aa	-0.006358226
79	0x3b75eca0	0.0037525073
80	0xbba6462a	-0.005074282
81	0xbc2ee465	-0.010674571
82	0xbbbbc859	-0.0057306704
83	0xbb4b0994	-0.003098105
84	0xbbe5441b	-0.006996644
85	0xbbec8a63	-0.0072186454
86	0x3acfe8e9	0.0015862259
87	0xbb0c4e5c	-0.002140901
88	0xbb6316ef	-0.003465112
89	0xbbe4e060	-0.0069847554
90	0xbb0a843a	-0.0021135942
91	0xbbd73776	-0.0065678908
92	0x3ae22933	0.001725471
93	0xbc7bb7f2	-0.01536368
94	0xbba8dcfd	-0.005153297
95	0xbacba23a	-0.0015536018
96	0xbb8fb5a3	-0.0043856665
97	0xb980efbb	-0.00024592676
98	0x3b08fda6	0.002090314
99	0xbbca8fa9	-0.0061816764
100	0xbba6a399	-0.0050854203
101	0xbbca2324	-0.00616874
102	0xbb782863	-0.003786587
103	0xbc1777cb	-0.009244869
104	0xbc0f013b	-0.008728321
105	0xbbce886f	-0.0063028852
106	0xbba7e7ec	-0.005124083
107	0xbbc6cf40	-0.0060671866
108	0x3b13776a	0.0022501596
109	0xbc1633c4	-0.009167615
110	0xbbea2350	-0.007145323
111	0xbbc1db19	-0.005916011
112	0xbb902bac	-0.0043997373
113	0xbc0c200a	-0.008552561
114	0xbbe65830	-0.0070295557
115	0xbac61776	-0.0015113193
116	0xbc19ef1e	-0.009395389
117	0xb99d0eb8	-0.0002995634
118	0xbbb17c45	-0.0054164254
119	0x3b399d29	0.0028322435
120	0x3a60321a	0.00085523876
121	0xbbf49946	-0.0074645607
122	0xbbea1576	-0.0071436716
123	0xbb2a0995	-0.0025945653
124	0xbb671501	-0.0035260322
125	0xbc15f36d	-0.0091522755
126	0xbc1d737c	-0.009610053
127	0xbb6aa5b7	-0.003580434

network.3.weight f4 [64, 128]
0	0x3e10972b	0.14120166
1	0xbd75de2a	-0.060026325
2	0xbdc4c8cf	-0.09608614
3	0xbdbc7844	-0.09202626
4	0xbc313631	-0.010816143
5	0x3ddcc2de	0.107793555
6	0xbe377ed4	-0.17919475
7	0xbd2bbf7b	-0.041930657
8	0x3d826960	0.06367755
9	0x3e114880	0.14187813
10	0xbe01e771	-0.12685944
11	0xbd8690ca	-0.06570585
12	0x3d5f3b6c	0.05450003
13	0x3ddece76	0.10879223
14	0xbe2a3a53	-0.16623811
15	0xbde9b534	-0.11411515
16	0xbd915c5a	-0.07097693
17	0xbe2b3b40	-0.16721821
18	0xbe1c0cad	-0.1523921
19	0x3e10bd4f	0.14134715
20	0xbcfb1cc4	-0.030653365
21	0xbd13da8a	-0.036097087
22	0x3b30fa6a	0.0027004727
23	0x3d03df77	0.032195535
24	0x3d05ea8d	0.03269439
25	0x3e12d99c	0.14340824
26	0xbda7485f	-0.081681006
27	0xbde4ec4b	-0.11177882
28	0xbd536df9	-0.05161855
29	0x3e242445	0.1602946
30	0x3db9187d	0.09037874
31	0xbe1e50a0	-0.15460443
32	0x3e01dc10	0.12681603
33	0x3e2ab8e4	0.16672093
34	0x3d86141c	0.06546804
35	0xbe2a2c5f	-0.16618489
36	0xbd115749	-0.035483632
37	0x3cc067ba	0.02348696
38	0x3d70c6be	0.058783285
39	0x3c1c0fae	0.009525223
40	0xbd87aca2	-0.06624724
41	0xbd924db4	-0.07143727
42	0xbdaa8819	-0.0832674
43	0xbde33ebe	-0.110959515
44	0x3c42d2ec	0.011891108
45	0x3df39871	0.1189431
46	0x3d735622	0.059408315
47	0x3e16da5b	0.14731734
48	0xbd4e25d6	-0.050329052
49	0xbd811116	-0.06302087
50	0xbda79428	-0.081825554
51	0xbe309e87	-0.17247973
52	0x3b8d2069	0.004306842
53	0x3d1e0835	0.038582046
54	0xbc9b8b36	-0.01898728
55	0x3d83d624	0.064373285
56	0x3de83b67	0.11339455
57	0xbc4245fb	-0.011857505
58	0xbd41a0a8	-0.047272354
59	0x3e22fe33	0.15917282
60	0xbdeadb78	-0.114676416
61	0x3d9c474e	0.07630788
62	0xbc889587	-0.016672863
63	0xbd5118e3	-0.051049124
64	0xbd316a63	-0.04331435
65	0xbdf04e98	-0.117337406
66	0x3d6834ec	0.056691095
67	0x3cec395c	0.028835945
68	0xbd9bc253	-0.07605424
69	0x3e01810c	0.12646884
70	0x3c8bfb0c	0.017087482
71	0x3beb0b5b	0.0071729845
72	0xbe2bd9b6	-0.16782269
73	0xbe00e5a0	-0.12587595
74	0xbe18d539	-0.14925088
75	0xbd6ac682	-0.057318218
76	0xbc834878	-0.016025767
77	0x3d9c9cde	0.076471075
78	0xbdc5d811	-0.09660352
79	0x39d2dab2	0.00040217262
80	0xbd8d8fa9	-0.069121666
81	0xbe239542	-0.15974906
82	0xbe2d8e42	-0.16948798
83	0x3e049dd7	0.12950836
84	0x3e16dd92	0.1473296
85	0x3e150d43	0.1455584
86	0x3be8be72	0.007102781
87	0xbddbd07b	-0.10733124
88	0x3c81d58c	0.015848897
89	0xbd84b79d	-0.06480334
90	0x3e0d202b	0.13781802
91	0xbc3d10dd	-0.011539665
92	0xbdbad0c7	-0.09121852
93	0x3c8fe756	0.017566364
94	0xbdb85625	-0.09000806
95	0xbdfcc07f	-0.12341403
96	0xbd4a8558	-0.049443573
97	0xbd52ca15	-0.05146225
98	0x3d368237	0.044557776
99	0xbe00cb0a	-0.12577453
100	0x3df46981	0.11934186
101	0x3dfc08d3	0.123063706
102	0xbdde0e43	-0.10842564
103	0xbd03f72e	-0.03221815
104	0xbaf077f2	-0.0018346293
105	0xbcbaa7ee	-0.022785153
106	0x3d2d0473	0.04224057
107	0xbdb2586d	-0.08708272
108	0xbe0d334e	-0.13789102
109	0x3c6f4754	0.014604408
110	0xbe1e9a48	-0.15488541
111	0xbc1c7265	-0.009548758
112	0x3c05da1c	0.008169677
113	0x3d122463	0.035679232
114	0x3e12701b	0.14300577
115	0x3e00b2d0	0.12568212
116	0xbe2df3bd	-0.1698751
117	0xbd5deac8	-0.054178983
118	0xbdcb7bed	-0.09935746
119	0xbe201776	-0.1563395
120	0xbda1cd4e	-0.07900487
121	0xbd35794b	-0.044305127
122	0x3d3bc662	0.04584349
123	0xbd87433a	-0.06604619
124	0xbe24756a	-0.16060415
125	0xbb86a45e	-0.0041089496
126	0x3e1258b3	0.14291649
127	0x3dc48dce	0.095973596
128	0x3b3dd5ff	0.0028966663
129	0xbe07f412	-0.13276699
130	0x3d2fa5d5	0.04288276
131	0xbc161ad6	-0.009161672
132	0xbdefbaee	-0.11705576
133	0xbd3e9571	-0.046529237
134	0x3d3d2f06	0.046187423
135	0xbd5b1bf4	-0.053493455
136	0xbde6cf41	-0.11269999
137	0xbd365d54	-0.0445226
138	0xbcc07b16	-0.023496192
139	0x3d132fd7	0.035934296
140	0xbe271c98	-0.16319501
141	0xbe00ec54	-0.12590152
142	0xbbe00a02	-0.0068371305
143	0x3d881bf3	0.06645956
144	0xbdd89d36	-0.105768606
145	0xbe15676d	-0.14590235
146	0xbe1203b8	-0.14259231
147	0x3e3170b6	0.17328152
148	0x3d7e7023	0.06211866
149	0xbc91db13	-0.017804658
150	0xbdba4485	-0.090951
151	0xbdb5e396	-0.08881299
152	0x3dc820bf	0.09771871
153	0xbb0e5f76	-0.002172438
154	0xbe1be085	-0.15222366
155	0xbdeb0d59	-0.11477155
156	0x3e2ba44b	0.16761892
157	0x3cff7220	0.031182349
158	0x3d401f6c	0.046904966
159	0xbe20b46a	-0.15693823
160	0xbd879ea5	-0.06622056
161	0xbe1b9990	-0.15195298
162	0x3dc2c950	0.095110536
163	0x3d8e7f57	0.06957882
164	0xbe0aecec	-0.13566941
165	0xbdecf400	-0.11569977
166	0xbce19d54	-0.02754084
167	0xbdae2378	-0.08502859
168	0x3e111329	0.14167465
169	0xbe16bc3c	-0.14720243
170	0x3e03656c	0.12831658
171	0xbdd02f09	-0.10165221
172	0x3cd9b835	0.026577095
173	0xbe1015eb	-0.14070861
174	0xbe0ee119	-0.13953055
175	0x3cbe0995	0.023197928
176	0x3c4a4d6a	0.0123475585
177	0x3d6256fc	0.055258736
178	0xbd9ca828	-0.07649261
179	0x3cc1c1e9	0.023652034
180	0xbd4d7315	-0.05015858
181	0x3d5a8dad	0.05335777
182	0x3b572dfa	0.00328338
183	0x3dc79d5f	0.09746813
184	0xbe0d5c82	-0.1380482
185	0x3d9e7638	0.07737392
186	0x3db5f4af	0.0888456
187	0xbe00c729	-0.12575974
188	0x3df8bb4a	0.121450976
189	0x3dc7f345	0.09763197
190	0xbe1f753c	-0.15572065
191	0xbd2a3fac	-0.04156463
192	0xbdd6c0ab	-0.10485967
193	0xba9a0e2c	-0.0011753491
194	0x3d70111c	0.058610067
195	0x3e1e7ffc	0.1547851
196	0xbe33d4e4	-0.1756168
197	0x3e1af3c5	0.15132053
198	0xbd15e9d6	-0.036599956
199	0xbdd8d00e	-0.10586558
200	0xbe33f6ab	-0.17574565
201	0xbdae93b2	-0.085242644
202	0xbdc305a1	-0.09522558
203	0xbda6ba16	-0.08140962
204	0xbda6dd1a	-0.081476405
205	0x3e1ddb09	0.15415587
206	0x3c2f1b5d	0.010687676
207	0xbdf26b13	-0.11836829
208	0x3d44a52a	0.048009075
209	0xbd9dd703	-0.07707026
210	0xbd2c4129	-0.04205433
211	0x3d4d5240	0.050127268
212	0x3dc5cac5	0.09657816
213	0xbdf15664	-0.11784056
214	0xbdfc8cd0	-0.12331545
215	0x3978bd50	0.00023721647
216	0xbe150772	-0.14553621
217	0xbdb1e0e4	-0.086854726
218	0x3dd9da99	0.10637397
219	0xbc8663f8	-0.01640509
220	0xbdd564ab	-0.104195915
221	0x3cfe346d	0.031030858
222	0x3e1b1042	0.1514292
223	0xbe1f9ad9	-0.15586413
224	0xbe2f9962	-0.17148355
225	0xbdd17982	-0.10228254
226	0xbc970814	-0.01843647
227	0x3e027ef1	0.12743737
228	0x3cba2133	0.022720909
229	0x3ddf35a5	0.10898904
230	0xbd76eda2	-0.060285218
231	0x3e10a956	0.14127097
232	0x3e2e8adc	0.17045158
233	0x3d9c82d1	0.07642139
234	0xbda5037f	-0.080573075
235	0xbded61e2	-0.11590935
236	0x3c1fb3eb	0.009747486
237	0x3e17db59	0.14829768
238	0xbd9006aa	-0.07032521
239	0xbd04cc03	-0.032421123
240	0xbdcf89ea	-0.10133727
241	0x3e0dfd1c	0.13866085
242	0xbe08ed9f	-0.13371895
243	0xbe2b00ff	-0.16699599
244	0xbdca222f	-0.09869801
245	0x3daa5f49	0.083189555
246	0xbca08fce	-0.019599821
247	0xbe08ce9d	-0.13360067
248	0xbd6dfd82	-0.058103092
249	0x3db7b3b6	0.08969824
250	0xbe23904a	-0.1597301
251	0xbe0ce594	-0.13759452
252	0xbe14747b	-0.14497559
253	0x3e2a6681	0.16640665
254	0x3ca39e0e	0.019972827
255	0x3dc5b2d2	0.09653248

network.3.bias f4 [64]
0	0xbb9765da	-0.004620296
1	0xbb216aae	-0.0024630236
2	0xbbba4502	-0.005684496
3	0xb90e1112	-0.00013548534
4	0xbb9432d0	-0.004522659
5	0xbb6ba2da	-0.0035955221
6	0xbb9571fa	-0.004560706
7	0xbb6f0f11	-0.0036477486
8	0xbb9a3b5c	-0.004706783
9	0xbb32125d	-0.002717159
10	0xbbb46887	-0.0055056247
11	0xbb452f5e	-0.0030088047
12	0xbb8ac6ae	-0.0042351102
13	0xbbcc8fa1	-0.006242708
14	0xbb9dc3ef	-0.004814617
15	0xbb76ff9a	-0.0037688971
16	0xbb34dae4	-0.002759629
17	0xbbf1657a	-0.0073668333
18	0xbb5a9eca	-0.0033358806
19	0xbb0ad2ac	-0.00211827
20	0xbbc5db8d	-0.0060381354
21	0xbb69f618	-0.0035699662
22	0xbc0225c9	-0.007943579
23	0xbb5d128e	-0.0033732983
24	0xbb739feb	-0.0037174176
25	0x3913cb3c	0.00014094723
26	0xbc1a5a24	-0.009420905
27	0xbb807a9b	-0.0039208657
28	0xbb88aaf8	-0.0041707717
29	0xbb956541	-0.0045591895
30	0xbb1fe7b1	-0.0024399573
31	0x391bf45d	0.00014872984
32	0xbb539be6	-0.0032288968
33	0xbb9049fb	-0.0044033504
34	0xbb8329c4	-0.0040027816
35	0xbb82b835	-0.0039892443
36	0xbbc2c7c0	-0.005944222
37	0xbb3eca05	-0.0029112112
38	0x3b935ae5	0.0044969195
39	0xbbb1865e	-0.005417629
40	0xbb0c3ba6	-0.0021397858
41	0xbb75fbd9	-0.0037534146
42	0xbb90675a	-0.0044068517
43	0xbbb07d20	-0.00538601
44	0xbba5173c	-0.00503817
45	0xbbc0594e	-0.005870021
46	0x3b94bdef	0.0045392434
47	0xbacde84f	-0.0015709492
48	0xbc013ef4	-0.007888544
49	0xbb8436d8	-0.004034858
50	0xbb6b7822	-0.003592976
51	0xbb67cb44	-0.0035368958
52	0xbaf206b0	-0.0018465128
53	0xb8ab03e0	-8.154637e-05
54	0xbb0e0122	-0.0021668156
55	0xbb410b0d	-0.002945605
56	0xbaf78ca3	-0.0018886518
57	0xbb508575	-0.0031817828
58	0xbbbe5353	-0.005808273
59	0xbb13fc07	-0.002258064
60	0xba569c60	-0.0008186754
61	0xbb1c821f	-0.002388127
62	0xbae8a27f	-0.0017748623
63	0x39a6a862	0.00031787442
