experiments/checkpoints/20251210_110803/checkpoint_ep159.pt (torch, 246605 bytes, 24 tensors)

network.0.weight f4 [128, 43]
000000 b0 16 a5 bb be 64 50 bf 50 1f 1e 3f cf 1e c8 bf
       -0.005038105 -0.8140372 0.6176653 -1.5634402
000010 59 bc f4 bf cc f0 23 be d5 36 b1 3f 4a ba 0c 3e
       -1.9119979 -0.16009825 1.3844858 0.13742939
000020 a5 1d 28 3e 74 08 26 be 01 cf 90 bc 38 ae ec bd
       0.16417558 -0.16214162 -0.017676832 -0.11556667
000030 4b 9e 8f 3f 2e 8e e8 be d9 0e 06 3e b7 9b 18 bf
       1.1220182 -0.45420974 0.13091601 -0.596126
000040 31 c5 d1 bf 75 bf f2 3f 21 25 59 3f 03 ad a3 bd
       -1.6388303 1.8964678 0.8482228 -0.07991984
000050 f5 73 0c be d6 be b3 bd 3c f8 04 3e ab 68 a7 ba
       -0.13716109 -0.087766334 0.12985319 -0.0012772282
000060 33 16 bb bd 1f 9e 2b 3e 56 7f 3c bd 96 39 ce bf
       -0.091350935 0.16759537 -0.046019875 -1.6111324
000070 81 1a 1c 40 f7 40 94 bf 32 c0 8b 3d 98 4a cc 3f
       2.4391177 -1.1582326 0.06823768 1.5960264
000080 77 c5 3a be 68 7c ae bf 9c ad 23 3e f7 ca 43 3e
       -0.1823939 -1.3631716 0.15984195 0.19120394
000090 f4 be 54 bf 7e cf ce 3f e1 54 18 c0 64 4d 41 c0
       -0.8310387 1.6157072 -2.3801806 -3.0203485
0000a0 fe 30 3c 40 e1 61 11 c0 04 9b 1a 3d d1 27 29 be
       2.9404902 -2.271599 0.03774549 -0.16519095
0000b0 17 aa be 3f c1 b8 ab bf cc 0c 78 bf 73 92 ac be
       1.4895657 -1.3415757 -0.96894526 -0.33705482
0000c0 70 05 3d be 2f e0 91 c0 54 48 a9 3d 85 bb bb 3d
       -0.18459105 -4.558616 0.082657486 0.09166626
0000d0 7b be 1b bd 7c 07 2c 3d c5 ab 34 3d 27 40 06 c0
       -0.038023453 0.041999325 0.044109125 -2.0976655
0000e0 20 36 61 c0 9b 25 10 bf 53 a1 2a 3f 45 cd ff bf
       -3.5189285 -0.5630738 0.6665241 -1.9984518
0000f0 63 7c ab bc 4c 58 8a 3e d6 60 3e be 31 8b 7b 3d
       -0.020933336 0.2702049 -0.18591627 0.06141204
000100 0f 0e a8 3d dc aa a6 bd 22 c5 ed 3d 3a d1 3e bd
       0.082058065 -0.081380576 0.11609866 -0.046586253
000110 58 57 c5 bd 7a 87 c6 3d 62 6e 87 3f e7 f4 c7 bf
       -0.096358 0.09693809 1.0580561 -1.5621613
000120 6f 86 c0 3f d8 97 20 3e 12 64 17 bf 11 3b 89 bd
       1.5041026 0.15682924 -0.5913707 -0.06700719
000130 bd aa 84 3f 50 56 fc bd 46 f7 07 c0 a8 35 d9 3f
       1.0364605 -0.1232115 -2.1244674 1.69695
000140 b2 10 d2 bf fb 1f a8 bf 06 07 39 be 5b 46 49 40
       -1.6411345 -1.313476 -0.18069085 3.1449192
000150 37 41 bc bf b6 3f c6 3d 39 e7 a9 3d be 7f a1 be
       -1.4707402 0.09680121 0.08296055 -0.31542772
000160 7a f4 c0 3e a5 64 0d 40 98 ed 16 c0 22 7b a5 bd
       0.3768652 2.2092679 -2.3582516 -0.08080126
000170 e4 79 6b 40 3f cc 31 3d ad b0 26 3d a9 cf bf bd
       3.6793146 0.043407675 0.040695835 -0.0936578
000180 61 e6 09 bd 77 77 9b bb e7 6d 10 c1 42 1e 53 c0
       -0.033666972 -0.004744466 -9.026832 -3.2987218
000190 cc 1e 26 c0 0c 52 a4 3f d0 eb 05 c0 c8 0c 85 40
       -2.5956297 1.2837539 -2.0925179 4.15781
0001a0 37 64 fd bf 6d 57 1c 3d b5 52 3c be 2d 85 23 3e
       -1.9796208 0.038169313 -0.18390925 0.15968771
0001b0 b6 da c7 3d 24 d8 33 be 98 7e 75 3d 0a b2 19 be
       0.09758513 -0.1756292 0.059935182 -0.15009323
0001c0 d5 5d 88 3c 8d 45 14 bf 3b 7b 4d bf 9b 39 bd c0
       0.016646305 -0.57918626 -0.8026616 -5.913282
0001d0 46 de 2a be f5 60 94 bf 16 0a 0d 3e 18 47 1c bf
       -0.16686353 -1.1592089 0.13773379 -0.6104598
0001e0 f5 f9 ca bd 77 4d 15 bf 6a 02 b7 3f 9e f2 2b 3f
       -0.09910957 -0.58321327 1.4297612 0.6716708
0001f0 82 fe 20 c0 0c 40 6c c0 87 bc c1 3f 1a e4 75 3f
       -2.515534 -3.691409 1.5135659 0.9605118
000200 07 a0 14 bd 05 82 37 3c 7c 2c c4 3f ec d0 c1 bf
       -0.036285426 0.011200433 1.5326076 -1.5141883
000210 a7 fb 89 bf 45 dd 52 3e 94 2b 3a be 5a 26 86 c0
       -1.0779923 0.2059222 -0.18180686 -4.1921816
000220 33 f6 37 be 12 d2 dc bc 1c ac 6f 3d 09 77 09 be
       -0.17965011 -0.026955638 0.058513746 -0.13424315
000230 f2 31 4c 3c 75 ad 2a c0 53 63 e7 c0 83 69 e8 3e
       0.01246308 -2.666837 -7.2308745 0.45393
000240 1c 94 c6 bf ba d4 1d c0 83 2e 18 40 3d 70 e2 3e
       -1.5513949 -2.4661088 2.3778389 0.44226256
000250 1f f4 b4 3d 8f e7 91 bd 45 1c 3c 3e d4 a2 92 bc
       0.08835625 -0.071242444 0.18370159 -0.017899908
000260 f0 05 a0 bc 75 b3 f6 bd 7f 92 af 3d 96 2a 3f be
       -0.019534081 -0.120459475 0.08572864 -0.18668589
000270 97 b1 62 bf 97 78 6f 3f 58 d5 12 c0 d0 18 d3 bd
       -0.8855223 0.9354338 -2.2942715 -0.10307467
000280 35 f7 2d c0 bf c7 ab 3d 4f 77 50 bf a8 10 02 bd
       -2.7182133 0.08387708 -0.8143205 -0.031754166
000290 1e 1a 07 c0 b7 25 5a 3f 05 6f 85 3f 9c fa 0d c0
       -2.110969 0.852138 1.0424505 -2.218421
0002a0 f3 2c 95 3f d6 4b 3e 3e d7 0c 08 c0 7a 05 1c 3d
       1.1654342 0.18583617 -2.1257837 0.03809116
0002b0 34 3f 15 be 84 69 70 3f 83 ca 71 bf 37 88 11 40
       -0.14574891 0.93911004 -0.94449633 2.273939
0002c0 e2 c4 c1 bf 1e 5f 09 3e 90 a7 e4 3f ae 87 b2 bd
       -1.5138209 0.1341519 1.7863636 -0.08717285
0002d0 3a 08 3c bd 48 f0 0f 3e 66 df d4 bd ab 40 2f be
       -0.045906283 0.14056504 -0.10394172 -0.17114513
0002e0 15 5e 8b be e3 9b 64 c0 0f 22 b0 3e b9 22 e6 3e
       -0.27220216 -3.5720146 0.34400985 0.44948366
0002f0 48 0c 29 3e a7 4a 6d 3d 66 36 a9 3f c6 b1 ab bd
       0.16508591 0.057932522 1.3219726 -0.08383517
000300 53 1e 31 3e 30 da 32 be 49 16 0d 3d 57 15 21 3e
       0.17296724 -0.17466044 0.03444508 0.15730797
000310 08 21 87 bc 43 2c a5 3d a6 dd 0e 3e 6e c4 4c bf
       -0.016495243 0.08065083 0.1395174 -0.7998723
000320 50 6a 7b 40 6a 94 c7 c0 d0 1b 25 bd a8 2c dc 3f
       3.9283638 -6.236867 -0.040309727 1.7201128
000330 bc 37 38 be f1 5c 93 bf 54 f0 da 3d e8 6d e4 3f
       -0.17990011 -1.1512738 0.1069037 1.7846041
000340 b1 8b 34 3f 66 11 af 3f 9c a1 5e c0 63 ea 71 3d
       0.7052565 1.3677185 -3.4786139 0.05906142
000350 fc fd 1d 3e ef 64 b4 bf 09 0d f0 3d 3a 59 01 bd
       0.15428919 -1.4093302 0.11721236 -0.031579234
000360 5f 35 5e bf 14 75 8a 3f 50 8d 75 3f 56 0f 2b 3d
       -0.8680019 1.081698 0.9591875 0.041762672
000370 12 a3 04 3e cb 49 94 3f e6 f0 b6 3c c0 f2 14 3d
       0.12952831 1.158502 0.022331666 0.036364317
000380 8f a7 21 be 86 f3 4b 3d 4d 64 38 bd e4 55 bc 3e
       -0.15786575 0.04979279 -0.04501753 0.3678428
000390 e8 5d 08 bf 35 1a b0 3f fb dd 88 bd 8f 57 5c 3f
       -0.5326829 1.3757998 -0.066829644 0.86071104
0003a0 b6 67 10 c0 21 56 f9 bf 58 b9 81 3d 59 c8 a6 3d
       -2.25633 -1.947941 0.0633418 0.08143682
0003b0 3a 40 f4 3d 6c 84 cf 3d a9 7f 02 be 77 4b a3 bd
       0.11926313 0.10132679 -0.12744011 -0.07973378
0003c0 56 82 02 be 2e 91 f1 bd e3 4a 16 bf d2 e8 58 be
       -0.12745032 -0.11795269 -0.5870802 -0.21182564
0003d0 07 fa b2 bf 27 a9 0a 3e c1 57 24 be 0c ac 5c 3c
       -1.3982552 0.13541089 -0.160491 0.013468754
0003e0 61 83 12 bf c3 fd c4 3d 42 8f 0a bf 85 d1 9e be
       -0.5723172 0.09618714 -0.54124844 -0.31019226
0003f0 9d 41 03 bc a1 4f e6 bf 67 bd 77 3f 20 82 07 bf
       -0.008011249 -1.7993051 0.9677338 -0.5293293

network.0.bias f4 [128]
000000 19 ae 4d c1 4f 68 3e c1 a2 56 d2 c0 e0 3e 1c c1
       -12.855004 -11.900466 -6.5730753 -9.76535
000010 bc 20 53 c1 db 81 12 c1 f7 c1 11 c1 1f 75 2c c1
       -13.195492 -9.156703 -9.109855 -10.778594
000020 4b 83 25 c1 24 0a 30 c1 ea 36 33 c1 d1 87 e6 c0
       -10.344554 -11.002476 -11.200907 -7.204079
000030 39 ea 12 c1 c5 21 6d c1 ca 25 11 c1 7f 60 37 c1
       -9.182183 -14.8207445 -9.071726 -11.461059
000040 16 40 4c c1 67 57 44 c1 47 9d b8 c0 ca 75 24 c1
       -12.765646 -12.271338 -5.769199 -10.278757
000050 fd 85 20 c1 ba fd 05 c1 37 42 fb c0 c7 25 3b c1
       -10.032712 -8.374445 -7.851833 -11.696723
000060 91 3c df c0 35 44 1b c1 32 ea f9 c0 35 2b 26 c1
       -6.9761434 -9.704152 -7.8098383 -10.385549
000070 9c 37 ee c0 73 7b 03 c1 1e 69 39 c1 e0 b1 30 c1
       -7.4442883 -8.217639 -11.588163 -11.0434265
000080 47 77 cd c0 c1 23 13 c1 33 47 5b c1 c5 46 c4 c0
       -6.42081 -9.196229 -13.704883 -6.133639
000090 ed d7 30 c1 fd 4c 54 c1 e9 ee 49 c1 ab d2 0a c1
       -11.052716 -13.268796 -12.620828 -8.676433
0000a0 de 60 30 c1 01 c9 f6 c0 cb 49 1d c1 76 21 a1 c0
       -11.023649 -7.7120366 -9.830516 -5.0353346
0000b0 10 19 67 c1 5d 2e 4e c1 1e 56 2f c1 59 9d 32 c1
       -14.443619 -12.886319 -10.958525 -11.163415
0000c0 3e f1 76 c1 06 6b 41 c1 3f 0c 79 c1 9c f5 22 c1
       -15.433897 -12.088629 -15.56549 -10.184963
0000d0 01 7e c0 c0 23 10 25 c1 c0 3a 07 c1 6b 97 69 c1
       -6.0153813 -10.31644 -8.451843 -14.599467
0000e0 1d be 1c c1 ab f1 34 c1 7f 50 41 c1 ba 5f 0e c1
       -9.796414 -11.309001 -12.082152 -8.898371
0000f0 9a 3b 33 c1 52 18 0d c1 ab 5c f3 c0 3a 3a 21 c1
       -11.202051 -8.818438 -7.605062 -10.076715
000100 de ad 19 c1 7a 78 15 c1 b5 a1 fd c0 7b 79 0d c1
       -9.604948 -9.341913 -7.9259896 -8.842158
000110 30 c7 17 c1 70 f5 34 c1 db cf 3a c1 06 95 11 c1
       -9.48613 -11.309921 -11.675746 -9.098883
000120 42 9a 0d c1 84 20 13 c1 ed 67 51 c1 59 62 2a c1
       -8.850161 -9.195438 -13.0878725 -10.649011
000130 22 a9 de c0 00 01 b5 c0 63 55 3a c1 a5 07 1c c1
       -6.958146 -5.656372 -11.645846 -9.751866
000140 78 30 4b c1 59 11 26 c1 d1 c0 f8 c0 03 0b 64 c0
       -12.699333 -10.379235 -7.773537 -3.563172
000150 c8 4b 0f c1 45 6c 3e c1 9b cf 2d c1 a6 7e 26 c1
       -8.956001 -11.901433 -10.863185 -10.40592
000160 f9 59 20 c1 69 15 a0 c0 ef 70 4a c1 c4 f7 59 c1
       -10.021966 -5.0026135 -12.652572 -13.62299
000170 3a 3c 14 c1 3a 28 07 c1 c0 ad 55 c0 5b 7b 1a c1
       -9.264704 -8.447321 -3.3387299 -9.655116
000180 11 20 04 c1 92 ff 53 c1 2c 15 2f c1 b0 52 a1 c0
       -8.257829 -13.249895 -10.942669 -5.0413437
000190 7d b9 23 c1 3c bb e3 c0 d0 ce 21 c1 46 fc fd c0
       -10.232785 -7.1166058 -10.112991 -7.937045
0001a0 e5 57 31 c1 4b 2f 14 c1 2c 2b 0e c1 9b a1 12 c1
       -11.083959 -9.261546 -8.88554 -9.164454
0001b0 ad b0 12 c1 8f c8 2b c1 34 97 03 c1 c0 70 6b c0
       -9.168134 -10.7364645 -8.224415 -3.6787567
0001c0 91 97 49 c1 63 1c 4d c1 22 02 13 c1 83 30 1a c1
       -12.5995035 -12.81943 -9.188021 -9.636844
0001d0 59 ef 39 c1 d9 87 e1 c0 d4 8d 21 c1 f8 8e 30 c1
       -11.6209345 -7.047833 -10.097126 -11.0349045
0001e0 a9 2e e3 c0 24 b0 38 c1 e9 e2 e8 c0 b4 83 26 c1
       -7.099446 -11.543003 -7.277699 -10.407154
0001f0 05 9e 32 c1 3d 1c 11 c1 1c 6c 05 c1 6e 04 27 c1
       -11.163579 -9.069394 -8.338894 -10.438581

network.3.weight f4 [64, 128]
000000 bb 0f 79 bd 53 e3 83 bd 42 a0 ae bd 5f 15 19 bf
       -0.060806017 -0.06439843 -0.085266605 -0.59798235
000010 aa 1a 76 bd d9 84 e5 3d 79 6a 7c be 97 13 2a be
       -0.060084023 0.11206979 -0.24649991 -0.16609035
000020 e6 d0 a2 be 31 46 16 3e e9 da 09 be ce 30 8a be
       -0.31800002 0.14675213 -0.13462414 -0.2699036
000030 83 13 66 be d3 e0 b2 be 70 ca 66 be bc 73 23 bf
       -0.2246838 -0.34937152 -0.22538161 -0.6384847
000040 2e 08 98 bd d0 b8 9c be 64 47 64 be a5 fe 3b be
       -0.07423435 -0.3060975 -0.22292858 -0.18358858
000050 98 26 03 bf 7b 65 13 bf 3a e9 76 bf 74 91 ab be
       -0.51230764 -0.5757672 -0.96449625 -0.3350941
000060 dc 05 2c bd be 74 81 bd d5 04 ca 3c f3 80 13 bf
       -0.041997775 -0.06321095 0.024660507 -0.57618636
000070 b8 ff 98 bf 23 df 29 bf 69 f3 58 3d f2 d4 e8 be
       -1.1953039 -0.66356105 0.05296651 -0.45474964
000080 00 17 24 3b 48 48 d2 be be 8a 24 be 6f a0 21 bf
       0.0025038123 -0.4107077 -0.16068551 -0.6313543
000090 2a 41 fc be ac 72 98 be 4c a0 7c be eb e7 0d bf
       -0.49268466 -0.29774988 -0.24670523 -0.55432004
0000a0 c6 d1 c8 be 5b 67 b4 be 7e 3c ec bd 52 25 5e bf
       -0.39222544 -0.35235104 -0.115349755 -0.86775696
0000b0 0d 84 39 bf de 70 4b bf 9a 33 b7 be 86 b3 21 3e
       -0.7246712 -0.79469097 -0.35781556 0.15791139
0000c0 e7 bf cc be f7 79 a1 be 18 5a d4 be 68 2b 1b bf
       -0.3999016 -0.31538364 -0.41474986 -0.6061311
0000d0 9a 16 3d be 1a b9 cc 3d cc dd 2b bf 9a 8b ec ba
       -0.18465653 0.09996243 -0.6713531 -0.0018046976
0000e0 3e b4 ac be 10 e9 bf be 9c d4 58 be f1 52 cd be
       -0.33731264 -0.374825 -0.21174854 -0.40102342
0000f0 49 ba 02 be 51 31 3f be 6d b1 f8 be 00 dc 17 be
       -0.12766375 -0.18671156 -0.48572865 -0.14830017
000100 28 a2 67 bd ad c4 43 be c3 3b cd bd 53 0e 62 bd
       -0.05655113 -0.19117995 -0.10021164 -0.055189442
000110 c7 55 b8 be b5 b5 f0 bd 53 e0 56 3e bc dc 12 bf
       -0.36002943 -0.11753408 0.2098401 -0.57368064
000120 13 a5 6d bf 36 ef 53 be c6 f4 bf be 02 52 4b be
       -0.9283001 -0.2069672 -0.37491435 -0.19855502
000130 dd 91 86 be b7 4a dd be ee 3e 55 be 99 2d 4f bf
       -0.2628316 -0.43221065 -0.20824787 -0.8092895
000140 66 be de be 28 30 38 be 6e 5e c9 be 39 6a 08 bf
       -0.43504637 -0.1798712 -0.39329857 -0.5328708
000150 d3 c3 ba be 90 56 67 be 61 9b 97 be 41 ba df be
       -0.36477527 -0.22591615 -0.29610732 -0.43696788
000160 62 28 11 bf 43 ea 5d bc e0 e9 12 bf 0f b9 4e be
       -0.56702244 -0.013544622 -0.57388115 -0.20187782
000170 7f ee bb be 67 db af be 3a ef 01 bf 76 0a 88 be
       -0.36705396 -0.34347078 -0.50755656 -0.2657048
000180 ae 03 ad be a9 86 59 be 48 dc 0e bf 5e 6d 8d be
       -0.3379187 -0.21242775 -0.5580487 -0.27622503
000190 11 fd 92 be f7 1f 94 be dc ab 20 be cc 5e 8a 3e
       -0.287087 -0.28930637 -0.15690559 0.2702545
0001a0 f3 35 62 bd df 14 60 bd a4 45 01 bf 78 20 14 be
       -0.05522723 -0.054707404 -0.5049689 -0.14465511
0001b0 b3 73 81 bf 86 c5 28 bd 32 49 10 bf ef 84 d5 be
       -1.0113434 -0.041203998 -0.5636169 -0.41702983
0001c0 7a 5c 80 bd ca e6 b2 bc ae fb 8a 3c 1c 14 ec bd
       -0.062676385 -0.021838564 0.016965713 -0.11527273
0001d0 4f 53 9b be 13 c1 1c be 73 49 09 3e e5 e5 29 bf
       -0.30336997 -0.15308027 0.13406925 -0.66366416
0001e0 c9 96 c1 bd d4 dc 45 be 1b 02 a4 be c1 ce d9 be
       -0.09452588 -0.1932252 -0.32032856 -0.42540553
0001f0 0d 04 23 be 94 6f 1f bc 5f 81 f7 bd 8c a9 9e be
       -0.15919514 -0.009731192 -0.120852225 -0.3098873
000200 9f 45 a5 bd c9 e5 f2 be f9 4e a5 be b3 94 99 be
       -0.0806992 -0.47440937 -0.32286814 -0.2999626
000210 d8 77 ad be 96 d8 d8 bd a8 74 b4 be ba b9 cb bd
       -0.33880496 -0.105881855 -0.35245252 -0.09947534
000220 c1 b0 9c be e2 ad f8 be bf 9f 55 be 92 d3 53 be
       -0.30603603 -0.48570162 -0.2086172 -0.20686176
000230 10 4b f3 be 2d c9 9a be 7d e2 76 bf 21 4d 9d bf
       -0.47518206 -0.3023161 -0.96439344 -1.2289163
000240 d2 b5 b8 bd 64 a9 8e be bc 01 19 bf b1 38 bd b6
       -0.090190545 -0.2786361 -0.5976827 -5.6392387e-06
000250 f6 61 d8 bc 63 54 d7 be 0f 4a dc be f9 8b ca be
       -0.026413899 -0.4205657 -0.43025252 -0.39559916
000260 7a c0 93 be 2a 79 84 be 90 f6 70 bd f3 81 ee 3c
       -0.28857785 -0.2587369 -0.05882889 0.029114699
000270 4f 45 14 bd f5 d3 3a bf 5d ea a5 be b7 ab 92 bf
       -0.03619891 -0.7297967 -0.32405367 -1.1458653
000280 a5 34 8b bf 65 42 87 be bf bd b5 bd d5 82 01 bf
       -1.0875441 -0.26417843 -0.08874082 -0.5059026
000290 d8 76 29 be d5 cd 9b be fb 63 f6 be b4 f6 40 bf
       -0.16549242 -0.30430475 -0.48123154 -0.7537644
0002a0 a0 7b 84 be e1 0a c1 bf 05 b7 12 bd 1c e1 d4 be
       -0.25875568 -1.5081445 -0.035819072 -0.41577995
0002b0 23 d5 91 bc 95 15 37 bf 07 16 be bf 73 ba aa be
       -0.017801827 -0.71517307 -1.4850472 -0.33345374
0002c0 8b f9 32 bf 73 4d 23 bd c6 ab 6f bf 4d 8d 49 bd
       -0.6991202 -0.039868783 -0.9362148 -0.04920702
0002d0 06 8d e7 be 87 56 70 be e1 e9 f0 bf 98 cd 5e 3c
       -0.4522478 -0.23470508 -1.8821374 0.013598822
0002e0 61 d9 2a bf bf 16 0e be 98 eb c5 be 4c e6 77 bf
       -0.66737944 -0.13875864 -0.38656306 -0.9683578
0002f0 53 5d 9a be 57 88 1d be a9 25 3f be 73 eb 15 bf
       -0.30149326 -0.15384041 -0.1866671 -0.5856239
000300 2d 43 1f bf 0b a3 23 bf 01 5a ee 3d 69 6e f3 bd
       -0.6221188 -0.6392066 0.11638261 -0.118862934
000310 ad b1 bf be a0 d6 45 be 8a 9e d3 3c 96 52 bf be
       -0.37440243 -0.19320154 0.025832433 -0.37367696
000320 b9 56 f2 bd bf 10 dc be d7 06 d6 be c2 16 12 be
       -0.11832947 -0.42981526 -0.41802093 -0.14266494
000330 c5 d0 ca bd 4c e6 a0 be 3d cb e7 be 24 3b f4 be
       -0.09903101 -0.31425703 -0.45272246 -0.4770137
000340 23 6f c1 3c b7 14 df bd e8 bf ed be 73 94 11 bf
       0.023612564 -0.10892623 -0.46435475 -0.5686714
000350 f5 3a 34 bf 3b 32 8d bf 19 a0 2a bf 51 ce 35 bf
       -0.7040246 -1.1030954 -0.6665054 -0.7101794
000360 55 df 86 be 9c 27 52 be 9d b7 76 be 1b a2 0a bf
       -0.26342264 -0.20522922 -0.2409348 -0.54153603
000370 dd df 13 bf 04 65 a7 be ca c4 6e bf f7 68 08 bf
       -0.57763463 -0.32694256 -0.93269026 -0.53285164
000380 39 d5 c7 be 75 85 e4 be 3f 81 1a bf f6 7b 0f bf
       -0.39029863 -0.4463307 -0.60353464 -0.56048524
000390 9c 42 59 bf 3e b9 4a bd 8f 15 17 bf f6 7e c8 bd
       -0.8486726 -0.049493067 -0.5901727 -0.09789841
0003a0 17 7e ba 3c 8c b0 01 be bd e1 1b bf 7e d6 ec be
       0.022765202 -0.12665004 -0.60891324 -0.46257395
0003b0 7f d2 f1 bd d0 fe 1e bd 80 c9 b7 be 35 fe ef bd
       -0.11807727 -0.038817227 -0.3589592 -0.11718408
0003c0 f1 df 61 bf aa b0 e3 bd 3c fc df be 86 df e1 be
       -0.8823233 -0.1111768 -0.43747127 -0.44115847
0003d0 60 de b7 be 59 ac 9a be d7 00 d7 3d 42 3b 76 be
       -0.35911846 -0.30209616 0.10498207 -0.24046043
0003e0 53 74 a5 be e1 27 19 be 02 e3 92 be a2 33 87 bf
       -0.3231531 -0.14956619 -0.28688818 -1.0562632
0003f0 0f 7a 31 bf 77 5a 98 3c 67 8e 62 bf 6e 16 ab bf
       -0.6932687 0.018597824 -0.8849854 -1.336622

network.3.bias f4 [64]
000000 67 dc 32 c0 f2 81 09 c0 ba 37 f6 bf f6 61 57 c0
       -2.7947023 -2.1485562 -1.9235756 -3.365354
000010 bb 30 10 c0 fc 3b 21 c0 f0 51 05 c0 c9 ff 4e c0
       -2.2529743 -2.5192862 -2.083126 -3.234362
000020 94 67 c9 bf 19 2e 0d c0 c1 47 11 c0 3c af f0 bf
       -1.5734735 -2.2059386 -2.2700045 -1.8803477
000030 60 16 3d c0 cb fa 4e c0 f8 6b 0c c0 a9 aa 16 c0
       -2.9544907 -3.2340572 -2.19409 -2.3541663
000040 00 ae fd bf 4b 07 69 c0 58 b2 b5 bf ae eb 14 c0
       -1.9818726 -3.6410701 -1.4195051 -2.3268847
000050 82 b0 0d c0 33 3c 26 c0 02 70 f2 bf a0 af 1b c0
       -2.2138982 -2.5974243 -1.8940432 -2.4325943
000060 d6 2d 0b c0 ed 3f c8 bf 67 90 1d c0 de 4d 5a c0
       -2.1746726 -1.5644509 -2.4619386 -3.4110026
000070 ab 52 3b c0 9b b9 f6 bf 1f bf 3d c0 e1 bb 21 c0
       -2.9269207 -1.9275392 -2.96479 -2.5270922
000080 56 58 8f bf 42 33 33 c0 a3 39 59 c0 4d 6a 0e c0
       -1.1198833 -2.8000035 -3.3941429 -2.225238
000090 e4 65 25 c0 10 6f 18 c0 e9 43 21 3f 2d 43 db bf
       -2.584344 -2.3817787 0.6299425 -1.7129875
0000a0 57 92 1f c0 e6 92 57 c0 e8 6b e1 bf 2d 06 2e c0
       -2.4933069 -3.368341 -1.7611055 -2.719127
0000b0 6e d1 31 c0 cf 98 5b c0 d3 26 74 c0 fb 0c 1f c0
       -2.7784076 -3.4312017 -3.8148696 -2.4851673
0000c0 b8 01 9b bf d1 bd 00 c0 7c 89 e9 bf 76 4d 2e c0
       -1.21099 -2.0115855 -1.8245082 -2.7234778
0000d0 90 25 68 c0 8c 0d 96 3f 36 20 86 c0 41 00 6f c0
       -3.6272926 1.1722884 -4.191432 -3.7343905
0000e0 5e 68 8c c0 5a fc a4 bf 6a 90 3c c0 8b 24 0d c0
       -4.38774 -1.2889512 -2.9463143 -2.2053554
0000f0 c4 03 17 c0 68 6d 28 c0 5b 68 3c 3f ff c1 07 c0
       -2.3596048 -2.6316776 0.73596734 -2.1212156

network.6.weight f4 [5, 64]
000000 e0 9d 8e be 65 35 2d be c2 9c a7 bd 5f 36 3d be
       -0.27854824 -0.169149 -0.08184196 -0.18477772
000010 e4 98 18 be 84 20 99 be 40 e6 46 3e 3e eb 08 3e
       -0.14902073 -0.2990762 0.19423771 0.13370988
000020 1f c6 19 be 3c 0b b2 bd 9a a0 7d be a7 dd 3a be
       -0.15016983 -0.08693549 -0.24768296 -0.18248616
000030 d1 c5 b5 bd eb 20 6d 3d 18 18 6b 3d ea b5 5e be
       -0.08875621 0.05789272 0.057396024 -0.21749082
000040 f9 2c ba bd 11 4e 97 3d 08 34 f2 3d 18 2e ca bd
       -0.09090609 0.07387937 0.118263304 -0.09872073
000050 76 0b 70 be bd dd 75 be b7 76 6d be 50 a2 f1 3d
       -0.23441872 -0.24010368 -0.23189817 0.11798537
000060 ed 20 06 3e 50 dc d6 3c 35 5c 55 be b0 80 82 be
       0.13098498 0.0262281 -0.20835955 -0.25488806
000070 d4 ab ce bd af 67 cc bd ef db 81 3d 70 e8 a8 bd
       -0.10091367 -0.099807136 0.06340777 -0.08247459
000080 af b7 a1 3b 2b 1b 2c bd 17 ac 39 bd bb 26 97 be
       0.004935227 -0.042018097 -0.045330133 -0.29521737
000090 9c 77 43 3d c8 0b 55 be a2 1b 6b be 55 c2 30 be
       0.04772149 -0.20805275 -0.2295976 -0.17261632
0000a0 b7 d3 93 be 9d cd 22 be dc 5a 92 3e c3 3e 27 3e
       -0.28872463 -0.15898748 0.28584945 0.16332535
0000b0 5b 0f 9a bd b6 cc 06 be 67 dc 42 3c a3 75 0f 3e
       -0.0752246 -0.13164029 0.011893368 0.14009719
0000c0 ae 7d f9 bd cd 7a 8a 3d 50 8b 8c be 15 4e de 3d
       -0.121821746 0.06761704 -0.27450037 0.10854737
0000d0 0d c0 13 3e ed 7b ee bd 06 2a 16 bd b6 7d 1f 3e
       0.1442873 -0.11644731 -0.03666117 0.15575299
0000e0 5e 63 96 be 0c 92 60 be c8 45 91 3d 2d 1a 05 be
       -0.29372686 -0.21930712 0.07093388 -0.12998267
0000f0 a4 c1 98 be ab 6c ec 3d a5 80 82 bd 48 5b c6 3c
       -0.29835236 0.11544164 -0.06372193 0.024213448
000100 72 c4 42 bd 71 c1 6d 3e e2 2f 53 3e 07 7b 80 3d
       -0.047550626 0.23218323 0.20623735 0.062734656
000110 63 9e e6 be bc 77 15 3e 7d b5 05 be 27 b4 bd 3d
       -0.45042714 0.14596456 -0.13057514 0.09262877
000120 0c f5 34 3d 1b 0d 81 3d a8 68 84 be 59 15 61 be
       0.044179007 0.06301328 -0.25861096 -0.219808
000130 ef eb 4c 3e 4f 77 14 3e d6 37 05 be be 5e f2 bd
       0.20011877 0.14498638 -0.13009581 -0.11834477
000140 76 2c 86 bd 9b 32 f7 3e 2f e7 c1 be b1 df db 3b
       -0.06551449 0.48280796 -0.37871692 0.0067100157
000150 00 4a 59 3e 93 96 ef bd 8f 8c 9f be 4c 0d 56 3e
       0.21219635 -0.11698642 -0.31161925 0.2090351
000160 65 8e e1 bd 3b c2 97 be 05 84 14 bf ca 55 da bd
       -0.11013488 -0.29640374 -0.58013946 -0.10660894
000170 49 13 31 be 00 85 08 3e b1 6e 4b be 1d b9 77 bd
       -0.17292513 0.13331985 -0.19866444 -0.060479272
000180 b9 29 ec be 05 89 bd 3e 00 9a c0 3b f8 e7 2b 3e
       -0.46125582 0.370186 0.005877733 0.16787708
000190 b8 df 34 be f5 a4 6d 3e 01 65 79 3d a3 b4 11 be
       -0.17663467 0.23207457 0.06088734 -0.14229064
0001a0 ec 57 d1 bd 64 b0 7e be 60 74 27 3e 8c 93 9e be
       -0.10221848 -0.24871975 0.16352987 -0.30971944
0001b0 c6 b5 12 bd 1b 02 1b 3d ff 37 a6 3e b0 c4 b6 3c
       -0.035817884 0.037843805 0.32464597 0.022310585
0001c0 99 e5 35 3c 1b 61 5c be 0f 03 81 be 9d d2 cd 3d
       0.011102104 -0.21521418 -0.25197646 0.10049937
0001d0 2a f0 d4 3e 13 a0 75 be 87 a8 92 be 2d 97 ee be
       0.4158948 -0.23986845 -0.286442 -0.46599713
0001e0 38 c9 47 bf bb 96 55 3e a7 f5 32 3e c7 04 86 bd
       -0.7804141 0.2085828 0.17476521 -0.0654388
0001f0 31 d0 76 3e 26 4e 02 be 95 fd 27 be 5d d7 c5 be
       0.24102856 -0.12725124 -0.16405328 -0.38640872
000200 d6 d5 87 3d 0e 1e 15 be 09 4d a9 be e9 71 2f bc
       0.06632583 -0.14562246 -0.33066586 -0.010708311
000210 40 17 94 3c 12 a4 41 be 04 d3 7b 3e df 3a 5a 3e
       0.018077493 -0.18910244 0.24592215 0.2131152
000220 56 4c 01 3e bb db 14 bf e5 9e 4b be 13 14 ae 3e
       0.12626776 -0.5814778 -0.19884832 0.3399969
000230 5d 55 b0 bd 2e fa 1e 3e a8 79 62 be 07 d7 63 be
       -0.08610032 0.15525123 -0.2211672 -0.22249995
000240 8d b3 1f bc 21 db 12 be 23 99 1d bd 9e b5 d6 3e
       -0.009747398 -0.14341404 -0.03847612 0.41935438
000250 4f 84 14 3e 74 d3 d8 bd c6 61 9b 3d 29 50 2d bd
       0.14503597 -0.105872065 0.07587008 -0.042312775
000260 1e 4f 5b 3e 6b c5 66 be eb f4 16 3e f2 ec 9e 3d
       0.214169 -0.22536246 0.14741866 0.077600375
000270 17 f4 b5 3c 38 3f 4d be df 93 7f 3e 30 8f 89 bd
       0.022211118 -0.20043647 0.24958752 -0.06716764
000280 11 0c c4 3d ea a4 8f bc 08 3f 5b bc d8 22 a8 3d
       0.09572614 -0.017534692 -0.013381727 0.08209771
000290 4a 03 86 be 4e d1 08 be 26 a4 59 3e 23 b6 25 be
       -0.26174384 -0.13361093 0.21254024 -0.16182761
0002a0 63 f3 52 be c5 48 45 3e 5e bc 6f 3e 32 83 bd be
       -0.20600657 0.1926604 0.234117 -0.37014157
0002b0 79 ab 86 3e 79 4c a5 be cd 65 7f bd 71 b6 9b be
       0.26302698 -0.32284907 -0.062352944 -0.3041263
0002c0 1b 0f 02 bd 51 53 85 bc c3 a3 4e be 59 0b 9d 3e
       -0.031752687 -0.01627508 -0.20179658 0.3067272
0002d0 41 10 84 be af 13 33 3e 5d fe 0c be 24 7d 8d be
       -0.2579365 0.17487977 -0.13768907 -0.27634537
0002e0 f7 7a 86 3e 11 3d 7b be e3 99 af be 34 b0 a0 3e
       0.2626569 -0.24535014 -0.34297094 0.31384432
0002f0 89 fd a5 bd a3 eb f0 3e 61 43 09 bf 1a f2 fe 3d
       -0.081049986 0.47054777 -0.5361844 0.12448521
000300 48 77 6c be ca 2e 17 3e 1b 78 53 bd 1f f9 de bd
       -0.23092377 0.14763942 -0.051628213 -0.1088736
000310 e0 a1 91 3c 56 46 53 3d a5 85 64 3e 64 ab c8 be
       0.017777383 0.05158075 0.22316606 -0.3919326
000320 f3 87 3c be f8 70 ed be 07 fc bf 3d db 43 e2 bd
       -0.18411236 -0.4637525 0.09374242 -0.11048099
000330 60 ca b3 3d 3b 5c 15 3d 41 39 be 3d 05 86 04 3e
       0.08778834 0.03646491 0.09288264 0.1294175
000340 64 d7 35 be 48 d4 eb 3d 97 fa 02 3e a6 cd e0 3e
       -0.17757946 0.11515099 0.12790905 0.43906897
000350 38 30 cc 3d b2 d1 f0 3d c6 f9 37 bd ff d6 78 3d
       0.099701345 0.11758746 -0.044915937 0.06075191
000360 76 4a 69 bd 96 f4 1d 3d 04 af 2a be 4b 68 cc bc
       -0.056955777 0.038563333 -0.16668326 -0.024952075
000370 80 14 db bd 8b 60 32 bd a0 d4 5d 3d ca f0 02 bd
       -0.106972694 -0.0435491 0.054157853 -0.031967916
000380 00 84 dd 3c b6 9c 63 3e b8 93 f9 3d 21 e4 22 be
       0.027040482 0.22227749 0.12186378 -0.15907337
000390 3c b9 a9 be 0e 86 2c be 6e 9c b6 3e af ec e6 bd
       -0.33149135 -0.16848013 0.3566622 -0.112756126
0003a0 f6 f4 b5 3d 31 cd da 3d 4a fe f8 bd 48 45 aa 3e
       0.08884613 0.106836684 -0.12157877 0.33255982
0003b0 de f2 0c bd 18 ab f9 3d d2 0d 96 bd ac e0 99 3d
       -0.034411304 0.12190837 -0.07326855 0.07513556
0003c0 0f cf ec 3d 5d f5 00 3d e8 49 25 3d b7 01 41 be
       0.11562931 0.031483997 0.040353686 -0.1884831
0003d0 34 48 1d 3e ce 28 4b 3e 5e 91 dd 3d 0d 4c b7 3e
       0.15359575 0.19839785 0.10818742 0.3580021
0003e0 25 27 78 3e e5 61 d0 3c 71 5b 9f 3d c0 07 62 3d
       0.24233682 0.025437305 0.07781113 0.055183172
0003f0 24 62 cd bd c3 1d 4d be 48 d5 31 ba d2 3c 0e 3e
       -0.100284845 -0.20030884 -0.00067837955 0.13890389

network.6.bias f4 [5]
000000 c6 52 51 3e e0 40 16 be 51 86 9f 3c 82 85 90 3e
       0.20441732 -0.14673185 0.019473227 0.28226858
000010 fe d9 03 3d
       0.032190315

network.0.weight f4 [128, 43]
000000 b0 16 a5 bb 75 18 51 bf ad d3 1e 3f 6e a6 c6 bf
       -0.005038105 -0.81677943 0.6204174 -1.551954
000010 be b1 f3 bf cc f0 23 be db e1 ad 3f 4a ba 0c 3e
       -1.9038618 -0.16009825 1.3584551 0.13742939
000020 a5 1d 28 3e 74 08 26 be 01 cf 90 bc 38 ae ec bd
       0.16417558 -0.16214162 -0.017676832 -0.11556667
000030 1d 4c 90 3f 39 e2 de be 36 da 0a 3e a9 3f 1a bf
       1.1273228 -0.4353197 0.13559803 -0.6025339
000040 13 8d cf bf 1a 45 f5 3f 9c b9 5d 3f 03 ad a3 bd
       -1.6214927 1.9161713 0.8661134 -0.07991984
000050 f5 73 0c be d6 be b3 bd 3c f8 04 3e af 68 a7 ba
       -0.13716109 -0.087766334 0.12985319 -0.0012772287
000060 33 16 bb bd 1f 9e 2b 3e 56 7f 3c bd 79 34 cf bf
       -0.091350935 0.16759537 -0.046019875 -1.6187888
000070 fb 38 1a 40 ed 2a 96 bf 35 c0 8b 3d 89 19 c8 3f
       2.4097278 -1.173185 0.0682377 1.5632793
000080 77 c5 3a be 76 77 af bf 9c ad 23 3e 88 a4 36 3e
       -0.1823939 -1.3708332 0.15984195 0.17836201
000090 05 14 58 bf 17 f3 cc 3f ab 2c 18 c0 33 db 41 c0
       -0.8440555 1.6011685 -2.3777263 -3.0290039
0000a0 50 21 3b 40 0e 58 10 c0 04 9b 1a 3d d1 27 29 be
       2.9239082 -2.2553744 0.03774549 -0.16519095
0000b0 78 7d c5 3f 39 8c b2 bf 87 0a 6f bf 16 37 bc be
       1.5428915 -1.3949043 -0.9337544 -0.36760777
0000c0 70 05 3d be de 86 93 c0 54 48 a9 3d 85 bb bb 3d
       -0.18459105 -4.6102133 0.082657486 0.09166626
0000d0 7b be 1b bd 7f 07 2c 3d c5 ab 34 3d 2f d0 02 c0
       -0.038023453 0.041999336 0.044109125 -2.0439565
0000e0 97 26 5d c0 86 3b 02 bf 7d da 3a 3f 5b 2e 01 c0
       -3.4554803 -0.50872076 0.72989637 -2.0184543
0000f0 16 a8 81 bd f6 de 44 3e d6 60 3e be 31 8b 7b 3d
       -0.06330888 0.19225678 -0.18591627 0.06141204
000100 0f 0e a8 3d dc aa a6 bd 22 c5 ed 3d 3a d1 3e bd
       0.082058065 -0.081380576 0.11609866 -0.046586253
000110 58 57 c5 bd 7a 87 c6 3d 72 fa 80 3f b4 ca cc bf
       -0.096358 0.09693809 1.007643 -1.599936
000120 2d 16 c5 3f d8 97 20 3e 0b d3 2c bf 11 3b 89 bd
       1.5397393 0.15682924 -0.67509526 -0.06700719
000130 ef 6d 7c 3f 50 56 fc bd 81 ee 07 c0 19 09 d4 3f
       0.98605245 -0.1232115 -2.1239321 1.6565276
000140 9e ac df bf 95 f1 a3 bf 66 8e 61 be 5d a9 47 40
       -1.7474554 -1.28081 -0.22026977 3.119712
000150 02 59 b6 bf b6 3f c6 3d 39 e7 a9 3d 48 48 af bf
       -1.4245913 0.09680121 0.08296055 -1.3693933
000160 74 25 b7 3f 01 47 2e 40 b6 2c 31 c0 22 7b a5 bd
       1.4308305 2.7230837 -2.768354 -0.08080126
000170 c3 9c 59 40 3f cc 31 3d ad b0 26 3d a9 cf bf bd
       3.400193 0.043407675 0.040695835 -0.0936578
000180 61 e6 09 bd 77 77 9b bb 83 d3 05 c1 dc e3 4b c0
       -0.033666972 -0.004744466 -8.364139 -3.1857824
000190 45 d5 10 c0 bc c3 78 3f d4 89 e7 bf ae 4b 7c 40
       -2.263017 0.97173667 -1.8088937 3.9421191
0001a0 a4 43 cc bf 6d 57 1c 3d b5 52 3c be 2d 85 23 3e
       -1.5958142 0.038169313 -0.18390925 0.15968771
0001b0 b6 da c7 3d 24 d8 33 be 98 7e 75 3d 0a b2 19 be
       0.09758513 -0.1756292 0.059935182 -0.15009323
0001c0 d5 5d 88 3c c5 6a 25 bf 5d b5 d8 be 3d fd 92 c0
       0.016646305 -0.6461604 -0.4232587 -4.593413
0001d0 46 de 2a be c9 61 a6 bf 16 0a 0d 3e 5a 6c 2d bf
       -0.16686353 -1.2998592 0.13773379 -0.67743456
0001e0 f5 f9 ca bd da 68 54 bf 4b 96 64 3f 0a a1 b7 3f
       -0.09910957 -0.8297249 0.8929183 1.434602
0001f0 b8 11 c1 bf a2 c5 2c c0 0f ab fc 3f 23 9a 58 3f
       -1.5083532 -2.6995625 1.9739703 0.84610194
000200 07 a0 14 bd 05 82 37 3c 37 e7 ab 3f a0 8b a9 bf
       -0.036285426 0.011200433 1.3429936 -1.3245735
000210 ed f5 27 bf 31 55 8f be 94 2b 3a be 75 b3 5c c0
       -0.6560963 -0.27994683 -0.18180686 -3.4484532
000220 33 f6 37 be 12 d2 dc bc 1c ac 6f 3d 0d 77 09 be
       -0.17965011 -0.026955638 0.058513746 -0.1342432
000230 f2 31 4c 3c 1f db 1c c0 7f bf dd c0 e9 b5 1a be
       0.01246308 -2.450874 -6.929626 -0.15108456
000240 ef f1 99 bf 76 3c 32 c0 30 9e 02 40 04 65 e4 be
       -1.2026957 -2.7849402 2.040905 -0.4460832
000250 1f f4 b4 3d 8f e7 91 bd 45 1c 3c 3e d4 a2 92 bc
       0.08835625 -0.071242444 0.18370159 -0.017899908
000260 f0 05 a0 bc 75 b3 f6 bd 87 92 af 3d 96 2a 3f be
       -0.019534081 -0.120459475 0.0857287 -0.18668589
000270 67 4c 89 bf ee fc 33 3f 62 94 c3 bf d0 18 d3 bd
       -1.0726441 0.70307815 -1.5279658 -0.10307467
000280 0f ff 0d c0 bf c7 ab 3d 81 2f 80 bf a8 10 02 bd
       -2.2186925 0.08387708 -1.0014497 -0.031754166
000290 5e 3a c3 bf d9 fd bb 3f 80 9f 9c 3f 3e b0 ee bf
       -1.5252187 1.4686843 1.2236176 -1.8647535
0002a0 0d 4f d3 3f 90 c1 70 3f 3a fe cd bf 7a 05 1c 3d
       1.6508499 0.9404535 -1.6093209 0.03809116
0002b0 34 3f 15 be 2c ae 73 3f 48 0f 75 bf 9a ce 10 40
       -0.14574891 0.9518764 -0.9572644 2.26261
0002c0 f3 98 c4 bf 1e 5f 09 3e 77 00 e4 3f ae 87 b2 bd
       -1.5359176 0.1341519 1.7812642 -0.08717285
0002d0 3a 08 3c bd 48 f0 0f 3e 66 df d4 bd ab 40 2f be
       -0.045906283 0.14056504 -0.10394172 -0.17114513
0002e0 ec 26 86 be b5 8a 61 c0 7b 67 98 3e 02 e1 e8 3e
       -0.2620157 -3.524091 0.2976645 0.45484167
0002f0 1f f2 3d 3e e7 71 80 3d ff 94 a8 3f c6 b1 ab bd
       0.18549393 0.06271725 1.317047 -0.08383517
000300 53 1e 31 3e 30 da 32 be 49 16 0d 3d 57 15 21 3e
       0.17296724 -0.17466044 0.03444508 0.15730797
000310 08 21 87 bc 43 2c a5 3d a6 dd 0e 3e 94 23 52 bf
       -0.016495243 0.08065083 0.1395174 -0.8208554
000320 ab d8 79 40 d9 30 c8 c0 d0 1b 25 bd 8e a9 d8 3f
       3.9038494 -6.255963 -0.040309727 1.6926744
000330 bc 37 38 be 9d 0c 96 bf 54 f0 da 3d 99 40 e4 3f
       -0.17990011 -1.1722599 0.1069037 1.7832214
000340 cb 28 3d 3f 03 e3 ae 3f 28 3d 5a c0 91 83 96 3d
       0.7389037 1.3663028 -3.4099827 0.07349313
000350 ec 9d 31 3e 74 93 b7 bf 09 0d f0 3d 3a 59 01 bd
       0.17345399 -1.4341874 0.11721236 -0.031579234
000360 4f 0f 5e bf 63 62 8a 3f a2 c4 75 3f c8 58 24 3d
       -0.8674211 1.0811275 0.9600316 0.04012373
000370 12 a3 04 3e fe 0e 94 3f e6 f0 b6 3c c0 f2 14 3d
       0.12952831 1.1567075 0.022331666 0.036364317
000380 8f a7 21 be 86 f3 4b 3d 58 64 38 bd ae e8 bb 3e
       -0.15786575 0.04979279 -0.04501757 0.36700958
000390 9d 65 08 bf 45 3e b0 3f 09 13 87 bd f2 19 5c 3f
       -0.5328005 1.3769003 -0.065954275 0.8597709
0003a0 e7 60 10 c0 89 53 f9 bf 58 b9 81 3d 59 c8 a6 3d
       -2.2559144 -1.9478618 0.0633418 0.08143682
0003b0 3a 40 f4 3d 6c 84 cf 3d a9 7f 02 be 77 4b a3 bd
       0.11926313 0.10132679 -0.12744011 -0.07973378
0003c0 56 82 02 be 2e 91 f1 bd 7c 6b 16 bf 8c ec 58 be
       -0.12745032 -0.11795269 -0.5875776 -0.21183985
0003d0 6e c5 b2 bf 27 a9 0a 3e c6 81 26 be 0c ac 5c 3c
       -1.3966501 0.13541089 -0.16260442 0.013468754
0003e0 84 a3 12 bf c3 fd c4 3d c9 52 0a bf 36 cd 9e be
       -0.57280755 0.09618714 -0.5403257 -0.3101594
0003f0 59 11 f7 bb 78 21 e6 bf 86 8e 77 3f d8 bd 07 bf
       -0.00753991 -1.7978964 0.9670185 -0.53024054

network.0.bias f4 [128]
000000 3f ef 4c c1 54 c0 3c c1 6c 9a ca c0 0c 39 24 c1
       -12.80841 -11.796955 -6.3313503 -10.263927
000010 d2 ce 51 c1 ad 6e 12 c1 ea 1e 16 c1 69 0c 2d c1
       -13.112993 -9.15202 -9.382547 -10.81553
000020 b2 ed 20 c1 25 10 28 c1 0d 42 2f c1 a4 ea d9 c0
       -10.058031 -10.503942 -10.953626 -6.8098927
000030 ce 02 11 c1 de 15 61 c1 97 9f 0f c1 1e 7b 32 c1
       -9.063185 -14.067839 -8.976462 -11.155058
000040 d1 b9 40 c1 6b 29 41 c1 c2 a2 b9 c0 a1 54 24 c1
       -12.045365 -12.072612 -5.801118 -10.270661
000050 36 79 20 c1 0d f5 05 c1 79 28 fb c0 51 68 39 c1
       -10.0295925 -8.372327 -7.8486905 -11.587968
000060 d4 28 df c0 1b e4 17 c1 37 84 f0 c0 1f 64 1a c1
       -6.973734 -9.49319 -7.5161395 -9.649444
000070 0e 24 ee c0 b6 6f 03 c1 84 eb 36 c1 64 71 2b c1
       -7.441901 -8.214773 -11.432499 -10.715183
000080 18 4c cd c0 fb 4f 12 c1 59 31 58 c1 5a 8c b9 c0
       -6.415539 -9.1445265 -13.512048 -5.7983828
000090 92 c4 30 c1 e4 52 4c c1 5b ca 47 c1 d1 bd 0a c1
       -11.047991 -12.770237 -12.486903 -8.671342
0000a0 d7 ea 2f c1 38 b8 f6 c0 67 2f 1d c1 d2 1c a1 c0
       -10.994834 -7.7099876 -9.824073 -5.034768
0000b0 bb 59 57 c1 26 c3 47 c1 7b 1d 20 c1 4b 16 2a c1
       -13.459407 -12.485144 -10.007197 -10.630443
0000c0 6e 2b 6a c1 f8 c8 33 c1 b3 10 70 c1 2d dc 21 c1
       -14.635603 -11.236565 -15.004077 -10.116254
0000d0 7b 77 c0 c0 44 fd 24 c1 2e fd 06 c1 02 41 5b c1
       -6.014585 -10.311832 -8.436811 -13.703371
0000e0 87 00 0f c1 36 86 34 c1 b2 df 39 c1 2c 50 0e c1
       -8.937629 -11.282766 -11.617113 -8.894573
0000f0 ec 0f 33 c1 41 0d 0d c1 09 ff cb c0 8a 89 19 c1
       -11.191387 -8.815736 -6.374882 -9.596079
000100 af ec 11 c1 df 05 09 c1 bc a4 f4 c0 38 49 0c c1
       -9.120284 -8.563933 -7.645109 -8.767876
000110 91 45 17 c1 ef df 2e c1 ea 9c 3a c1 75 b9 0f c1
       -9.454484 -10.929671 -11.663309 -8.982778
000120 17 7f 0b c1 d6 93 0f c1 db 15 4e c1 7c ce 2d c1
       -8.718528 -8.973593 -12.880336 -10.862911
000130 df ca d6 c0 4f fc b4 c0 70 39 33 c1 7a 58 1a c1
       -6.7122645 -5.6557994 -11.201523 -9.646601
000140 ba ca 48 c1 9f 8a 1b c1 05 ad f8 c0 14 11 3d c0
       -12.549494 -9.721343 -7.7711205 -2.9541674
000150 fd 3c 04 c1 47 17 38 c1 d3 63 23 c1 57 92 23 c1
       -8.26489 -11.505683 -10.211871 -10.2232275
000160 18 95 1d c1 ac 10 a0 c0 8e 8d 40 c1 a9 15 50 c1
       -9.8489 -5.002035 -12.034559 -13.005288
000170 c1 e6 01 c1 c8 f5 06 c1 d5 a8 55 c0 89 80 1d c1
       -8.118836 -8.435005 -3.3384297 -9.843881
000180 ea 03 04 c1 9b 0c 46 c1 4c f3 2e c1 32 4d a1 c0
       -8.250956 -12.3780775 -10.934399 -5.0406733
000190 00 aa 23 c1 29 ee d5 c0 fc bc 21 c1 bb eb fd c0
       -10.229004 -6.6853223 -10.108639 -7.9350257
0001a0 d3 22 33 c1 be 96 13 c1 03 29 05 c1 9d 70 12 c1
       -11.196002 -9.224302 -8.322513 -9.1524935
0001b0 22 d4 11 c1 4b 1d 25 c1 89 7d 03 c1 32 d1 8e c0
       -9.11429 -10.319652 -8.218148 -4.4630365
0001c0 3c 00 46 c1 29 89 48 c1 29 fa 12 c1 d8 9c 1c c1
       -12.375057 -12.533486 -9.186074 -9.788292
0001d0 b6 6d 3d c1 5b 82 e1 c0 64 31 15 c1 90 0e 2c c1
       -11.839285 -7.0471625 -9.324558 -10.753555
0001e0 05 df d3 c0 1e e2 2e c1 b2 2e cc c0 40 0a 26 c1
       -6.620974 -10.930204 -6.3807 -10.377502
0001f0 30 8c 32 c1 87 12 11 c1 8b 41 00 c1 82 9a 26 c1
       -11.159225 -9.067023 -8.016002 -10.412722

network.3.weight f4 [64, 128]
000000 80 04 79 bd ed e2 83 bd 56 a0 ae bd b8 13 19 bf
       -0.060795307 -0.06439767 -0.085266754 -0.59795713
000010 82 18 76 bd b3 84 e5 3d 1d 6a 7c be b5 12 2a be
       -0.060081966 0.11206951 -0.24649854 -0.16608699
000020 4d cf a2 be f6 45 16 3e 45 da 09 be 7e 2f 8a be
       -0.31798783 0.14675125 -0.1346217 -0.2698936
000030 ae 0e 66 be ef dc b2 be 46 ca 66 be 23 72 23 bf
       -0.22466537 -0.34934184 -0.22538099 -0.63846034
000040 f6 07 98 bd 49 b8 9c be 63 46 64 be d3 fa 3b be
       -0.074233934 -0.30609348 -0.22292475 -0.183574
000050 1d 25 03 bf de 63 13 bf 87 e5 76 bf e6 8e ab be
       -0.51228505 -0.5757426 -0.9644398 -0.3350746
000060 00 03 2c bd 16 2f 81 bd 96 fb c9 3c ce 7f 13 bf
       -0.04199505 -0.06307809 0.024656098 -0.5761689
000070 78 fe 98 bf 27 dd 29 bf 97 f4 58 3d bb d2 e8 be
       -1.1952658 -0.66353077 0.052967634 -0.45473275
000080 b7 70 24 3b da 44 d2 be 80 88 24 be 5c 9f 21 bf
       0.0025091597 -0.41068155 -0.16067696 -0.6313379
000090 f5 3e fc be c8 70 98 be ad 9d 7c be 56 e5 0d bf
       -0.49266782 -0.29773545 -0.24669524 -0.55428064
0000a0 76 d0 c8 be 9e 65 b4 be f6 3b ec bd 8c 23 5e bf
       -0.39221543 -0.35233778 -0.11534874 -0.8677299
0000b0 f9 80 39 bf 5e 6e 4b bf b3 30 b7 be f7 b2 21 3e
       -0.7246242 -0.7946528 -0.35779342 0.15790926
0000c0 ed bd cc be c7 78 a1 be a1 57 d4 be 4f 2a 1b bf
       -0.39988652 -0.31537458 -0.41473106 -0.6061143
0000d0 76 14 3d be 3a b8 cc 3d dd db 2b bf 4e 39 ec ba
       -0.18464836 0.09996076 -0.6713236 -0.0018022449
0000e0 fc b1 ac be 04 e7 bf be 04 d3 58 be 0a 50 cd be
       -0.3372954 -0.37480938 -0.21174246 -0.40100127
0000f0 0d ba 02 be 09 2e 3f be 29 af f8 be eb da 17 be
       -0.12766285 -0.18669905 -0.48571137 -0.14829604
000100 27 b4 67 bd b0 c3 43 be ea 37 cd bd 1d 0b 62 bd
       -0.05656829 -0.19117618 -0.100204304 -0.05518638
000110 60 54 b8 be 6f b0 f0 bd c8 de 56 3e 5a db 12 bf
       -0.36001873 -0.11752402 0.20983422 -0.57365954
000120 9c 99 6d bf ae ee 53 be 90 f3 bf be 8f 50 4b be
       -0.92812514 -0.20696518 -0.3749051 -0.1985495
000130 dd 90 86 be 36 48 dd be 96 3d 55 be 0f 2a 4f bf
       -0.26282397 -0.43219155 -0.20824274 -0.8092355
000140 63 ba de be 00 30 38 be 95 5d c9 be b2 66 08 bf
       -0.43501577 -0.1798706 -0.3932921 -0.532817
000150 cc c0 ba be 27 52 67 be 27 9a 97 be 3f b3 df be
       -0.36475217 -0.22589932 -0.29609796 -0.4369144
000160 8e 26 11 bf 7f f4 5d bc f7 e6 12 bf 4d b7 4e be
       -0.56699455 -0.013547062 -0.57383674 -0.20187111
000170 af ec bb be 44 d9 af be 0d ee 01 bf b8 09 88 be
       -0.36704013 -0.34345448 -0.5075386 -0.26569915
000180 05 02 ad be d5 e0 56 be 0b db 0e bf 94 6c 8d be
       -0.33790603 -0.20984204 -0.55802983 -0.276219
000190 35 f8 92 be 34 1b 94 be a2 ab 20 be f6 5b 8a 3e
       -0.28704992 -0.28927004 -0.15690473 0.27023286
0001a0 27 34 62 bd 7d 14 60 bd 5b 44 01 bf c6 1f 14 be
       -0.055225518 -0.05470704 -0.5049493 -0.14465246
0001b0 8c 72 81 bf ec ad 28 bd 50 48 10 bf 79 82 d5 be
       -1.0113082 -0.04118149 -0.5636034 -0.41701105
0001c0 01 5b 80 bd 0d e2 b2 bc d8 06 8b 3c 57 0f ec bd
       -0.062673576 -0.021836305 0.016971037 -0.11526363
0001d0 a1 52 9b be f3 bf 1c be 1c 4b 09 3e 24 e3 29 bf
       -0.30336478 -0.15307598 0.13407558 -0.66362214
0001e0 41 96 c1 bd 89 db 45 be 1d 00 a4 be c0 cc d9 be
       -0.09452487 -0.19322027 -0.32031336 -0.42539024
0001f0 e7 fd 22 be bd 6e 1f bc a7 7c f7 bd 8b a6 9e be
       -0.15917169 -0.009730992 -0.120843224 -0.30986437
000200 b1 43 a5 bd 4b e4 f2 be d3 4c a5 be e0 92 99 be
       -0.08069552 -0.474398 -0.32285175 -0.2999487
000210 c5 76 ad be 68 d7 d8 bd 8f 72 b4 be cb b8 cb bd
       -0.33879676 -0.105879605 -0.3524365 -0.09947356
000220 5a af 9c be b1 aa f8 be 7b 9d 55 be 3e d1 53 be
       -0.30602533 -0.48567727 -0.20860855 -0.20685288
000230 56 49 f3 be 10 c8 9a be fa df 76 bf 04 4b 9d bf
       -0.47516888 -0.3023076 -0.9643551 -1.2288518
000240 2a b9 b8 bd 6b a8 8e be 4d 00 19 bf 11 78 4a 38
       -0.09019692 -0.27862868 -0.59766084 4.8272374e-05
000250 b2 5c d8 bc 45 52 d7 be a5 47 dc be 00 8b ca be
       -0.026411388 -0.42054954 -0.4302341 -0.39559174
000260 35 be 93 be 25 78 84 be 54 fa 70 bd 53 7d ee 3c
       -0.28856054 -0.25872913 -0.05883248 0.029112494
000270 36 16 14 bd 25 d2 3a bf 3e e2 a5 be 42 aa 92 bf
       -0.036153995 -0.72976905 -0.32399172 -1.1458209
000280 55 33 8b bf 12 42 87 be b0 ba b5 bd 65 7f 01 bf
       -1.087504 -0.26417595 -0.088734984 -0.50585014
000290 77 76 29 be 09 cd 9b be 76 61 f6 be 63 f4 40 bf
       -0.16549097 -0.30429867 -0.48121232 -0.75372905
0002a0 74 79 84 be ad 08 c1 bf 73 b0 12 bd 2c df d4 be
       -0.2587391 -1.5080773 -0.035812806 -0.41576517
0002b0 99 d0 91 bc f2 13 37 bf 0c 14 be bf f6 b7 aa be
       -0.017799662 -0.7151481 -1.4849868 -0.33343476
0002c0 1c f7 32 bf 50 4a 23 bd e5 a8 6f bf 51 8d 49 bd
       -0.6990831 -0.03986579 -0.9361709 -0.049207035
0002d0 2c 8a e7 be dc 53 70 be ab e7 f0 bf fe 45 5f 3c
       -0.45222604 -0.2346949 -1.88207 0.013627527
0002e0 e1 d7 2a bf 2b 15 0e be 62 e9 c5 be 45 e4 77 bf
       -0.66735655 -0.13875262 -0.3865462 -0.96832687
0002f0 04 5b 9a be 77 85 1d be 07 26 3f be 56 ea 15 bf
       -0.30147564 -0.15382944 -0.1866685 -0.58560693
000300 bd 41 1f bf 9e a1 23 bf 00 58 ee 3d 80 69 f3 bd
       -0.62209684 -0.63918483 0.116378784 -0.11885357
000310 68 b0 bf be ca d2 45 be 7d 99 d3 3c 54 51 bf be
       -0.37439275 -0.19318691 0.025830025 -0.37366736
000320 97 56 f2 bd 9b 0e dc be 0c 05 d6 be dd 16 12 be
       -0.11832922 -0.42979893 -0.41800725 -0.14266534
000330 19 d0 ca bd 29 e4 a0 be f7 c6 e7 be ec 38 f4 be
       -0.09902973 -0.31424072 -0.45268986 -0.47699678
000340 f9 74 c1 3c 2b 14 df bd c5 bc ed be 16 93 11 bf
       0.023615347 -0.108925186 -0.46433082 -0.5686506
000350 51 38 34 bf b3 30 8d bf 48 9f 2a bf 66 cc 35 bf
       -0.7039843 -1.1030487 -0.66649294 -0.7101501
000360 df de 86 be 90 26 52 be 79 b3 76 be 88 a0 0a bf
       -0.26341912 -0.20522523 -0.24091901 -0.541512
000370 74 de 13 bf 12 63 a7 be 04 c2 6e bf 20 68 08 bf
       -0.5776131 -0.32692772 -0.93264794 -0.5328388
000380 c7 d3 c7 be 09 84 e4 be 5e 7f 1a bf 32 7a 0f bf
       -0.3902876 -0.44631985 -0.60350597 -0.5604583
000390 70 40 59 bf e2 ae 4a bd e4 13 17 bf 63 73 c8 bd
       -0.8486395 -0.049483187 -0.59014726 -0.09787633
0003a0 13 8a ba 3c 1e af 01 be 16 e0 1b bf b9 d4 ec be
       0.022770917 -0.12664458 -0.60888803 -0.46256045
0003b0 59 cf f1 bd 7f ef 1e bd 6c c7 b7 be ad fc ef bd
       -0.118071266 -0.03880262 -0.35894334 -0.11718116
0003c0 da dd 61 bf f9 aa e3 bd 92 fa df be 70 de e1 be
       -0.88229144 -0.11116595 -0.43745857 -0.4411502
0003d0 01 dd b7 be 4b aa 9a be d8 01 d7 3d d7 3c 76 be
       -0.359108 -0.30208048 0.104983985 -0.24046646
0003e0 02 73 a5 be 2e 25 19 be 37 e2 92 be 67 32 87 bf
       -0.32314306 -0.14955589 -0.28688213 -1.0562257
0003f0 26 78 31 bf 41 97 98 3c a4 8b 62 bf ff 13 ab bf
       -0.69323957 0.018626811 -0.88494325 -1.3365477

network.3.bias f4 [64]
000000 2d ad 32 c0 3f 7e 09 c0 a0 2a f6 bf 11 7c 55 c0
       -2.7918198 -2.1483305 -1.9231758 -3.3356974
000010 07 05 10 c0 08 1e 21 c0 8e 4e 05 c0 c0 b2 4d c0
       -2.2503068 -2.517458 -2.0829196 -3.214035
000020 af 53 c9 bf 7b d7 0c c0 0e 37 11 c0 be a9 f0 bf
       -1.5728663 -2.200652 -2.2689853 -1.8801801
000030 44 46 3c c0 77 e9 4e c0 f5 c7 0a c0 5b d2 15 c0
       -2.9417887 -3.2329996 -2.1684544 -2.340964
000040 48 72 fc bf cd f6 68 c0 59 ad b5 bf 84 dd 14 c0
       -1.9722376 -3.6400635 -1.4193527 -2.3260202
000050 81 aa 0d c0 fb b8 25 c0 6b 5b f2 bf 56 29 1b c0
       -2.2135317 -2.5894153 -1.8934149 -2.424398
000060 c2 ca 0a c0 02 e9 c7 bf 82 82 1d c0 0f 00 5a c0
       -2.1686254 -1.5617983 -2.4610906 -3.4062536
000070 ae 9e 32 c0 3c b1 f6 bf 70 a2 3d c0 e5 a7 21 c0
       -2.790935 -1.9272838 -2.9630394 -2.5258725
000080 9b fa 8e bf b2 3b 25 c0 47 0f 59 c0 29 fc 0c c0
       -1.1170229 -2.5817685 -3.3915575 -2.2028906
000090 f5 54 25 c0 22 69 18 c0 43 4b 22 3f 3d 22 db bf
       -2.5833104 -2.3814168 0.6339609 -1.7119824
0000a0 d0 45 1f c0 88 44 54 c0 4e 5f e1 bf ad 00 2e c0
       -2.488636 -3.3166828 -1.760721 -2.7187912
0000b0 b8 c5 31 c0 aa e0 59 c0 08 4b 6f c0 ff 8b 12 c0
       -2.7776928 -3.4043374 -3.7389545 -2.2897947
0000c0 07 ff 9a bf 45 b7 00 c0 2d ac e3 bf ed 2a 2e c0
       -1.2109078 -2.011186 -1.7786919 -2.72137
0000d0 5d c1 66 c0 bc 75 9b 3f 00 9a 85 c0 04 fd 67 c0
       -3.605552 1.2145305 -4.175049 -3.6248178
0000e0 6f 59 8b c0 0b f2 a4 bf 10 8a 3c c0 1c 90 0b c0
       -4.354667 -1.2886366 -2.9459267 -2.1806707
0000f0 24 60 04 c0 33 3b 28 c0 30 5d 50 3f eb 02 05 c0
       -2.068368 -2.6286132 0.8139219 -2.078303
