experiments/checkpoints/20251210_110803/checkpoint_ep119.pt (torch, 246605 bytes, 24 tensors)

network.0.weight f4 [128, 43]
000000 b0 16 a5 bb 3a 39 84 bf 05 2d 56 3f c6 0f 99 bf
       -0.005038105 -1.0329964 0.83662444 -1.1957939
000010 60 d3 f5 bf cc f0 23 be 91 15 72 3f 4a ba 0c 3e
       -1.9205132 -0.16009825 0.9456416 0.13742939
000020 a5 1d 28 3e 74 08 26 be 01 cf 90 bc 38 ae ec bd
       0.16417558 -0.16214162 -0.017676832 -0.11556667
000030 56 cc 94 3f dd 4f 1d be ab 90 36 3e be 43 4a bf
       1.1624858 -0.15362497 0.17828624 -0.79009616
000040 76 f0 91 bf 4f 99 24 40 4e 0a 9c 3f 03 ad a3 bd
       -1.1401508 2.5718572 1.2190645 -0.07991984
000050 f5 73 0c be d6 be b3 bd 3c f8 04 3e ab 68 a7 ba
       -0.13716109 -0.087766334 0.12985319 -0.0012772282
000060 33 16 bb bd 1f 9e 2b 3e 56 7f 3c bd be d7 dc bf
       -0.091350935 0.16759537 -0.046019875 -1.7253339
000070 27 66 ee 3f ba 21 d3 bf 32 c0 8b 3d ef c1 28 3f
       1.8624924 -1.6494668 0.06823768 0.6592092
000080 77 c5 3a be b0 1a bd bf 9c ad 23 3e 32 c4 e6 bd
       -0.1823939 -1.4773769 0.15984195 -0.1126789
000090 ba dd 9a bf 3c 6c ac 3f f5 18 f6 bf c1 d4 49 c0
       -1.2098916 1.347053 -1.9226366 -3.1536105
0000a0 6c 84 24 40 d3 1b d5 bf 04 9b 1a 3d d1 27 29 be
       2.5705824 -1.6649116 0.03774549 -0.16519095
0000b0 3b 17 1a 40 99 9e 10 c0 b8 b2 58 bf ad ef b0 be
       2.4076679 -2.25968 -0.84647703 -0.34557858
0000c0 70 05 3d be 9d 81 b0 c0 54 48 a9 3d 85 bb bb 3d
       -0.18459105 -5.515822 0.082657486 0.09166626
0000d0 7b be 1b bd 7c 07 2c 3d c5 ab 34 3d b4 c3 a4 bf
       -0.038023453 0.041999325 0.044109125 -1.2872224
0000e0 be 14 04 c0 49 a6 0f 3d d7 5a c7 3f eb 20 9d bf
       -2.063766 0.03507069 1.5574597 -1.2275671
0000f0 e1 1d 93 be cd e2 27 bf d6 60 3e be 31 8b 7b 3d
       -0.28733733 -0.65580446 -0.18591627 0.06141204
000100 0f 0e a8 3d dc aa a6 bd 22 c5 ed 3d 3a d1 3e bd
       0.082058065 -0.081380576 0.11609866 -0.046586253
000110 58 57 c5 bd 7a 87 c6 3d 4f 2b ac 3e 96 79 05 c0
       -0.096358 0.09693809 0.33626792 -2.085546
000120 57 69 d9 3f d8 97 20 3e 80 ec b0 bf 11 3b 89 bd
       1.6985272 0.15682924 -1.3822174 -0.06700719
000130 ac 1c a1 3e 50 56 fc bd be a7 04 c0 2a d9 a1 3f
       0.31467187 -0.1232115 -2.0727382 1.2644398
000140 de eb 44 c0 ca c3 76 bf 1d b1 7e bf c0 c2 20 40
       -3.0768962 -0.963925 -0.99489003 2.5118866
000150 85 b2 91 bf b6 3f c6 3d 39 e7 a9 3d 2d c6 97 bf
       -1.1382605 0.09680121 0.08296055 -1.1857353
000160 61 a3 9f 3f 21 97 9d 3f aa d7 a4 bf 22 7b a5 bd
       1.2471734 1.2311746 -1.2878315 -0.08080126
000170 93 8e e7 3f 3f cc 31 3d ad b0 26 3d a9 cf bf bd
       1.8090385 0.043407675 0.040695835 -0.0936578
000180 61 e6 09 bd 77 77 9b bb 14 f1 d5 c0 cc 0f 20 c0
       -0.033666972 -0.004744466 -6.6856785 -2.5009642
000190 5e 22 c6 bf 88 f9 77 be 8f 38 ce bf 8f c6 5b 40
       -1.5479238 -0.24216282 -1.611101 3.433994
0001a0 0c 74 4c be 6d 57 1c 3d b5 52 3c be 2d 85 23 3e
       -0.19966143 0.038169313 -0.18390925 0.15968771
0001b0 b6 da c7 3d 24 d8 33 be 98 7e 75 3d 0a b2 19 be
       0.09758513 -0.1756292 0.059935182 -0.15009323
0001c0 d5 5d 88 3c af 95 f8 be 72 5e da 3b 32 eb 2a c0
       0.016646305 -0.485517 0.006664091 -2.6706052
0001d0 46 de 2a be df bc c0 bf 16 0a 0d 3e 56 4c 04 bf
       -0.16686353 -1.5057639 0.13773379 -0.5167898
0001e0 f5 f9 ca bd c5 7e 15 bf b1 0b ce 3f 17 81 22 40
       -0.09910957 -0.5839656 1.6097318 2.539129
0001f0 19 04 1e bf ae bb c0 be fc 42 cb 3f fb 17 a4 3f
       -0.61725 -0.37643188 1.5879817 1.2819818
000200 07 a0 14 bd 05 82 37 3c 55 72 b1 3f c7 16 af bf
       -0.036285426 0.011200433 1.3863016 -1.3678826
000210 31 ee c4 3e 58 bd 9e bf 94 2b 3a be 7a 17 21 c0
       0.38462976 -1.2401533 -0.18180686 -2.517058
000220 33 f6 37 be 12 d2 dc bc 1c ac 6f 3d 09 77 09 be
       -0.17965011 -0.026955638 0.058513746 -0.13424315
000230 f2 31 4c 3c 90 8b 79 bf b9 4f b5 c0 aa 65 47 bf
       0.01246308 -0.9747858 -5.665982 -0.778895
000240 c9 41 2c bf 86 c1 3f c0 cd 21 c7 3f e2 fd 6c bf
       -0.6728788 -2.9961867 1.555719 -0.92574894
000250 1f f4 b4 3d 8f e7 91 bd 45 1c 3c 3e d4 a2 92 bc
       0.08835625 -0.071242444 0.18370159 -0.017899908
000260 f0 05 a0 bc 75 b3 f6 bd 7f 92 af 3d 96 2a 3f be
       -0.019534081 -0.120459475 0.08572864 -0.18668589
000270 4d db 3b 3d 56 7e 50 3f 4b 10 48 bf d0 18 d3 bd
       0.04586344 0.81442773 -0.7814986 -0.10307467
000280 e4 c8 22 c0 bf c7 ab 3d da bf ef 3d a8 10 02 bd
       -2.5435114 0.08387708 0.11706515 -0.031754166
000290 da e6 41 bf 0a c2 03 40 90 f0 98 3f 82 9f c9 bf
       -0.75742877 2.0587182 1.1948414 -1.5751803
0002a0 a9 fa 14 40 42 f3 e4 3f 0d 31 f9 bf 7a 05 1c 3d
       2.327799 1.7886736 -1.9468094 0.03809116
0002b0 34 3f 15 be 9f ac 9b 3f 1b 5d 9c bf 0e 52 01 40
       -0.14574891 1.2162055 -1.2215914 2.0206332
0002c0 05 cc f3 bf 1e 5f 09 3e bf cc df 3f ae 87 b2 bd
       -1.9046637 0.1341519 1.7484359 -0.08717285
0002d0 3a 08 3c bd 48 f0 0f 3e 66 df d4 bd ab 40 2f be
       -0.045906283 0.14056504 -0.10394172 -0.17114513
0002e0 58 a2 71 be dd 7b 3c c0 f9 d9 c3 be ed fa 02 3f
       -0.23597085 -2.94506 -0.38252237 0.5116413
0002f0 d4 ad cf 3e 89 23 02 3e 1f 17 9d 3f c6 b1 ab bd
       0.40562308 0.12708868 1.2272681 -0.08383517
000300 53 1e 31 3e 30 da 32 be 49 16 0d 3d 57 15 21 3e
       0.17296724 -0.17466044 0.03444508 0.15730797
000310 08 21 87 bc 43 2c a5 3d a6 dd 0e 3e a0 0b 97 bf
       -0.016495243 0.08065083 0.1395174 -1.1800423
000320 f1 6c 55 40 f7 4c cb c0 d0 1b 25 bd a2 a7 88 3f
       3.3347743 -6.353145 -0.040309727 1.0676157
000330 bc 37 38 be 4c 06 c4 bf 54 f0 da 3d 39 6b ce 3f
       -0.17990011 -1.5314422 0.1069037 1.6126472
000340 96 2e be 3f 21 51 9f 3f 4f 67 09 c0 83 be 1e 3f
       1.4857967 1.2446634 -2.1469305 0.6200945
000350 d8 e7 09 3f 84 7d db bf 09 0d f0 3d 3a 59 01 bd
       0.5386939 -1.7147679 0.11721236 -0.031579234
000360 5f 35 5e bf 14 75 8a 3f 50 8d 75 3f 56 0f 2b 3d
       -0.8680019 1.081698 0.9591875 0.041762672
000370 12 a3 04 3e cb 49 94 3f e6 f0 b6 3c c0 f2 14 3d
       0.12952831 1.158502 0.022331666 0.036364317
000380 8f a7 21 be 86 f3 4b 3d 4d 64 38 bd e4 55 bc 3e
       -0.15786575 0.04979279 -0.04501753 0.3678428
000390 e8 5d 08 bf 35 1a b0 3f fb dd 88 bd 8f 57 5c 3f
       -0.5326829 1.3757998 -0.066829644 0.86071104
0003a0 b6 67 10 c0 21 56 f9 bf 58 b9 81 3d 59 c8 a6 3d
       -2.25633 -1.947941 0.0633418 0.08143682
0003b0 3a 40 f4 3d 6c 84 cf 3d a9 7f 02 be 77 4b a3 bd
       0.11926313 0.10132679 -0.12744011 -0.07973378
0003c0 56 82 02 be 2e 91 f1 bd e3 4a 16 bf d2 e8 58 be
       -0.12745032 -0.11795269 -0.5870802 -0.21182564
0003d0 07 fa b2 bf 27 a9 0a 3e c1 57 24 be 0c ac 5c 3c
       -1.3982552 0.13541089 -0.160491 0.013468754
0003e0 61 83 12 bf c3 fd c4 3d 42 8f 0a bf 85 d1 9e be
       -0.5723172 0.09618714 -0.54124844 -0.31019226
0003f0 9d 41 03 bc a1 4f e6 bf 67 bd 77 3f 20 82 07 bf
       -0.008011249 -1.7993051 0.9677338 -0.5293293

network.0.bias f4 [128]
000000 30 b0 40 c1 5a 07 28 c1 62 56 d7 c0 7f 23 1f c1
       -12.043015 -10.501795 -6.729295 -9.946166
000010 82 49 3c c1 db 81 12 c1 8c 6c 18 c1 74 44 20 c1
       -11.767946 -9.156703 -9.526501 -10.016712
000020 8d db 07 c1 5e 46 17 c1 dd bf 30 c1 78 62 b7 c0
       -8.491101 -9.4546795 -11.046842 -5.73077
000030 13 8e 1a c1 e1 eb 3c c1 d6 fa 00 c1 22 df 2d c1
       -9.659686 -11.807588 -8.061239 -10.866976
000040 1a b9 1f c1 22 e4 3a c1 65 f2 7c c0 ca 75 24 c1
       -9.982691 -11.6806965 -3.9522946 -10.278757
000050 fd 85 20 c1 ba fd 05 c1 37 42 fb c0 62 54 2a c1
       -10.032712 -8.374445 -7.851833 -10.645601
000060 91 3c df c0 75 fb 16 c1 b6 39 bc c0 eb 54 ff c0
       -6.9761434 -9.436391 -5.882045 -7.979116
000070 9c 37 ee c0 73 7b 03 c1 ae 2d 33 c1 a4 31 1d c1
       -7.4442883 -8.217639 -11.198652 -9.824619
000080 0b 81 c3 c0 0c 66 13 c1 15 4d 40 c1 e5 fe 93 c0
       -6.1095023 -9.212414 -12.018819 -4.624865
000090 ed d7 30 c1 08 fa 2e c1 aa 2d 2f c1 ab d2 0a c1
       -11.052716 -10.936043 -10.948648 -8.676433
0000a0 f1 5b 2b c1 01 c9 f6 c0 cb 49 1d c1 76 21 a1 c0
       -10.709947 -7.7120366 -9.830516 -5.0353346
0000b0 08 2a 29 c1 c2 cb 2b c1 cf fd 1b c1 d9 e0 2d c1
       -10.572762 -10.737246 -9.749465 -10.867394
0000c0 e9 56 46 c1 f0 87 21 c1 25 5f 4b c1 d8 0f 1d c1
       -12.396218 -10.095688 -12.710729 -9.816368
0000d0 01 7e c0 c0 23 10 25 c1 c0 3a 07 c1 69 9e 32 c1
       -6.0153813 -10.31644 -8.451843 -11.163674
0000e0 42 4c 0c c1 93 81 2c c1 6c 6e 18 c1 ba 5f 0e c1
       -8.768618 -10.781634 -9.526958 -8.898371
0000f0 9a 3b 33 c1 52 18 0d c1 7a 1f a8 c0 32 eb fa c0
       -11.202051 -8.818438 -5.2538424 -7.8412104
000100 72 e2 bc c0 d6 04 f1 c0 c7 8c fd c0 4a d8 01 c1
       -5.9026423 -7.5318403 -7.9234347 -8.115305
000110 26 b5 12 c1 7d 52 22 c1 fb ba 35 c1 99 57 06 c1
       -9.169226 -10.145139 -11.35815 -8.396386
000120 e9 a1 e9 c0 21 7e 05 c1 8c 45 3e c1 57 0c 28 c1
       -7.3010144 -8.343293 -11.891979 -10.503013
000130 da 54 d2 c0 00 01 b5 c0 c5 58 21 c1 68 76 17 c1
       -6.572858 -5.656372 -10.084172 -9.466408
000140 25 b6 2e c1 d3 08 07 c1 d1 c0 f8 c0 db 5c 82 bf
       -10.919469 -8.439654 -7.773537 -1.0184587
000150 58 ad 0d c1 d4 38 20 c1 94 eb 04 c1 8e 1b 0b c1
       -8.85482 -10.013874 -8.307514 -8.694227
000160 b1 af 1b c1 69 15 a0 c0 39 0f 1f c1 49 07 3c c1
       -9.730393 -5.0026135 -9.941216 -11.751779
000170 6e df a6 c0 3a 28 07 c1 c0 ad 55 c0 f0 da 1a c1
       -5.214774 -8.447321 -3.3387299 -9.678452
000180 47 5d 03 c1 6d a2 36 c1 2c 15 2f c1 b0 52 a1 c0
       -8.210273 -11.414655 -10.942669 -5.0413437
000190 7d b9 23 c1 c4 9f af c0 d0 ce 21 c1 46 fc fd c0
       -10.232785 -5.4882526 -10.112991 -7.937045
0001a0 96 7d 32 c1 0e 4d 19 c1 eb dc e9 c0 9b a1 12 c1
       -11.155661 -9.581312 -7.3082175 -9.164454
0001b0 11 36 ff c0 f3 66 18 c1 34 97 03 c1 4e 02 ab c0
       -7.97535 -9.525134 -8.224415 -5.3440313
0001c0 54 27 38 c1 96 1e 35 c1 22 02 13 c1 23 58 1a c1
       -11.509602 -11.319967 -9.188021 -9.646518
0001d0 35 f5 3c c1 d9 87 e1 c0 5d 25 ff c0 64 25 08 c1
       -11.809865 -7.047833 -7.973311 -8.509129
0001e0 49 d9 9c c0 8e 03 0e c1 e3 27 a7 c0 96 71 21 c1
       -4.901524 -8.875868 -5.223619 -10.090231
0001f0 cf cf 32 c1 3d 1c 11 c1 33 c5 b7 c0 82 ed 21 c1
       -11.1757345 -9.069394 -5.742822 -10.120485

network.3.weight f4 [64, 128]
000000 bb 0f 79 bd 53 e3 83 bd 42 a0 ae bd 5f 15 19 bf
       -0.060806017 -0.06439843 -0.085266605 -0.59798235
000010 aa 1a 76 bd d9 84 e5 3d 79 6a 7c be 97 13 2a be
       -0.060084023 0.11206979 -0.24649991 -0.16609035
000020 e6 d0 a2 be 31 46 16 3e e9 da 09 be ce 30 8a be
       -0.31800002 0.14675213 -0.13462414 -0.2699036
000030 83 13 66 be d3 e0 b2 be 70 ca 66 be bc 73 23 bf
       -0.2246838 -0.34937152 -0.22538161 -0.6384847
000040 2e 08 98 bd d0 b8 9c be 64 47 64 be a5 fe 3b be
       -0.07423435 -0.3060975 -0.22292858 -0.18358858
000050 98 26 03 bf 7b 65 13 bf 3a e9 76 bf 74 91 ab be
       -0.51230764 -0.5757672 -0.96449625 -0.3350941
000060 dc 05 2c bd be 74 81 bd d5 04 ca 3c f3 80 13 bf
       -0.041997775 -0.06321095 0.024660507 -0.57618636
000070 b8 ff 98 bf 23 df 29 bf 69 f3 58 3d f2 d4 e8 be
       -1.1953039 -0.66356105 0.05296651 -0.45474964
000080 00 17 24 3b 48 48 d2 be be 8a 24 be 6f a0 21 bf
       0.0025038123 -0.4107077 -0.16068551 -0.6313543
000090 2a 41 fc be ac 72 98 be 4c a0 7c be eb e7 0d bf
       -0.49268466 -0.29774988 -0.24670523 -0.55432004
0000a0 c6 d1 c8 be 5b 67 b4 be 7e 3c ec bd 52 25 5e bf
       -0.39222544 -0.35235104 -0.115349755 -0.86775696
0000b0 0d 84 39 bf de 70 4b bf 9a 33 b7 be 86 b3 21 3e
       -0.7246712 -0.79469097 -0.35781556 0.15791139
0000c0 e7 bf cc be f7 79 a1 be 18 5a d4 be 68 2b 1b bf
       -0.3999016 -0.31538364 -0.41474986 -0.6061311
0000d0 9a 16 3d be 1a b9 cc 3d cc dd 2b bf 9a 8b ec ba
       -0.18465653 0.09996243 -0.6713531 -0.0018046976
0000e0 3e b4 ac be 10 e9 bf be 9c d4 58 be f1 52 cd be
       -0.33731264 -0.374825 -0.21174854 -0.40102342
0000f0 49 ba 02 be 51 31 3f be 6d b1 f8 be 00 dc 17 be
       -0.12766375 -0.18671156 -0.48572865 -0.14830017
000100 28 a2 67 bd ad c4 43 be c3 3b cd bd 53 0e 62 bd
       -0.05655113 -0.19117995 -0.10021164 -0.055189442
000110 c7 55 b8 be b5 b5 f0 bd 53 e0 56 3e bc dc 12 bf
       -0.36002943 -0.11753408 0.2098401 -0.57368064
000120 13 a5 6d bf 36 ef 53 be c6 f4 bf be 02 52 4b be
       -0.9283001 -0.2069672 -0.37491435 -0.19855502
000130 dd 91 86 be b7 4a dd be ee 3e 55 be 99 2d 4f bf
       -0.2628316 -0.43221065 -0.20824787 -0.8092895
000140 66 be de be 28 30 38 be 6e 5e c9 be 39 6a 08 bf
       -0.43504637 -0.1798712 -0.39329857 -0.5328708
000150 d3 c3 ba be 90 56 67 be 61 9b 97 be 41 ba df be
       -0.36477527 -0.22591615 -0.29610732 -0.43696788
000160 62 28 11 bf 43 ea 5d bc e0 e9 12 bf 0f b9 4e be
       -0.56702244 -0.013544622 -0.57388115 -0.20187782
000170 7f ee bb be 67 db af be 3a ef 01 bf 76 0a 88 be
       -0.36705396 -0.34347078 -0.50755656 -0.2657048
000180 ae 03 ad be a9 86 59 be 48 dc 0e bf 5e 6d 8d be
       -0.3379187 -0.21242775 -0.5580487 -0.27622503
000190 11 fd 92 be f7 1f 94 be dc ab 20 be cc 5e 8a 3e
       -0.287087 -0.28930637 -0.15690559 0.2702545
0001a0 f3 35 62 bd df 14 60 bd a4 45 01 bf 78 20 14 be
       -0.05522723 -0.054707404 -0.5049689 -0.14465511
0001b0 b3 73 81 bf 86 c5 28 bd 32 49 10 bf ef 84 d5 be
       -1.0113434 -0.041203998 -0.5636169 -0.41702983
0001c0 7a 5c 80 bd ca e6 b2 bc ae fb 8a 3c 1c 14 ec bd
       -0.062676385 -0.021838564 0.016965713 -0.11527273
0001d0 4f 53 9b be 13 c1 1c be 73 49 09 3e e5 e5 29 bf
       -0.30336997 -0.15308027 0.13406925 -0.66366416
0001e0 c9 96 c1 bd d4 dc 45 be 1b 02 a4 be c1 ce d9 be
       -0.09452588 -0.1932252 -0.32032856 -0.42540553
0001f0 0d 04 23 be 94 6f 1f bc 5f 81 f7 bd 8c a9 9e be
       -0.15919514 -0.009731192 -0.120852225 -0.3098873
000200 9f 45 a5 bd c9 e5 f2 be f9 4e a5 be b3 94 99 be
       -0.0806992 -0.47440937 -0.32286814 -0.2999626
000210 d8 77 ad be 96 d8 d8 bd a8 74 b4 be ba b9 cb bd
       -0.33880496 -0.105881855 -0.35245252 -0.09947534
000220 c1 b0 9c be e2 ad f8 be bf 9f 55 be 92 d3 53 be
       -0.30603603 -0.48570162 -0.2086172 -0.20686176
000230 10 4b f3 be 2d c9 9a be 7d e2 76 bf 21 4d 9d bf
       -0.47518206 -0.3023161 -0.96439344 -1.2289163
000240 d2 b5 b8 bd 64 a9 8e be bc 01 19 bf b1 38 bd b6
       -0.090190545 -0.2786361 -0.5976827 -5.6392387e-06
000250 f6 61 d8 bc 63 54 d7 be 0f 4a dc be f9 8b ca be
       -0.026413899 -0.4205657 -0.43025252 -0.39559916
000260 7a c0 93 be 2a 79 84 be 90 f6 70 bd f3 81 ee 3c
       -0.28857785 -0.2587369 -0.05882889 0.029114699
000270 4f 45 14 bd f5 d3 3a bf 5d ea a5 be b7 ab 92 bf
       -0.03619891 -0.7297967 -0.32405367 -1.1458653
000280 a5 34 8b bf 65 42 87 be bf bd b5 bd d5 82 01 bf
       -1.0875441 -0.26417843 -0.08874082 -0.5059026
000290 d8 76 29 be d5 cd 9b be fb 63 f6 be b4 f6 40 bf
       -0.16549242 -0.30430475 -0.48123154 -0.7537644
0002a0 a0 7b 84 be e1 0a c1 bf 05 b7 12 bd 1c e1 d4 be
       -0.25875568 -1.5081445 -0.035819072 -0.41577995
0002b0 23 d5 91 bc 95 15 37 bf 07 16 be bf 73 ba aa be
       -0.017801827 -0.71517307 -1.4850472 -0.33345374
0002c0 8b f9 32 bf 73 4d 23 bd c6 ab 6f bf 4d 8d 49 bd
       -0.6991202 -0.039868783 -0.9362148 -0.04920702
0002d0 06 8d e7 be 87 56 70 be e1 e9 f0 bf 98 cd 5e 3c
       -0.4522478 -0.23470508 -1.8821374 0.013598822
0002e0 61 d9 2a bf bf 16 0e be 98 eb c5 be 4c e6 77 bf
       -0.66737944 -0.13875864 -0.38656306 -0.9683578
0002f0 53 5d 9a be 57 88 1d be a9 25 3f be 73 eb 15 bf
       -0.30149326 -0.15384041 -0.1866671 -0.5856239
000300 2d 43 1f bf 0b a3 23 bf 01 5a ee 3d 69 6e f3 bd
       -0.6221188 -0.6392066 0.11638261 -0.118862934
000310 ad b1 bf be a0 d6 45 be 8a 9e d3 3c 96 52 bf be
       -0.37440243 -0.19320154 0.025832433 -0.37367696
000320 b9 56 f2 bd bf 10 dc be d7 06 d6 be c2 16 12 be
       -0.11832947 -0.42981526 -0.41802093 -0.14266494
000330 c5 d0 ca bd 4c e6 a0 be 3d cb e7 be 24 3b f4 be
       -0.09903101 -0.31425703 -0.45272246 -0.4770137
000340 23 6f c1 3c b7 14 df bd e8 bf ed be 73 94 11 bf
       0.023612564 -0.10892623 -0.46435475 -0.5686714
000350 f5 3a 34 bf 3b 32 8d bf 19 a0 2a bf 51 ce 35 bf
       -0.7040246 -1.1030954 -0.6665054 -0.7101794
000360 55 df 86 be 9c 27 52 be 9d b7 76 be 1b a2 0a bf
       -0.26342264 -0.20522922 -0.2409348 -0.54153603
000370 dd df 13 bf 04 65 a7 be ca c4 6e bf f7 68 08 bf
       -0.57763463 -0.32694256 -0.93269026 -0.53285164
000380 39 d5 c7 be 75 85 e4 be 3f 81 1a bf f6 7b 0f bf
       -0.39029863 -0.4463307 -0.60353464 -0.56048524
000390 9c 42 59 bf 3e b9 4a bd 8f 15 17 bf f6 7e c8 bd
       -0.8486726 -0.049493067 -0.5901727 -0.09789841
0003a0 17 7e ba 3c 8c b0 01 be bd e1 1b bf 7e d6 ec be
       0.022765202 -0.12665004 -0.60891324 -0.46257395
0003b0 7f d2 f1 bd d0 fe 1e bd 80 c9 b7 be 35 fe ef bd
       -0.11807727 -0.038817227 -0.3589592 -0.11718408
0003c0 f1 df 61 bf aa b0 e3 bd 3c fc df be 86 df e1 be
       -0.8823233 -0.1111768 -0.43747127 -0.44115847
0003d0 60 de b7 be 59 ac 9a be d7 00 d7 3d 42 3b 76 be
       -0.35911846 -0.30209616 0.10498207 -0.24046043
0003e0 53 74 a5 be e1 27 19 be 02 e3 92 be a2 33 87 bf
       -0.3231531 -0.14956619 -0.28688818 -1.0562632
0003f0 0f 7a 31 bf 77 5a 98 3c 67 8e 62 bf 6e 16 ab bf
       -0.6932687 0.018597824 -0.8849854 -1.336622

network.3.bias f4 [64]
000000 67 dc 32 c0 f2 81 09 c0 ba 37 f6 bf d8 0d 43 c0
       -2.7947023 -2.1485562 -1.9235756 -3.04772
000010 6c a6 0a c0 fc 3b 21 c0 f0 51 05 c0 c5 ac 3a c0
       -2.1664076 -2.5192862 -2.083126 -2.916795
000020 94 67 c9 bf 19 2e 0d c0 c1 47 11 c0 3c af f0 bf
       -1.5734735 -2.2059386 -2.2700045 -1.8803477
000030 1b c3 28 c0 cb fa 4e c0 a3 7b 03 c0 a1 57 02 c0
       -2.6369083 -3.2340572 -2.0544212 -2.0365984
000040 d5 05 d5 bf 4b 07 69 c0 58 b2 b5 bf ae eb 14 c0
       -1.6642405 -3.6410701 -1.4195051 -2.3268847
000050 82 b0 0d c0 33 3c 26 c0 02 70 f2 bf a0 af 1b c0
       -2.2138982 -2.5974243 -1.8940432 -2.4325943
000060 d6 2d 0b c0 ed 3f c8 bf 67 90 1d c0 de 4d 5a c0
       -2.1746726 -1.5644509 -2.4619386 -3.4110026
000070 44 02 27 c0 9b b9 f6 bf 1f bf 3d c0 e1 bb 21 c0
       -2.6095133 -1.9275392 -2.96479 -2.5270922
000080 56 58 8f bf 06 df 1e c0 a3 39 59 c0 f3 51 f0 bf
       -1.1198833 -2.4823623 -3.3941429 -1.8775009
000090 e4 65 25 c0 10 6f 18 c0 d1 42 64 3f 2d 43 db bf
       -2.584344 -2.3817787 0.89164454 -1.7129875
0000a0 57 92 1f c0 4e 3f 43 c0 e8 6b e1 bf 2d 06 2e c0
       -2.4933069 -3.0507388 -1.7611055 -2.719127
0000b0 6e d1 31 c0 f7 44 47 c0 cb d2 5f c0 e7 37 11 c0
       -2.7784076 -3.1135843 -3.4972408 -2.269037
0000c0 b8 01 9b bf d1 bd 00 c0 c6 e2 c0 bf 76 4d 2e c0
       -1.21099 -2.0115855 -1.5069206 -2.7234778
0000d0 1c a4 5e c0 3c a5 c8 3f 02 3f 82 c0 75 ad 5a c0
       -3.4787664 1.5675426 -4.0701914 -3.416837
0000e0 8e 41 82 c0 5a fc a4 bf 6a 90 3c c0 eb a0 f1 bf
       -4.0705023 -1.2889512 -2.9463143 -1.8877233
0000f0 e6 44 fd bf 68 6d 28 c0 c3 3e 59 3f 71 be fa bf
       -1.9786651 -2.6316776 0.8486139 -1.9589368

network.6.weight f4 [5, 64]
000000 e0 9d 8e be 65 35 2d be c2 9c a7 bd ff 10 08 3e
       -0.27854824 -0.169149 -0.08184196 0.13287733
000010 cd 8e 1a be 84 20 99 be 40 e6 46 3e 9c 8e 3b be
       -0.15093537 -0.2990762 0.19423771 -0.1831612
000020 1f c6 19 be 3c 0b b2 bd 9a a0 7d be a7 dd 3a be
       -0.15016983 -0.08693549 -0.24768296 -0.18248616
000030 5e 3c 6a 3e eb 20 6d 3d 69 db df 3d 60 1d cd 3d
       0.22874591 0.05789272 0.10930521 0.100153685
000040 4d 2e 68 3e 11 4e 97 3d 08 34 f2 3d 18 2e ca bd
       0.22673912 0.07387937 0.118263304 -0.09872073
000050 76 0b 70 be bd dd 75 be b7 76 6d be 50 a2 f1 3d
       -0.23441872 -0.24010368 -0.23189817 0.11798537
000060 ed 20 06 3e 50 dc d6 3c 35 5c 55 be b0 80 82 be
       0.13098498 0.0262281 -0.20835955 -0.25488806
000070 df cb 5d 3e af 67 cc bd ef db 81 3d 70 e8 a8 bd
       0.21659802 -0.099807136 0.06340777 -0.08247459
000080 af b7 a1 3b 74 1d 8d 3e 17 ac 39 bd cc 6a 7b 3d
       0.004935227 0.27561533 -0.045330133 0.061381146
000090 9c 77 43 3d c8 0b 55 be 4b 34 b7 bd 55 c2 30 be
       0.04772149 -0.20805275 -0.08945521 -0.17261632
0000a0 b7 d3 93 be 39 78 22 3e dc 5a 92 3e c3 3e 27 3e
       -0.28872463 0.15866174 0.28584945 0.16332535
0000b0 5b 0f 9a bd 8f 76 3e 3e d3 86 9c be f5 46 b9 bd
       -0.0752246 0.18599914 -0.30571613 -0.09046737
0000c0 ae 7d f9 bd cd 7a 8a 3d af c3 30 3d 15 4e de 3d
       -0.121821746 0.06761704 0.04315537 0.10854737
0000d0 9e 79 dc bc 2d 99 ca bd 58 02 c8 bb 7e 75 25 be
       -0.02691346 -0.09892497 -0.006103795 -0.16158101
0000e0 f0 f9 c3 3c 0c 92 60 be c8 45 91 3d 66 2c 40 3e
       0.02392289 -0.21930712 0.07093388 0.18766937
0000f0 ec 4e 79 bc ab 6c ec 3d 09 81 e5 bd b2 cf 31 3d
       -0.01521657 0.11544164 -0.11206252 0.043410964
000100 72 c4 42 bd 71 c1 6d 3e e2 2f 53 3e 07 7b 80 3d
       -0.047550626 0.23218323 0.20623735 0.062734656
000110 63 9e e6 be bc 77 15 3e 7d b5 05 be 27 b4 bd 3d
       -0.45042714 0.14596456 -0.13057514 0.09262877
000120 0c f5 34 3d 1b 0d 81 3d a8 68 84 be 59 15 61 be
       0.044179007 0.06301328 -0.25861096 -0.219808
000130 ef eb 4c 3e 4f 77 14 3e d6 37 05 be be 5e f2 bd
       0.20011877 0.14498638 -0.13009581 -0.11834477
000140 76 2c 86 bd 9b 32 f7 3e 2f e7 c1 be b1 df db 3b
       -0.06551449 0.48280796 -0.37871692 0.0067100157
000150 00 4a 59 3e 93 96 ef bd 8f 8c 9f be 4c 0d 56 3e
       0.21219635 -0.11698642 -0.31161925 0.2090351
000160 65 8e e1 bd 3b c2 97 be 05 84 14 bf ca 55 da bd
       -0.11013488 -0.29640374 -0.58013946 -0.10660894
000170 49 13 31 be 00 85 08 3e b1 6e 4b be 1d b9 77 bd
       -0.17292513 0.13331985 -0.19866444 -0.060479272
000180 b9 29 ec be 05 89 bd 3e 00 9a c0 3b f8 e7 2b 3e
       -0.46125582 0.370186 0.005877733 0.16787708
000190 b8 df 34 be f5 a4 6d 3e 01 65 79 3d a3 b4 11 be
       -0.17663467 0.23207457 0.06088734 -0.14229064
0001a0 ec 57 d1 bd 64 b0 7e be 60 74 27 3e 8c 93 9e be
       -0.10221848 -0.24871975 0.16352987 -0.30971944
0001b0 c6 b5 12 bd 1b 02 1b 3d ff 37 a6 3e b0 c4 b6 3c
       -0.035817884 0.037843805 0.32464597 0.022310585
0001c0 99 e5 35 3c 1b 61 5c be 0f 03 81 be 9d d2 cd 3d
       0.011102104 -0.21521418 -0.25197646 0.10049937
0001d0 2a f0 d4 3e 13 a0 75 be 87 a8 92 be 2d 97 ee be
       0.4158948 -0.23986845 -0.286442 -0.46599713
0001e0 38 c9 47 bf bb 96 55 3e a7 f5 32 3e c7 04 86 bd
       -0.7804141 0.2085828 0.17476521 -0.0654388
0001f0 31 d0 76 3e 26 4e 02 be 95 fd 27 be 5d d7 c5 be
       0.24102856 -0.12725124 -0.16405328 -0.38640872
000200 d6 d5 87 3d 0e 1e 15 be 09 4d a9 be e9 71 2f bc
       0.06632583 -0.14562246 -0.33066586 -0.010708311
000210 40 17 94 3c 12 a4 41 be 04 d3 7b 3e df 3a 5a 3e
       0.018077493 -0.18910244 0.24592215 0.2131152
000220 56 4c 01 3e bb db 14 bf e5 9e 4b be 13 14 ae 3e
       0.12626776 -0.5814778 -0.19884832 0.3399969
000230 5d 55 b0 bd 2e fa 1e 3e a8 79 62 be 07 d7 63 be
       -0.08610032 0.15525123 -0.2211672 -0.22249995
000240 8d b3 1f bc 21 db 12 be 23 99 1d bd 9e b5 d6 3e
       -0.009747398 -0.14341404 -0.03847612 0.41935438
000250 4f 84 14 3e 74 d3 d8 bd c6 61 9b 3d 29 50 2d bd
       0.14503597 -0.105872065 0.07587008 -0.042312775
000260 1e 4f 5b 3e 6b c5 66 be eb f4 16 3e f2 ec 9e 3d
       0.214169 -0.22536246 0.14741866 0.077600375
000270 17 f4 b5 3c 38 3f 4d be df 93 7f 3e 30 8f 89 bd
       0.022211118 -0.20043647 0.24958752 -0.06716764
000280 11 0c c4 3d ea a4 8f bc 08 3f 5b bc d8 22 a8 3d
       0.09572614 -0.017534692 -0.013381727 0.08209771
000290 4a 03 86 be 4e d1 08 be 26 a4 59 3e 23 b6 25 be
       -0.26174384 -0.13361093 0.21254024 -0.16182761
0002a0 63 f3 52 be c5 48 45 3e 5e bc 6f 3e 32 83 bd be
       -0.20600657 0.1926604 0.234117 -0.37014157
0002b0 79 ab 86 3e 79 4c a5 be cd 65 7f bd 71 b6 9b be
       0.26302698 -0.32284907 -0.062352944 -0.3041263
0002c0 1b 0f 02 bd 51 53 85 bc c3 a3 4e be 59 0b 9d 3e
       -0.031752687 -0.01627508 -0.20179658 0.3067272
0002d0 41 10 84 be af 13 33 3e 5d fe 0c be 24 7d 8d be
       -0.2579365 0.17487977 -0.13768907 -0.27634537
0002e0 f7 7a 86 3e 11 3d 7b be e3 99 af be 34 b0 a0 3e
       0.2626569 -0.24535014 -0.34297094 0.31384432
0002f0 89 fd a5 bd a3 eb f0 3e 61 43 09 bf 1a f2 fe 3d
       -0.081049986 0.47054777 -0.5361844 0.12448521
000300 48 77 6c be ca 2e 17 3e 1b 78 53 bd 1f f9 de bd
       -0.23092377 0.14763942 -0.051628213 -0.1088736
000310 e0 a1 91 3c 56 46 53 3d a5 85 64 3e 64 ab c8 be
       0.017777383 0.05158075 0.22316606 -0.3919326
000320 f3 87 3c be f8 70 ed be 07 fc bf 3d db 43 e2 bd
       -0.18411236 -0.4637525 0.09374242 -0.11048099
000330 60 ca b3 3d 3b 5c 15 3d 41 39 be 3d 05 86 04 3e
       0.08778834 0.03646491 0.09288264 0.1294175
000340 64 d7 35 be 48 d4 eb 3d 97 fa 02 3e a6 cd e0 3e
       -0.17757946 0.11515099 0.12790905 0.43906897
000350 38 30 cc 3d b2 d1 f0 3d c6 f9 37 bd ff d6 78 3d
       0.099701345 0.11758746 -0.044915937 0.06075191
000360 76 4a 69 bd 96 f4 1d 3d 04 af 2a be 4b 68 cc bc
       -0.056955777 0.038563333 -0.16668326 -0.024952075
000370 80 14 db bd 8b 60 32 bd a0 d4 5d 3d ca f0 02 bd
       -0.106972694 -0.0435491 0.054157853 -0.031967916
000380 00 84 dd 3c b6 9c 63 3e b8 93 f9 3d 21 e4 22 be
       0.027040482 0.22227749 0.12186378 -0.15907337
000390 3c b9 a9 be 0e 86 2c be 6e 9c b6 3e af ec e6 bd
       -0.33149135 -0.16848013 0.3566622 -0.112756126
0003a0 f6 f4 b5 3d 31 cd da 3d 4a fe f8 bd 48 45 aa 3e
       0.08884613 0.106836684 -0.12157877 0.33255982
0003b0 de f2 0c bd 18 ab f9 3d d2 0d 96 bd ac e0 99 3d
       -0.034411304 0.12190837 -0.07326855 0.07513556
0003c0 0f cf ec 3d 5d f5 00 3d e8 49 25 3d b7 01 41 be
       0.11562931 0.031483997 0.040353686 -0.1884831
0003d0 34 48 1d 3e ce 28 4b 3e 5e 91 dd 3d 0d 4c b7 3e
       0.15359575 0.19839785 0.10818742 0.3580021
0003e0 25 27 78 3e e5 61 d0 3c 71 5b 9f 3d c0 07 62 3d
       0.24233682 0.025437305 0.07781113 0.055183172
0003f0 24 62 cd bd c3 1d 4d be 48 d5 31 ba d2 3c 0e 3e
       -0.100284845 -0.20030884 -0.00067837955 0.13890389

network.6.bias f4 [5]
000000 57 e9 56 3e e0 40 16 be 51 86 9f 3c 82 85 90 3e
       0.2098745 -0.14673185 0.019473227 0.28226858
000010 fe d9 03 3d
       0.032190315

network.0.weight f4 [128, 43]
000000 b0 16 a5 bb f7 b9 43 bf c0 74 11 3f d2 8c 96 bf
       -0.005038105 -0.76455635 0.5681877 -1.1761725
000010 aa 62 bd bf cc f0 23 be 0d c2 d9 3e 4a ba 0c 3e
       -1.4795735 -0.16009825 0.42530861 0.13742939
000020 a5 1d 28 3e 74 08 26 be 01 cf 90 bc 38 ae ec bd
       0.16417558 -0.16214162 -0.017676832 -0.11556667
000030 bc ac a3 3f a3 f9 4b 3e c1 a6 23 3e 14 9f 44 bf
       1.2787089 0.19919448 0.1598158 -0.76805234
000040 05 95 98 bf 8d ed 0c 40 77 aa ae 3f 03 ad a3 bd
       -1.1920477 2.201999 1.3645772 -0.07991984
000050 f5 73 0c be d6 be b3 bd 3c f8 04 3e af 68 a7 ba
       -0.13716109 -0.087766334 0.12985319 -0.0012772287
000060 33 16 bb bd 1f 9e 2b 3e 56 7f 3c bd 52 ed c0 bf
       -0.091350935 0.16759537 -0.046019875 -1.5072424
000070 43 e4 d4 3f a5 1e b9 bf 35 c0 8b 3d 91 42 15 3f
       1.663216 -1.4462477 0.0682377 0.583047
000080 77 c5 3a be 45 30 a1 bf 9c ad 23 3e c8 6c 39 be
       -0.1823939 -1.2592856 0.15984195 -0.18107903
000090 62 b0 8e bf 6d d1 43 3f 2f 93 07 c0 2c fd 48 c0
       -1.1147578 0.76491433 -2.1183584 -3.1404524
0000a0 64 cc 1b 40 3b c9 eb bf 04 9b 1a 3d d1 27 29 be
       2.43435 -1.8420786 0.03774549 -0.16519095
0000b0 7c f5 df 3f 44 04 cd bf 56 cb 46 bf 51 93 84 be
       1.7496791 -1.6016927 -0.77654016 -0.25893643
0000c0 70 05 3d be f6 ef a7 c0 54 48 a9 3d 85 bb bb 3d
       -0.18459105 -5.248042 0.082657486 0.09166626
0000d0 7b be 1b bd 7f 07 2c 3d c5 ab 34 3d 68 7a 50 bf
       -0.038023453 0.041999336 0.044109125 -0.8143678
0000e0 6a 79 c2 bf 47 20 52 3e 2d c9 ac 3f 64 c8 b3 bf
       -1.5193303 0.20520125 1.3498894 -1.4045529
0000f0 e9 fa 91 bd 64 ed 36 bb d6 60 3e be 31 8b 7b 3d
       -0.071279354 -0.0027912492 -0.18591627 0.06141204
000100 0f 0e a8 3d dc aa a6 bd 22 c5 ed 3d 3a d1 3e bd
       0.082058065 -0.081380576 0.11609866 -0.046586253
000110 58 57 c5 bd 7a 87 c6 3d 5c d4 82 3f e4 9c ae bf
       -0.096358 0.09693809 1.0221057 -1.3641629
000120 8d ce 96 3f d8 97 20 3e 7e ce b1 bf 11 3b 89 bd
       1.1781784 0.15682924 -1.3891141 -0.06700719
000130 99 10 80 3f 50 56 fc bd 83 d2 d7 bf 32 5e c8 3f
       1.0005065 -0.1232115 -1.6861118 1.5653746
000140 39 e9 40 c0 0e 43 58 bf 1a bf bc be 04 09 2b 40
       -3.0142348 -0.8447732 -0.3686455 2.6724253
000150 41 e4 4e bf b6 3f c6 3d 39 e7 a9 3d ab dc 49 bf
       -0.8081704 0.09680121 0.08296055 -0.7885234
000160 00 97 59 3f 12 c9 c7 3f 68 23 b9 bf 22 7b a5 bd
       0.8499603 1.5608237 -1.446393 -0.08080126
000170 c0 34 e7 3f 3f cc 31 3d ad b0 26 3d a9 cf bf bd
       1.8062973 0.043407675 0.040695835 -0.0936578
000180 61 e6 09 bd 77 77 9b bb f1 14 af c0 d8 94 b7 bf
       -0.033666972 -0.004744466 -5.4713063 -1.4342299
000190 21 c2 93 bf 9b cf 1f 3e a8 0c 00 c0 e3 29 3d 40
       -1.1543618 0.15606539 -2.0007725 2.9556816
0001a0 54 a0 13 3e 6d 57 1c 3d b5 52 3c be 2d 85 23 3e
       0.14416629 0.038169313 -0.18390925 0.15968771
0001b0 b6 da c7 3d 24 d8 33 be 98 7e 75 3d 0a b2 19 be
       0.09758513 -0.1756292 0.059935182 -0.15009323
0001c0 d5 5d 88 3c 41 d5 98 be d2 de 83 3e b5 6b dc bf
       0.016646305 -0.298502 0.25755936 -1.722037
0001d0 46 de 2a be 60 32 53 bf 16 0a 0d 3e 4f d8 a8 be
       -0.16686353 -0.8249874 0.13773379 -0.3297753
0001e0 f5 f9 ca bd a3 1f 68 bf 38 4f be 3f c1 fd ee 3f
       -0.09910957 -0.90673274 1.4867926 1.867119
0001f0 e0 8e ba be b1 63 d9 be 7f df b4 3f 13 b1 ba 3f
       -0.3643713 -0.4245887 1.4130706 1.4585289
000200 07 a0 14 bd 05 82 37 3c a3 fa c1 3f e3 9e bf bf
       -0.036285426 0.011200433 1.5154613 -1.4970363
000210 f5 40 0c 3f 9f ec b1 bf 94 2b 3a be 87 4d 39 c0
       0.54786617 -1.3900336 -0.18180686 -2.895357
000220 33 f6 37 be 12 d2 dc bc 1c ac 6f 3d 0d 77 09 be
       -0.17965011 -0.026955638 0.058513746 -0.1342432
000230 f2 31 4c 3c 67 31 46 be ff ae 9e c0 7b 99 2e bf
       0.01246308 -0.19354783 -4.958862 -0.6820294
000240 cd 91 08 bf 5d 5f 1a c0 10 d4 b1 3f db 99 8f bf
       -0.53347474 -2.4120705 1.3892841 -1.1218828
000250 1f f4 b4 3d 8f e7 91 bd 45 1c 3c 3e d4 a2 92 bc
       0.08835625 -0.071242444 0.18370159 -0.017899908
000260 f0 05 a0 bc 75 b3 f6 bd 87 92 af 3d 96 2a 3f be
       -0.019534081 -0.120459475 0.0857287 -0.18668589
000270 82 e2 7b be e4 6d 17 3f a0 15 18 bf d0 18 d3 bd
       -0.24598125 0.59152055 -0.59408 -0.10307467
000280 6f 14 2a c0 bf c7 ab 3d 35 f9 32 be a8 10 02 bd
       -2.6574972 0.08387708 -0.17477877 -0.031754166
000290 79 a4 39 bf 37 a8 1d 40 a9 24 46 3f 8b 44 a8 bf
       -0.7251659 2.463392 0.7739969 -1.3145918
0002a0 3f 34 0d 40 63 c6 91 3f c5 99 b1 bf 7a 05 1c 3d
       2.2063138 1.1388668 -1.3875052 0.03809116
0002b0 34 3f 15 be d0 40 89 3f 4d f1 89 bf e5 76 bd 3f
       -0.14574891 1.0722904 -1.0776764 1.4801909
0002c0 01 ff e7 bf 1e 5f 09 3e a7 16 ac 3f ae 87 b2 bd
       -1.8124696 0.1341519 1.3444413 -0.08717285
0002d0 3a 08 3c bd 48 f0 0f 3e 66 df d4 bd ab 40 2f be
       -0.045906283 0.14056504 -0.10394172 -0.17114513
0002e0 40 0f 1a be 5b 10 1a c0 36 b5 39 bd 7c 42 8d 3e
       -0.1504488 -2.4072483 -0.04533883 0.27589786
0002f0 2a 61 18 3f 1b d1 e1 3d 83 ef 64 3e c6 b1 ab bd
       0.5952326 0.11026212 0.22356991 -0.08383517
000300 53 1e 31 3e 30 da 32 be 49 16 0d 3d 57 15 21 3e
       0.17296724 -0.17466044 0.03444508 0.15730797
000310 08 21 87 bc 43 2c a5 3d a6 dd 0e 3e 10 79 6a bf
       -0.016495243 0.08065083 0.1395174 -0.91590977
000320 33 9c 55 40 a5 17 c5 c0 d0 1b 25 bd a3 c2 87 3f
       3.3376586 -6.1591363 -0.040309727 1.0606273
000330 bc 37 38 be 3f 37 a2 bf 54 f0 da 3d 7f c8 9b 3f
       -0.17990011 -1.267311 0.1069037 1.2170562
000340 5e 1e c9 3f db a6 a6 3f 41 c1 f2 bf 73 4d cb 3e
       1.5712392 1.301967 -1.8965226 0.39707527
000350 7c 8f d5 3e 75 c4 d1 bf 09 0d f0 3d 3a 59 01 bd
       0.41711032 -1.6388079 0.11721236 -0.031579234
000360 cf db 56 bf 89 c8 86 3f 63 2b 80 3f fb 30 22 bd
       -0.8392915 1.0529948 1.001324 -0.039597493
000370 12 a3 04 3e 86 e4 88 3f e6 f0 b6 3c c0 f2 14 3d
       0.12952831 1.069474 0.022331666 0.036364317
000380 8f a7 21 be 86 f3 4b 3d 58 64 38 bd a2 1e a7 3e
       -0.15786575 0.04979279 -0.04501757 0.32640558
000390 69 cf 09 bf e8 1d b7 3f 61 52 bf bc 85 56 50 3f
       -0.5383211 1.4306002 -0.023354711 0.8138202
0003a0 03 08 0f c0 6b c2 f8 bf 58 b9 81 3d 59 c8 a6 3d
       -2.234864 -1.9434332 0.0633418 0.08143682
0003b0 3a 40 f4 3d 6c 84 cf 3d a9 7f 02 be 77 4b a3 bd
       0.11926313 0.10132679 -0.12744011 -0.07973378
0003c0 56 82 02 be 2e 91 f1 bd 4c 96 1c bf 4b 9b 59 be
       -0.12745032 -0.11795269 -0.61166835 -0.21250646
0003d0 a2 c7 a8 bf 27 a9 0a 3e 59 de 87 be 0c ac 5c 3c
       -1.3185923 0.13541089 -0.26536825 0.013468754
0003e0 5f ce 18 bf c3 fd c4 3d 6a b9 fd be 3c ec 9d be
       -0.596899 0.09618714 -0.49555522 -0.30844295
0003f0 bb 11 7c 3c ed 65 dd bf 68 b2 6e 3f c2 22 13 bf
       0.015385087 -1.729673 0.93240976 -0.5747491

network.0.bias f4 [128]
000000 ef a9 34 c1 3c f5 23 c1 af 66 c9 c0 b1 b8 18 c1
       -11.291488 -10.247372 -6.2937846 -9.545091
000010 a9 e4 2b c1 e7 da 0e c1 65 ad 11 c1 14 ab 1a c1
       -10.743325 -8.928443 -9.104833 -9.666767
000020 31 5a f0 c0 48 e7 0d c1 e7 37 22 c1 a9 c1 9d c0
       -7.5110097 -8.868965 -10.138648 -4.92989
000030 79 2f 1c c1 06 37 27 c1 b9 7b 06 c1 7e a1 24 c1
       -9.76159 -10.450933 -8.405206 -10.289427
000040 6b 63 0e c1 65 e9 2f c1 6d 83 74 c0 51 10 1e c1
       -8.899272 -10.994481 -3.8205216 -9.8789835
000050 40 15 1e c1 f0 55 04 c1 2e 52 f6 c0 9d 63 1a c1
       -9.880188 -8.270981 -7.6975317 -9.64932
000060 fa 6b db c0 15 bf 05 c1 4f e2 bb c0 6f 5b e4 c0
       -6.8569307 -8.359151 -5.8713756 -7.1361613
000070 e3 6a ea c0 d6 36 01 c1 1f d0 2e c1 79 c6 14 c1
       -7.3255477 -8.075888 -10.925811 -9.298455
000080 f8 94 b2 c0 d7 e3 01 c1 21 68 2d c1 08 b8 88 c0
       -5.5806847 -8.118125 -10.837922 -4.2724648
000090 72 17 2d c1 ef dd 1f c1 7e 4b 22 c1 b8 d8 06 c1
       -10.818224 -9.991683 -10.143431 -8.42791
0000a0 74 e6 24 c1 2e 74 f3 c0 d6 32 18 c1 da 44 a0 c0
       -10.306263 -7.607932 -9.512411 -5.0084047
0000b0 e6 88 20 c1 a9 d1 23 c1 34 d5 0c c1 74 61 1c c1
       -10.033422 -10.238687 -8.802052 -9.773792
0000c0 45 a8 31 c1 7f 93 16 c1 1e 63 38 c1 75 7e 0b c1
       -11.103581 -9.41101 -11.524199 -8.718373
0000d0 ae 31 bf c0 06 60 21 c1 4d 93 f6 c0 71 f5 24 c1
       -5.9748144 -10.085943 -7.705481 -10.309922
0000e0 32 b4 0d c1 7a 4b 21 c1 01 a4 0a c1 65 5d 0b c1
       -8.856493 -10.080927 -8.66504 -8.710301
0000f0 8d c1 2a c1 dd f1 0a c1 36 7b a3 c0 9a 17 e3 c0
       -10.672254 -8.684049 -5.1087904 -7.096631
000100 b0 6c b0 c0 ca 9a e7 c0 20 c5 df c0 0b cc f0 c0
       -5.5132675 -7.237645 -6.992813 -7.5249076
000110 dc 19 09 c1 af a9 1b c1 06 66 31 c1 bc 74 ed c0
       -8.568813 -9.728927 -11.087408 -7.4205
000120 9f 50 d7 c0 90 ef f5 c0 e3 a2 2e c1 64 dc 20 c1
       -6.7285914 -7.6854935 -10.914767 -10.053806
000130 3d ee c2 c0 f4 23 b4 c0 4f 8a 1b c1 47 a2 03 c1
       -6.091582 -5.629389 -9.721267 -8.2271185
000140 9b 93 20 c1 be 4f ed c0 59 f8 f4 c0 6b 6a d2 bf
       -10.0360365 -7.415984 -7.655316 -1.6438726
000150 80 d9 0a c1 d9 ac 0d c1 f6 88 f9 c0 1d 52 06 c1
       -8.678101 -8.854699 -7.797969 -8.395047
000160 72 b7 13 c1 49 30 9f c0 88 7f 14 c1 f2 bc 36 c1
       -9.232286 -4.974644 -9.281136 -11.421129
000170 04 1f 93 c0 2b d2 fa c0 56 c0 54 c0 a3 6d 1b c1
       -4.597536 -7.8381553 -3.3242393 -9.714267
000180 48 fb fd c0 56 f8 21 c1 89 85 28 c1 a3 4c a0 c0
       -7.936924 -10.123129 -10.532601 -5.009355
000190 a8 c0 20 c1 16 9d b8 c0 34 5f 1e c1 b7 c1 fa c0
       -10.047035 -5.7691755 -9.898243 -7.836147
0001a0 00 b3 2c c1 bb e6 14 c1 31 21 e1 c0 c5 24 09 c1
       -10.793701 -9.306331 -7.0353017 -8.571477
0001b0 72 cb e6 c0 a6 72 0d c1 07 1c fd c0 79 90 bc c0
       -7.2123346 -8.84049 -7.9096713 -5.892636
0001c0 7d ef 2f c1 df 18 2c c1 df 68 11 c1 a7 d1 1a c1
       -10.995969 -10.756072 -9.088103 -9.676185
0001d0 fb da 32 c1 f1 6f e0 c0 d9 ff e3 c0 b7 32 fd c0
       -11.178462 -7.0136647 -7.1249814 -7.912441
0001e0 be ca 97 c0 cd 4a fb c0 30 82 8c c0 32 6a 11 c1
       -4.743499 -7.852881 -4.390892 -9.088427
0001f0 d2 96 2c c1 90 2e 0f c1 ca 2f 9b c0 e7 36 13 c1
       -10.786821 -8.948868 -4.8495836 -9.200904

network.3.weight f4 [64, 128]
000000 a6 f0 76 bd 20 df 83 bd 4d aa ae bd 72 d1 18 bf
       -0.060288094 -0.06439042 -0.08528576 -0.5969459
000010 12 bc 75 bd fe 80 e5 3d 98 4a 7c be 71 d8 29 be
       -0.05999381 0.11206244 -0.2463783 -0.16586472
000020 3c 6e a2 be ff 43 16 3e ef d6 09 be 5f fa 89 be
       -0.31724727 0.14674376 -0.13460897 -0.2694883
000030 8f 2f 65 be a0 16 b2 be 8c ae 66 be 36 23 23 bf
       -0.22381423 -0.34782887 -0.22527522 -0.637256
000040 37 05 98 bd 18 92 9c be 5c 25 64 be fc 42 3b be
       -0.0742287 -0.3058021 -0.22279876 -0.18287271
000050 7c ed 02 bf 3b 0f 13 bf e1 27 76 bf f4 22 ab be
       -0.5114362 -0.57445115 -0.961546 -0.33425105
000060 e9 87 2b bd bf eb 67 bd e3 25 c8 3c d9 45 13 bf
       -0.04187766 -0.05662131 0.024432128 -0.57528454
000070 26 b5 98 bf e8 69 29 bf 0f 3b 59 3d b3 70 e8 be
       -1.1930282 -0.66177225 0.05303484 -0.45398483
000080 1a 78 35 3b 21 a8 d1 be 75 1e 24 be 99 62 21 bf
       0.0027689994 -0.40948585 -0.16027243 -0.63041073
000090 ca c8 fb be 13 19 98 be 87 0a 7c be 25 5c 0d bf
       -0.49176627 -0.2970663 -0.24613391 -0.55218726
0000a0 c7 7c c8 be 3a 03 b4 be ea 1d ec bd 71 c0 5d bf
       -0.39157698 -0.35158712 -0.11529143 -0.8662177
0000b0 30 e3 38 bf 05 e0 4a bf 73 b4 b6 be 94 a5 21 3e
       -0.7222166 -0.79248077 -0.35684547 0.1578582
0000c0 f9 69 cc be f9 2e a1 be 1e f0 d3 be a0 f0 1a bf
       -0.399246 -0.3148115 -0.41394132 -0.60523415
0000d0 db bb 3c be 3f 7d cc 3d 1b 83 2b bf 59 9a dc ba
       -0.18431036 0.09984826 -0.66996926 -0.0016830667
0000e0 42 36 ac be 4b 88 bf be 4c 85 58 be b0 b0 cc be
       -0.33635145 -0.3740867 -0.21144599 -0.39978552
0000f0 36 b4 02 be 05 8d 3e be 1f 35 f8 be e4 b1 17 be
       -0.12764058 -0.18608482 -0.48478028 -0.14813954
000100 a9 0e 6b bd 1f a1 43 be 96 76 cc bd 82 6d 61 bd
       -0.057387028 -0.19104432 -0.09983556 -0.055036075
000110 2e 0c b8 be 4a a5 ef bd 63 84 56 3e e9 90 12 bf
       -0.35946792 -0.11701448 0.20948939 -0.57252365
000120 5a 7a 6b bf a0 c8 53 be 12 be bf be 7a 09 4b be
       -0.9198357 -0.20682001 -0.374497 -0.19827834
000130 f9 56 86 be 0e c9 dc be 3f 09 55 be 26 80 4e bf
       -0.2623823 -0.43122143 -0.20804308 -0.8066429
000140 d5 e7 dd be 40 29 38 be c5 20 c9 be 16 cb 07 bf
       -0.43340936 -0.17984486 -0.39282814 -0.5304426
000150 e9 30 ba be a3 74 66 be af 4d 97 be 01 5e de be
       -0.3636544 -0.22505431 -0.29551455 -0.43431094
000160 2f d8 10 bf a5 e8 5f bc dd 4a 12 bf 3a 5e 4e be
       -0.5657987 -0.013666307 -0.5714548 -0.20153132
000170 44 a4 bb be 07 6a af be 9b b0 01 bf e8 e1 87 be
       -0.36648762 -0.3426058 -0.50660104 -0.2653954
000180 d1 bd ac be 2f 24 ac bd 4e 8c 0e bf 6e 42 8d be
       -0.33738568 -0.08405339 -0.5568284 -0.27589744
000190 28 12 92 be ea 20 93 be e1 94 20 be a7 d6 89 3e
       -0.28529477 -0.2873605 -0.15681793 0.2692158
0001a0 fe cf 61 bd 84 fe 5f bd 1b 00 01 bf cc 04 14 be
       -0.055129997 -0.054686084 -0.50390786 -0.14454955
0001b0 5b 32 81 bf 75 32 24 bd 68 0c 10 bf eb 08 d5 be
       -1.0093492 -0.040087182 -0.5626893 -0.41608366
0001c0 b5 18 80 bd 41 0a b2 bc cc 23 8d 3c 5f 2d eb bd
       -0.062547125 -0.021733405 0.017228983 -0.11483263
0001d0 5f 33 9b be 9d 91 1c be 0a a0 09 3e 50 62 29 bf
       -0.3031263 -0.15289922 0.13439956 -0.6616564
0001e0 ca 87 c1 bd 31 8d 45 be 95 a5 a3 be 58 70 d9 be
       -0.09449728 -0.19292141 -0.31962267 -0.42468524
0001f0 5a d2 21 be 9d 44 1f bc f4 82 f6 bd 18 24 9e be
       -0.15802899 -0.0097209485 -0.12036696 -0.30886912
000200 eb f0 a4 bd 85 8d f2 be b3 ec a4 be f8 47 99 be
       -0.08053764 -0.47373596 -0.32211837 -0.2993772
000210 cc 42 ad be 46 9f d8 bd c4 00 b4 be 52 7f cb bd
       -0.33840024 -0.10577254 -0.35156834 -0.09936394
000220 e2 74 9c be 11 15 f8 be 03 39 55 be f1 68 53 be
       -0.30557925 -0.48453572 -0.2082253 -0.206455
000230 22 00 f3 be f5 9a 9a be c4 6a 76 bf c6 f5 9c bf
       -0.4746104 -0.30196348 -0.9625666 -1.2262504
000240 f4 52 b9 bd 6f 88 8e be 9d c2 18 bf 9b 02 2f 3b
       -0.09049025 -0.27838466 -0.59671956 0.0026704434
000250 0a 64 d7 bc 87 f0 d6 be 48 df db be 2f 48 ca be
       -0.02629282 -0.41980383 -0.42943788 -0.39508197
000260 90 5a 93 be 1d 3e 84 be e7 a6 71 bd d5 a0 ed 3c
       -0.2878003 -0.2582864 -0.05899706 0.029007355
000270 eb 2e 0b bd 88 6f 3a bf 26 5c a4 be 92 65 92 bf
       -0.03398029 -0.72826433 -0.32101554 -1.1437247
000280 33 ef 8a bf bf 28 87 be aa 22 b5 bd f9 dd 00 bf
       -1.0854248 -0.26398274 -0.08844502 -0.50338703
000290 9b 68 29 be ed a1 9b be a8 ee f5 be 96 8e 40 bf
       -0.1654381 -0.30396977 -0.48033643 -0.7521757
0002a0 f8 0e 84 be e2 a1 c0 bf 48 5e 11 bd af 8a d4 be
       -0.2579267 -1.5049403 -0.035490304 -0.41512057
0002b0 4f 01 91 bc 2d c6 36 bf c7 c1 bd bf d4 47 aa be
       -0.01770082 -0.7139614 -1.4824761 -0.33257926
0002c0 4c 90 32 bf bb af 22 bd 3c 29 6f bf ab 7a 49 bd
       -0.6975143 -0.03971837 -0.93422294 -0.04918925
0002d0 c8 ed e6 be fd cc 6f be db 68 f0 bf 09 28 76 3c
       -0.45103288 -0.2341804 -1.8781999 0.015024194
0002e0 79 88 2a bf c0 ba 0d be 51 69 c5 be e0 75 77 bf
       -0.6661449 -0.1384077 -0.38556913 -0.9666424
0002f0 6d f0 99 be 05 02 1d be 6b 26 3f be 97 a7 15 bf
       -0.30066243 -0.15332802 -0.18666999 -0.58458847
000300 f0 fe 1e bf 14 49 23 bf 43 f5 ed 3d 28 67 f2 bd
       -0.62107754 -0.63783383 0.116190456 -0.11836082
000310 17 7d bf be b8 09 45 be df b0 d2 3c 05 04 bf be
       -0.37400123 -0.19241989 0.025719104 -0.37307754
000320 fb 3c f2 bd d4 a5 db be 5a b7 d5 be a5 17 12 be
       -0.11828037 -0.42899954 -0.4174145 -0.14266832
000330 b5 9e ca bd f3 6a a0 be d1 fc e6 be 56 bc f3 be
       -0.09893552 -0.31331596 -0.4511476 -0.47604626
000340 f2 a0 c2 3c 43 fc de bd 5c 1a ed be 91 41 11 bf
       0.023758385 -0.10887959 -0.46309173 -0.5674067
000350 a1 b0 33 bf 3a ec 8c bf 24 63 2a bf cd 73 35 bf
       -0.7019139 -1.1009591 -0.66557527 -0.7087982
000360 36 c6 86 be 50 f2 51 be 1c f3 75 be a9 5f 0a bf
       -0.26323098 -0.20502591 -0.2401852 -0.54052216
000370 a8 85 13 bf 74 fd a6 be 9f 2e 6e bf 66 39 08 bf
       -0.5762582 -0.32615244 -0.9303989 -0.53212583
000380 91 94 c7 be 9e 38 e4 be bd 28 1a bf 78 1f 0f bf
       -0.38980535 -0.44574445 -0.6021841 -0.5590739
000390 43 ce 58 bf 26 c6 48 bd b8 cc 16 bf 9e 2b c6 bd
       -0.8468973 -0.049017094 -0.58906126 -0.09676288
0003a0 3e ca bc 3c da 5d 01 be f6 9b 1b bf e6 7d ec be
       0.023045655 -0.12633458 -0.6078485 -0.46189803
0003b0 c8 3f f1 bd d7 f5 1b bd 22 6e b7 be 31 ad ef bd
       -0.117797434 -0.038076248 -0.35826212 -0.117029555
0003c0 f8 68 61 bf 1b a6 e2 bd fe ac df be 67 ac e1 be
       -0.88050795 -0.11066838 -0.4368667 -0.44076845
0003d0 d6 9b b7 be 5d 51 9a be 6e 3b d7 3d 2e 8a 76 be
       -0.3586108 -0.301402 0.10509382 -0.24076149
0003e0 b4 34 a5 be 1a a3 18 be c2 b6 92 be 61 f1 86 bf
       -0.32266772 -0.14905968 -0.28655058 -1.0542413
0003f0 9d 0a 31 bf 22 28 a4 3c d9 00 62 bf 50 9c aa bf
       -0.6915682 0.020038668 -0.88282543 -1.3328953

network.3.bias f4 [64]
000000 e9 b7 29 c0 d6 db 08 c0 08 9c f3 bf 97 b0 ff bf
       -2.65185 -2.1384177 -1.9031992 -1.9975766
000010 c4 6f 08 c0 dc 74 1b c0 2c b5 04 c0 69 ca 2d c0
       -2.1318216 -2.4290075 -2.0735579 -2.7154791
000020 66 93 c5 bf 4c b7 f8 bf 2a 1a 0e c0 ae 9b ef bf
       -1.5435607 -1.9430938 -2.220347 -1.8719385
000030 a1 68 18 c0 3e a0 4b c0 f8 70 01 c0 7e fa fc bf
       -2.381386 -3.1816554 -2.02252 -1.9763944
000040 3b de d3 bf 16 c9 65 c0 6a c6 b4 bf 4f 37 12 c0
       -1.6552194 -3.5903983 -1.4123051 -2.2846258
000050 d6 7d 0c c0 1f c7 0c c0 36 6c ee bf 72 aa 01 c0
       -2.1951804 -2.1996534 -1.8626773 -2.0260282
000060 43 fb ef bf 63 5c b7 bf 9c cd 1a c0 34 32 4b c0
       -1.8748554 -1.4325069 -2.4187994 -3.1749392
000070 94 59 24 c0 2a 12 f5 bf 31 33 38 c0 21 d8 1d c0
       -2.5679674 -1.9146168 -2.8781245 -2.4663165
000080 c6 69 7a bf fb 1f 14 c0 b8 0c 51 c0 26 33 ee bf
       -0.9781765 -2.314452 -3.2664013 -1.8609359
000090 9c 0c 22 c0 c9 34 17 c0 f9 fe 67 3f b3 da d4 bf
       -2.5320196 -2.3625968 0.9062343 -1.6629242
0000a0 e3 c9 10 c0 6f 48 3c c0 a8 fc de bf 45 fc 2c c0
       -2.2623222 -2.941921 -1.7420855 -2.7028973
0000b0 8f 9a 2f c0 f5 4e 38 c0 23 73 5a c0 5f 7b 0b c0
       -2.7438085 -2.8798192 -3.4132774 -2.179405
0000c0 ed 6b 9a bf a9 ea fe bf 15 dd bf bf 13 ab 27 c0
       -1.2064186 -1.9915363 -1.4989344 -2.6198165
0000d0 fe 6f 4f c0 8b c8 ce 3f 2c 20 73 c0 d0 f3 55 c0
       -3.2412105 1.6154951 -3.7988386 -3.3430061
0000e0 fe 7f 79 c0 b0 e8 a2 bf 26 47 3b c0 95 20 e8 bf
       -3.898437 -1.272726 -2.9262176 -1.8134943
0000f0 8a 00 f6 bf fc b9 1e c0 fd fd 7d 3f 1d d0 f0 bf
       -1.9218915 -2.4801016 0.9921568 -1.8813511
