experiments/checkpoints/20251210_110803/checkpoint_ep189.pt (torch, 246605 bytes, 24 tensors)

network.0.weight f4 [128, 43]
0	0xbba516b0	-0.005038105
1	0xbf5064be	-0.8140372
2	0x3f1e1f50	0.6176653
3	0xbfc81ecf	-1.5634402
4	0xbff4bc59	-1.9119979
5	0xbe23f0cc	-0.16009825
6	0x3fb136d5	1.3844858
7	0x3e0cba4a	0.13742939
8	0x3e281da5	0.16417558
9	0xbe260874	-0.16214162
10	0xbc90cf01	-0.017676832
11	0xbdecae38	-0.11556667
12	0x3f8f9e4b	1.1220182
13	0xbee88e2e	-0.45420974
14	0x3e060ed9	0.13091601
15	0xbf189bb7	-0.596126
16	0xbfd1c531	-1.6388303
17	0x3ff2bf75	1.8964678
18	0x3f592521	0.8482228
19	0xbda3ad03	-0.07991984
20	0xbe0c73f5	-0.13716109
21	0xbdb3bed6	-0.087766334
22	0x3e04f83c	0.12985319
23	0xbaa768ab	-0.0012772282
24	0xbdbb1633	-0.091350935
25	0x3e2b9e1f	0.16759537
26	0xbd3c7f56	-0.046019875
27	0xbfce3996	-1.6111324
28	0x401c1a81	2.4391177
29	0xbf9440f7	-1.1582326
30	0x3d8bc032	0.06823768
31	0x3fcc4a98	1.5960264
32	0xbe3ac577	-0.1823939
33	0xbfae7c68	-1.3631716
34	0x3e23ad9c	0.15984195
35	0x3e43caf7	0.19120394
36	0xbf54bef4	-0.8310387
37	0x3fcecf7e	1.6157072
38	0xc01854e1	-2.3801806
39	0xc0414d64	-3.0203485
40	0x403c30fe	2.9404902
41	0xc01161e1	-2.271599
42	0x3d1a9b04	0.03774549
43	0xbe2927d1	-0.16519095
44	0x3fbeaa17	1.4895657
45	0xbfabb8c1	-1.3415757
46	0xbf780ccc	-0.96894526
47	0xbeac9273	-0.33705482
48	0xbe3d0570	-0.18459105
49	0xc091e02f	-4.558616
50	0x3da94854	0.082657486
51	0x3dbbbb85	0.09166626
52	0xbd1bbe7b	-0.038023453
53	0x3d2c077c	0.041999325
54	0x3d34abc5	0.044109125
55	0xc0064027	-2.0976655
56	0xc0613620	-3.5189285
57	0xbf10259b	-0.5630738
58	0x3f2aa153	0.6665241
59	0xbfffcd45	-1.9984518
60	0xbcab7c63	-0.020933336
61	0x3e8a584c	0.2702049
62	0xbe3e60d6	-0.18591627
63	0x3d7b8b31	0.06141204
64	0x3da80e0f	0.082058065
65	0xbda6aadc	-0.081380576
66	0x3dedc522	0.11609866
67	0xbd3ed13a	-0.046586253
68	0xbdc55758	-0.096358
69	0x3dc6877a	0.09693809
70	0x3f876e62	1.0580561
71	0xbfc7f4e7	-1.5621613
72	0x3fc0866f	1.5041026
73	0x3e2097d8	0.15682924
74	0xbf176412	-0.5913707
75	0xbd893b11	-0.06700719
76	0x3f84aabd	1.0364605
77	0xbdfc5650	-0.1232115
78	0xc007f746	-2.1244674
79	0x3fd935a8	1.69695
80	0xbfd210b2	-1.6411345
81	0xbfa81ffb	-1.313476
82	0xbe390706	-0.18069085
83	0x4049465b	3.1449192
84	0xbfbc4137	-1.4707402
85	0x3dc63fb6	0.09680121
86	0x3da9e739	0.08296055
87	0xbff57df5	-1.9179064
88	0x3ffd5b26	1.9793441
89	0x4081d99d	4.057814
90	0xc0a79b8e	-5.2377386
91	0xbda57b22	-0.08080126
92	0x40b84aa2	5.7591105
93	0x3d31cc3f	0.043407675
94	0x3d26b0ad	0.040695835
95	0xbdbfcfa9	-0.0936578
96	0xbd09e661	-0.033666972
97	0xbb9b7777	-0.004744466
98	0xc10af11b	-8.683864
99	0xc0336936	-2.8032966
100	0xc00ffa02	-2.2496343
101	0x3f51e257	0.8198599
102	0xc016267e	-2.3460994
103	0x4089e421	4.309098
104	0xbda9872d	-0.08277736
105	0x3d1c576d	0.038169313
106	0xbe3c52b5	-0.18390925
107	0x3e23852d	0.15968771
108	0x3dc7dab6	0.09758513
109	0xbe33d824	-0.1756292
110	0x3d757e98	0.059935182
111	0xbe19b20a	-0.15009323
112	0x3c885dd5	0.016646305
113	0x3dbf6129	0.09344704
114	0xbf887de6	-1.0663421
115	0xc0ed65e5	-7.4186883
116	0xbe2ade46	-0.16686353
117	0xbe6075f5	-0.21919997
118	0x3e0d0a16	0.13773379
119	0x3d7ea979	0.06217334
120	0xbdcaf9f5	-0.09910957
121	0xbecda5be	-0.40165514
122	0x401c8fac	2.446269
123	0xbef9232b	-0.48659644
124	0xc010ec06	-2.2644057
125	0xc0822fe3	-4.0683455
126	0x400e2945	2.221269
127	0x3ee4366f	0.4457278
128	0xbd14a007	-0.036285426
129	0x3c378205	0.011200433
130	0x3fb1a37a	1.3878014
131	0xbfaf4800	-1.3693848
132	0xbf193224	-0.59842134
133	0xbf402e5d	-0.75070745
134	0xbe3a2b94	-0.18180686
135	0xc08679b3	-4.202356
136	0xbe37f633	-0.17965011
137	0xbcdcd212	-0.026955638
138	0x3d6fac1c	0.058513746
139	0xbe097709	-0.13424315
140	0x3c4c31f2	0.01246308
141	0xbf22e2a8	-0.636271
142	0xc0affd5c	-5.4996777
143	0xbf8b821d	-1.0899082
144	0x3faa50c8	1.3305902
145	0xc08556f5	-4.166865
146	0x403a93ad	2.9152634
147	0x3fea6064	1.8310666
148	0x3db4f41f	0.08835625
149	0xbd91e78f	-0.071242444
150	0x3e3c1c45	0.18370159
151	0xbc92a2d4	-0.017899908
152	0xbca005f0	-0.019534081
153	0xbdf6b375	-0.120459475
154	0x3daf927f	0.08572864
155	0xbe3f2a96	-0.18668589
156	0xbfb76931	-1.4328977
157	0x3f2d483f	0.67688364
158	0xbf966db9	-1.1752235
159	0xbdd318d0	-0.10307467
160	0x3f92e64e	1.1476533
161	0x3dabc7bf	0.08387708
162	0xbfae4c13	-1.3616966
163	0xbd0210a8	-0.031754166
164	0xbf9df52e	-1.2340448
165	0x3f4084f2	0.7520286
166	0xbf47f9c5	-0.78115493
167	0xbfc0dc15	-1.5067164
168	0x40471dd3	3.1111953
169	0xbec21b7b	-0.3791159
170	0xbf03b797	-0.5145201
171	0x3d1c057a	0.03809116
172	0xbe153f34	-0.14574891
173	0x3f706984	0.93911004
174	0xbf71ca83	-0.94449633
175	0x40118837	2.273939
176	0xbfc1c4e2	-1.5138209
177	0x3e095f1e	0.1341519
178	0x3fe4a790	1.7863636
179	0xbdb287ae	-0.08717285
180	0xbd3c083a	-0.045906283
181	0x3e0ff048	0.14056504
182	0xbdd4df66	-0.10394172
183	0xbe2f40ab	-0.17114513
184	0xbe8b5e15	-0.27220216
185	0xc0649be3	-3.5720146
186	0x3eb0220f	0.34400985
187	0x3ee622b9	0.44948366
188	0x3e290c48	0.16508591
189	0x3d6d4aa7	0.057932522
190	0x3fa93666	1.3219726
191	0xbdabb1c6	-0.08383517
192	0x3e311e53	0.17296724
193	0xbe32da30	-0.17466044
194	0x3d0d1649	0.03444508
195	0x3e211557	0.15730797
196	0xbc872108	-0.016495243
197	0x3da52c43	0.08065083
198	0x3e0edda6	0.1395174
199	0xbf4cc46e	-0.7998723
200	0x407b6a50	3.9283638
201	0xc0c7946a	-6.236867
202	0xbd251bd0	-0.040309727
203	0x3fdc2ca8	1.7201128
204	0xbe3837bc	-0.17990011
205	0xbf935cf1	-1.1512738
206	0x3ddaf054	0.1069037
207	0x3fe46de8	1.7846041
208	0x3f348bb1	0.7052565
209	0x3faf1166	1.3677185
210	0xc05ea19c	-3.4786139
211	0x3d71ea63	0.05906142
212	0x3e1dfdfc	0.15428919
213	0xbfb464ef	-1.4093302
214	0x3df00d09	0.11721236
215	0xbd01593a	-0.031579234
216	0xbf5e355f	-0.8680019
217	0x3f8a7514	1.081698
218	0x3f758d50	0.9591875
219	0x3d2b0f56	0.041762672
220	0x3e04a312	0.12952831
221	0x3f9449cb	1.158502
222	0x3cb6f0e6	0.022331666
223	0x3d14f2c0	0.036364317
224	0xbe21a78f	-0.15786575
225	0x3d4bf386	0.04979279
226	0xbd38644d	-0.04501753
227	0x3ebc55e4	0.3678428
228	0xbf085de8	-0.5326829
229	0x3fb01a35	1.3757998
230	0xbd88ddfb	-0.066829644
231	0x3f5c578f	0.86071104
232	0xc01067b6	-2.25633
233	0xbff95621	-1.947941
234	0x3d81b958	0.0633418
235	0x3da6c859	0.08143682
236	0x3df4403a	0.11926313
237	0x3dcf846c	0.10132679
238	0xbe027fa9	-0.12744011
239	0xbda34b77	-0.07973378
240	0xbe028256	-0.12745032
241	0xbdf1912e	-0.11795269
242	0xbf164ae3	-0.5870802
243	0xbe58e8d2	-0.21182564
244	0xbfb2fa07	-1.3982552
245	0x3e0aa927	0.13541089
246	0xbe2457c1	-0.160491
247	0x3c5cac0c	0.013468754
248	0xbf128361	-0.5723172
249	0x3dc4fdc3	0.09618714
250	0xbf0a8f42	-0.54124844
251	0xbe9ed185	-0.31019226
252	0xbc03419d	-0.008011249
253	0xbfe64fa1	-1.7993051
254	0x3f77bd67	0.9677338
255	0xbf078220	-0.5293293

network.0.bias f4 [128]
0	0xc14dae19	-12.855004
1	0xc13e684f	-11.900466
2	0xc1028c9b	-8.1593275
3	0xc1486f25	-12.527135
4	0xc15320bc	-13.195492
5	0xc11281db	-9.156703
6	0xc1400e2f	-12.003463
7	0xc14144c8	-12.079292
8	0xc12f5168	-10.957375
9	0xc1411fa7	-12.070228
10	0xc13865b9	-11.524835
11	0xc0de46d3	-6.9461455
12	0xc11623b9	-9.383721
13	0xc1845da1	-16.545717
14	0xc10ed778	-8.927605
15	0xc1391a59	-11.568933
16	0xc177cf89	-15.488168
17	0xc1445767	-12.271338
18	0xc0cb2b24	-6.349016
19	0xc12475ca	-10.278757
20	0xc12085fd	-10.032712
21	0xc105fdba	-8.374445
22	0xc0fb4237	-7.851833
23	0xc1600db7	-14.003348
24	0xc0df3c91	-6.9761434
25	0xc119b1c6	-9.605902
26	0xc0dfda97	-6.9954333
27	0xc13da89f	-11.853667
28	0xc0ee379c	-7.4442883
29	0xc1037b73	-8.217639
30	0xc147fa44	-12.4986
31	0xc130b1e0	-11.0434265
32	0xc0d8502f	-6.759788
33	0xc11dfd6c	-9.874371
34	0xc15b4733	-13.704883
35	0xc0e9df1a	-7.308484
36	0xc130d7ed	-11.052716
37	0xc1781b8a	-15.506723
38	0xc149eee9	-12.620828
39	0xc1118445	-9.094792
40	0xc13060de	-11.023649
41	0xc0f6c901	-7.7120366
42	0xc11d49cb	-9.830516
43	0xc0a12176	-5.0353346
44	0xc18325d5	-16.393473
45	0xc16542f3	-14.328845
46	0xc14fa51e	-12.977812
47	0xc1385eaa	-11.523111
48	0xc18e911f	-17.82086
49	0xc1484284	-12.516239
50	0xc18585a5	-16.690256
51	0xc122f59c	-10.184963
52	0xc0c07e01	-6.0153813
53	0xc1251023	-10.31644
54	0xc1073ac0	-8.451843
55	0xc1715cf8	-15.085197
56	0xc136c165	-11.422215
57	0xc134f1ab	-11.309001
58	0xc13c3b70	-11.764511
59	0xc10e5fba	-8.898371
60	0xc1333b9a	-11.202051
61	0xc10d1852	-8.818438
62	0xc0fe2826	-7.942401
63	0xc12d5aa3	-10.834628
64	0xc119adde	-9.604948
65	0xc13dca54	-11.8618965
66	0xc0f73124	-7.7247486
67	0xc10d797b	-8.842158
68	0xc117c730	-9.48613
69	0xc12fcfb4	-10.988209
70	0xc13acfdb	-11.675746
71	0xc1119506	-9.098883
72	0xc1109b62	-9.037935
73	0xc12a1259	-10.629479
74	0xc1565161	-13.394868
75	0xc13d9591	-11.849015
76	0xc0e56b6a	-7.169362
77	0xc0b50100	-5.656372
78	0xc14e5e99	-12.898095
79	0xc11ebba7	-9.920814
80	0xc14b3078	-12.699333
81	0xc1499fbe	-12.6015
82	0xc0f8c0d1	-7.773537
83	0xc08f61a5	-4.4806695
84	0xc11cf754	-9.810383
85	0xc14e252d	-12.884076
86	0xc13ee89a	-11.9317875
87	0xc1267ea6	-10.40592
88	0xc12059f9	-10.021966
89	0xc0a01569	-5.0026135
90	0xc15fa59a	-13.97793
91	0xc15f0c67	-13.940528
92	0xc11dab1a	-9.854273
93	0xc1077e34	-8.468311
94	0xc055adc0	-3.3387299
95	0xc11ca67d	-9.790647
96	0xc108e93f	-8.556945
97	0xc158491d	-13.51785
98	0xc12f152c	-10.942669
99	0xc0a152b0	-5.0413437
100	0xc123b97d	-10.232785
101	0xc0f3d38e	-7.6195745
102	0xc121ced0	-10.112991
103	0xc0fdfc46	-7.937045
104	0xc13b388b	-11.701304
105	0xc1119239	-9.098199
106	0xc120d20e	-10.051283
107	0xc112a19b	-9.164454
108	0xc112b0ad	-9.168134
109	0xc15cf89f	-13.8106985
110	0xc1039734	-8.224415
111	0xc0ca1c05	-6.3159204
112	0xc15b6d0a	-13.714121
113	0xc1549a72	-13.287706
114	0xc1130222	-9.188021
115	0xc12f888f	-10.9708395
116	0xc1444f23	-12.2693205
117	0xc0e187d9	-7.047833
118	0xc1285602	-10.520998
119	0xc151be95	-13.109029
120	0xc1151000	-9.316406
121	0xc144fe1a	-12.3120365
122	0xc1081351	-8.504716
123	0xc12683b4	-10.407154
124	0xc1329e05	-11.163579
125	0xc1111c3d	-9.069394
126	0xc1114602	-9.079592
127	0xc127046e	-10.438581

network.3.weight f4 [64, 128]
0	0xbd790fbb	-0.060806017
1	0xbd83e353	-0.06439843
2	0xbdaea042	-0.085266605
3	0xbf19155f	-0.59798235
4	0xbd761aaa	-0.060084023
5	0x3de584d9	0.11206979
6	0xbe7c6a79	-0.24649991
7	0xbe2a1397	-0.16609035
8	0xbea2d0e6	-0.31800002
9	0x3e164631	0.14675213
10	0xbe09dae9	-0.13462414
11	0xbe8a30ce	-0.2699036
12	0xbe661383	-0.2246838
13	0xbeb2e0d3	-0.34937152
14	0xbe66ca70	-0.22538161
15	0xbf2373bc	-0.6384847
16	0xbd98082e	-0.07423435
17	0xbe9cb8d0	-0.3060975
18	0xbe644764	-0.22292858
19	0xbe3bfea5	-0.18358858
20	0xbf032698	-0.51230764
21	0xbf13657b	-0.5757672
22	0xbf76e93a	-0.96449625
23	0xbeab9174	-0.3350941
24	0xbd2c05dc	-0.041997775
25	0xbd8174be	-0.06321095
26	0x3cca04d5	0.024660507
27	0xbf1380f3	-0.57618636
28	0xbf98ffb8	-1.1953039
29	0xbf29df23	-0.66356105
30	0x3d58f369	0.05296651
31	0xbee8d4f2	-0.45474964
32	0x3b241700	0.0025038123
33	0xbed24848	-0.4107077
34	0xbe248abe	-0.16068551
35	0xbf21a06f	-0.6313543
36	0xbefc412a	-0.49268466
37	0xbe9872ac	-0.29774988
38	0xbe7ca04c	-0.24670523
39	0xbf0de7eb	-0.55432004
40	0xbec8d1c6	-0.39222544
41	0xbeb4675b	-0.35235104
42	0xbdec3c7e	-0.115349755
43	0xbf5e2552	-0.86775696
44	0xbf39840d	-0.7246712
45	0xbf4b70de	-0.79469097
46	0xbeb7339a	-0.35781556
47	0x3e21b386	0.15791139
48	0xbeccbfe7	-0.3999016
49	0xbea179f7	-0.31538364
50	0xbed45a18	-0.41474986
51	0xbf1b2b68	-0.6061311
52	0xbe3d169a	-0.18465653
53	0x3dccb91a	0.09996243
54	0xbf2bddcc	-0.6713531
55	0xbaec8b9a	-0.0018046976
56	0xbeacb43e	-0.33731264
57	0xbebfe910	-0.374825
58	0xbe58d49c	-0.21174854
59	0xbecd52f1	-0.40102342
60	0xbe02ba49	-0.12766375
61	0xbe3f3151	-0.18671156
62	0xbef8b16d	-0.48572865
63	0xbe17dc00	-0.14830017
64	0xbd67a228	-0.05655113
65	0xbe43c4ad	-0.19117995
66	0xbdcd3bc3	-0.10021164
67	0xbd620e53	-0.055189442
68	0xbeb855c7	-0.36002943
69	0xbdf0b5b5	-0.11753408
70	0x3e56e053	0.2098401
71	0xbf12dcbc	-0.57368064
72	0xbf6da513	-0.9283001
73	0xbe53ef36	-0.2069672
74	0xbebff4c6	-0.37491435
75	0xbe4b5202	-0.19855502
76	0xbe8691dd	-0.2628316
77	0xbedd4ab7	-0.43221065
78	0xbe553eee	-0.20824787
79	0xbf4f2d99	-0.8092895
80	0xbedebe66	-0.43504637
81	0xbe383028	-0.1798712
82	0xbec95e6e	-0.39329857
83	0xbf086a39	-0.5328708
84	0xbebac3d3	-0.36477527
85	0xbe675690	-0.22591615
86	0xbe979b61	-0.29610732
87	0xbedfba41	-0.43696788
88	0xbf112862	-0.56702244
89	0xbc5dea43	-0.013544622
90	0xbf12e9e0	-0.57388115
91	0xbe4eb90f	-0.20187782
92	0xbebbee7f	-0.36705396
93	0xbeafdb67	-0.34347078
94	0xbf01ef3a	-0.50755656
95	0xbe880a76	-0.2657048
96	0xbead03ae	-0.3379187
97	0xbe5986a9	-0.21242775
98	0xbf0edc48	-0.5580487
99	0xbe8d6d5e	-0.27622503
100	0xbe92fd11	-0.287087
101	0xbe941ff7	-0.28930637
102	0xbe20abdc	-0.15690559
103	0x3e8a5ecc	0.2702545
104	0xbd6235f3	-0.05522723
105	0xbd6014df	-0.054707404
106	0xbf0145a4	-0.5049689
107	0xbe142078	-0.14465511
108	0xbf8173b3	-1.0113434
109	0xbd28c586	-0.041203998
110	0xbf104932	-0.5636169
111	0xbed584ef	-0.41702983
112	0xbd805c7a	-0.062676385
113	0xbcb2e6ca	-0.021838564
114	0x3c8afbae	0.016965713
115	0xbdec141c	-0.11527273
116	0xbe9b534f	-0.30336997
117	0xbe1cc113	-0.15308027
118	0x3e094973	0.13406925
119	0xbf29e5e5	-0.66366416
120	0xbdc196c9	-0.09452588
121	0xbe45dcd4	-0.1932252
122	0xbea4021b	-0.32032856
123	0xbed9cec1	-0.42540553
124	0xbe23040d	-0.15919514
125	0xbc1f6f94	-0.009731192
126	0xbdf7815f	-0.120852225
127	0xbe9ea98c	-0.3098873
128	0xbda5459f	-0.0806992
129	0xbef2e5c9	-0.47440937
130	0xbea54ef9	-0.32286814
131	0xbe9994b3	-0.2999626
132	0xbead77d8	-0.33880496
133	0xbdd8d896	-0.105881855
134	0xbeb474a8	-0.35245252
135	0xbdcbb9ba	-0.09947534
136	0xbe9cb0c1	-0.30603603
137	0xbef8ade2	-0.48570162
138	0xbe559fbf	-0.2086172
139	0xbe53d392	-0.20686176
140	0xbef34b10	-0.47518206
141	0xbe9ac92d	-0.3023161
142	0xbf76e27d	-0.96439344
143	0xbf9d4d21	-1.2289163
144	0xbdb8b5d2	-0.090190545
145	0xbe8ea964	-0.2786361
146	0xbf1901bc	-0.5976827
147	0xb6bd38b1	-5.6392387e-06
148	0xbcd861f6	-0.026413899
149	0xbed75463	-0.4205657
150	0xbedc4a0f	-0.43025252
151	0xbeca8bf9	-0.39559916
152	0xbe93c07a	-0.28857785
153	0xbe84792a	-0.2587369
154	0xbd70f690	-0.05882889
155	0x3cee81f3	0.029114699
156	0xbd14454f	-0.03619891
157	0xbf3ad3f5	-0.7297967
158	0xbea5ea5d	-0.32405367
159	0xbf92abb7	-1.1458653
160	0xbf8b34a5	-1.0875441
161	0xbe874265	-0.26417843
162	0xbdb5bdbf	-0.08874082
163	0xbf0182d5	-0.5059026
164	0xbe2976d8	-0.16549242
165	0xbe9bcdd5	-0.30430475
166	0xbef663fb	-0.48123154
167	0xbf40f6b4	-0.7537644
168	0xbe847ba0	-0.25875568
169	0xbfc10ae1	-1.5081445
170	0xbd12b705	-0.035819072
171	0xbed4e11c	-0.41577995
172	0xbc91d523	-0.017801827
173	0xbf371595	-0.71517307
174	0xbfbe1607	-1.4850472
175	0xbeaaba73	-0.33345374
176	0xbf32f98b	-0.6991202
177	0xbd234d73	-0.039868783
178	0xbf6fabc6	-0.9362148
179	0xbd498d4d	-0.04920702
180	0xbee78d06	-0.4522478
181	0xbe705687	-0.23470508
182	0xbff0e9e1	-1.8821374
183	0x3c5ecd98	0.013598822
184	0xbf2ad961	-0.66737944
185	0xbe0e16bf	-0.13875864
186	0xbec5eb98	-0.38656306
187	0xbf77e64c	-0.9683578
188	0xbe9a5d53	-0.30149326
189	0xbe1d8857	-0.15384041
190	0xbe3f25a9	-0.1866671
191	0xbf15eb73	-0.5856239
192	0xbf1f432d	-0.6221188
193	0xbf23a30b	-0.6392066
194	0xbe4e1959	-0.20126857
195	0xbdf36e69	-0.118862934
196	0xbebfb1ad	-0.37440243
197	0xbe45d6a0	-0.19320154
198	0x3cd39e8a	0.025832433
199	0xbebf5296	-0.37367696
200	0xbdf256b9	-0.11832947
201	0xbedc10bf	-0.42981526
202	0xbed606d7	-0.41802093
203	0xbe1216c2	-0.14266494
204	0xbdcad0c5	-0.09903101
205	0xbea0e64c	-0.31425703
206	0xbee7cb3d	-0.45272246
207	0xbef43b24	-0.4770137
208	0x3cc16f23	0.023612564
209	0xbddf14b7	-0.10892623
210	0xbeedbfe8	-0.46435475
211	0xbf119473	-0.5686714
212	0xbf343af5	-0.7040246
213	0xbf8d323b	-1.1030954
214	0xbf2aa019	-0.6665054
215	0xbf35ce51	-0.7101794
216	0xbe86df55	-0.26342264
217	0xbe52279c	-0.20522922
218	0xbe76b79d	-0.2409348
219	0xbf0aa21b	-0.54153603
220	0xbf13dfdd	-0.57763463
221	0xbea76504	-0.32694256
222	0xbf6ec4ca	-0.93269026
223	0xbf0868f7	-0.53285164
224	0xbec7d539	-0.39029863
225	0xbee48575	-0.4463307
226	0xbf1a813f	-0.60353464
227	0xbf0f7bf6	-0.56048524
228	0xbf59429c	-0.8486726
229	0xbd4ab93e	-0.049493067
230	0xbf17158f	-0.5901727
231	0xbdc87ef6	-0.09789841
232	0x3cba7e17	0.022765202
233	0xbe01b08c	-0.12665004
234	0xbf1be1bd	-0.60891324
235	0xbeecd67e	-0.46257395
236	0xbdf1d27f	-0.11807727
237	0xbd1efed0	-0.038817227
238	0xbeb7c980	-0.3589592
239	0xbdeffe35	-0.11718408
240	0xbf61dff1	-0.8823233
241	0xbde3b0aa	-0.1111768
242	0xbedffc3c	-0.43747127
243	0xbee1df86	-0.44115847
244	0xbeb7de60	-0.35911846
245	0xbe9aac59	-0.30209616
246	0xbe59c575	-0.2126673
247	0xbe763b42	-0.24046043
248	0xbea57453	-0.3231531
249	0xbe1927e1	-0.14956619
250	0xbe92e302	-0.28688818
251	0xbf8733a2	-1.0562632
252	0xbf317a0f	-0.6932687
253	0x3c985a77	0.018597824
254	0xbf628e67	-0.8849854
255	0xbfab166e	-1.336622

network.3.bias f4 [64]
0	0xc032dc67	-2.7947023
1	0xc01dd534	-2.466138
2	0xc00f6fe5	-2.2412045
3	0xc05761f6	-3.365354
4	0xc01030bb	-2.2529743
5	0xc02dcdd6	-2.7156882
6	0xc0215948	-2.5210743
7	0xc0635422	-3.55201
8	0xbfc96794	-1.5734735
9	0xc00d2e19	-2.2059386
10	0xc01c184a	-2.4389825
11	0xbff0af3c	-1.8803477
12	0xc03d1660	-2.9544907
13	0xc04efacb	-3.2340572
14	0xc00c6bf8	-2.19409
15	0xc016aaa9	-2.3541663
16	0xc013b847	-2.3081224
17	0xc069074b	-3.6410701
18	0xbfb5b258	-1.4195051
19	0xc014ebae	-2.3268847
20	0xc0220203	-2.5313728
21	0xc03a8fa9	-2.9150183
22	0xc0041a6f	-2.0641134
23	0xc01bafa0	-2.4325943
24	0xc00b2dd6	-2.1746726
25	0xbfc83fed	-1.5644509
26	0xc022e68c	-2.5453215
27	0xc05a4dde	-3.4110026
28	0xc03b52ab	-2.9269207
29	0xbff6b99b	-1.9275392
30	0xc03dbf1f	-2.96479
31	0xc0360cda	-2.8445344
32	0xbfac48d6	-1.3459728
33	0xc047810a	-3.117251
34	0xc06d7456	-3.7102256
35	0xc00e6a4d	-2.225238
36	0xc02565e4	-2.584344
37	0xc0186f10	-2.3817787
38	0x3f3e54f7	0.74348396
39	0xbfdb432d	-1.7129875
40	0xc01f9257	-2.4933069
41	0xc05792e6	-3.368341
42	0xc005015a	-2.0782075
43	0xc054556a	-3.3177133
44	0xc031d16e	-2.7784076
45	0xc05b98cf	-3.4312017
46	0xc07426d3	-3.8148696
47	0xc01f0cfb	-2.4851673
48	0xbfbcb1b7	-1.4741734
49	0xc000bdd1	-2.0115855
50	0xbfe9897c	-1.8245082
51	0xc02e4d76	-2.7234778
52	0xc07c7998	-3.9449215
53	0x3f86374b	1.0485624
54	0xc0904850	-4.508827
55	0xc06f0041	-3.7343905
56	0xc08c685e	-4.38774
57	0xbfa4fc5a	-1.2889512
58	0xc06c6643	-3.6937416
59	0xc00d248b	-2.2053554
60	0xc01703c4	-2.3596048
61	0xc0286d68	-2.6316776
62	0x3f470145	0.7773631
63	0xc007c1ff	-2.1212156

network.6.weight f4 [5, 64]
0	0xbe8e9de0	-0.27854824
1	0x3e17d4c8	0.14827263
2	0x3e716169	0.23572315
3	0xbe3d365f	-0.18477772
4	0xbe1898e4	-0.14902073
5	0xbdcca211	-0.09991849
6	0x3e516735	0.20449527
7	0xbe3c5c09	-0.18394484
8	0xbe19c61f	-0.15016983
9	0xbdb20b3c	-0.08693549
10	0xbd7c1ef8	-0.06155297
11	0xbe3adda7	-0.18248616
12	0xbdb5c5d1	-0.08875621
13	0x3d6d20eb	0.05789272
14	0x3d6b1818	0.057396024
15	0xbe5eb5ea	-0.21749082
16	0x3d26b6d7	0.040701713
17	0x3d974e11	0.07387937
18	0x3df23408	0.118263304
19	0xbdca2e18	-0.09872073
20	0x3daa0c3b	0.08303114
21	0x3d9e6be3	0.077354215
22	0x3cc69dba	0.024245132
23	0x3df1a250	0.11798537
24	0x3e0620ed	0.13098498
25	0x3cd6dc50	0.0262281
26	0xbd4b015e	-0.04956185
27	0xbe8280b0	-0.25488806
28	0xbdceabd4	-0.10091367
29	0xbdcc67af	-0.099807136
30	0x3d81dbef	0.06340777
31	0x3e70c1aa	0.23511377
32	0x3c9b9ac7	0.018994702
33	0x3e8cbb3d	0.274866
34	0x3e8b5e99	0.2722061
35	0xbe9726bb	-0.29521737
36	0x3d43779c	0.04772149
37	0xbe550bc8	-0.20805275
38	0xbe36de9a	-0.17858353
39	0xbe30c255	-0.17261632
40	0xbe93d3b7	-0.28872463
41	0xbe22cd9d	-0.15898748
42	0xbcb265c5	-0.021777043
43	0x3eb46de5	0.35240093
44	0xbd9a0f5b	-0.0752246
45	0xbe06ccb6	-0.13164029
46	0x3c42dc67	0.011893368
47	0x3e0f75a3	0.14009719
48	0x3e55883d	0.20852752
49	0x3d8a7acd	0.06761704
50	0xbe8c8b50	-0.27450037
51	0x3dde4e15	0.10854737
52	0xbe318773	-0.17336826
53	0xbdabcee9	-0.08389074
54	0x3e8fd446	0.2809164
55	0x3e1f7db6	0.15575299
56	0xbe96635e	-0.29372686
57	0xbe60920c	-0.21930712
58	0x3bb5cb6c	0.0055479314
59	0xbe051a2d	-0.12998267
60	0xbe98c1a4	-0.29835236
61	0x3dec6cab	0.11544164
62	0xbe1e39de	-0.15451762
63	0x3cc65b48	0.024213448
64	0xbd42c472	-0.047550626
65	0x3e6dc171	0.23218323
66	0x3e532fe2	0.20623735
67	0x3d807b07	0.062734656
68	0xbee69e63	-0.45042714
69	0x3e1577bc	0.14596456
70	0xbe05b57d	-0.13057514
71	0x3dbdb427	0.09262877
72	0x3d34f50c	0.044179007
73	0x3d810d1b	0.06301328
74	0xbe8468a8	-0.25861096
75	0xbe611559	-0.219808
76	0x3e4cebef	0.20011877
77	0x3e14774f	0.14498638
78	0xbe0537d6	-0.13009581
79	0xbdf25ebe	-0.11834477
80	0xbd862c76	-0.06551449
81	0x3ef7329b	0.48280796
82	0xbec1e72f	-0.37871692
83	0x3bdbdfb1	0.0067100157
84	0x3e594a00	0.21219635
85	0xbdef9693	-0.11698642
86	0xbe9f8c8f	-0.31161925
87	0x3e560d4c	0.2090351
88	0xbde18e65	-0.11013488
89	0xbe97c23b	-0.29640374
90	0xbf148405	-0.58013946
91	0xbdda55ca	-0.10660894
92	0xbe311349	-0.17292513
93	0x3e088500	0.13331985
94	0xbe4b6eb1	-0.19866444
95	0xbd77b91d	-0.060479272
96	0xbeec29b9	-0.46125582
97	0x3ebd8905	0.370186
98	0x3bc09a00	0.005877733
99	0x3e2be7f8	0.16787708
100	0xbe34dfb8	-0.17663467
101	0x3e6da4f5	0.23207457
102	0x3d796501	0.06088734
103	0xbe11b4a3	-0.14229064
104	0xbdd157ec	-0.10221848
105	0xbe7eb064	-0.24871975
106	0x3e277460	0.16352987
107	0xbe9e938c	-0.30971944
108	0xbd12b5c6	-0.035817884
109	0x3d1b021b	0.037843805
110	0x3ea637ff	0.32464597
111	0x3cb6c4b0	0.022310585
112	0x3c35e599	0.011102104
113	0xbe5c611b	-0.21521418
114	0xbe81030f	-0.25197646
115	0x3dcdd29d	0.10049937
116	0x3ed4f02a	0.4158948
117	0xbe75a013	-0.23986845
118	0xbe92a887	-0.286442
119	0xbeee972d	-0.46599713
120	0xbf47c938	-0.7804141
121	0x3e5596bb	0.2085828
122	0x3e32f5a7	0.17476521
123	0xbd8604c7	-0.0654388
124	0x3e76d031	0.24102856
125	0xbe024e26	-0.12725124
126	0xbe27fd95	-0.16405328
127	0xbec5d75d	-0.38640872
128	0x3d87d5d6	0.06632583
129	0xbe151e0e	-0.14562246
130	0xbea94d09	-0.33066586
131	0xbc2f71e9	-0.010708311
132	0x3c941740	0.018077493
133	0xbe41a412	-0.18910244
134	0x3e7bd304	0.24592215
135	0x3e5a3adf	0.2131152
136	0x3e014c56	0.12626776
137	0xbf14dbbb	-0.5814778
138	0xbe4b9ee5	-0.19884832
139	0x3eae1413	0.3399969
140	0xbdb0555d	-0.08610032
141	0x3e1efa2e	0.15525123
142	0xbe6279a8	-0.2211672
143	0xbe63d707	-0.22249995
144	0xbc1fb38d	-0.009747398
145	0xbe12db21	-0.14341404
146	0xbd1d9923	-0.03847612
147	0x3ed6b59e	0.41935438
148	0x3e14844f	0.14503597
149	0xbdd8d374	-0.105872065
150	0x3d9b61c6	0.07587008
151	0xbd2d5029	-0.042312775
152	0x3e5b4f1e	0.214169
153	0xbe66c56b	-0.22536246
154	0x3e16f4eb	0.14741866
155	0x3d9eecf2	0.077600375
156	0x3cb5f417	0.022211118
157	0xbe4d3f38	-0.20043647
158	0x3e7f93df	0.24958752
159	0xbd898f30	-0.06716764
160	0x3dc40c11	0.09572614
161	0xbc8fa4ea	-0.017534692
162	0xbc5b3f08	-0.013381727
163	0x3da822d8	0.08209771
164	0xbe86034a	-0.26174384
165	0xbe08d14e	-0.13361093
166	0x3e59a426	0.21254024
167	0xbe25b623	-0.16182761
168	0xbe52f363	-0.20600657
169	0x3e4548c5	0.1926604
170	0x3e6fbc5e	0.234117
171	0xbebd8332	-0.37014157
172	0x3e86ab79	0.26302698
173	0xbea54c79	-0.32284907
174	0xbd7f65cd	-0.062352944
175	0xbe9bb671	-0.3041263
176	0xbd020f1b	-0.031752687
177	0xbc855351	-0.01627508
178	0xbe4ea3c3	-0.20179658
179	0x3e9d0b59	0.3067272
180	0xbe841041	-0.2579365
181	0x3e3313af	0.17487977
182	0xbe0cfe5d	-0.13768907
183	0xbe8d7d24	-0.27634537
184	0x3e867af7	0.2626569
185	0xbe7b3d11	-0.24535014
186	0xbeaf99e3	-0.34297094
187	0x3ea0b034	0.31384432
188	0xbda5fd89	-0.081049986
189	0x3ef0eba3	0.47054777
190	0xbf094361	-0.5361844
191	0x3dfef21a	0.12448521
192	0xbe6c7748	-0.23092377
193	0x3e172eca	0.14763942
194	0xbd53781b	-0.051628213
195	0xbddef91f	-0.1088736
196	0x3c91a1e0	0.017777383
197	0x3d534656	0.05158075
198	0x3e6485a5	0.22316606
199	0xbec8ab64	-0.3919326
200	0xbe3c87f3	-0.18411236
201	0xbeed70f8	-0.4637525
202	0x3dbffc07	0.09374242
203	0xbde243db	-0.11048099
204	0x3db3ca60	0.08778834
205	0x3d155c3b	0.03646491
206	0x3dbe3941	0.09288264
207	0x3e048605	0.1294175
208	0xbe35d764	-0.17757946
209	0x3debd448	0.11515099
210	0x3e02fa97	0.12790905
211	0x3ee0cda6	0.43906897
212	0x3dcc3038	0.099701345
213	0x3df0d1b2	0.11758746
214	0xbd37f9c6	-0.044915937
215	0x3d78d6ff	0.06075191
216	0xbd694a76	-0.056955777
217	0x3d1df496	0.038563333
218	0xbe2aaf04	-0.16668326
219	0xbccc684b	-0.024952075
220	0xbddb1480	-0.106972694
221	0xbd32608b	-0.0435491
222	0x3d5dd4a0	0.054157853
223	0xbd02f0ca	-0.031967916
224	0x3cdd8400	0.027040482
225	0x3e639cb6	0.22227749
226	0x3df993b8	0.12186378
227	0xbe22e421	-0.15907337
228	0xbea9b93c	-0.33149135
229	0xbe2c860e	-0.16848013
230	0x3eb69c6e	0.3566622
231	0xbde6ecaf	-0.112756126
232	0x3db5f4f6	0.08884613
233	0x3ddacd31	0.106836684
234	0xbdf8fe4a	-0.12157877
235	0x3eaa4548	0.33255982
236	0xbd0cf2de	-0.034411304
237	0x3df9ab18	0.12190837
238	0xbd960dd2	-0.07326855
239	0x3d99e0ac	0.07513556
240	0x3deccf0f	0.11562931
241	0x3d00f55d	0.031483997
242	0x3d2549e8	0.040353686
243	0xbe4101b7	-0.1884831
244	0x3e1d4834	0.15359575
245	0x3e4b28ce	0.19839785
246	0x3ddd915e	0.10818742
247	0x3eb74c0d	0.3580021
248	0x3e782725	0.24233682
249	0x3cd061e5	0.025437305
250	0x3d9f5b71	0.07781113
251	0x3d6207c0	0.055183172
252	0xbdcd6224	-0.100284845
253	0xbe4d1dc3	-0.20030884
254	0xba31d548	-0.00067837955
255	0x3e0e3cd2	0.13890389

network.6.bias f4 [5]
0	0x3e526b3e	0.20548722
1	0xbe1640e0	-0.14673185
2	0x3c9f8651	0.019473227
3	0x3e908582	0.28226858
4	0x3d03d9fe	0.032190315

network.0.weight f4 [128, 43]
0	0xbba516b0	-0.005038105
1	0xbf506e15	-0.8141797
2	0x3f1e2950	0.6178179
3	0xbfc80a7a	-1.5628197
4	0xbff4ae34	-1.9115663
5	0xbe23f0cc	-0.16009825
6	0x3fb109c5	1.3831106
7	0x3e0cba4a	0.13742939
8	0x3e281da5	0.16417558
9	0xbe260874	-0.16214162
10	0xbc90cf01	-0.017676832
11	0xbdecae38	-0.11556667
12	0x3f8fa7b2	1.1223052
13	0xbee80a83	-0.4532052
14	0x3e06502d	0.13116522
15	0xbf18b260	-0.5964718
16	0xbfd1a756	-1.6379192
17	0x3ff2e231	1.8975278
18	0x3f596395	0.84917575
19	0xbda3ad03	-0.07991984
20	0xbe0c73f5	-0.13716109
21	0xbdb3bed6	-0.087766334
22	0x3e04f83c	0.12985319
23	0xbaa768af	-0.0012772287
24	0xbdbb1633	-0.091350935
25	0x3e2b9e1f	0.16759537
26	0xbd3c7f56	-0.046019875
27	0xbfce4726	-1.6115463
28	0x401c00e6	2.4375548
29	0xbf945b43	-1.1590351
30	0x3d8bc035	0.0682377
31	0x3fcc1153	1.5942787
32	0xbe3ac577	-0.1823939
33	0xbfae8a24	-1.3635907
34	0x3e23ad9c	0.15984195
35	0x3e43175f	0.19051884
36	0xbf54ecbf	-0.83173746
37	0x3fceb66b	1.614942
38	0xc01852c2	-2.3800511
39	0xc04154c7	-3.0207994
40	0x403c22e6	2.93963
41	0xc01153d6	-2.270742
42	0x3d1a9b04	0.03774549
43	0xbe2927d1	-0.16519095
44	0x3fbf0743	1.4924091
45	0xbfac160a	-1.3444226
46	0xbf7791fc	-0.9670713
47	0xbead6789	-0.33868054
48	0xbe3d0570	-0.18459105
49	0xc091f710	-4.561409
50	0x3da94854	0.082657486
51	0x3dbbbb85	0.09166626
52	0xbd1bbe7b	-0.038023453
53	0x3d2c077f	0.041999336
54	0x3d34abc5	0.044109125
55	0xc0061121	-2.0947955
56	0xc060fe9a	-3.5155396
57	0xbf0f67d4	-0.56017804
58	0x3f2b7e8c	0.6698997
59	0xbffff061	-1.9995233
60	0xbcbdfa4b	-0.023190638
61	0x3e88382b	0.26605353
62	0xbe3e60d6	-0.18591627
63	0x3d7b8b31	0.06141204
64	0x3da80e0f	0.082058065
65	0xbda6aadc	-0.081380576
66	0x3dedc522	0.11609866
67	0xbd3ed13a	-0.046586253
68	0xbdc55758	-0.096358
69	0x3dc6877a	0.09693809
70	0x3f871658	1.0553694
71	0xbfc83709	-1.5641795
72	0x3fc0c4f7	1.5060109
73	0x3e2097d8	0.15682924
74	0xbf188896	-0.59583414
75	0xbd893b11	-0.06700719
76	0x3f84528f	1.0337695
77	0xbdfc5650	-0.1232115
78	0xc007f6a5	-2.124429
79	0x3fd8eef5	1.6947924
80	0xbfd2ca38	-1.6467962
81	0xbfa7e6df	-1.3117331
82	0xbe3b2fee	-0.18280002
83	0x40493097	3.1435907
84	0xbfbbf076	-1.4682758
85	0x3dc63fb6	0.09680121
86	0x3da9e739	0.08296055
87	0xbfd13517	-1.6344327
88	0x3fd9124b	1.6958708
89	0x408323e1	4.0981297
90	0xc0924f36	-4.5721693
91	0xbda57b22	-0.08080126
92	0x40a8aa6e	5.2708044
93	0x3d31cc3f	0.043407675
94	0x3d26b0ad	0.040695835
95	0xbdbfcfa9	-0.0936578
96	0xbd09e661	-0.033666972
97	0xbb9b7777	-0.004744466
98	0xc10348fd	-8.205319
99	0xc021cfa3	-2.5282981
100	0xc00b3cb1	-2.1755793
101	0x3f46629a	0.77494204
102	0xc00df3b5	-2.2179997
103	0x4071fa4f	3.7809026
104	0xbf0c74a6	-0.5486549
105	0x3d1c576d	0.038169313
106	0xbe3c52b5	-0.18390925
107	0x3e23852d	0.15968771
108	0x3dc7dab6	0.09758513
109	0xbe33d824	-0.1756292
110	0x3d757e98	0.059935182
111	0xbe19b20a	-0.15009323
112	0x3c885dd5	0.016646305
113	0xbc0e5d42	-0.008689227
114	0xbf2811dd	-0.6565226
115	0xc0e0ffbb	-7.031217
116	0xbe2ade46	-0.16686353
117	0xbed92c9b	-0.42416844
118	0x3e0d0a16	0.13773379
119	0xbd23b017	-0.039962854
120	0xbdcaf9f5	-0.09910957
121	0xbf20b596	-0.6277708
122	0x3fef2aca	1.8684933
123	0x3d725216	0.059160315
124	0xc026ffd9	-2.6093657
125	0xc07d0ac8	-3.953783
126	0x401d292e	2.4556384
127	0x3f3ac0c5	0.7295039
128	0xbd14a007	-0.036285426
129	0x3c378205	0.011200433
130	0x3fcf3cd2	1.6190436
131	0xbfcce126	-1.600621
132	0xbf13417d	-0.575218
133	0xbf46679c	-0.77501845
134	0xbe3a2b94	-0.18180686
135	0xc0897a02	-4.2961435
136	0xbe37f633	-0.17965011
137	0xbcdcd212	-0.026955638
138	0x3d6fac1c	0.058513746
139	0xbe09770d	-0.1342432
140	0x3c4c31f2	0.01246308
141	0xbf699e5c	-0.9125726
142	0xc0b64e6c	-5.697073
143	0xbf30d5f5	-0.6907647
144	0x3fa24bc4	1.2679372
145	0xc067ba93	-3.6207626
146	0x40411226	3.0167327
147	0x3fc9d080	1.5766754
148	0x3db4f41f	0.08835625
149	0xbd91e78f	-0.071242444
150	0x3e3c1c45	0.18370159
151	0xbc92a2d4	-0.017899908
152	0xbca005f0	-0.019534081
153	0xbdf6b375	-0.120459475
154	0x3daf9287	0.0857287
155	0xbe3f2a96	-0.18668589
156	0xbfbd7f79	-1.4804527
157	0x3f26256c	0.6490085
158	0xbfa79bb7	-1.3094395
159	0xbdd318d0	-0.10307467
160	0x3ef161ee	0.47145027
161	0x3dabc7bf	0.08387708
162	0xbfb4627f	-1.4092559
163	0xbd0210a8	-0.031754166
164	0xbfbc0c1a	-1.4691193
165	0x3f3c6347	0.73588985
166	0xbef7b7fb	-0.48382553
167	0xbfadf080	-1.358902
168	0x40410e71	3.0165064
169	0xbed144aa	-0.408727
170	0xbf80bc40	-1.0057449
171	0x3d1c057a	0.03809116
172	0xbe153f34	-0.14574891
173	0x3f7095f4	0.9397881
174	0xbf71f714	-0.94517636
175	0x40117e66	2.2733397
176	0xbfc1eb51	-1.5149938
177	0x3e095f1e	0.1341519
178	0x3fe49f11	1.7861043
179	0xbdb287ae	-0.08717285
180	0xbd3c083a	-0.045906283
181	0x3e0ff048	0.14056504
182	0xbdd4df66	-0.10394172
183	0xbe2f40ab	-0.17114513
184	0xbe8b1708	-0.2716601
185	0xc0647269	-3.569483
186	0x3eaede49	0.34153965
187	0x3ee6484e	0.4497704
188	0x3e2a299c	0.16617435
189	0x3d6e562c	0.05818765
190	0x3fa92e29	1.3217212
191	0xbdabb1c6	-0.08383517
192	0x3e311e53	0.17296724
193	0xbe32da30	-0.17466044
194	0x3d0d1649	0.03444508
195	0x3e211557	0.15730797
196	0xbc872108	-0.016495243
197	0x3da52c43	0.08065083
198	0x3e0edda6	0.1395174
199	0xbf4d0d9d	-0.800989
200	0x407b5529	3.9270728
201	0xc0c79c93	-6.237863
202	0xbd251bd0	-0.040309727
203	0x3fdbfcf9	1.7186576
204	0xbe3837bc	-0.17990011
205	0xbf9381a8	-1.1523943
206	0x3ddaf054	0.1069037
207	0x3fe46bbc	1.7845378
208	0x3f350110	0.70704746
209	0x3faf0ebf	1.3676375
210	0xc05e65e4	-3.474969
211	0x3d75108e	0.05983024
212	0x3e1f09c3	0.15531068
213	0xbfb490ab	-1.4106649
214	0x3df00d09	0.11721236
215	0xbd01593a	-0.031579234
216	0xbf5e3332	-0.8679687
217	0x3f8a744e	1.0816743
218	0x3f758ffa	0.95922816
219	0x3d2ab3e5	0.041675467
220	0x3e04a312	0.12952831
221	0x3f94469b	1.1584047
222	0x3cb6f0e6	0.022331666
223	0x3d14f2c0	0.036364317
224	0xbe21a78f	-0.15786575
225	0x3d4bf386	0.04979279
226	0xbd386458	-0.04501757
227	0x3ebc5047	0.36779997
228	0xbf085e94	-0.53269315
229	0x3fb01bff	1.3758544
230	0xbd88c5d5	-0.066783585
231	0x3f5c548f	0.86066526
232	0xc010679e	-2.2563243
233	0xbff95624	-1.9479413
234	0x3d81b958	0.0633418
235	0x3da6c859	0.08143682
236	0x3df4403a	0.11926313
237	0x3dcf846c	0.10132679
238	0xbe027fa9	-0.12744011
239	0xbda34b77	-0.07973378
240	0xbe028256	-0.12745032
241	0xbdf1912e	-0.11795269
242	0xbf164cc9	-0.58710915
243	0xbe58e959	-0.21182765
244	0xbfb2f737	-1.3981694
245	0x3e0aa927	0.13541089
246	0xbe24756a	-0.16060415
247	0x3c5cac0c	0.013468754
248	0xbf1284d1	-0.5723391
249	0x3dc4fdc3	0.09618714
250	0xbf0a8be6	-0.5411972
251	0xbe9ed176	-0.3101918
252	0xbc02d844	-0.007986132
253	0xbfe64cf6	-1.7992237
254	0x3f77baa7	0.96769184
255	0xbf078517	-0.52937454

network.0.bias f4 [128]
0	0xc14da3cb	-12.8524885
1	0xc13e51f9	-11.895013
2	0xc0fb2eec	-7.849478
3	0xc13dffe1	-11.87497
4	0xc1530e81	-13.191041
5	0xc1128078	-9.156364
6	0xc1305db1	-11.022874
7	0xc13c5b72	-11.7723255
8	0xc12e31da	-10.887171
9	0xc13d67ab	-11.83781
10	0xc13276f9	-11.154046
11	0xc0e00310	-7.000374
12	0xc116c135	-9.42217
13	0xc1801a9b	-16.01299
14	0xc10ee07c	-8.929806
15	0xc1389625	-11.536656
16	0xc167cdb1	-14.487718
17	0xc1442bf6	-12.260733
18	0xc0c43136	-6.131007
19	0xc12473d4	-10.278278
20	0xc1208512	-10.032488
21	0xc105fd2d	-8.3743105
22	0xc0fb4090	-7.851631
23	0xc156163c	-13.380428
24	0xc0df3b6c	-6.9760036
25	0xc11cfa0c	-9.811047
26	0xc0e3b91d	-7.116347
27	0xc1359fb7	-11.351493
28	0xc0ee3695	-7.444163
29	0xc1037abe	-8.217466
30	0xc13a765b	-11.653895
31	0xc1306a05	-11.025884
32	0xc0d59afc	-6.675169
33	0xc11ac635	-9.67339
34	0xc15b1d20	-13.694611
35	0xc0d9b6c0	-6.8035583
36	0xc130d6dd	-11.052457
37	0xc16be43d	-14.743222
38	0xc149d161	-12.613618
39	0xc10c846e	-8.782331
40	0xc1305add	-11.022183
41	0xc0f6c871	-7.711968
42	0xc11d483e	-9.830137
43	0xc0a120df	-5.0352626
44	0xc180762f	-16.057707
45	0xc162c3ca	-14.1728
46	0xc14635e5	-12.388158
47	0xc137803b	-11.468806
48	0xc188bbe6	-17.091747
49	0xc14615cc	-12.3803215
50	0xc181a8e6	-16.20747
51	0xc122e700	-10.1813965
52	0xc0c07dc9	-6.0153546
53	0xc1250f3f	-10.316222
54	0xc107377e	-8.451048
55	0xc16b111f	-14.69168
56	0xc130810d	-11.031507
57	0xc134ec2d	-11.30766
58	0xc1409e5c	-12.038662
59	0xc10e5ece	-8.898146
60	0xc1333949	-11.201486
61	0xc10d17b9	-8.818292
62	0xc0f3a036	-7.613307
63	0xc1297a48	-10.592354
64	0xc1194470	-9.579208
65	0xc12ff57a	-10.997431
66	0xc0e355a4	-7.104204
67	0xc10d6905	-8.83814
68	0xc117c094	-9.484516
69	0xc13172bf	-11.090514
70	0xc13acd89	-11.6751795
71	0xc1117b76	-9.092642
72	0xc10e1084	-8.879032
73	0xc126506f	-10.394637
74	0xc1552eb0	-13.323898
75	0xc13a1d89	-11.632211
76	0xc0dedf8a	-6.9647875
77	0xc0b50060	-5.656296
78	0xc13fde50	-11.9917755
79	0xc12099c2	-10.037539
80	0xc14b0fc1	-12.691346
81	0xc13b853f	-11.720031
82	0xc0f8bf77	-7.773372
83	0xc08049da	-4.009015
84	0xc116fd68	-9.436867
85	0xc145806e	-12.343855
86	0xc136df01	-11.429444
87	0xc12656d7	-10.396201
88	0xc1203447	-10.012763
89	0xc0a014e7	-5.0025516
90	0xc15cc337	-13.79766
91	0xc15d515c	-13.832363
92	0xc11405cb	-9.251414
93	0xc10745e4	-8.454563
94	0xc055ad3a	-3.338698
95	0xc114729c	-9.277981
96	0xc107652f	-8.462203
97	0xc15845b3	-13.517016
98	0xc12f1351	-10.942216
99	0xc0a15217	-5.0412707
100	0xc123b873	-10.232532
101	0xc0f3f6cf	-7.623878
102	0xc121cdb6	-10.112722
103	0xc0fdfb6f	-7.9369426
104	0xc137ce86	-11.487921
105	0xc11736b9	-9.45086
106	0xc113d41e	-9.239286
107	0xc1129eed	-9.1638
108	0xc112a4a7	-9.165198
109	0xc14e7e6f	-12.905868
110	0xc1039621	-8.224153
111	0xc0af3089	-5.4746747
112	0xc15ac381	-13.67273
113	0xc1591aa1	-13.569001
114	0xc1130205	-9.187993
115	0xc126ec00	-10.432617
116	0xc14258be	-12.146666
117	0xc0e1879b	-7.0478034
118	0xc128651c	-10.524685
119	0xc147f950	-12.498367
120	0xc108cdcd	-8.550244
121	0xc13f395a	-11.951502
122	0xc0fe92e3	-7.9554305
123	0xc1267cee	-10.4055
124	0xc1329cd7	-11.163291
125	0xc1111bf0	-9.069321
126	0xc10f6115	-8.961202
127	0xc126fea7	-10.437171

network.3.weight f4 [64, 128]
0	0xbd790ed3	-0.060805153
1	0xbd83e2ed	-0.06439767
2	0xbdaea056	-0.085266754
3	0xbf1914b6	-0.5979723
4	0xbd761a04	-0.060083404
5	0x3de584b3	0.11206951
6	0xbe7c6a6c	-0.24649972
7	0xbe2a137f	-0.16609
8	0xbea2d0e7	-0.31800005
9	0x3e1645f6	0.14675125
10	0xbe09da45	-0.1346217
11	0xbe8a3035	-0.26989904
12	0xbe6612e3	-0.22468142
13	0xbeb2e0a0	-0.34937
14	0xbe66ca7b	-0.22538178
15	0xbf237367	-0.63847965
16	0xbd9807f6	-0.074233934
17	0xbe9cb8be	-0.30609697
18	0xbe6446bb	-0.22292607
19	0xbe3bfe38	-0.18358696
20	0xbf0325dd	-0.5122965
21	0xbf13653e	-0.5757636
22	0xbf76e90c	-0.9644935
23	0xbeab90bf	-0.3350887
24	0xbd2c0527	-0.0419971
25	0xbd8170f3	-0.063203715
26	0x3cca04b9	0.024660455
27	0xbf138096	-0.5761808
28	0xbf98ff9e	-1.1953008
29	0xbf29df27	-0.6635613
30	0x3d58f381	0.0529666
31	0xbee8d45b	-0.45474514
32	0x3b241bdb	0.0025041017
33	0xbed247b2	-0.41070324
34	0xbe248a4f	-0.16068386
35	0xbf21a037	-0.63135093
36	0xbefc4104	-0.49268353
37	0xbe987236	-0.29774636
38	0xbe7ca054	-0.24670535
39	0xbf0de7c5	-0.5543178
40	0xbec8d1d1	-0.39222577
41	0xbeb46740	-0.35235023
42	0xbdec3c3b	-0.115349256
43	0xbf5e2532	-0.86775506
44	0xbf3983d8	-0.724668
45	0xbf4b70e9	-0.7946916
46	0xbeb732e0	-0.35781002
47	0x3e21b2f7	0.15790926
48	0xbeccbf49	-0.3998969
49	0xbea179ef	-0.3153834
50	0xbed45962	-0.41474444
51	0xbf1b2b16	-0.6061262
52	0xbe3d15e8	-0.18465388
53	0x3dccb909	0.0999623
54	0xbf2bdd4f	-0.67134565
55	0xbaec8724	-0.0018045646
56	0xbeacb427	-0.33731195
57	0xbebfe890	-0.3748212
58	0xbe58d442	-0.2117472
59	0xbecd52f1	-0.40102342
60	0xbe02ba0d	-0.12766285
61	0xbe3f30f8	-0.18671024
62	0xbef8b14c	-0.48572767
63	0xbe17db6e	-0.148298
64	0xbd67a37b	-0.05655239
65	0xbe43c411	-0.19117762
66	0xbdcd3b81	-0.10021115
67	0xbd620dfb	-0.055189114
68	0xbeb85580	-0.3600273
69	0xbdf0b58c	-0.11753377
70	0x3e56e042	0.20983985
71	0xbf12dc86	-0.5736774
72	0xbf6da426	-0.92828596
73	0xbe53ef22	-0.2069669
74	0xbebff448	-0.3749106
75	0xbe4b51a9	-0.1985537
76	0xbe8691a5	-0.26282993
77	0xbedd4a72	-0.4322086
78	0xbe553e4a	-0.20824543
79	0xbf4f2d29	-0.80928284
80	0xbedebe52	-0.43504578
81	0xbe383000	-0.1798706
82	0xbec95e71	-0.39329866
83	0xbf086985	-0.5328601
84	0xbebac360	-0.36477184
85	0xbe675653	-0.22591524
86	0xbe979b5e	-0.29610723
87	0xbedfb9e2	-0.43696505
88	0xbf1127ce	-0.5670136
89	0xbc5deac6	-0.013544744
90	0xbf12e9ce	-0.5738801
91	0xbe4eb8c1	-0.20187666
92	0xbebbedd0	-0.36704874
93	0xbeafdb2f	-0.3434691
94	0xbf01eeed	-0.50755197
95	0xbe880a35	-0.26570287
96	0xbead030f	-0.33791396
97	0xbe5962a7	-0.21229039
98	0xbf0edc4d	-0.558049
99	0xbe8d6d1d	-0.2762231
100	0xbe92fc8e	-0.2870831
101	0xbe941ff6	-0.28930634
102	0xbe20abaf	-0.15690492
103	0x3e8a5e4d	0.2702507
104	0xbd6235d3	-0.055227112
105	0xbd601483	-0.05470706
106	0xbf014565	-0.5049651
107	0xbe141ff6	-0.14465317
108	0xbf81737d	-1.0113369
109	0xbd28c441	-0.041202787
110	0xbf104926	-0.56361616
111	0xbed5849a	-0.4170273
112	0xbd805bff	-0.06267547
113	0xbcb2e618	-0.021838233
114	0x3c8afc59	0.016966032
115	0xbdec139b	-0.11527177
116	0xbe9b52ee	-0.30336708
117	0xbe1cc08e	-0.15307829
118	0x3e0949bc	0.13407034
119	0xbf29e567	-0.66365665
120	0xbdc19641	-0.09452487
121	0xbe45dcc9	-0.19322504
122	0xbea40197	-0.32032463
123	0xbed9ce42	-0.42540175
124	0xbe2303af	-0.15919374
125	0xbc1f6f46	-0.0097311195
126	0xbdf78164	-0.12085226
127	0xbe9ea8d6	-0.30988187
128	0xbda54507	-0.080698065
129	0xbef2e5b4	-0.47440875
130	0xbea54e67	-0.3228638
131	0xbe99940e	-0.2999577
132	0xbead7777	-0.33880207
133	0xbdd8d82a	-0.10588105
134	0xbeb47488	-0.35245156
135	0xbdcbb991	-0.09947503
136	0xbe9cb026	-0.3060314
137	0xbef8ad64	-0.48569787
138	0xbe559f2a	-0.20861498
139	0xbe53d302	-0.20685962
140	0xbef34a7c	-0.47517765
141	0xbe9ac8a6	-0.30231208
142	0xbf76e204	-0.9643862
143	0xbf9d4c66	-1.228894
144	0xbdb8b65f	-0.090191595
145	0xbe8ea8bd	-0.27863112
146	0xbf19012e	-0.59767425
147	0xb639b4c6	-2.7672372e-06
148	0xbcd8616a	-0.026413638
149	0xbed753e2	-0.42056185
150	0xbedc496a	-0.4302476
151	0xbeca8c01	-0.3955994
152	0xbe93bfde	-0.2885732
153	0xbe8478ed	-0.2587351
154	0xbd70f72b	-0.058829468
155	0x3cee817b	0.029114475
156	0xbd14428f	-0.036196288
157	0xbf3ad3c8	-0.729794
158	0xbea5e9df	-0.32404992
159	0xbf92ab4e	-1.1458528
160	0xbf8b345d	-1.0875355
161	0xbe874235	-0.264177
162	0xbdb5bd70	-0.08874023
163	0xbf018255	-0.50589496
164	0xbe297677	-0.16549097
165	0xbe9bcd96	-0.30430287
166	0xbef66374	-0.48122752
167	0xbf40f619	-0.75375515
168	0xbe847b45	-0.25875297
169	0xbfc10a69	-1.5081302
170	0xbd12b706	-0.035819076
171	0xbed4e08a	-0.4157756
172	0xbc91d476	-0.017801505
173	0xbf371530	-0.71516705
174	0xbfbe1560	-1.4850273
175	0xbeaab9e7	-0.33344957
176	0xbf32f8d8	-0.69910955
177	0xbd234d1f	-0.03986847
178	0xbf6fab23	-0.9362051
179	0xbd498d51	-0.049207035
180	0xbee78d03	-0.4522477
181	0xbe70563c	-0.23470396
182	0xbff0e9e4	-1.8821378
183	0x3c5ed3fa	0.013600344
184	0xbf2ad927	-0.667376
185	0xbe0e16a5	-0.13875826
186	0xbec5eba1	-0.38656333
187	0xbf77e62c	-0.9683559
188	0xbe9a5cd6	-0.30148953
189	0xbe1d87c6	-0.15383825
190	0xbe3f2607	-0.1866685
191	0xbf15eb56	-0.5856222
192	0xbf1f42be	-0.62211215
193	0xbf23a30f	-0.6392068
194	0xbe13bd00	-0.14427567
195	0xbdf36e6c	-0.11886296
196	0xbebfb118	-0.374398
197	0xbe45d689	-0.1932012
198	0x3cd39de2	0.02583212
199	0xbebf5290	-0.37367678
200	0xbdf256bc	-0.118329495
201	0xbedc1062	-0.4298125
202	0xbed6064a	-0.41801673
203	0xbe1216dd	-0.14266534
204	0xbdcad0c1	-0.09903098
205	0xbea0e647	-0.31425688
206	0xbee7cabb	-0.4527186
207	0xbef43b1c	-0.47701347
208	0x3cc16f30	0.023612589
209	0xbddf1442	-0.10892536
210	0xbeedbfbb	-0.4643534
211	0xbf119466	-0.56867063
212	0xbf343ab8	-0.704021
213	0xbf8d31bd	-1.1030804
214	0xbf2aa01f	-0.66650575
215	0xbf35cdd8	-0.7101722
216	0xbe86defd	-0.26342002
217	0xbe5226e2	-0.20522645
218	0xbe76b70c	-0.24093264
219	0xbf0aa17d	-0.5415266
220	0xbf13dfe6	-0.57763517
221	0xbea764c7	-0.32694075
222	0xbf6ec4ab	-0.9326884
223	0xbf0868bd	-0.5328482
224	0xbec7d4b1	-0.39029458
225	0xbee4853b	-0.44632897
226	0xbf1a80c6	-0.6035274
227	0xbf0f7bad	-0.5604809
228	0xbf59426a	-0.84866965
229	0xbd4ab861	-0.049492244
230	0xbf1714fe	-0.59016407
231	0xbdc87eb5	-0.097897924
232	0x3cba7ee8	0.022765592
233	0xbe01b06d	-0.12664957
234	0xbf1be11e	-0.60890377
235	0xbeecd623	-0.46257123
236	0xbdf1d1ec	-0.118076175
237	0xbd1efe45	-0.03881671
238	0xbeb7c8e0	-0.35895443
239	0xbdeffdf3	-0.11718359
240	0xbf61dfe3	-0.8823225
241	0xbde3aff3	-0.11117544
242	0xbedffb82	-0.43746573
243	0xbee1df1b	-0.44115528
244	0xbeb7ddf8	-0.35911536
245	0xbe9aabbe	-0.30209154
246	0xbe1f68ff	-0.15567397
247	0xbe763b9b	-0.24046175
248	0xbea573e7	-0.3231499
249	0xbe192776	-0.1495646
250	0xbe92e2c6	-0.2868864
251	0xbf87335d	-1.056255
252	0xbf317a08	-0.6932683
253	0x3c985da4	0.018599339
254	0xbf628e1b	-0.88498086
255	0xbfab1617	-1.3366116

network.3.bias f4 [64]
0	0xc032d9cc	-2.7945433
1	0xc01a2f9d	-2.409156
2	0xc00ccaaa	-2.1998696
3	0xc0574870	-3.3637962
4	0xc0102e32	-2.2528195
5	0xc0251f7a	-2.5800462
6	0xc01e9ef9	-2.478453
7	0xc051c463	-3.2776115
8	0xbfc9665a	-1.573436
9	0xc00d2998	-2.2056637
10	0xc01b5f6e	-2.4276996
11	0xbff0ae84	-1.8803258
12	0xc03d0b36	-2.9538093
13	0xc04ef9cc	-3.2339964
14	0xc00c5552	-2.1927075
15	0xc0169ed8	-2.353445
16	0xc0104fd0	-2.2548714
17	0xc0690695	-3.6410267
18	0xbfb5b1b8	-1.419486
19	0xc014eaac	-2.3268232
20	0xc020baf8	-2.5114117
21	0xc039590e	-2.8960605
22	0xc002860a	-2.039431
23	0xc01ba85c	-2.4321508
24	0xc00b2870	-2.174343
25	0xbfc83b78	-1.5643148
26	0xc02286b6	-2.539472
27	0xc05a49d6	-3.4107566
28	0xc03adc06	-2.9196792
29	0xbff6b95c	-1.9275317
30	0xc03dbd7e	-2.9646907
31	0xc034ccd9	-2.825003
32	0xbf93dfcf	-1.1552676
33	0xc035cebb	-2.8407428
34	0xc06b9c4e	-3.681415
35	0xc00e5718	-2.2240658
36	0xc0256543	-2.5843055
37	0xc0186f16	-2.3817801
38	0x3f1c1da9	0.6098276
39	0xbfdb4186	-1.7129371
40	0xc01f8df7	-2.4930398
41	0xc05765b2	-3.365582
42	0xc003c37d	-2.0588067
43	0xc049c49c	-3.152625
44	0xc031d07e	-2.7783504
45	0xc05b81c5	-3.4297955
46	0xc073e4e9	-3.8108466
47	0xc01e62af	-2.4747732
48	0xbfab7bdc	-1.3397174
49	0xc000bd75	-2.0115635
50	0xbfe93940	-1.8220596
51	0xc02e4b4d	-2.723346
52	0xc07adee2	-3.9198537
53	0x3f9ebe70	1.2401867
54	0xc08f9e32	-4.488061
55	0xc06ea0c8	-3.7285633
56	0xc08c5a1d	-4.386
57	0xbfa4fc2a	-1.2889454
58	0xc060969e	-3.509193
59	0xc00d0f48	-2.2040577
60	0xc016059a	-2.344092
61	0xc0286a90	-2.631504
62	0x3f38453c	0.71980643
63	0xc0079c7d	-2.1189263

network.6.weight f4 [5, 64]
0	0xbe8e8c9a	-0.27841645
1	0x3dbb06e9	0.091321774
2	0x3e471ca3	0.19444518
3	0xbe3cd73a	-0.18441477
4	0xbe189fab	-0.14904658
5	0xbe72fc2f	-0.23729013
6	0x3e3f9975	0.18710883
7	0x3db56d81	0.08858777
8	0xbe19c73e	-0.15017411
9	0xbdb1988f	-0.08671676
10	0xbd974be2	-0.073875204
11	0xbe3adcb4	-0.18248254
12	0xbdb54386	-0.0885077
13	0x3d6d157f	0.05788183
14	0x3d6e9372	0.058246084
15	0xbe5e2e4a	-0.21697345
16	0x3caa4da6	0.020788979
17	0x3d9742f1	0.07385815
18	0x3df231fa	0.118259385
19	0xbdca2a9d	-0.09871409
20	0x3d81334a	0.06308611
21	0x3d7194b4	0.058979705
22	0xbc513be2	-0.012770625
23	0x3df195d5	0.11796156
24	0x3e05f599	0.1308197
25	0x3cd6bbc7	0.026212586
26	0xbd7828a3	-0.06058563
27	0xbe827611	-0.25480703
28	0xbdbff35a	-0.093725875
29	0xbdcc6837	-0.09980815
30	0x3d81deb3	0.06341305
31	0x3e5cd1f3	0.21564464
32	0x3c0898ef	0.008337243
33	0x3cb20f5d	0.021735841
34	0x3e795c9b	0.24351732
35	0xbe9688bd	-0.29401198
36	0x3d437382	0.04771758
37	0xbe55098b	-0.20804422
38	0xbe21876a	-0.15774313
39	0xbe30b65c	-0.17257065
40	0xbe93c659	-0.28862265
41	0xbe202fd4	-0.15643245
42	0xbb44431a	-0.0029947222
43	0x3ddcd364	0.10782507
44	0xbd9a0676	-0.075207636
45	0xbe05baf6	-0.13059601
46	0x3c033344	0.008007828
47	0x3e044117	0.12915455
48	0x3d22df21	0.039763574
49	0x3d8a759d	0.06760714
50	0xbe8b4cc2	-0.27207
51	0x3dde3485	0.10849861
52	0xbe1a07c9	-0.15042032
53	0xbdcf24b9	-0.10114426
54	0x3e85e2f6	0.2614972
55	0x3e19a20e	0.15003225
56	0xbe95a006	-0.2922365
57	0xbe608f5c	-0.21929687
58	0x3c8d67b8	0.017261371
59	0xbe03df82	-0.1287823
60	0xbe91108b	-0.28332934
61	0x3dec2e85	0.115323104
62	0xbe0d4d75	-0.13799079
63	0x3cc376e0	0.023860395
64	0xbd42c472	-0.047550626
65	0x3e6dc14b	0.23218267
66	0x3e533081	0.20623972
67	0x3d807ba2	0.06273581
68	0xbee69df3	-0.4504238
69	0x3e1577b6	0.14596447
70	0xbe05b555	-0.13057454
71	0x3dbdb47f	0.092629425
72	0x3d34f4a8	0.044178635
73	0x3d810c5d	0.06301186
74	0xbe846885	-0.25860992
75	0xbe6114c3	-0.21980576
76	0x3e4cebd1	0.20011832
77	0x3e1476ae	0.14498398
78	0xbe053854	-0.13009769
79	0xbdf25f53	-0.11834588
80	0xbd862cdc	-0.06551525
81	0x3ef7327c	0.48280704
82	0xbec1e6b9	-0.3787134
83	0x3bdbdd6f	0.0067097466
84	0x3e594972	0.21219423
85	0xbdef96d2	-0.116986886
86	0xbe9f8c2e	-0.31161636
87	0x3e560d52	0.20903519
88	0xbde18ea2	-0.11013533
89	0xbe97c1a6	-0.2963993
90	0xbf1483f6	-0.58013856
91	0xbdda5631	-0.10660971
92	0xbe3113af	-0.17292665
93	0x3e0884dd	0.13331933
94	0xbe4b6e91	-0.19866396
95	0xbd77b9a3	-0.06047977
96	0xbeec297b	-0.46125397
97	0x3ebd88c0	0.37018394
98	0x3bc09572	0.0058771903
99	0x3e2be777	0.16787516
100	0xbe34e057	-0.17663704
101	0x3e6da463	0.2320724
102	0x3d7965fc	0.060888276
103	0xbe11b46e	-0.14228985
104	0xbdd157da	-0.102218345
105	0xbe7eafac	-0.24871701
106	0x3e277467	0.16352998
107	0xbe9e92f6	-0.30971497
108	0xbd12b63d	-0.035818327
109	0x3d1b0183	0.03784324
110	0x3ea637ff	0.32464597
111	0x3cb6c362	0.022309963
112	0x3c35e49c	0.011101868
113	0xbe5c60da	-0.21521321
114	0xbe8102fd	-0.25197592
115	0x3dcdd29d	0.10049937
116	0x3ed4f02a	0.4158948
117	0xbe759f5c	-0.23986572
118	0xbe92a82e	-0.28643936
119	0xbeee9693	-0.46599254
120	0xbf47c8f9	-0.78041035
121	0x3e559692	0.2085822
122	0x3e32f4f0	0.17476249
123	0xbd860504	-0.065439254
124	0x3e76d00c	0.24102801
125	0xbe024d75	-0.1272486
126	0xbe27fd1f	-0.16405152
127	0xbec5d751	-0.38640836
128	0x3d87d5dd	0.06632588
129	0xbe151ea5	-0.14562471
130	0xbea94d0f	-0.33066604
131	0xbc2f71ac	-0.010708254
132	0x3c941696	0.018077176
133	0xbe41a389	-0.1891004
134	0x3e7bd2dc	0.24592155
135	0x3e5a3ada	0.21311513
136	0x3e014c6c	0.12626809
137	0xbf14db76	-0.5814737
138	0xbe4b9e39	-0.19884576
139	0x3eae13b7	0.33999416
140	0xbdb05510	-0.086099744
141	0x3e1efa16	0.15525088
142	0xbe627903	-0.22116475
143	0xbe63d703	-0.22249989
144	0xbc1fb300	-0.009747267
145	0xbe12daf6	-0.1434134
146	0xbd1d99bd	-0.038476694
147	0x3ed6b54a	0.41935188
148	0x3e1483f6	0.14503464
149	0xbdd8d36c	-0.105872005
150	0x3d9b61c6	0.07587008
151	0xbd2d5066	-0.042313002
152	0x3e5b4ea2	0.21416715
153	0xbe66c503	-0.22536092
154	0x3e16f42e	0.14741585
155	0x3d9eecce	0.07760011
156	0x3cb5f4e7	0.022211505
157	0xbe4d3f68	-0.20043719
158	0x3e7f93cc	0.24958724
159	0xbd898e7d	-0.067166306
160	0x3dc40cb8	0.095727384
161	0xbc8fa514	-0.01753477
162	0xbc5b3d38	-0.013381295
163	0x3da82366	0.08209877
164	0xbe8602ad	-0.26173916
165	0xbe08d0a5	-0.13360842
166	0x3e59a412	0.21253994
167	0xbe25b64e	-0.16182825
168	0xbe52f391	-0.20600726
169	0x3e454920	0.19266176
170	0x3e6fbc53	0.23411684
171	0xbebd8280	-0.37013626
172	0x3e86ab79	0.26302698
173	0xbea54c0f	-0.3228459
174	0xbd7f65b4	-0.06235285
175	0xbe9bb626	-0.30412406
176	0xbd020fc4	-0.031753317
177	0xbc8553ac	-0.01627525
178	0xbe4ea470	-0.20179915
179	0x3e9d0ac6	0.30672282
180	0xbe84103d	-0.2579364
181	0x3e331368	0.17487872
182	0xbe0cfe2d	-0.13768835
183	0xbe8d7cbd	-0.2763423
184	0x3e867afd	0.26265708
185	0xbe7b3cdc	-0.24534935
186	0xbeaf998f	-0.34296843
187	0x3ea0af97	0.31383964
188	0xbda5fe2e	-0.081051216
189	0x3ef0eb74	0.47054636
190	0xbf0942b5	-0.5361741
191	0x3dfef2db	0.12448665
192	0xbe6c7748	-0.23092377
193	0x3e172ec6	0.14763936
194	0xbd53779a	-0.051627733
195	0xbddef9b1	-0.108874686
196	0x3c91a1ae	0.01777729
197	0x3d534662	0.051580794
198	0x3e64853b	0.22316448
199	0xbec8aac1	-0.39192775
200	0xbe3c887f	-0.18411444
201	0xbeed70d3	-0.4637514
202	0x3dbffb50	0.09374106
203	0xbde243e3	-0.110481046
204	0x3db3ca38	0.087788045
205	0x3d155c5d	0.036465038
206	0x3dbe3888	0.09288126
207	0x3e04856d	0.12941523
208	0xbe35d738	-0.1775788
209	0x3debd453	0.11515107
210	0x3e02fa1d	0.12790723
211	0x3ee0cdab	0.43906912
212	0x3dcc2f89	0.09970004
213	0x3df0d1ac	0.11758742
214	0xbd37f950	-0.044915497
215	0x3d78d6cc	0.06075172
216	0xbd694b2a	-0.056956448
217	0x3d1df525	0.038563866
218	0xbe2aaef7	-0.16668306
219	0xbccc678c	-0.024951719
220	0xbddb140a	-0.106971815
221	0xbd326147	-0.043549802
222	0x3d5dd4b9	0.054157946
223	0xbd02f078	-0.03196761
224	0x3cdd84d0	0.027040869
225	0x3e639c6b	0.22227637
226	0x3df993db	0.12186404
227	0xbe22e3a7	-0.15907155
228	0xbea9b8df	-0.33148858
229	0xbe2c86d6	-0.16848311
230	0x3eb69c18	0.35665965
231	0xbde6ecda	-0.112756446
232	0x3db5f4e8	0.08884603
233	0x3ddacdb9	0.1068377
234	0xbdf8fea3	-0.12157943
235	0x3eaa44b7	0.3325555
236	0xbd0cf33c	-0.034411654
237	0x3df9aa84	0.121907264
238	0xbd960e7d	-0.07326982
239	0x3d99e165	0.07513694
240	0x3deccfe2	0.11563088
241	0x3d00f4ed	0.03148358
242	0x3d254a7e	0.040354244
243	0xbe4101d0	-0.18848348
244	0x3e1d487d	0.15359683
245	0x3e4b2908	0.19839871
246	0x3ddd90c2	0.10818626
247	0x3eb74be0	0.35800076
248	0x3e782704	0.24233633
249	0x3cd061c2	0.02543724
250	0x3d9f5bbd	0.077811696
251	0x3d6207bb	0.055183154
252	0xbdcd61c9	-0.10028417
253	0xbe4d1d09	-0.20030607
254	0xba31e021	-0.0006785412
255	0x3e0e3cec	0.13890427

network.6.bias f4 [5]
0	0x3e52822d	0.2055747
1	0xbe16407e	-0.1467304
2	0x3c9f86b5	0.019473413
3	0x3e90854e	0.28226703
4	0x3d03da54	0.032190636
