experiments/checkpoints/20251210_110803/checkpoint_ep79.pt (torch, 246569 bytes, 24 tensors)

network.0.weight f4 [128, 43]
0	0xbba516b0	-0.005038105
1	0xbf575540	-0.84114456
2	0x3f251028	0.6447778
3	0xbf4cd174	-0.800071
4	0x3ec7e386	0.39040774
5	0xbe23f0cc	-0.16009825
6	0xbf71e367	-0.94487613
7	0x3e0cba4a	0.13742939
8	0x3e281da5	0.16417558
9	0xbe260874	-0.16214162
10	0xbc90cf01	-0.017676832
11	0xbdecae38	-0.11556667
12	0x3eb5053b	0.35355553
13	0x3f9feaff	1.249359
14	0xbf7fcb59	-0.9991966
15	0xbf855394	-1.0416131
16	0xbfc948d2	-1.5725348
17	0x3ff10770	1.8830395
18	0x3fb219af	1.3914088
19	0xbda3ad03	-0.07991984
20	0xbe0c73f5	-0.13716109
21	0xbdb3bed6	-0.087766334
22	0x3e04f83c	0.12985319
23	0xbaa768ab	-0.0012772282
24	0xbdbb1633	-0.091350935
25	0x3e2b9e1f	0.16759537
26	0xbd3c7f56	-0.046019875
27	0xbebd3c58	-0.369601
28	0x3ed9f1f1	0.425674
29	0xbee15354	-0.44008887
30	0x3d8bc032	0.06823768
31	0x3f16dae8	0.58927774
32	0xbe3ac577	-0.1823939
33	0xbdf92505	-0.12165264
34	0x3e23ad9c	0.15984195
35	0x3de83331	0.11337889
36	0xbe9f02b0	-0.31056738
37	0x3e2bb0cf	0.16766666
38	0xbfbaa36d	-1.4581124
39	0xc0042da1	-2.065285
40	0x3ffff43c	1.999641
41	0xc004b820	-2.073738
42	0x3d1a9b04	0.03774549
43	0xbe2927d1	-0.16519095
44	0x3f8d1394	1.10216
45	0xbf744480	-0.9541702
46	0xbe863e5b	-0.26219448
47	0xbd84c2af	-0.064824454
48	0xbe3d0570	-0.18459105
49	0xc06ab94e	-3.66756
50	0x3da94854	0.082657486
51	0x3dbbbb85	0.09166626
52	0xbd1bbe7b	-0.038023453
53	0x3d2c077c	0.041999325
54	0x3d34abc5	0.044109125
55	0x3e41915c	0.18903106
56	0xbed2b50d	-0.41153756
57	0x3ff3393f	1.9001845
58	0x3f82ac57	1.0208844
59	0xbfd98860	-1.6994743
60	0x3f201fa8	0.62548304
61	0xbf1282d5	-0.57230884
62	0xbe3e60d6	-0.18591627
63	0x3d7b8b31	0.06141204
64	0x3da80e0f	0.082058065
65	0xbda6aadc	-0.081380576
66	0x3dedc522	0.11609866
67	0xbd3ed13a	-0.046586253
68	0xbdc55758	-0.096358
69	0x3dc6877a	0.09693809
70	0x3e74963e	0.23885438
71	0xbfbb2802	-1.4621584
72	0x3fed720a	1.8550427
73	0x3e2097d8	0.15682924
74	0xbfdac4f7	-1.7091359
75	0xbd893b11	-0.06700719
76	0x3e5e797a	0.21726027
77	0xbdfc5650	-0.1232115
78	0xbf469fc9	-0.7758756
79	0x3ffab9ba	1.9587929
80	0xc00979d7	-2.1480615
81	0x3f10de45	0.56589156
82	0x3e9ae742	0.3025456
83	0x402811ca	2.6260858
84	0xbe5eee21	-0.21770526
85	0x3dc63fb6	0.09680121
86	0x3da9e739	0.08296055
87	0xbf0321dc	-0.5122354
88	0x3f12dc3f	0.5736732
89	0x3fd596a4	1.6686597
90	0xbf82949b	-1.0201601
91	0xbda57b22	-0.08080126
92	0x3fa45027	1.283696
93	0x3d31cc3f	0.043407675
94	0x3d26b0ad	0.040695835
95	0xbdbfcfa9	-0.0936578
96	0xbd09e661	-0.033666972
97	0xbb9b7777	-0.004744466
98	0xc03b411f	-2.9258497
99	0xbf5be020	-0.8588886
100	0xbfd28d20	-1.6449318
101	0x3f352d42	0.7077218
102	0xbfc2b3f1	-1.5211164
103	0x401837e4	2.3784113
104	0xbd7acb62	-0.061229117
105	0x3d1c576d	0.038169313
106	0xbe3c52b5	-0.18390925
107	0x3e23852d	0.15968771
108	0x3dc7dab6	0.09758513
109	0xbe33d824	-0.1756292
110	0x3d757e98	0.059935182
111	0xbe19b20a	-0.15009323
112	0x3c885dd5	0.016646305
113	0xbf1e42e7	-0.61820835
114	0xbec1bf47	-0.37841246
115	0xbf71eb5d	-0.9449976
116	0xbe2ade46	-0.16686353
117	0x3d14f898	0.03636989
118	0x3e0d0a16	0.13773379
119	0xbf26445f	-0.64948076
120	0xbdcaf9f5	-0.09910957
121	0xbf408d6c	-0.7521579
122	0x3f3d7d25	0.7401908
123	0xbf825bdc	-1.0184283
124	0xbe3a23c2	-0.18177703
125	0xbfb50408	-1.4141855
126	0x3f10bfdc	0.56542754
127	0x3f306cb8	0.6891589
128	0xbd14a007	-0.036285426
129	0x3c378205	0.011200433
130	0x3f3e4ebe	0.743389
131	0xbf3997ac	-0.7249706
132	0x3f6fc507	0.93660015
133	0xbf8da8f2	-1.1067183
134	0xbe3a2b94	-0.18180686
135	0xc01d5020	-2.4580154
136	0xbe37f633	-0.17965011
137	0xbcdcd212	-0.026955638
138	0x3d6fac1c	0.058513746
139	0xbe097709	-0.13424315
140	0x3c4c31f2	0.01246308
141	0x3f809a23	1.0047039
142	0xc003e589	-2.0608847
143	0xbe4e6845	-0.20156963
144	0xbf61d9e2	-0.8822309
145	0xbf62cb74	-0.88591695
146	0x3f8820e9	1.0635043
147	0xc01c73ce	-2.4445682
148	0x3db4f41f	0.08835625
149	0xbd91e78f	-0.071242444
150	0x3e3c1c45	0.18370159
151	0xbc92a2d4	-0.017899908
152	0xbca005f0	-0.019534081
153	0xbdf6b375	-0.120459475
154	0x3daf927f	0.08572864
155	0xbe3f2a96	-0.18668589
156	0xbf2e1850	-0.6800585
157	0x3ea422b8	0.32057738
158	0x3f793ad3	0.97355384
159	0xbdd318d0	-0.10307467
160	0xbfe35846	-1.7761314
161	0x3dabc7bf	0.08387708
162	0xbf1bde12	-0.6088573
163	0xbd0210a8	-0.031754166
164	0xbf031982	-0.51210797
165	0x3fb807f6	1.437743
166	0xbf32446e	-0.69635665
167	0xbf2cc510	-0.67488194
168	0x3fcb3808	1.5876474
169	0x3ec95317	0.39321205
170	0xbf35db14	-0.7103741
171	0x3d1c057a	0.03809116
172	0xbe153f34	-0.14574891
173	0x3ee45708	0.4459765
174	0xbee718f4	-0.45136225
175	0xbe9fa751	-0.3118234
176	0xbf8f74ad	-1.1207482
177	0x3e095f1e	0.1341519
178	0x3f401846	0.7503704
179	0xbdb287ae	-0.08717285
180	0xbd3c083a	-0.045906283
181	0x3e0ff048	0.14056504
182	0xbdd4df66	-0.10394172
183	0xbe2f40ab	-0.17114513
184	0x3e06551d	0.13118406
185	0xbfb1087f	-1.3830718
186	0x3ee09d1b	0.43869862
187	0x3ea11067	0.31457826
188	0xbec8df14	-0.39232695
189	0xbf82af73	-1.0209793
190	0xbfcdf33c	-1.6089854
191	0xbdabb1c6	-0.08383517
192	0x3e311e53	0.17296724
193	0xbe32da30	-0.17466044
194	0x3d0d1649	0.03444508
195	0x3e211557	0.15730797
196	0xbc872108	-0.016495243
197	0x3da52c43	0.08065083
198	0x3e0edda6	0.1395174
199	0xbf65fe12	-0.89840806
200	0x402ef65e	2.733787
201	0xc04db916	-3.2144217
202	0xbd251bd0	-0.040309727
203	0x3fba9587	1.4576882
204	0xbe3837bc	-0.17990011
205	0xbf9ff9c8	-1.2498102
206	0x3ddaf054	0.1069037
207	0xbf84039b	-1.03136
208	0x3f98ef35	1.1948
209	0x3f85d766	1.0456359
210	0xbfaba110	-1.3408527
211	0x3e65b054	0.22430545
212	0x3f20034e	0.6250504
213	0xbdca5edd	-0.09881375
214	0x3df00d09	0.11721236
215	0xbd01593a	-0.031579234
216	0xbed9bde3	-0.42527685
217	0x3f2393ed	0.6389759
218	0x3fc72d1f	1.5560645
219	0xbf83866f	-1.0275401
220	0x3e04a312	0.12952831
221	0xbf1458d5	-0.57948047
222	0x3cb6f0e6	0.022331666
223	0x3d14f2c0	0.036364317
224	0xbe21a78f	-0.15786575
225	0x3d4bf386	0.04979279
226	0xbd38644d	-0.04501753
227	0xbf10a4ee	-0.5650166
228	0xbf618925	-0.8809989
229	0x400d6a15	2.2095997
230	0x3faa7837	1.3317937
231	0x3e6890e2	0.22711518
232	0xbfb73339	-1.4312507
233	0xbfbe0f08	-1.4848337
234	0x3d81b958	0.0633418
235	0x3da6c859	0.08143682
236	0x3df4403a	0.11926313
237	0x3dcf846c	0.10132679
238	0xbe027fa9	-0.12744011
239	0xbda34b77	-0.07973378
240	0xbe028256	-0.12745032
241	0xbdf1912e	-0.11795269
242	0xbf98be25	-1.1933028
243	0x3a669738	0.0008796337
244	0x3e739b3b	0.23789684
245	0x3e0aa927	0.13541089
246	0xbfe27325	-1.7691389
247	0x3c5cac0c	0.013468754
248	0xbf96da63	-1.1785396
249	0x3dc4fdc3	0.09618714
250	0x3eab31b3	0.33436355
251	0xbf41ad5a	-0.7565514
252	0x3f370b1f	0.71501344
253	0xbe19408b	-0.14966027
254	0x3ca641cc	0.020295046
255	0xbfc052c4	-1.5025258

network.0.bias f4 [128]
0	0xc1004304	-8.016361
1	0xc0f2b8c8	-7.5850563
2	0xc07b0ecc	-3.9227781
3	0xc0e80842	-7.251008
4	0xc0f152b8	-7.5413475
5	0xc0b51c79	-5.6597257
6	0xc0bb7edb	-5.8592353
7	0xc0cabcf8	-6.3355675
8	0xc0944b7d	-4.634215
9	0xc0b50222	-5.6565104
10	0xc0e355b5	-7.1042123
11	0xbf696ae2	-0.91178715
12	0xc0d490d8	-6.642681
13	0xc0bcf61c	-5.9050426
14	0xc0cf25cc	-6.473364
15	0xc0c530d5	-6.162211
16	0xc0bcf262	-5.9045877
17	0xc0ee6d68	-7.4508553
18	0xc025832f	-2.5861318
19	0xc0cedf63	-6.464769
20	0xc0f75386	-7.7289457
21	0xc0d54af3	-6.665399
22	0xc0976ece	-4.732276
23	0xc0d5879c	-6.672804
24	0xc098ddb1	-4.777062
25	0xc0791c79	-3.8923628
26	0xc0788690	-3.883213
27	0xc06fb549	-3.7454398
28	0xc0a12273	-5.035455
29	0xc0ba13fd	-5.81494
30	0xc0ef0189	-7.4689374
31	0xc0e2a023	-7.082048
32	0xc0680354	-3.6252031
33	0xc09f000a	-4.968755
34	0xc0cf69e3	-6.4816756
35	0xc020ea5b	-2.514304
36	0xc10305aa	-8.188883
37	0xc0d49a9b	-6.6438727
38	0xc0d474d7	-6.6392627
39	0xc09dc722	-4.930558
40	0xc0d46757	-6.6376147
41	0xc0b655ca	-5.6979723
42	0xc0dadc07	-6.839359
43	0xc0a12176	-5.0353346
44	0xc0ed087f	-7.407287
45	0xc0d80342	-6.7503977
46	0xc0a8d830	-5.27639
47	0xc0a885ba	-5.266324
48	0xc0a8a14b	-5.269689
49	0xc0c49947	-6.1437106
50	0xc0d71bf5	-6.7221627
51	0xc092edb9	-4.591519
52	0xc0bf49fc	-5.9777813
53	0xc0e335ee	-7.100333
54	0xc030f81c	-2.7651434
55	0xc0f71908	-7.7218056
56	0xc0cdaabb	-6.427091
57	0xc0e0a5aa	-7.0202227
58	0xc0d8a46b	-6.7700706
59	0xc0b4ed8c	-5.6539974
60	0xc0d65894	-6.6983128
61	0xc0c52e99	-6.161938
62	0xc0448fdc	-3.0712805
63	0xc095fda0	-4.68721
64	0xc08e1156	-4.439616
65	0xc073c6a5	-3.8089993
66	0xc0a75c4c	-5.2300167
67	0xc05afa19	-3.4215147
68	0xc0b9cf35	-5.806544
69	0xc0d2c0cc	-6.586035
70	0xc0fac12e	-7.8360815
71	0xbf5b16b4	-0.8558152
72	0xc04872e5	-3.1320126
73	0xc09bdbec	-4.870596
74	0xc0e62956	-7.192546
75	0xc0d9dd60	-6.8082733
76	0xc05f795f	-3.491783
77	0xc0b50100	-5.656372
78	0xc0eb04ed	-7.3443513
79	0xc04e3046	-3.2216964
80	0xc0e16a98	-7.044262
81	0xc0811660	-4.0339813
82	0xc0bf7668	-5.983204
83	0x3e8152a4	0.25258362
84	0xc0d235b4	-6.5690556
85	0xc0a7240c	-5.2231503
86	0xc09eab7c	-4.958433
87	0xc0a53cf6	-5.1636915
88	0xc0bfa5f4	-5.989008
89	0xc0a01569	-5.0026135
90	0xc090e841	-4.5283513
91	0xc0eb8f41	-7.361237
92	0xbfc711bc	-1.5552287
93	0xc06f1a6f	-3.7359884
94	0xc055adc0	-3.3387299
95	0xc0e58d5f	-7.173507
96	0xc0879806	-4.2373075
97	0xc0c3be50	-6.1169815
98	0xc0e43bd2	-7.1323023
99	0xc0a152b0	-5.0413437
100	0xc0ec2894	-7.3799534
101	0xc0877741	-4.2333074
102	0xc0e19dda	-7.050519
103	0xc0c327b3	-6.098596
104	0xc0f6b13e	-7.709136
105	0xc0e65c6a	-7.198781
106	0xc0706a79	-3.7564986
107	0xc02c06bd	-2.6879113
108	0xc08417f4	-4.127924
109	0xc071cb08	-3.778017
110	0xc09334ab	-4.600179
111	0xc0806e4e	-4.013465
112	0xc0deae13	-6.9587493
113	0xc0e28aec	-7.079458
114	0xc0f6e170	-7.715019
115	0xc0eb94e9	-7.3619275
116	0xc1083bf7	-8.51464
117	0xc0e187d9	-7.047833
118	0xc034e9ea	-2.826777
119	0xc08d388f	-4.413154
120	0xc0766ca5	-3.8503811
121	0xc0a564ff	-5.1685786
122	0xc05fa884	-3.4946604
123	0xc0ad483f	-5.415069
124	0xc0e4b703	-7.1473403
125	0xc0e608e0	-7.1885834
126	0xc04f3d2f	-3.2381094
127	0xc0b3b735	-5.616114

network.3.weight f4 [64, 128]
0	0xbd790fbb	-0.060806017
1	0xbd83e353	-0.06439843
2	0xbdaea042	-0.085266605
3	0xbf19155f	-0.59798235
4	0xbd761aaa	-0.060084023
5	0x3de584d9	0.11206979
6	0xbe7c6a79	-0.24649991
7	0xbe2a1397	-0.16609035
8	0xbea2d0e6	-0.31800002
9	0x3e164631	0.14675213
10	0xbe09dae9	-0.13462414
11	0xbe8a30ce	-0.2699036
12	0xbe661383	-0.2246838
13	0xbeb2e0d3	-0.34937152
14	0xbe66ca70	-0.22538161
15	0xbf2373bc	-0.6384847
16	0xbd98082e	-0.07423435
17	0xbe9cb8d0	-0.3060975
18	0xbe644764	-0.22292858
19	0xbe3bfea5	-0.18358858
20	0xbf032698	-0.51230764
21	0xbf13657b	-0.5757672
22	0xbf76e93a	-0.96449625
23	0xbeab9174	-0.3350941
24	0xbd2c05dc	-0.041997775
25	0x3e824640	0.25444221
26	0x3cca04d5	0.024660507
27	0xbf1380f3	-0.57618636
28	0xbf98ffb8	-1.1953039
29	0xbf29df23	-0.66356105
30	0x3d58f369	0.05296651
31	0xbee8d4f2	-0.45474964
32	0x3b241700	0.0025038123
33	0xbed24848	-0.4107077
34	0xbe248abe	-0.16068551
35	0xbf21a06f	-0.6313543
36	0xbefc412a	-0.49268466
37	0xbe9872ac	-0.29774988
38	0xbe7ca04c	-0.24670523
39	0xbf0de7eb	-0.55432004
40	0xbec8d1c6	-0.39222544
41	0xbeb4675b	-0.35235104
42	0xbdec3c7e	-0.115349755
43	0xbf5e2552	-0.86775696
44	0xbf39840d	-0.7246712
45	0xbf4b70de	-0.79469097
46	0xbeb7339a	-0.35781556
47	0x3e21b386	0.15791139
48	0xbeccbfe7	-0.3999016
49	0xbea179f7	-0.31538364
50	0xbed45a18	-0.41474986
51	0xbf1b2b68	-0.6061311
52	0xbe3d169a	-0.18465653
53	0x3dccb91a	0.09996243
54	0xbf2bddcc	-0.6713531
55	0xbaec8b9a	-0.0018046976
56	0xbeacb43e	-0.33731264
57	0xbebfe910	-0.374825
58	0xbe58d49c	-0.21174854
59	0xbecd52f1	-0.40102342
60	0xbe02ba49	-0.12766375
61	0xbe3f3151	-0.18671156
62	0xbef8b16d	-0.48572865
63	0xbe17dc00	-0.14830017
64	0xbd67a228	-0.05655113
65	0xbe43c4ad	-0.19117995
66	0xbdcd3bc3	-0.10021164
67	0xbd620e53	-0.055189442
68	0xbeb855c7	-0.36002943
69	0xbdf0b5b5	-0.11753408
70	0x3e56e053	0.2098401
71	0xbf12dcbc	-0.57368064
72	0xbf1c6d9e	-0.6110476
73	0xbe53ef36	-0.2069672
74	0xbebff4c6	-0.37491435
75	0xbe4b5202	-0.19855502
76	0xbe8691dd	-0.2628316
77	0xbedd4ab7	-0.43221065
78	0xbe553eee	-0.20824787
79	0xbf4f2d99	-0.8092895
80	0xbedebe66	-0.43504637
81	0xbe383028	-0.1798712
82	0xbec95e6e	-0.39329857
83	0xbf086a39	-0.5328708
84	0xbebac3d3	-0.36477527
85	0xbe675690	-0.22591615
86	0xbe979b61	-0.29610732
87	0xbedfba41	-0.43696788
88	0xbf112862	-0.56702244
89	0xbc5dea43	-0.013544622
90	0xbf12e9e0	-0.57388115
91	0xbe4eb90f	-0.20187782
92	0xbebbee7f	-0.36705396
93	0xbeafdb67	-0.34347078
94	0xbf01ef3a	-0.50755656
95	0xbe880a76	-0.2657048
96	0xbead03ae	-0.3379187
97	0x3dd7801d	0.105224825
98	0xbf0edc48	-0.5580487
99	0xbe8d6d5e	-0.27622503
100	0xbe92fd11	-0.287087
101	0xbe941ff7	-0.28930637
102	0xbe20abdc	-0.15690559
103	0x3e8a5ecc	0.2702545
104	0xbd6235f3	-0.05522723
105	0xbd6014df	-0.054707404
106	0xbf0145a4	-0.5049689
107	0xbe142078	-0.14465511
108	0xbf8173b3	-1.0113434
109	0xbd28c586	-0.041203998
110	0xbf104932	-0.5636169
111	0xbed584ef	-0.41702983
112	0xbd805c7a	-0.062676385
113	0xbcb2e6ca	-0.021838564
114	0x3c8afbae	0.016965713
115	0xbdec141c	-0.11527273
116	0xbe9b534f	-0.30336997
117	0xbe1cc113	-0.15308027
118	0x3e094973	0.13406925
119	0xbf29e5e5	-0.66366416
120	0xbdc196c9	-0.09452588
121	0xbe45dcd4	-0.1932252
122	0xbea4021b	-0.32032856
123	0xbed9cec1	-0.42540553
124	0xbe23040d	-0.15919514
125	0xbc1f6f94	-0.009731192
126	0xbdf7815f	-0.120852225
127	0xbe9ea98c	-0.3098873
128	0xbda5459f	-0.0806992
129	0xbef2e5c9	-0.47440937
130	0xbea54ef9	-0.32286814
131	0xbe9994b3	-0.2999626
132	0xbead77d8	-0.33880496
133	0xbdd8d896	-0.105881855
134	0xbeb474a8	-0.35245252
135	0xbdcbb9ba	-0.09947534
136	0xbe9cb0c1	-0.30603603
137	0xbef8ade2	-0.48570162
138	0xbe559fbf	-0.2086172
139	0xbe53d392	-0.20686176
140	0xbef34b10	-0.47518206
141	0xbe9ac92d	-0.3023161
142	0xbf76e27d	-0.96439344
143	0xbf9d4d21	-1.2289163
144	0xbdb8b5d2	-0.090190545
145	0xbe8ea964	-0.2786361
146	0xbf1901bc	-0.5976827
147	0xb6bd38b1	-5.6392387e-06
148	0xbcd861f6	-0.026413899
149	0xbed75463	-0.4205657
150	0xbedc4a0f	-0.43025252
151	0xbeca8bf9	-0.39559916
152	0xbe93c07a	-0.28857785
153	0xbe84792a	-0.2587369
154	0xbd70f690	-0.05882889
155	0x3cee81f3	0.029114699
156	0xbd14454f	-0.03619891
157	0xbf3ad3f5	-0.7297967
158	0xbea5ea5d	-0.32405367
159	0xbf92abb7	-1.1458653
160	0xbf8b34a5	-1.0875441
161	0xbe874265	-0.26417843
162	0xbdb5bdbf	-0.08874082
163	0xbf0182d5	-0.5059026
164	0xbe2976d8	-0.16549242
165	0xbe9bcdd5	-0.30430475
166	0xbef663fb	-0.48123154
167	0xbf40f6b4	-0.7537644
168	0xbe847ba0	-0.25875568
169	0xbfc10ae1	-1.5081445
170	0xbd12b705	-0.035819072
171	0xbed4e11c	-0.41577995
172	0xbc91d523	-0.017801827
173	0xbf371595	-0.71517307
174	0xbfbe1607	-1.4850472
175	0xbeaaba73	-0.33345374
176	0xbf32f98b	-0.6991202
177	0xbd234d73	-0.039868783
178	0xbf6fabc6	-0.9362148
179	0xbd498d4d	-0.04920702
180	0xbee78d06	-0.4522478
181	0xbe705687	-0.23470508
182	0xbff0e9e1	-1.8821374
183	0x3c5ecd98	0.013598822
184	0xbf2ad961	-0.66737944
185	0xbe0e16bf	-0.13875864
186	0xbec5eb98	-0.38656306
187	0xbf77e64c	-0.9683578
188	0xbe9a5d53	-0.30149326
189	0xbe1d8857	-0.15384041
190	0xbe3f25a9	-0.1866671
191	0xbf15eb73	-0.5856239
192	0xbf1f432d	-0.6221188
193	0xbf23a30b	-0.6392066
194	0x3dee5a01	0.11638261
195	0xbdf36e69	-0.118862934
196	0xbebfb1ad	-0.37440243
197	0xbe45d6a0	-0.19320154
198	0x3cd39e8a	0.025832433
199	0xbebf5296	-0.37367696
200	0xbdf256b9	-0.11832947
201	0xbedc10bf	-0.42981526
202	0xbed606d7	-0.41802093
203	0xbe1216c2	-0.14266494
204	0xbdcad0c5	-0.09903101
205	0xbea0e64c	-0.31425703
206	0xbee7cb3d	-0.45272246
207	0xbef43b24	-0.4770137
208	0x3cc16f23	0.023612564
209	0xbddf14b7	-0.10892623
210	0xbeedbfe8	-0.46435475
211	0xbf119473	-0.5686714
212	0xbf343af5	-0.7040246
213	0xbf8d323b	-1.1030954
214	0xbf2aa019	-0.6665054
215	0xbf35ce51	-0.7101794
216	0xbe86df55	-0.26342264
217	0xbe52279c	-0.20522922
218	0xbe76b79d	-0.2409348
219	0xbf0aa21b	-0.54153603
220	0xbf13dfdd	-0.57763463
221	0xbea76504	-0.32694256
222	0xbf6ec4ca	-0.93269026
223	0xbf0868f7	-0.53285164
224	0xbec7d539	-0.39029863
225	0xbee48575	-0.4463307
226	0xbf1a813f	-0.60353464
227	0xbf0f7bf6	-0.56048524
228	0xbf59429c	-0.8486726
229	0xbd4ab93e	-0.049493067
230	0xbf17158f	-0.5901727
231	0xbdc87ef6	-0.09789841
232	0x3cba7e17	0.022765202
233	0xbe01b08c	-0.12665004
234	0xbf1be1bd	-0.60891324
235	0xbeecd67e	-0.46257395
236	0xbdf1d27f	-0.11807727
237	0xbd1efed0	-0.038817227
238	0xbeb7c980	-0.3589592
239	0xbdeffe35	-0.11718408
240	0xbf61dff1	-0.8823233
241	0xbde3b0aa	-0.1111768
242	0xbedffc3c	-0.43747127
243	0xbee1df86	-0.44115847
244	0xbeb7de60	-0.35911846
245	0xbe9aac59	-0.30209616
246	0x3dd700d7	0.10498207
247	0xbe763b42	-0.24046043
248	0xbea57453	-0.3231531
249	0xbe1927e1	-0.14956619
250	0xbe92e302	-0.28688818
251	0xbf8733a2	-1.0562632
252	0xbf317a0f	-0.6932687
253	0x3c985a77	0.018597824
254	0xbf628e67	-0.8849854
255	0xbfab166e	-1.336622

network.3.bias f4 [64]
0	0xc00a3666	-2.1595702
1	0xc00981f2	-2.1485562
2	0xbfcd8f20	-1.6059303
3	0x3e11e8b1	0.14248921
4	0xc0091533	-2.141919
5	0xbfe0f5c4	-1.7575002
6	0xc00551f0	-2.083126
7	0xbf9b9169	-1.2153751
8	0xbf9f4749	-1.244363
9	0xbfcfe262	-1.6240962
10	0xbff9ea8b	-1.9524702
11	0xbff0af3c	-1.8803477
12	0xbfd9a425	-1.7003218
13	0xc0265932	-2.599194
14	0xbfb317db	-1.3991655
15	0xbfc62905	-1.5481268
16	0xbfd505d5	-1.6642405
17	0xc03d86b1	-2.961346
18	0xbfb5b258	-1.4195051
19	0xbfcf3c13	-1.6190208
20	0xbff2bd3c	-1.8964
21	0xc00b2371	-2.1740382
22	0xbfa38987	-1.2776345
23	0xbfef3702	-1.8688662
24	0xbfb2dde9	-1.3973972
25	0xbf46f242	-0.77713406
26	0xc00842e8	-2.1290836
27	0xbfbc05a1	-1.4689218
28	0xbfd6851a	-1.6759369
29	0xbfdf3169	-1.7436954
30	0xc00d8aec	-2.211604
31	0xc0002e87	-2.0028398
32	0x3f81e684	1.0148473
33	0xbfdffc7f	-1.7498931
34	0xc044e599	-3.0765135
35	0xbfcb34cb	-1.5875486
36	0xc0024486	-2.0354323
37	0xc0041ac4	-2.0641336
38	0x3ee09d98	0.43870234
39	0xbfb2d44b	-1.3971037
40	0xbf83420b	-1.025453
41	0xc02dbf59	-2.714804
42	0xbfb8d366	-1.4439514
43	0xc02e062d	-2.719127
44	0xc01d7d69	-2.4607794
45	0xc00d03a9	-2.2033484
46	0xc04b8916	-3.180242
47	0xbfd11ef8	-1.6337576
48	0xbf9b01b8	-1.21099
49	0xbfd8e2c0	-1.6944199
50	0xbfc0e2c6	-1.5069206
51	0xbfe304a0	-1.7735786
52	0xbf98b136	-1.192908
53	0x403ed4d4	2.98174
54	0xbfd784df	-1.6837424
55	0xc01c9859	-2.4467986
56	0xc043a062	-3.056664
57	0xbf78ac65	-0.97138053
58	0xc03b21bf	-2.9239347
59	0xbf962415	-1.1729761
60	0xbfd49c4d	-1.6610199
61	0xbff6a6b9	-1.926963
62	0x3f5a6760	0.8531399
63	0xbfb113b0	-1.3834133

network.6.weight f4 [5, 64]
0	0xbe8e9775	-0.27849928
1	0xbe2d3565	-0.169149
2	0x3e71781f	0.23580979
3	0x3cac0717	0.020999474
4	0xbe34b148	-0.17645752
5	0x3be50a72	0.0069897706
6	0x3e46e640	0.19423771
7	0xbc3a3bc4	-0.011366788
8	0xbe7c9a0c	-0.24668139
9	0xbbbc5bb4	-0.0057482366
10	0x3d8f0e2a	0.069851235
11	0xbe3adda7	-0.18248616
12	0x3e8ac35b	0.2710217
13	0x3d7146d9	0.058905456
14	0x3e02deef	0.12780355
15	0x3d2fcf3c	0.042922243
16	0x3e682e4d	0.22673912
17	0x3e36ae8d	0.17840023
18	0x3df23408	0.118263304
19	0x3e083565	0.13301618
20	0x3da9df48	0.08294541
21	0xbe402d94	-0.18767387
22	0xbd5f2a94	-0.054483965
23	0x3dea5dce	0.11443673
24	0x3ce52ec2	0.027976397
25	0xbe7dcecf	-0.24785922
26	0xbe0235a3	-0.12715773
27	0xbd9d25a9	-0.07673199
28	0xbd487b62	-0.048945792
29	0xbe6838b5	-0.22677882
30	0xbcfe02a6	-0.031007122
31	0x3b8e1eee	0.004337183
32	0xbd0d6573	-0.034520578
33	0xbca76fa8	-0.020438984
34	0x3e8b69fb	0.27229294
35	0x3d6566fa	0.05600641
36	0x3e1048c5	0.1409026
37	0x3de0787d	0.10960481
38	0xbda27c5e	-0.079338774
39	0x3e0daca4	0.13835388
40	0xbe6eaade	-0.23307368
41	0xbe0c3cfe	-0.13695142
42	0xbd0204a6	-0.031742714
43	0x3e273ec3	0.16332535
44	0x3e78367e	0.24239537
45	0xbe8402a0	-0.25783253
46	0x3c439270	0.011936769
47	0xbdb258e5	-0.087083615
48	0xbdf97dae	-0.121821746
49	0xbe7e37da	-0.24825993
50	0x3d30c3af	0.04315537
51	0xbdfffb30	-0.12499082
52	0xbe4199c4	-0.18906313
53	0xbdc2dc88	-0.09514719
54	0x3d8213d7	0.063514404
55	0xbe9ca04f	-0.30591056
56	0x3ea07708	0.31340814
57	0x3dc70f93	0.097197674
58	0x3dcf3c75	0.10118953
59	0x3df86401	0.12128449
60	0x3e9ad7f1	0.30242875
61	0x3cde0aa6	0.027104687
62	0xbd73f5c6	-0.05956056
63	0x3d23f1dd	0.04002558
64	0xbd42c472	-0.047550626
65	0x3e6dc171	0.23218323
66	0x3e532fe2	0.20623735
67	0x3d807b07	0.062734656
68	0xbee69e63	-0.45042714
69	0x3e1577bc	0.14596456
70	0xbe05b57d	-0.13057514
71	0x3dbdb427	0.09262877
72	0x3d34f50c	0.044179007
73	0x3d810d1b	0.06301328
74	0xbe8468a8	-0.25861096
75	0xbe611559	-0.219808
76	0x3e4cebef	0.20011877
77	0x3e14774f	0.14498638
78	0xbe0537d6	-0.13009581
79	0xbdf25ebe	-0.11834477
80	0xbd862c76	-0.06551449
81	0x3ef7329b	0.48280796
82	0xbec1e72f	-0.37871692
83	0x3bdbdfb1	0.0067100157
84	0x3e594a00	0.21219635
85	0xbdef9693	-0.11698642
86	0xbe9f8c8f	-0.31161925
87	0x3e560d4c	0.2090351
88	0xbde18e65	-0.11013488
89	0xbe97c23b	-0.29640374
90	0xbf148405	-0.58013946
91	0xbdda55ca	-0.10660894
92	0xbe311349	-0.17292513
93	0x3e088500	0.13331985
94	0xbe4b6eb1	-0.19866444
95	0xbd77b91d	-0.060479272
96	0xbeec29b9	-0.46125582
97	0x3ebd8905	0.370186
98	0x3bc09a00	0.005877733
99	0x3e2be7f8	0.16787708
100	0xbe34dfb8	-0.17663467
101	0x3e6da4f5	0.23207457
102	0x3d796501	0.06088734
103	0xbe11b4a3	-0.14229064
104	0xbdd157ec	-0.10221848
105	0xbe7eb064	-0.24871975
106	0x3e277460	0.16352987
107	0xbe9e938c	-0.30971944
108	0xbd12b5c6	-0.035817884
109	0x3d1b021b	0.037843805
110	0x3ea637ff	0.32464597
111	0x3cb6c4b0	0.022310585
112	0x3c35e599	0.011102104
113	0xbe5c611b	-0.21521418
114	0xbe81030f	-0.25197646
115	0x3dcdd29d	0.10049937
116	0x3ed4f02a	0.4158948
117	0xbe75a013	-0.23986845
118	0xbe92a887	-0.286442
119	0xbeee972d	-0.46599713
120	0xbf47c938	-0.7804141
121	0x3e5596bb	0.2085828
122	0x3e32f5a7	0.17476521
123	0xbd8604c7	-0.0654388
124	0x3e76d031	0.24102856
125	0xbe024e26	-0.12725124
126	0xbe27fd95	-0.16405328
127	0xbec5d75d	-0.38640872
128	0x3d87d5d6	0.06632583
129	0xbe151e0e	-0.14562246
130	0xbea94d09	-0.33066586
131	0xbc2f71e9	-0.010708311
132	0x3c941740	0.018077493
133	0xbe41a412	-0.18910244
134	0x3e7bd304	0.24592215
135	0x3e5a3adf	0.2131152
136	0x3e014c56	0.12626776
137	0xbf14dbbb	-0.5814778
138	0xbe4b9ee5	-0.19884832
139	0x3eae1413	0.3399969
140	0xbdb0555d	-0.08610032
141	0x3e1efa2e	0.15525123
142	0xbe6279a8	-0.2211672
143	0xbe63d707	-0.22249995
144	0xbc1fb38d	-0.009747398
145	0xbe12db21	-0.14341404
146	0xbd1d9923	-0.03847612
147	0x3ed6b59e	0.41935438
148	0x3e14844f	0.14503597
149	0xbdd8d374	-0.105872065
150	0x3d9b61c6	0.07587008
151	0xbd2d5029	-0.042312775
152	0x3e5b4f1e	0.214169
153	0xbe66c56b	-0.22536246
154	0x3e16f4eb	0.14741866
155	0x3d9eecf2	0.077600375
156	0x3cb5f417	0.022211118
157	0xbe4d3f38	-0.20043647
158	0x3e7f93df	0.24958752
159	0xbd898f30	-0.06716764
160	0x3dc40c11	0.09572614
161	0xbc8fa4ea	-0.017534692
162	0xbc5b3f08	-0.013381727
163	0x3da822d8	0.08209771
164	0xbe86034a	-0.26174384
165	0xbe08d14e	-0.13361093
166	0x3e59a426	0.21254024
167	0xbe25b623	-0.16182761
168	0xbe52f363	-0.20600657
169	0x3e4548c5	0.1926604
170	0x3e6fbc5e	0.234117
171	0xbebd8332	-0.37014157
172	0x3e86ab79	0.26302698
173	0xbea54c79	-0.32284907
174	0xbd7f65cd	-0.062352944
175	0xbe9bb671	-0.3041263
176	0xbd020f1b	-0.031752687
177	0xbc855351	-0.01627508
178	0xbe4ea3c3	-0.20179658
179	0x3e9d0b59	0.3067272
180	0xbe841041	-0.2579365
181	0x3e3313af	0.17487977
182	0xbe0cfe5d	-0.13768907
183	0xbe8d7d24	-0.27634537
184	0x3e867af7	0.2626569
185	0xbe7b3d11	-0.24535014
186	0xbeaf99e3	-0.34297094
187	0x3ea0b034	0.31384432
188	0xbda5fd89	-0.081049986
189	0x3ef0eba3	0.47054777
190	0xbf094361	-0.5361844
191	0x3dfef21a	0.12448521
192	0xbe6c7748	-0.23092377
193	0x3e172eca	0.14763942
194	0xbd53781b	-0.051628213
195	0xbddef91f	-0.1088736
196	0x3c91a1e0	0.017777383
197	0x3d534656	0.05158075
198	0x3e6485a5	0.22316606
199	0xbec8ab64	-0.3919326
200	0xbe3c87f3	-0.18411236
201	0xbeed70f8	-0.4637525
202	0x3dbffc07	0.09374242
203	0xbde243db	-0.11048099
204	0x3db3ca60	0.08778834
205	0x3d155c3b	0.03646491
206	0x3dbe3941	0.09288264
207	0x3e048605	0.1294175
208	0xbe35d764	-0.17757946
209	0x3debd448	0.11515099
210	0x3e02fa97	0.12790905
211	0x3ee0cda6	0.43906897
212	0x3dcc3038	0.099701345
213	0x3df0d1b2	0.11758746
214	0xbd37f9c6	-0.044915937
215	0x3d78d6ff	0.06075191
216	0xbd694a76	-0.056955777
217	0x3d1df496	0.038563333
218	0xbe2aaf04	-0.16668326
219	0xbccc684b	-0.024952075
220	0xbddb1480	-0.106972694
221	0xbd32608b	-0.0435491
222	0x3d5dd4a0	0.054157853
223	0xbd02f0ca	-0.031967916
224	0x3cdd8400	0.027040482
225	0x3e639cb6	0.22227749
226	0x3df993b8	0.12186378
227	0xbe22e421	-0.15907337
228	0xbea9b93c	-0.33149135
229	0xbe2c860e	-0.16848013
230	0x3eb69c6e	0.3566622
231	0xbde6ecaf	-0.112756126
232	0x3db5f4f6	0.08884613
233	0x3ddacd31	0.106836684
234	0xbdf8fe4a	-0.12157877
235	0x3eaa4548	0.33255982
236	0xbd0cf2de	-0.034411304
237	0x3df9ab18	0.12190837
238	0xbd960dd2	-0.07326855
239	0x3d99e0ac	0.07513556
240	0x3deccf0f	0.11562931
241	0x3d00f55d	0.031483997
242	0x3d2549e8	0.040353686
243	0xbe4101b7	-0.1884831
244	0x3e1d4834	0.15359575
245	0x3e4b28ce	0.19839785
246	0x3ddd915e	0.10818742
247	0x3eb74c0d	0.3580021
248	0x3e782725	0.24233682
249	0x3cd061e5	0.025437305
250	0x3d9f5b71	0.07781113
251	0x3d6207c0	0.055183172
252	0xbdcd6224	-0.100284845
253	0xbe4d1dc3	-0.20030884
254	0xba31d548	-0.00067837955
255	0x3e0e3cd2	0.13890389

network.6.bias f4 [5]
0	0x3ca77a3e	0.020444032
1	0xbe1640e0	-0.14673185
2	0x3c9f8651	0.019473227
3	0x3e908582	0.28226858
4	0x3d03d9fe	0.032190315

network.0.weight f4 [128, 43]
0	0xbba516b0	-0.005038105
1	0xbf46edb2	-0.77706444
2	0x3f14a85f	0.58069414
3	0xbf0f2e9e	-0.5593051
4	0x3eb8fd7f	0.36130902
5	0xbe23f0cc	-0.16009825
6	0xbf342bf2	-0.70379555
7	0x3e0cba4a	0.13742939
8	0x3e281da5	0.16417558
9	0xbe260874	-0.16214162
10	0xbc90cf01	-0.017676832
11	0xbdecae38	-0.11556667
12	0x3df5f593	0.1200973
13	0x3f45f497	0.7732634
14	0xbf470023	-0.77734584
15	0xbea83a6c	-0.32857072
16	0xbf620d61	-0.88301665
17	0x3f7f8114	0.9980633
18	0x3f410fcb	0.75414723
19	0xbda3ad03	-0.07991984
20	0xbe0c73f5	-0.13716109
21	0xbdb3bed6	-0.087766334
22	0x3e04f83c	0.12985319
23	0xbaa768af	-0.0012772287
24	0xbdbb1633	-0.091350935
25	0x3e2b9e1f	0.16759537
26	0xbd3c7f56	-0.046019875
27	0x3e2756fa	0.16341773
28	0x3db16170	0.08661163
29	0xbc4a8e0e	-0.01236297
30	0x3d8bc035	0.0682377
31	0x3dff2e92	0.124600545
32	0xbe3ac577	-0.1823939
33	0x3ed29eda	0.4113682
34	0x3e23ad9c	0.15984195
35	0x3e872f9a	0.26403505
36	0x3dbef77c	0.09324548
37	0x3e3b5d3d	0.18297286
38	0xbee285e1	-0.44242766
39	0xbfb27fc3	-1.394524
40	0x3fbb84ca	1.4649899
41	0xbfa70438	-1.3048162
42	0x3d1a9b04	0.03774549
43	0xbe2927d1	-0.16519095
44	0x3f7de7ed	0.99182016
45	0xbf58057f	-0.84383386
46	0xbe74707c	-0.23871034
47	0x3e0a5611	0.13509394
48	0xbe3d0570	-0.18459105
49	0xc02d1df8	-2.7049541
50	0x3da94854	0.082657486
51	0x3dbbbb85	0.09166626
52	0xbd1bbe7b	-0.038023453
53	0x3d2c077f	0.041999336
54	0x3d34abc5	0.044109125
55	0x3e7bcd25	0.24589975
56	0xbea560ba	-0.3230036
57	0x3fa993a0	1.3248177
58	0x3f53f8af	0.82801336
59	0xbfd03863	-1.6267208
60	0x3f32c13e	0.69826114
61	0xbe996bf6	-0.2996518
62	0xbe3e60d6	-0.18591627
63	0x3d7b8b31	0.06141204
64	0x3da80e0f	0.082058065
65	0xbda6aadc	-0.081380576
66	0x3dedc522	0.11609866
67	0xbd3ed13a	-0.046586253
68	0xbdc55758	-0.096358
69	0x3dc6877a	0.09693809
70	0x3eab4a44	0.33455098
71	0xbf53b5a0	-0.8269901
72	0x3f8a0800	1.0783691
73	0x3e2097d8	0.15682924
74	0xbf20caad	-0.6280926
75	0xbd893b11	-0.06700719
76	0x3ea03bf9	0.31295756
77	0xbdfc5650	-0.1232115
78	0xbec601bc	-0.38673198
79	0x3f7f7c3e	0.99798954
80	0xbfd19f68	-1.6376772
81	0x3ef1008c	0.4707073
82	0xbdbba9f5	-0.09163276
83	0x3fc00dd3	1.5004219
84	0xbf0af551	-0.54280573
85	0x3dc63fb6	0.09680121
86	0x3da9e739	0.08296055
87	0xbe3633da	-0.17793217
88	0x3e751d88	0.23937047
89	0x3f97418a	1.1816876
90	0xbf3815ce	-0.7190827
91	0xbda57b22	-0.08080126
92	0x3ea9680a	0.33087188
93	0x3d31cc3f	0.043407675
94	0x3d26b0ad	0.040695835
95	0xbdbfcfa9	-0.0936578
96	0xbd09e661	-0.033666972
97	0xbb9b7777	-0.004744466
98	0xc0072ede	-2.1122355
99	0xbf346732	-0.70469964
100	0xbf4ca1df	-0.79934496
101	0x3ec8c36e	0.392116
102	0xbfb50309	-1.4141551
103	0x3ff23535	1.8922487
104	0x3ed67365	0.41884914
105	0x3d1c576d	0.038169313
106	0xbe3c52b5	-0.18390925
107	0x3e23852d	0.15968771
108	0x3dc7dab6	0.09758513
109	0xbe33d824	-0.1756292
110	0x3d757e98	0.059935182
111	0xbe19b20a	-0.15009323
112	0x3c885dd5	0.016646305
113	0xbd80d1d7	-0.06290024
114	0x3db3f4b0	0.08786905
115	0xbf1ae9b8	-0.60512877
116	0xbe2ade46	-0.16686353
117	0xbe337b81	-0.17527582
118	0x3e0d0a16	0.13773379
119	0xbdc0dd6c	-0.09417233
120	0xbdcaf9f5	-0.09910957
121	0xbf5f8a7c	-0.87320685
122	0x3ee20c87	0.44150183
123	0xbeb2ba28	-0.3490765
124	0xbd82dcf0	-0.06389797
125	0xbf372105	-0.7153476
126	0xbe1794fb	-0.14802925
127	0xbe447f51	-0.19189192
128	0xbd14a007	-0.036285426
129	0x3c378205	0.011200433
130	0x3f08c8eb	0.53431576
131	0xbf0411d4	-0.51589704
132	0x3f2487ec	0.642699
133	0xbe077c63	-0.13231044
134	0xbe3a2b94	-0.18180686
135	0xbfba0201	-1.4531862
136	0xbe37f633	-0.17965011
137	0xbcdcd212	-0.026955638
138	0x3d6fac1c	0.058513746
139	0xbe09770d	-0.1342432
140	0x3c4c31f2	0.01246308
141	0x3f0e06cb	0.55479115
142	0xbfb35e1e	-1.4013097
143	0x3e9d3c72	0.3071018
144	0xbee60fad	-0.44933835
145	0xbf695c26	-0.9115623
146	0x3f06fc71	0.52728945
147	0xbfd07527	-1.6285752
148	0x3db4f41f	0.08835625
149	0xbd91e78f	-0.071242444
150	0x3e3c1c45	0.18370159
151	0xbc92a2d4	-0.017899908
152	0xbca005f0	-0.019534081
153	0xbdf6b375	-0.120459475
154	0x3daf9287	0.0857287
155	0xbe3f2a96	-0.18668589
156	0xbef41d7a	-0.4767874
157	0xbe1a7f5f	-0.1508765
158	0xbdb132f4	-0.08652297
159	0xbdd318d0	-0.10307467
160	0xbf6b6399	-0.9194885
161	0x3dabc7bf	0.08387708
162	0xbecfa91b	-0.40558705
163	0xbd0210a8	-0.031754166
164	0xbf1c91e8	-0.61160135
165	0x3f4b0df2	0.79318154
166	0xbf5842e6	-0.8447708
167	0xbeb70fb1	-0.3575416
168	0x3f487c80	0.7831497
169	0x3ecd42e2	0.4009009
170	0xbf3048ae	-0.688609
171	0x3d1c057a	0.03809116
172	0xbe153f34	-0.14574891
173	0x3ec93e36	0.39305276
174	0xbecc0011	-0.398438
175	0xbe2d3aeb	-0.16917007
176	0xbf717307	-0.9431614
177	0x3e095f1e	0.1341519
178	0x3f1fee07	0.62472576
179	0xbdb287ae	-0.08717285
180	0xbd3c083a	-0.045906283
181	0x3e0ff048	0.14056504
182	0xbdd4df66	-0.10394172
183	0xbe2f40ab	-0.17114513
184	0x3e172898	0.14761579
185	0xbf77c961	-0.96791655
186	0x3e77ad33	0.24187164
187	0x3ee21981	0.44160083
188	0xbf1ebc88	-0.62006426
189	0xbe4f77fa	-0.20260611
190	0xbf8aa6c8	-1.0832148
191	0xbdabb1c6	-0.08383517
192	0x3e311e53	0.17296724
193	0xbe32da30	-0.17466044
194	0x3d0d1649	0.03444508
195	0x3e211557	0.15730797
196	0xbc872108	-0.016495243
197	0x3da52c43	0.08065083
198	0x3e0edda6	0.1395174
199	0xbf4a8e80	-0.7912369
200	0x3fe7cd09	1.8109447
201	0xc000641b	-2.00611
202	0xbd251bd0	-0.040309727
203	0x3f422d65	0.75850517
204	0xbe3837bc	-0.17990011
205	0xbf9241f1	-1.1426374
206	0x3ddaf054	0.1069037
207	0xbf9f3164	-1.2436948
208	0x3f8c08a6	1.0940139
209	0x3ed7e794	0.42168868
210	0xbf89dc33	-1.0770324
211	0xbe892533	-0.26786193
212	0x3f32839c	0.6973207
213	0xbe3c04be	-0.18361184
214	0x3df00d09	0.11721236
215	0xbd01593a	-0.031579234
216	0xbd28f808	-0.041252166
217	0x3e8288d9	0.2549503
218	0x3f69ea7d	0.91373426
219	0xbf14e221	-0.58157545
220	0x3e04a312	0.12952831
221	0xbe8a7ad0	-0.27046824
222	0x3cb6f0e6	0.022331666
223	0x3d14f2c0	0.036364317
224	0xbe21a78f	-0.15786575
225	0x3d4bf386	0.04979279
226	0xbd386458	-0.04501757
227	0xbf1fc28b	-0.62406224
228	0xbf069fb6	-0.5258745
229	0x3f7bf6ae	0.9842328
230	0x3f4d4be9	0.80193955
231	0xbeb11862	-0.34588915
232	0xbf354166	-0.70802915
233	0xbf141a32	-0.5785247
234	0x3d81b958	0.0633418
235	0x3da6c859	0.08143682
236	0x3df4403a	0.11926313
237	0x3dcf846c	0.10132679
238	0xbe027fa9	-0.12744011
239	0xbda34b77	-0.07973378
240	0xbe028256	-0.12745032
241	0xbdf1912e	-0.11795269
242	0xbf36c5bc	-0.7139547
243	0x3e50b2d2	0.20380715
244	0x3e8c3791	0.27386144
245	0x3e0aa927	0.13541089
246	0xbf537d4d	-0.8261307
247	0x3c5cac0c	0.013468754
248	0xbf32fe29	-0.6991907
249	0x3dc4fdc3	0.09618714
250	0x3e3a8908	0.18216336
251	0xbe4ab31f	-0.19794892
252	0x3f27b654	0.65512586
253	0xbd045689	-0.03230909
254	0x3d8e45e3	0.069469236
255	0xbf267d69	-0.6503511

network.0.bias f4 [128]
0	0xc0aee668	-5.465626
1	0xc0a66997	-5.2003894
2	0xc01efb2c	-2.4840803
3	0xc0a74f45	-5.2284265
4	0xc0a45d3a	-5.13638
5	0xc06faeb1	-3.7450373
6	0xc0860bd3	-4.1889434
7	0xc08a2706	-4.3172636
8	0xc045b31f	-3.0890577
9	0xc06235c1	-3.5345309
10	0xc09d81c1	-4.922089
11	0xbf86e0ba	-1.0537331
12	0xc095619a	-4.6681643
13	0xc0676b82	-3.6159368
14	0xc0903e97	-4.5076404
15	0xc0876a8f	-4.2317576
16	0xc0706421	-3.7561114
17	0xc09c97a0	-4.893509
18	0xbfb168bd	-1.3860089
19	0xc0930aea	-4.5950823
20	0xc0a6affd	-5.208983
21	0xc087b2d5	-4.24058
22	0xc019baba	-2.402022
23	0xc09af5d1	-4.842507
24	0xc080747e	-4.01422
25	0xc0395b4c	-2.8961973
26	0xc018e537	-2.3889902
27	0xc03ae28c	-2.9200773
28	0xc0690ef5	-3.641538
29	0xc07393aa	-3.8058877
30	0xc0a00db2	-5.001672
31	0xc0a7b9de	-5.241439
32	0xc010abd8	-2.2604885
33	0xc067b9c9	-3.6207144
34	0xc097115d	-4.7208695
35	0xbfc84e2f	-1.564886
36	0xc0b754ce	-5.729102
37	0xc0947675	-4.63946
38	0xc0914791	-4.539986
39	0xc01bc437	-2.433851
40	0xc091289b	-4.5362067
41	0xc05059a4	-3.2554712
42	0xc096c68c	-4.7117367
43	0xc06c5a2d	-3.693004
44	0xc0aa303f	-5.3183894
45	0xc07eb7a1	-3.9799578
46	0xc059573b	-3.3959491
47	0xc07936ef	-3.8939779
48	0xc055727a	-3.335112
49	0xc082c93e	-4.0870657
50	0xc0a142b6	-5.0393934
51	0xc03374cd	-2.804004
52	0xc07fbb44	-3.9958048
53	0xc09106a1	-4.532059
54	0xbfec6510	-1.8468342
55	0xc0ac21f4	-5.3791447
56	0xc06f1cb1	-3.7361262
57	0xc09dbfaf	-4.929649
58	0xc0926f52	-4.576089
59	0xc051a818	-3.2758846
60	0xc09fd9a1	-4.995316
61	0xc08584fc	-4.1724834
62	0xc02506b1	-2.5785334
63	0xc07b75ae	-3.9290576
64	0xc03a980a	-2.9155297
65	0xc01ccee4	-2.4501276
66	0xc0859575	-4.1744943
67	0xbff69823	-1.9265178
68	0xc079f953	-3.9058425
69	0xc07fb160	-3.995201
70	0xc0adf72f	-5.436424
71	0xbf00a904	-0.502579
72	0xc008b996	-2.1363273
73	0xc03d6215	-2.9591115
74	0xc0995659	-4.7917905
75	0xc0840e0e	-4.1267157
76	0xc006259e	-2.096046
77	0xc089f8a6	-4.3116026
78	0xc09d050f	-4.9068675
79	0xbfe6e6e9	-1.8039218
80	0xc09a1010	-4.8144608
81	0xc0406a22	-3.0064778
82	0xc0689be2	-3.6345143
83	0x3ea74e04	0.3267671
84	0xc08a5f12	-4.3241053
85	0xc074b7fc	-3.8237295
86	0xc0422af0	-3.0338707
87	0xc059a85d	-3.400901
88	0xc06a3d07	-3.6599748
89	0xc066ea05	-3.6080334
90	0xc04c90cb	-3.1963375
91	0xc09ff572	-4.9987116
92	0xbf9db14e	-1.2319734
93	0xc0017323	-2.0226524
94	0xc0277101	-2.6162722
95	0xc098f9e0	-4.7805023
96	0xc037b437	-2.8703744
97	0xc063bb0d	-3.5582917
98	0xc0994f53	-4.790933
99	0xc05c9505	-3.4465954
100	0xc0a8a911	-5.270638
101	0xc00fc073	-2.2461212
102	0xc090af4c	-4.5213985
103	0xc07abccb	-3.917773
104	0xc0a7237e	-5.2230825
105	0xc0a33f31	-5.101464
106	0xc00f59c4	-2.2398539
107	0xc010d28e	-2.2628512
108	0xc028db37	-2.6383798
109	0xc03bfcd8	-2.9373074
110	0xc033dece	-2.810474
111	0xc033e76d	-2.811
112	0xc090d7d3	-4.5263457
113	0xc0a25b90	-5.073677
114	0xc0a2383a	-5.0693636
115	0xc09d9db5	-4.9255013
116	0xc0bb5193	-5.853708
117	0xc0aaf504	-5.342409
118	0xbfdc9e08	-1.7235727
119	0xc04248e3	-3.0356987
120	0xc03e1766	-2.9701781
121	0xc0481973	-3.1265533
122	0xc0488b09	-3.133486
123	0xc063b08d	-3.5576508
124	0xc0a624b1	-5.191979
125	0xc09cd9e4	-4.901598
126	0xc00d9fe6	-2.2128844
127	0xc0612838	-3.5180798

network.3.weight f4 [64, 128]
0	0xbd0f4756	-0.03498014
1	0xbd83128a	-0.064000204
2	0xbdb0a4a7	-0.08625155
3	0xbf0be5ab	-0.5464732
4	0xbd63b90f	-0.055596408
5	0x3de4b8dd	0.111680724
6	0xbe7623c5	-0.24037082
7	0xbe1e7f45	-0.15478237
8	0xbe8f83ea	-0.2803033
9	0x3e15d1f2	0.14630869
10	0xbe09214a	-0.13391605
11	0xbe7f3e38	-0.24926078
12	0xbe39b37d	-0.18134876
13	0xbe8b6fad	-0.2723364
14	0xbe6146ad	-0.21999617
15	0xbf13bfb9	-0.5771442
16	0xbd976cc5	-0.07393793
17	0xbe951dd1	-0.2912431
18	0xbe5db2f9	-0.21650304
19	0xbe176f26	-0.14788494
20	0xbef0297f	-0.4690666
21	0xbf028fc6	-0.5100063
22	0xbf51311a	-0.8171555
23	0xbe961901	-0.2931595
24	0xbd13885d	-0.036018718
25	0x3e798cdb	0.24370138
26	0x3c5937df	0.01325795
27	0xbf07fbbc	-0.5311849
28	0xbf8a6a4d	-1.081369
29	0xbf12f32e	-0.5740231
30	0x3d66f7ae	0.05638855
31	0xbed555d2	-0.41667038
32	0x3c80e3e1	0.015733661
33	0xbeb31bf5	-0.34982267
34	0xbe0f72eb	-0.14008681
35	0xbf158aa3	-0.5841467
36	0xbee4c075	-0.44678083
37	0xbe870094	-0.2636763
38	0xbe5f5c5e	-0.21812579
39	0xbee53ff6	-0.4477536
40	0xbeb82b8a	-0.35970718
41	0xbea0d6d3	-0.31413898
42	0xbde64096	-0.112427875
43	0xbf4a700d	-0.79077226
44	0xbf1a214a	-0.60207045
45	0xbf2f1f73	-0.6840736
46	0xbe9e7d41	-0.30954936
47	0x3e1f03e0	0.15528822
48	0xbebc0d56	-0.36728925
49	0xbe92cb2e	-0.2867064
50	0xbebfc33a	-0.37453634
51	0xbf0fb42e	-0.5613431
52	0xbe2b7692	-0.1674445
53	0x3dc0fec3	0.09423592
54	0xbf1a369e	-0.6023959
55	0x3b8bb1de	0.004263147
56	0xbe94170f	-0.28923842
57	0xbead139d	-0.33804026
58	0xbe495df3	-0.19664745
59	0xbeada0e8	-0.33911824
60	0xbe018450	-0.1264813
61	0xbe1f2a51	-0.15543486
62	0xbee06b69	-0.43831947
63	0xbe0fafe1	-0.14031936
64	0xbdc9302d	-0.09823642
65	0xbe3ce160	-0.18445349
66	0xbda6c7b3	-0.08143558
67	0xbd42b568	-0.047536284
68	0xbea9f91d	-0.3319787
69	0xbdbb9367	-0.09158974
70	0x3e44e64b	0.19228475
71	0xbf040db6	-0.5158342
72	0xbf072eaa	-0.5280558
73	0xbe4c5aab	-0.19956462
74	0xbeb55136	-0.35413522
75	0xbe3d2d41	-0.18474294
76	0xbe761f22	-0.24035314
77	0xbec400dc	-0.38281906
78	0xbe4ad506	-0.19807824
79	0xbf2d6376	-0.6772989
80	0xbeb4de86	-0.35326022
81	0xbe36cc66	-0.1785141
82	0xbebd463e	-0.36967653
83	0xbed2eb5e	-0.41195196
84	0xbe9e2441	-0.30887035
85	0xbe3b47c2	-0.18289092
86	0xbe88649a	-0.26639253
87	0xbe9bdcdf	-0.3044195
88	0xbf01909c	-0.5061128
89	0xbca0b09e	-0.019615468
90	0xbee7bd4b	-0.45261607
91	0xbe3d017b	-0.18457596
92	0xbead851e	-0.33890623
93	0xbe99bba6	-0.30025977
94	0xbeeb6e78	-0.45982718
95	0xbe801c6b	-0.2502168
96	0xbe9f7180	-0.3114128
97	0x3da45df1	0.080257304
98	0xbefe6554	-0.49686682
99	0xbe8508e4	-0.25983346
100	0xbe4a7780	-0.19772148
101	0xbe44b248	-0.19208634
102	0xbe1c2685	-0.15249069
103	0x3e5fb8df	0.21847866
104	0xbd4e4acc	-0.0503643
105	0xbd5bb870	-0.05364269
106	0xbee76695	-0.4519545
107	0xbe0ec1b5	-0.13941081
108	0xbf696073	-0.91162795
109	0x3c6dbf61	0.01451096
110	0xbf045fc9	-0.51708657
111	0xbebd57a3	-0.36980924
112	0xbd664ade	-0.056223743
113	0xbc87fc1d	-0.01659971
114	0x3cf69163	0.030098623
115	0xbdbf21a0	-0.09332585
116	0xbe95199c	-0.291211
117	0xbe138787	-0.14407168
118	0x3e1a2f1e	0.15057036
119	0xbf104560	-0.5635586
120	0xbdbeb179	-0.09311194
121	0xbe364727	-0.1780058
122	0xbe9201a2	-0.2851687
123	0xbec76e8b	-0.38951525
124	0xbdcee2cc	-0.10101852
125	0xbc170bd0	-0.009219125
126	0xbdc5d925	-0.09660558
127	0xbe84b7a6	-0.25921363
128	0xbd94cdd1	-0.07265819
129	0xbee1a376	-0.44070023
130	0xbe9231d6	-0.28553647
131	0xbe8aad51	-0.27085355
132	0xbea32095	-0.31860796
133	0xbdcdae8d	-0.100430585
134	0xbe9dd26d	-0.30824605
135	0xbdc04c9d	-0.09389613
136	0xbe91102b	-0.28332648
137	0xbedaebb2	-0.42757946
138	0xbe41a3cc	-0.1891014
139	0xbe3f148b	-0.1866018
140	0xbee4b9ee	-0.44673103
141	0xbe91ce55	-0.2847773
142	0xbf5f91a3	-0.873316
143	0xbf8c587c	-1.0964503
144	0xbdd74ca2	-0.105126634
145	0xbe884a5b	-0.2661923
146	0xbf0cbc7d	-0.5497511
147	0x3e08b412	0.13349941
148	0xbca6ee08	-0.020377174
149	0xbec3e42c	-0.3826002
150	0xbec786a8	-0.38969922
151	0xbebd4106	-0.3696367
152	0xbe7fdf9f	-0.24987648
153	0xbe71e06e	-0.2362077
154	0xbd89a4bd	-0.067208745
155	0x3cc2a827	0.023761822
156	0x3d98888e	0.07447921
157	0xbf2737f1	-0.65319735
158	0xbe30ac7b	-0.17253296
159	0xbf85023c	-1.0391307
160	0xbf7b4cde	-0.98164165
161	0xbe82393f	-0.254343
162	0xbd978021	-0.073974855
163	0xbec2cad8	-0.38045382
164	0xbe26afe4	-0.16278034
165	0xbe9337e9	-0.28753594
166	0xbedf8c86	-0.43661898
167	0xbf2cb627	-0.6746544
168	0xbe5e984a	-0.21737781
169	0xbfac97c9	-1.3483821
170	0xbc9eee9d	-0.019400889
171	0xbec4121c	-0.38295066
172	0xbc5135c9	-0.012769171
173	0xbf279c70	-0.6547308
174	0xbfadb876	-1.3571918
175	0xbe946c4a	-0.28988868
176	0xbf1e8526	-0.6192192
177	0xbd048ee0	-0.03236282
178	0xbf564777	-0.83702797
179	0xbd45d875	-0.048302133
180	0xbec87276	-0.39149827
181	0xbe5583c7	-0.2085105
182	0xbfd7b240	-1.6851273
183	0x3dad7b62	0.08470799
184	0xbf1b0d8a	-0.60567534
185	0xbdf8369d	-0.12119792
186	0xbeac7417	-0.3368232
187	0xbf61f0c8	-0.8825803
188	0xbe8529b6	-0.26008385
189	0xbe0362fd	-0.1283073
190	0xbe3f4995	-0.18680413
191	0xbf08a515	-0.53376895
192	0xbf11f88b	-0.5701987
193	0xbf12075a	-0.5704247
194	0x3ddab681	0.10679341
195	0xbdc00d6f	-0.09377562
196	0xbeb57b43	-0.35445604
197	0xbe1dda18	-0.15415227
198	0x3ca55ad2	0.020184908
199	0xbeaff152	-0.343638
200	0xbded3ee7	-0.11584263
201	0xbec739f5	-0.38911405
202	0xbec69159	-0.38782766
203	0xbe1251cc	-0.14289016
204	0xbdc0fcc5	-0.09423212
205	0xbe88ca9c	-0.2671708
206	0xbebf9704	-0.37419903
207	0xbedb7462	-0.4286223
208	0x3cfd17ee	0.0308952
209	0xbdda53e4	-0.10660532
210	0xbecd72b4	-0.40126574
211	0xbf015da3	-0.50533503
212	0xbf193f2e	-0.5986203
213	0xbf7f2517	-0.9966597
214	0xbf1eaa97	-0.6197905
215	0xbf242ed7	-0.6413397
216	0xbe81f7ab	-0.25384268
217	0xbe47c2a8	-0.19507849
218	0xbe507447	-0.20356856
219	0xbefb73bb	-0.49111733
220	0xbf02372d	-0.5086544
221	0xbe932f64	-0.28747094
222	0xbf517539	-0.8181949
223	0xbefe3820	-0.49652195
224	0xbebb420d	-0.3657383
225	0xbed583f2	-0.4170223
226	0xbf09462f	-0.53622717
227	0xbefadf61	-0.4899855
228	0xbf428b67	-0.7599396
229	0xbcd30b6a	-0.025762279
230	0xbf08ece8	-0.5348649
231	0xbd28cafe	-0.041209213
232	0x3d168a66	0.03675308
233	0xbde3145b	-0.11087867
234	0xbf0e542f	-0.55597204
235	0xbedb9198	-0.42884517
236	0xbdd54594	-0.104136616
237	0xbaf0bccd	-0.0018366814
238	0xbea606e5	-0.32427135
239	0xbde02e6b	-0.109463535
240	0xbf4aa1a1	-0.79152876
241	0xbdafcf3e	-0.0858445
242	0xbed087c0	-0.4072857
243	0xbed7ea40	-0.42170906
244	0xbeaae6f7	-0.33379337
245	0xbe88faeb	-0.26753935
246	0x3de27420	0.11057305
247	0xbe82cf0a	-0.25548583
248	0xbe990f5e	-0.29894537
249	0xbdfe8fcf	-0.12429773
250	0xbe8a3bb8	-0.26998687
251	0xbf748b37	-0.95524925
252	0xbf1bb0a2	-0.60816395
253	0x3db94cf4	0.09047881
254	0xbf46f49d	-0.77717
255	0xbf934837	-1.1506413

network.3.bias f4 [64]
0	0xbfe65012	-1.7993186
1	0xbfd26629	-1.6437427
2	0xbf971cfc	-1.180572
3	0x3d9552f0	0.0729121
4	0xbfc808c6	-1.5627677
5	0xbfa34984	-1.275681
6	0xbfcd9baa	-1.606313
7	0xbf7a976b	-0.97887295
8	0xbf3e95ea	-0.744475
9	0xbfa8ed99	-1.3197509
10	0xbfb52688	-1.4152384
11	0xbfbafac0	-1.4607773
12	0xbfaa87c0	-1.3322678
13	0xbfef37e8	-1.8688936
14	0xbf86ad46	-1.0521629
15	0xbf9b6f29	-1.2143298
16	0xbf9b7300	-1.214447
17	0xc0122a8b	-2.2838466
18	0xbf87c335	-1.0606447
19	0xbf27065d	-0.65244085
20	0xbfbf4a62	-1.4944575
21	0xbfd84fca	-1.689935
22	0xbf7429b7	-0.9537615
23	0xbfa0f2fb	-1.2574152
24	0xbf8428b8	-1.0324926
25	0xbe9b71da	-0.303603
26	0xbfe7875a	-1.8088181
27	0xbf906588	-1.1280985
28	0xbfb50d6a	-1.4144719
29	0xbfaf99a9	-1.3718768
30	0xbfc86d59	-1.565837
31	0xbfc80ad5	-1.5628306
32	0x3fb9133b	1.4458994
33	0xbfb35335	-1.4009768
34	0xc0149135	-2.3213627
35	0xbfa8768c	-1.3161178
36	0xbfbbd018	-1.467288
37	0xbfc00433	-1.5001281
38	0x3ecc6602	0.39921576
39	0xbf939c08	-1.1531992
40	0xbf5a178b	-0.85192174
41	0xbfd58659	-1.6681625
42	0xbf92f724	-1.1481671
43	0xbff4773d	-1.9098889
44	0xbfdb4344	-1.7129903
45	0xbfcff4da	-1.6246598
46	0xc00b4d87	-2.176607
47	0xbf7a23eb	-0.97711056
48	0xbf7b7f3d	-0.98241025
49	0xbfa53183	-1.2905735
50	0xbf8dd9cb	-1.108209
51	0xbfa1da70	-1.2644787
52	0xbf82ac10	-1.0208759
53	0x4008d962	2.138268
54	0xbfa1606a	-1.2607548
55	0xbfd3d01f	-1.6547889
56	0xbff3f72b	-1.9059805
57	0xbf32fadf	-0.6991405
58	0xc00517b0	-2.0795708
59	0xbf827af5	-1.0193774
60	0xbf998d1c	-1.1996188
61	0xbfc92c4a	-1.5716641
62	0x3fa3a409	1.2784435
63	0xbe8bd342	-0.27309614

network.6.weight f4 [5, 64]
0	0xbe0763ac	-0.13221616
1	0xbdc6c5e0	-0.097057104
2	0x3da52e05	0.08065418
3	0x3cd8e981	0.02647853
4	0xbd5cb213	-0.053880762
5	0xbe0cebc7	-0.13761817
6	0x3d92c5ee	0.07166658
7	0xbcc1b3b9	-0.023645269
8	0xbdb26e7f	-0.08712482
9	0x3d08a2a8	0.033358246
10	0x3c6b447a	0.014359588
11	0xbd331298	-0.043718904
12	0x3df56582	0.11982252
13	0x3c2d4672	0.0105758775
14	0x3dbf2122	0.093324915
15	0x3b9562ba	0.0045588883
16	0x3d05004f	0.032470997
17	0xbc77f939	-0.015135103
18	0xbd7165e4	-0.05893506
19	0x3d5ca6ca	0.05387
20	0xbd96c3ae	-0.07361542
21	0xbda02b8c	-0.07820806
22	0x3dc85f7b	0.097838365
23	0xbd891a68	-0.0669449
24	0x3cddf3f4	0.027093865
25	0xbde9335a	-0.11386748
26	0xbda2641c	-0.079292506
27	0xbb624c7c	-0.0034530452
28	0xbda06545	-0.07831816
29	0xbdd70ed5	-0.10500876
30	0x3c1885b3	0.00930922
31	0xbd6a56a4	-0.057211533
32	0xbd41a5ab	-0.047277134
33	0x3d456d98	0.04820022
34	0x3d2af4ee	0.04173749
35	0xbdb3eb6b	-0.08785137
36	0x3bb29cf1	0.005450838
37	0x3e0412ad	0.12897749
38	0xbd83a64d	-0.06428204
39	0xbc01e55e	-0.007928221
40	0xbe0b33dc	-0.13594002
41	0xbd9959d3	-0.07487836
42	0xbcdf3528	-0.027247027
43	0xbcceb8e3	-0.025234645
44	0x3cf9cf4f	0.03049436
45	0xbda4c6aa	-0.08045705
46	0x3cdbc994	0.026829518
47	0x3d1792d5	0.037005264
48	0xbdc19b23	-0.09453418
49	0xbdec6018	-0.11541766
50	0x3db3c4d8	0.08777779
51	0xbcc62886	-0.024189245
52	0xbe0a49e5	-0.13504751
53	0xbd8a65fc	-0.06757733
54	0x3e0eb851	0.13937499
55	0xbcca526b	-0.024697503
56	0x3d8b7f55	0.06811396
57	0x3c236a4d	0.009974075
58	0xbd153977	-0.036431756
59	0x3dcb0b82	0.09914304
60	0x3cea8d5c	0.028631859
61	0x3d5bebcd	0.053691674
62	0xbd78200a	-0.06057743
63	0xbca09c40	-0.019605756
64	0xbd42c472	-0.047550626
65	0x3e5920de	0.21203944
66	0x3e54cb84	0.2078076
67	0x3d9c38be	0.0762801
68	0xbed06173	-0.40699348
69	0x3e02b5f7	0.12764727
70	0xbde96b3f	-0.11397409
71	0x3dc26df8	0.09493631
72	0x3cfb76bb	0.030696264
73	0x3d7cfdf1	0.061765615
74	0xbe78a848	-0.24282944
75	0xbe52054e	-0.20509836
76	0x3e439d58	0.1910299
77	0x3e0a0edb	0.1348223
78	0xbe05d2fb	-0.13068764
79	0xbdfc5519	-0.123209186
80	0xbd95ad24	-0.073084146
81	0x3edb9192	0.428845
82	0xbeae4dcf	-0.34043738
83	0xbba3e3c5	-0.0050015175
84	0x3e54c732	0.20779112
85	0xbdf8d3f5	-0.121498026
86	0xbe94340e	-0.28945965
87	0x3e500025	0.20312555
88	0xbdfbb662	-0.12290646
89	0xbe8fef2c	-0.2811216
90	0xbf0ba8e5	-0.5455459
91	0xbde8698d	-0.11348257
92	0xbe35fb6e	-0.17771694
93	0x3dfd2287	0.12360101
94	0xbe4b0b53	-0.19828539
95	0xbd7c6cce	-0.0616272
96	0xbec48e50	-0.38389826
97	0x3eadee18	0.33970714
98	0xbcac1fa5	-0.021011183
99	0x3e147057	0.14495979
100	0xbe3a7e5e	-0.18212268
101	0x3e65434f	0.22388957
102	0x3db19d34	0.08672562
103	0xbe08a2d8	-0.1334337
104	0xbdb24ad5	-0.08705679
105	0xbe73d396	-0.23811182
106	0x3e200151	0.15625502
107	0xbe896031	-0.268312
108	0xbd26a228	-0.040681988
109	0x3c6159c5	0.013754313
110	0x3e9e1e59	0.30882528
111	0xbc7b0ada	-0.015322411
112	0xb9d4eef3	-0.00040613822
113	0xbe506704	-0.20351797
114	0xbe5042ed	-0.2033803
115	0x3dcdd29d	0.10049937
116	0x3ecef261	0.40419295
117	0xbe44ed13	-0.19231062
118	0xbe876c8b	-0.2645
119	0xbed90c2c	-0.423921
120	0xbf34b956	-0.705953
121	0x3e4f50ae	0.2024562
122	0x3e310634	0.17287523
123	0xbd98f228	-0.07468063
124	0x3e62aba5	0.2213579
125	0xbdbf3f5a	-0.09338255
126	0xbe148ffa	-0.14508048
127	0xbebddf83	-0.37084588
128	0x3d87d5dd	0.06632588
129	0xbe28300c	-0.16424578
130	0xbe9820ee	-0.29712623
131	0xbbb71a94	-0.005587885
132	0x3c5b8c7f	0.013400196
133	0xbe3d381e	-0.18478438
134	0x3e695157	0.22784935
135	0x3e348247	0.17627822
136	0x3e09024f	0.13379787
137	0xbf0c3d9f	-0.54781526
138	0xbe1fd9f9	-0.15610494
139	0x3ea64ca0	0.32480335
140	0xbda0b48b	-0.07846936
141	0x3e041c46	0.1290141
142	0xbe4c803f	-0.19970797
143	0xbe486033	-0.19567947
144	0xbb4def05	-0.0031422984
145	0xbe00a699	-0.12563552
146	0xbd4b7e2a	-0.049680866
147	0x3ec5d07a	0.38635617
148	0x3e11bba8	0.14231741
149	0xbd83c1ee	-0.064334735
150	0x3d7fa68c	0.06241469
151	0xbd73bae9	-0.059504423
152	0x3e469382	0.19392207
153	0xbe6570b5	-0.22406276
154	0x3e0c3023	0.13690238
155	0x3d9b093d	0.075701214
156	0x3cf66f52	0.030082379
157	0xbe54fffb	-0.20800774
158	0x3e7bdac1	0.24595167
159	0xbd46f906	-0.04857733
160	0x3dd4f174	0.10397616
161	0xbcc776ee	-0.024348702
162	0x3c2d9b09	0.010596045
163	0x3dda5136	0.10660021
164	0xbe5edda7	-0.21764241
165	0xbe00abe7	-0.12565576
166	0x3e4cbf31	0.19994809
167	0xbe29e3f6	-0.16590866
168	0xbe589111	-0.21149088
169	0x3e4619b9	0.1934575
170	0x3e6aa87d	0.22915836
171	0xbeb908ea	-0.36139613
172	0x3e86ab79	0.26302698
173	0xbe950961	-0.29108718
174	0xbd70ae8d	-0.058760215
175	0xbe871070	-0.26379728
176	0xbd54d45b	-0.05196033
177	0xbc8f9ca1	-0.017530741
178	0xbe503091	-0.20331027
179	0x3e8e9264	0.27846062
180	0xbe8361a2	-0.25660425
181	0x3e31284e	0.17300531
182	0xbdef634d	-0.11688862
183	0xbe871c12	-0.26388603
184	0x3e7da163	0.24768595
185	0xbe7ae275	-0.24500449
186	0xbea9b267	-0.33143923
187	0x3e9c8fc1	0.30578426
188	0xbdc05639	-0.09391446
189	0x3ee295f4	0.4425503
190	0xbee6aa44	-0.45051777
191	0x3e005f21	0.12536289
192	0xbe6c7748	-0.23092377
193	0x3e04f79e	0.12985083
194	0xbd522ded	-0.05131333
195	0xbde85581	-0.113444336
196	0x3c83cf84	0.016090162
197	0x3d3f4711	0.046698634
198	0x3e323d4c	0.17406195
199	0xbeb8749c	-0.36026466
200	0xbe3f892b	-0.18704669
201	0xbec82835	-0.39093176
202	0x3d8259e9	0.06364805
203	0xbdd9d5e9	-0.10636503
204	0x3d95a711	0.07307256
205	0x3d395c5a	0.04525409
206	0x3d9cf250	0.07663405
207	0x3dc1f1e6	0.094699666
208	0xbe0ede52	-0.13951996
209	0x3dae5d1f	0.08513855
210	0x3df5a820	0.11994958
211	0x3eb6f4e8	0.35733724
212	0x3da919de	0.08256887
213	0x3dee2564	0.116282254
214	0xbce361bc	-0.027756564
215	0x3d65aaf0	0.05607122
216	0xbd9fc621	-0.07801462
217	0x3d200e32	0.039076038
218	0xbe24a198	-0.16077268
219	0xbc40e075	-0.011772265
220	0xbdd200b8	-0.10254043
221	0xbd3d8eef	-0.04627889
222	0x3d8d7243	0.06906559
223	0xbb95d3c9	-0.004572366
224	0x3d40030d	0.04687791
225	0x3e325136	0.17413792
226	0x3e0e7ff5	0.13915999
227	0xbe1e9b88	-0.15489018
228	0xbe8d1a5c	-0.27559173
229	0xbe3431f2	-0.17597178
230	0x3e9bdef0	0.30443525
231	0xbde93382	-0.113867775
232	0x3d89e8db	0.06733867
233	0x3de55a84	0.11198905
234	0xbe0b2a83	-0.13590436
235	0x3e95bb88	0.29244637
236	0xbd229260	-0.039690375
237	0x3dd8bd7a	0.10583015
238	0xbda9006d	-0.08252034
239	0x3dc3874f	0.095472924
240	0x3df8561f	0.12125801
241	0x3cc9b891	0.024624141
242	0x3d3a3957	0.04546484
243	0xbe49b422	-0.19697621
244	0x3e27b73e	0.16378495
245	0x3e4bc92d	0.19900961
246	0x3dd9f0cc	0.106416315
247	0x3ea3ff61	0.32030776
248	0x3e545562	0.20735696
249	0x3ca88980	0.020573378
250	0x3dbd751e	0.09250854
251	0x3d5a5623	0.053304803
252	0xbdcc3a3f	-0.09972047
253	0xbe22c3e2	-0.15895036
254	0xbc08cf0d	-0.008350146
255	0x3e1487bf	0.14504908

network.6.bias f4 [5]
0	0x3ca123ea	0.019670445
1	0xbdfde47a	-0.12397094
2	0x3cbd4b8f	0.023107318
3	0x3e8422b1	0.25807717
4	0x3d28b24e	0.04118567
