experiments/checkpoints/20251210_110803/checkpoint_ep69.pt (torch, 246569 bytes, 24 tensors)

network.0.weight f4 [128, 43]
-0.005038105 -0.7076781 0.5113076 -1.1551925 1.0596948 -0.16009825 -0.1564972 0.13742939
0.16417558 -0.16214162 -0.017676832 -0.11556667 0.0014387622 0.73395634 -0.9379942 0.7248161
-0.5782738 0.7423705 -0.13665262 -0.07991984 -0.13716109 -0.087766334 0.12985319 -0.0012772282
-0.091350935 0.16759537 -0.046019875 0.6346853 0.20270465 -0.065738656 0.06823768 -0.13118869
-0.1823939 0.8826359 0.15984195 1.0539143 0.9498538 0.22382855 -0.09982498 -0.9684514
1.88989 -1.1798584 0.03774549 -0.16519095 1.2818366 -1.1338509 -0.018473305 0.40148136
-0.18459105 -2.7995195 0.082657486 0.09166626 -0.038023453 0.041999325 0.044109125 0.36203876
-0.33819056 1.3292403 1.1863133 -2.049771 0.9891098 -0.679792 -0.18591627 0.06141204
0.082058065 -0.081380576 0.11609866 -0.046586253 -0.096358 0.09693809 0.34865502 -0.66152924
0.65278786 0.15682924 -0.117786236 -0.06700719 0.3270618 -0.1232115 -0.13386624 0.6421208
-1.6031879 0.8142802 -0.47355914 1.3702699 -0.72515076 0.09680121 0.08296055 -0.014117712
0.07555569 1.1517005 -0.8153346 -0.08080126 -0.2593422 0.043407675 0.040695835 -0.0936578
-0.033666972 -0.004744466 -2.339505 -1.143845 -0.46886447 0.54164714 -1.7094988 2.228788
1.2877239 0.038169313 -0.18390925 0.15968771 0.09758513 -0.1756292 0.059935182 -0.15009323
0.016646305 -0.121783696 0.08922035 -0.77426237 -0.16686353 -0.32209456 0.13773379 -0.15305561
-0.09910957 -1.0331444 0.37715617 -0.22960539 0.041004997 -0.6671962 -0.6184992 -0.69108224
-0.036285426 0.011200433 0.6198914 -0.6014724 0.9238425 0.558448 -0.18180686 -1.2340796
-0.17965011 -0.026955638 0.058513746 -0.13424315 0.01246308 0.70171523 -1.1943911 0.8891544
-0.2108615 -1.4935246 0.12086681 -1.8779442 0.08835625 -0.071242444 0.18370159 -0.017899908
-0.019534081 -0.120459475 0.08572864 -0.18668589 -0.62259847 -0.43559104 -0.1939886 -0.10307467
-0.20297539 0.08387708 -0.55139863 -0.031754166 -0.9488047 0.6100571 -1.5592343 0.28200805
0.5951394 0.7671624 -1.2235446 0.03809116 -0.14574891 0.23525715 -0.24064249 0.024200983
-1.3282526 0.1341519 0.42029518 -0.08717285 -0.045906283 0.14056504 -0.10394172 -0.17114513
0.5000473 -1.0733019 0.46413538 0.8249934 -0.7569597 0.08826552 -1.7688155 -0.08383517
0.17296724 -0.17466044 0.03444508 0.15730797 -0.016495243 0.08065083 0.1395174 -1.0578213
1.8865378 -1.5753464 -0.040309727 0.96694064 -0.17990011 -1.4092225 0.1069037 -2.0562558
1.4750731 0.25561848 -1.4623096 -0.71933323 0.8099836 -0.76904 0.11721236 -0.031579234
-0.11256273 0.32626024 1.1498991 -0.6330323 0.12952831 -0.20111981 0.022331666 0.036364317
-0.15786575 0.04979279 -0.04501753 -0.7334143 -0.66880894 0.606841 0.8596133 -0.66884965
-0.6365403 -0.13533589 0.0633418 0.08143682 0.11926313 0.10132679 -0.12744011 -0.07973378
-0.12745032 -0.11795269 -0.5618084 0.30806214 0.345519 0.13541089 -1.1356726 0.013468754
-0.5470441 0.09618714 -0.18178833 -0.20358194 1.2882129 0.6284989 0.43359986 -0.3856522
00000000: b016 a5bb 642a 35bf 0ee5 023f 59dd 93bf
00000010: 14a4 873f ccf0 23be cd40 20be 4aba 0c3e
00000020: a51d 283e 7408 26be 01cf 90bc 38ae ecbd
00000030: d994 bc3a 90e4 3b3f 6320 70bf 8c8d 393f
00000040: c009 14bf fe0b 3e3f aaee 0bbe 03ad a3bd
00000050: f573 0cbe d6be b3bd 3cf8 043e ab68 a7ba
00000060: 3316 bbbd 1f9e 2b3e 567f 3cbd bc7a 223f
00000070: cf91 4f3e fda1 86bd 32c0 8b3d 5456 06be
00000080: 77c5 3abe 6df4 613f 9cad 233e aae6 863f
00000090: 9e29 733f 5033 653e 0a71 ccbd 6eec 77bf
000000a0: eae7 f13f 9a05 97bf 049b 1a3d d127 29be
000000b0: 3913 a43f 0722 91bf 5455 97bc f78e cd3e
000000c0: 7005 3dbe 542b 33c0 5448 a93d 85bb bb3d
000000d0: 7bbe 1bbd 7c07 2c3d c5ab 343d 255d b93e
000000e0: 5027 adbe 8c24 aa3f 1dd9 973f 732f 03c0
000000f0: 4d36 7d3f d906 2ebf d660 3ebe 318b 7b3d
00000100: 0f0e a83d dcaa a6bd 22c5 ed3d 3ad1 3ebd
00000110: 5857 c5bd 7a87 c63d e982 b23e fb59 29bf
00000120: 1b1d 273f d897 203e e939 f1bd 113b 89bd
00000130: a574 a73e 5056 fcbd 3b14 09be 0762 243f
00000140: 4335 cdbf ab74 503f 5876 f2be 0165 af3f
00000150: 7ba3 39bf b63f c63d 39e7 a93d fa4d 67bc
00000160: f1bc 9a3d ec6a 933f c5b9 50bf 227b a5bd
00000170: 80c8 84be 3fcc 313d adb0 263d a9cf bfbd
00000180: 61e6 09bd 7777 9bbb 73ba 15c0 8369 92bf
00000190: 010f f0be 63a9 0a3f dbd0 dabf 76a4 0e40
000001a0: 23d4 a43f 6d57 1c3d b552 3cbe 2d85 233e
000001b0: b6da c73d 24d8 33be 987e 753d 0ab2 19be
000001c0: d55d 883c bb69 f9bd 29b9 b63d 0f36 46bf
000001d0: 46de 2abe 94e9 a4be 160a 0d3e 9cba 1cbe
000001e0: f5f9 cabd 133e 84bf 9d1a c13e ad1d 6bbe
000001f0: dbf4 273d 5fcd 2abf f755 1ebf c4ea 30bf
00000200: 07a0 14bd 0582 373c 34b1 1e3f 18fa 19bf
00000210: f180 6c3f 73f6 0e3f 942b 3abe 52f6 9dbf
00000220: 33f6 37be 12d2 dcbc 1cac 6f3d 0977 09be
00000230: f231 4c3c 9ca3 333f cfe1 98bf 9f9f 633f
00000240: 14ec 57be d02b bfbf 0589 f73d 7a60 f0bf
00000250: 1ff4 b43d 8fe7 91bd 451c 3c3e d4a2 92bc
00000260: f005 a0bc 75b3 f6bd 7f92 af3d 962a 3fbe
00000270: 9d62 1fbf ca05 dfbe f3a4 46be d018 d3bd
00000280: c8d8 4fbe bfc7 ab3d 7628 0dbf a810 02bd
00000290: dde4 72bf b42c 1c3f fd94 c7bf 5c63 903e
000002a0: 0e5b 183f c164 443f 1c9d 9cbf 7a05 1c3d
000002b0: 343f 15be 40e7 703e fc6a 76be 2441 c63c
000002c0: 2e04 aabf 1e5f 093e ee30 d73e ae87 b2bd
000002d0: 3a08 3cbd 48f0 0f3e 66df d4bd ab40 2fbe
000002e0: 1a03 003f f561 89bf 27a3 ed3e c432 533f
000002f0: 1cc8 41bf 8ec4 b43d 8c68 e2bf c6b1 abbd
00000300: 531e 313e 30da 32be 4916 0d3d 5715 213e
00000310: 0821 87bc 432c a53d a6dd 0e3e b066 87bf
00000320: 127a f13f f3a4 c9bf d01b 25bd 6c89 773f
00000330: bc37 38be 6761 b4bf 54f0 da3d b299 03c0
00000340: 32cf bc3f 6de0 823e f62c bbbf 3926 38bf
00000350: 165b 4f3f cedf 44bf 090d f03d 3a59 01bd
00000360: 4a87 e6bd 950b a73e e52f 933f 680e 22bf
00000370: 12a3 043e 5af2 4dbe e6f0 b63c c0f2 143d
00000380: 8fa7 21be 86f3 4b3d 4d64 38bd 0ac1 3bbf
00000390: 1037 2bbf ef59 1b3f 9e0f 5c3f bb39 2bbf
000003a0: 4ef4 22bf 7e95 0abe 58b9 813d 59c8 a63d
000003b0: 3a40 f43d 6c84 cf3d a97f 02be 774b a3bd
000003c0: 5682 02be 2e91 f1bd add2 0fbf 52ba 9d3e
000003d0: dee7 b03e 27a9 0a3e b85d 91bf 0cac 5c3c
000003e0: 150b 0cbf c3fd c43d b826 3abe c977 50be
000003f0: 29e4 a43f 4ee5 203f cd00 de3e 3574 c5be

network.0.bias f4 [128]
-5.6793623 -5.5620594 -2.2714922 -5.340243 -4.980554 -3.4712043 -4.484569 -4.953161
-2.9294808 -3.0057502 -5.2867537 -0.98561364 -4.644826 -3.533467 -4.6689696 -4.726621
-3.6004379 -4.695378 -1.313717 -4.96062 -5.6305804 -3.9500241 -1.8815789 -5.0870566
-4.2465653 -3.6857758 -2.234599 -3.9241166 -3.641573 -3.8349876 -5.35932 -5.7088914
-2.2537549 -3.6843255 -4.9103694 -1.2191719 -5.936405 -4.817017 -4.683261 -1.8695853
-5.106138 -3.0596015 -5.181043 -4.0672994 -5.4516816 -3.5597887 -3.233695 -4.1891975
-3.2631025 -4.240932 -5.3973236 -2.632971 -3.838065 -4.605692 -2.401425 -5.750083
-3.686484 -5.523477 -4.3788033 -3.2576294 -5.333474 -4.005536 -3.232212 -4.5491524
-2.6285474 -2.5620298 -4.611999 -1.429274 -4.3703437 -3.6491177 -5.438728 -0.03979925
-1.7072324 -2.6121092 -5.0971193 -3.9575474 -1.9650695 -4.6710305 -4.8445306 -1.5755517
-4.8634315 -3.4239094 -3.6639473 0.096122466 -4.1689315 -4.064268 -3.1708024 -3.6251867
-3.120201 -3.4932382 -2.801246 -4.8205485 -1.7744495 -1.7462285 -3.2608166 -4.9196296
-3.0630062 -3.1772792 -4.5820785 -3.4207456 -5.5855713 -1.7543129 -4.3441854 -3.8845596
-5.4751816 -5.24052 -1.8730004 -2.7689376 -2.5125868 -3.2496064 -2.1884463 -3.1447296
-4.179974 -5.139649 -5.198237 -5.127212 -5.898459 -5.7227855 -1.2274036 -3.4197156
-3.6747184 -2.9373932 -3.9591737 -3.561782 -5.527564 -5.278566 -1.9029655 -3.496025
00000000: 56bd b5c0 64fc b1c0 2160 11c0 45e3 aac0
00000010: b360 9fc0 3628 5ec0 9781 8fc0 4b80 9ec0
00000020: 9d7c 3bc0 365e 40c0 162d a9c0 2d51 7cbf
00000030: 6aa2 94c0 5324 62c0 3368 95c0 7b40 97c0
00000040: 936d 66c0 8940 96c0 e127 a8bf 66bd 9ec0
00000050: b72d b4c0 32cd 7cc0 94d7 f0bf 2bc9 a2c0
00000060: dde3 87c0 c0e3 6bc0 ac03 0fc0 ba24 7bc0
00000070: 880f 69c0 7070 75c0 8d7f abc0 3daf b6c0
00000080: 853d 10c0 fdcb 6bc0 bf21 9dc0 d30d 9cbf
00000090: 08f7 bdc0 0125 9ac0 46dd 95c0 924e efbf
000000a0: 7c65 a3c0 83d0 43c0 1bcb a5c0 5127 82c0
000000b0: 2d74 aec0 94d3 63c0 dcf4 4ec0 e80d 86c0
000000c0: acd6 50c0 b7b5 87c0 e0b6 acc0 9982 28c0
000000d0: dba2 75c0 d461 93c0 f2b0 19c0 ae00 b8c0
000000e0: 5bef 6bc0 53c0 b0c0 281f 8cc0 007d 50c0
000000f0: d2ab aac0 5a2d 80c0 90dc 4ec0 a892 91c0
00000100: 1f3a 28c0 4cf8 23c0 7f95 93c0 73f2 b6bf
00000110: dbd9 8bc0 258b 69c0 0f0a aec0 8a04 23bd
00000120: 9786 dabf cc2c 27c0 9a1b a3c0 7548 7dc0
00000130: 6687 fbbf 1579 95c0 6506 9bc0 aeab c9bf
00000140: 3ba1 9bc0 5521 5bc0 1d7e 6ac0 dbdb c43d
00000150: e367 85c0 7c0e 82c0 6dee 4ac0 0f03 68c0
00000160: 60b1 47c0 3791 5fc0 9d47 33c0 ef41 9ac0
00000170: 2921 e3bf 6a84 dfbf 38b1 50c0 9b6d 9dc0
00000180: 4b08 44c0 8b58 4bc0 63a0 92c0 7fed 5ac0
00000190: 00bd b2c0 538d e0bf 9103 8bc0 a09c 78c0
000001a0: b034 afc0 57b2 a7c0 7abe efbf 4636 31c0
000001b0: 39ce 20c0 8df9 4fc0 810f 0cc0 4043 49c0
000001c0: 59c2 85c0 0178 a4c0 f557 a6c0 1f12 a4c0
000001d0: 2dc0 bcc0 0f21 b7c0 901b 9dbf 9fdc 5ac0
000001e0: 962e 6bc0 40fe 3bc0 1a63 7dc0 3cf4 63c0
000001f0: cee1 b0c0 03ea a8c0 6094 f3bf e0be 5fc0

network.3.weight f4 [64, 128]
-0.060806017 -0.06439843 -0.085266605 -0.59798235 -0.060084023 0.11206979 -0.24649991 -0.16609035
-0.31800002 0.14675213 -0.13462414 -0.2699036 -0.2246838 -0.34937152 -0.22538161 -0.6384847
-0.07423435 -0.3060975 -0.22292858 -0.18358858 -0.51230764 -0.5757672 -0.96449625 -0.3350941
-0.041997775 0.25444221 0.024660507 -0.57618636 -1.1953039 -0.66356105 0.05296651 -0.45474964
0.0025038123 -0.4107077 -0.16068551 -0.6313543 -0.49268466 -0.29774988 -0.24670523 -0.55432004
-0.39222544 -0.35235104 -0.115349755 -0.86775696 -0.7246712 -0.79469097 -0.35781556 0.15791139
-0.3999016 -0.31538364 -0.41474986 -0.6061311 -0.18465653 0.09996243 -0.6713531 -0.0018046976
-0.33731264 -0.374825 -0.21174854 -0.40102342 -0.12766375 -0.18671156 -0.48572865 -0.14830017
-0.05655113 -0.19117995 -0.10021164 -0.055189442 -0.36002943 -0.11753408 0.2098401 -0.57368064
-0.6110476 -0.2069672 -0.37491435 -0.19855502 -0.2628316 -0.43221065 -0.20824787 -0.8092895
-0.43504637 -0.1798712 -0.39329857 -0.5328708 -0.36477527 -0.22591615 -0.29610732 -0.11935232
-0.56702244 -0.013544622 -0.57388115 -0.20187782 -0.36705396 -0.34347078 -0.50755656 -0.2657048
-0.3379187 0.105224825 -0.5580487 -0.27622503 -0.287087 -0.28930637 -0.15690559 0.2702545
-0.05522723 -0.054707404 -0.5049689 -0.14465511 -1.0113434 0.2764458 -0.5636169 -0.41702983
-0.062676385 -0.021838564 0.016965713 -0.11527273 -0.30336997 -0.15308027 0.13406925 -0.66366416
-0.09452588 -0.1932252 -0.32032856 -0.42540553 0.095501624 -0.009731192 -0.120852225 -0.3098873
-0.0806992 -0.47440937 -0.32286814 -0.2999626 -0.33880496 -0.105881855 -0.35245252 -0.09947534
-0.30603603 -0.48570162 -0.2086172 -0.20686176 -0.47518206 -0.3023161 -0.96439344 -1.2289163
-0.090190545 -0.2786361 -0.5976827 0.3176246 -0.026413899 -0.4205657 -0.43025252 -0.39559916
-0.28857785 -0.2587369 -0.05882889 0.029114699 -0.03619891 -0.7297967 -0.006450197 -1.1458653
-1.0875441 -0.26417843 -0.08874082 -0.5059026 -0.16549242 -0.30430475 -0.48123154 -0.7537644
-0.25875568 -1.5081445 -0.035819072 -0.41577995 -0.017801827 -0.71517307 -1.4850472 -0.33345374
-0.6991202 -0.039868783 -0.9362148 -0.04920702 -0.4522478 -0.23470508 -1.8821374 0.013598822
-0.66737944 -0.13875864 -0.38656306 -0.9683578 -0.30149326 -0.15384041 -0.1866671 -0.5856239
-0.6221188 -0.6392066 0.11638261 -0.118862934 -0.37440243 -0.19320154 0.025832433 -0.37367696
-0.11832947 -0.42981526 -0.41802093 -0.14266494 -0.09903101 -0.31425703 -0.45272246 -0.4770137
0.023612564 -0.10892623 -0.46435475 -0.5686714 -0.7040246 -1.1030954 -0.6665054 -0.7101794
-0.26342264 -0.20522922 -0.2409348 -0.54153603 -0.57763463 -0.32694256 -0.93269026 -0.53285164
-0.39029863 -0.4463307 -0.60353464 -0.56048524 -0.8486726 -0.049493067 -0.5901727 -0.09789841
0.022765202 -0.12665004 -0.60891324 -0.46257395 -0.11807727 -0.038817227 -0.3589592 -0.11718408
-0.8823233 -0.1111768 -0.43747127 -0.44115847 -0.35911846 -0.30209616 0.10498207 -0.24046043
-0.3231531 -0.14956619 -0.28688818 -1.0562632 -0.6932687 0.018597824 -0.8849854 -1.336622
00000000: bb0f 79bd 53e3 83bd 42a0 aebd 5f15 19bf
00000010: aa1a 76bd d984 e53d 796a 7cbe 9713 2abe
00000020: e6d0 a2be 3146 163e e9da 09be ce30 8abe
00000030: 8313 66be d3e0 b2be 70ca 66be bc73 23bf
00000040: 2e08 98bd d0b8 9cbe 6447 64be a5fe 3bbe
00000050: 9826 03bf 7b65 13bf 3ae9 76bf 7491 abbe
00000060: dc05 2cbd 4046 823e d504 ca3c f380 13bf
00000070: b8ff 98bf 23df 29bf 69f3 583d f2d4 e8be
00000080: 0017 243b 4848 d2be be8a 24be 6fa0 21bf
00000090: 2a41 fcbe ac72 98be 4ca0 7cbe ebe7 0dbf
000000a0: c6d1 c8be 5b67 b4be 7e3c ecbd 5225 5ebf
000000b0: 0d84 39bf de70 4bbf 9a33 b7be 86b3 213e
000000c0: e7bf ccbe f779 a1be 185a d4be 682b 1bbf
000000d0: 9a16 3dbe 1ab9 cc3d ccdd 2bbf 9a8b ecba
000000e0: 3eb4 acbe 10e9 bfbe 9cd4 58be f152 cdbe
000000f0: 49ba 02be 5131 3fbe 6db1 f8be 00dc 17be
00000100: 28a2 67bd adc4 43be c33b cdbd 530e 62bd
00000110: c755 b8be b5b5 f0bd 53e0 563e bcdc 12bf
00000120: 9e6d 1cbf 36ef 53be c6f4 bfbe 0252 4bbe
00000130: dd91 86be b74a ddbe ee3e 55be 992d 4fbf
00000140: 66be debe 2830 38be 6e5e c9be 396a 08bf
00000150: d3c3 babe 9056 67be 619b 97be fd6e f4bd
00000160: 6228 11bf 43ea 5dbc e0e9 12bf 0fb9 4ebe
00000170: 7fee bbbe 67db afbe 3aef 01bf 760a 88be
00000180: ae03 adbe 1d80 d73d 48dc 0ebf 5e6d 8dbe
00000190: 11fd 92be f71f 94be dcab 20be cc5e 8a3e
000001a0: f335 62bd df14 60bd a445 01bf 7820 14be
000001b0: b373 81bf 4e8a 8d3e 3249 10bf ef84 d5be
000001c0: 7a5c 80bd cae6 b2bc aefb 8a3c 1c14 ecbd
000001d0: 4f53 9bbe 13c1 1cbe 7349 093e e5e5 29bf
000001e0: c996 c1bd d4dc 45be 1b02 a4be c1ce d9be
000001f0: 5b96 c33d 946f 1fbc 5f81 f7bd 8ca9 9ebe
00000200: 9f45 a5bd c9e5 f2be f94e a5be b394 99be
00000210: d877 adbe 96d8 d8bd a874 b4be bab9 cbbd
00000220: c1b0 9cbe e2ad f8be bf9f 55be 92d3 53be
00000230: 104b f3be 2dc9 9abe 7de2 76bf 214d 9dbf
00000240: d2b5 b8bd 64a9 8ebe bc01 19bf b19f a23e
00000250: f661 d8bc 6354 d7be 0f4a dcbe f98b cabe
00000260: 7ac0 93be 2a79 84be 90f6 70bd f381 ee3c
00000270: 4f45 14bd f5d3 3abf 2d5c d3bb b7ab 92bf
00000280: a534 8bbf 6542 87be bfbd b5bd d582 01bf
00000290: d876 29be d5cd 9bbe fb63 f6be b4f6 40bf
000002a0: a07b 84be e10a c1bf 05b7 12bd 1ce1 d4be
000002b0: 23d5 91bc 9515 37bf 0716 bebf 73ba aabe
000002c0: 8bf9 32bf 734d 23bd c6ab 6fbf 4d8d 49bd
000002d0: 068d e7be 8756 70be e1e9 f0bf 98cd 5e3c
000002e0: 61d9 2abf bf16 0ebe 98eb c5be 4ce6 77bf
000002f0: 535d 9abe 5788 1dbe a925 3fbe 73eb 15bf
00000300: 2d43 1fbf 0ba3 23bf 015a ee3d 696e f3bd
00000310: adb1 bfbe a0d6 45be 8a9e d33c 9652 bfbe
00000320: b956 f2bd bf10 dcbe d706 d6be c216 12be
00000330: c5d0 cabd 4ce6 a0be 3dcb e7be 243b f4be
00000340: 236f c13c b714 dfbd e8bf edbe 7394 11bf
00000350: f53a 34bf 3b32 8dbf 19a0 2abf 51ce 35bf
00000360: 55df 86be 9c27 52be 9db7 76be 1ba2 0abf
00000370: dddf 13bf 0465 a7be cac4 6ebf f768 08bf
00000380: 39d5 c7be 7585 e4be 3f81 1abf f67b 0fbf
00000390: 9c42 59bf 3eb9 4abd 8f15 17bf f67e c8bd
000003a0: 177e ba3c 8cb0 01be bde1 1bbf 7ed6 ecbe
000003b0: 7fd2 f1bd d0fe 1ebd 80c9 b7be 35fe efbd
000003c0: f1df 61bf aab0 e3bd 3cfc dfbe 86df e1be
000003d0: 60de b7be 59ac 9abe d700 d73d 423b 76be
000003e0: 5374 a5be e127 19be 02e3 92be a233 87bf
000003f0: 0f7a 31bf 775a 983c 678e 62bf 6e16 abbf

network.3.bias f4 [64]
-1.8594153 -1.8354257 -1.0358039 -0.0085972715 -1.6301628 -1.2262323 -1.5863243 -1.0998045
-0.77125776 -1.5069213 -1.3175408 -1.6636121 -1.3830793 -1.6668552 -1.2101465 -1.5481268
-1.346602 -2.1243408 -1.1021155 -0.22501996 -1.7354273 -1.8617702 -0.9600134 -1.1751896
-0.76305413 -0.07851864 -2.1290836 -1.1915171 -1.6615062 -1.4260801 -1.4529715 -1.6849606
2.1000824 -1.432248 -2.4413068 -1.5448757 -1.71779 -1.4413757 0.29453546 -1.190785
-1.025453 -1.9443314 -1.1264299 -2.1893535 -1.8256588 -1.6163595 -2.0329466 -1.3161176
-1.21099 -1.4049971 -1.1029315 -1.0777122 -1.192908 2.5995734 -1.3103315 -1.5871098
-2.2789996 -0.6260619 -2.288673 -1.1729761 -1.3435049 -1.8456323 1.9564615 0.52720076
00000000: 5201 eebf 3bef eabf 3995 84bf 92db 0cbc
00000010: 2da9 d0bf 2ef5 9cbf ad0c cbbf 65c6 8cbf
00000020: 2671 45bf cce2 c0bf 2da5 a8bf 3ef1 d4bf
00000030: be08 b1bf 835b d5bf 15e6 9abf 0529 c6bf
00000040: 745d acbf 33f5 07c0 1f12 8dbf a26b 66be
00000050: 7b22 debf 7c4e eebf 70c3 75bf 9d6c 96bf
00000060: 8457 43bf 61ce a0bd e842 08c0 a283 98bf
00000070: 3cac d4bf cb89 b6bf f8fa b9bf caac d7bf
00000080: c067 0640 e753 b7bf 5f3e 1cc0 7dbe c5bf
00000090: 8be0 dbbf 007f b8bf 5acd 963e a56b 98bf
000000a0: 0b42 83bf dadf f8bf db2e 90bf 5e1e 0cc0
000000b0: 30af e9bf dee4 cebf cc1b 02c0 8b76 a8bf
000000c0: b801 9bbf f2d6 b3bf dc2c 8dbf 79f2 89bf
000000d0: 36b1 98bf 695f 2640 f1b8 a7bf 6a26 cbbf
000000e0: 21db 11c0 9845 20bf 9e79 12c0 1524 96bf
000000f0: f8f7 abbf ae3d ecbf 556d fa3f a1f6 063f

network.6.weight f4 [5, 64]
0.03826303 0.1454953 0.16680342 0.019594235 -0.0719706 0.017392142 -0.28966716 -0.039839823
-0.14823908 0.1106388 0.069254175 0.007125876 -0.046611473 0.04742813 0.26986137 0.042922243
-0.09091508 -0.25056493 -0.1991075 -0.15409188 -0.118923835 0.12854058 0.26314348 -0.27569738
0.03600691 0.009231345 -0.12715773 0.090448454 -0.06370391 0.090736344 0.10636835 -0.3124556
-0.061140932 0.29720894 0.26701722 -0.14401568 -0.17675124 -0.12332186 -0.1681453 0.012581233
-0.23307368 -0.05302273 0.19847271 -0.17578547 0.23572771 -0.0915929 0.27674446 0.23057005
-0.121821746 0.06266716 0.2243571 -0.06927512 -0.18906313 -0.05344507 -0.054871734 -0.103579916
-0.009449963 -0.2802761 0.101162836 0.12128449 -0.015225497 0.114354685 -0.10977062 -0.10827944
-0.047550626 0.23218323 0.20623735 0.062734656 -0.45042714 0.14596456 -0.13057514 0.09262877
0.044179007 0.06301328 -0.25861096 -0.219808 0.20011877 0.14498638 -0.13009581 -0.11834477
-0.06551449 0.48280796 -0.37871692 0.0067100157 0.21219635 -0.11698642 -0.31161925 0.2090351
-0.11013488 -0.29640374 -0.58013946 -0.10660894 -0.17292513 0.13331985 -0.19866444 -0.060479272
-0.46125582 0.370186 0.005877733 0.16787708 -0.17663467 0.23207457 0.06088734 -0.14229064
-0.10221848 -0.24871975 0.16352987 -0.30971944 -0.035817884 0.037843805 0.32464597 0.022310585
0.011102104 -0.21521418 -0.25197646 0.10049937 0.4158948 -0.23986845 -0.286442 -0.46599713
-0.7804141 0.2085828 0.17476521 -0.0654388 0.24102856 -0.12725124 -0.16405328 -0.38640872
0.06632583 -0.14562246 -0.33066586 -0.010708311 0.018077493 -0.18910244 0.24592215 0.2131152
0.12626776 -0.5814778 -0.19884832 0.3399969 -0.08610032 0.15525123 -0.2211672 -0.22249995
-0.009747398 -0.14341404 -0.03847612 0.41935438 0.14503597 -0.105872065 0.07587008 -0.042312775
0.214169 -0.22536246 0.14741866 0.077600375 0.022211118 -0.20043647 0.24958752 -0.06716764
0.09572614 -0.017534692 -0.013381727 0.08209771 -0.26174384 -0.13361093 0.21254024 -0.16182761
-0.20600657 0.1926604 0.234117 -0.37014157 0.26302698 -0.32284907 -0.062352944 -0.3041263
-0.031752687 -0.01627508 -0.20179658 0.3067272 -0.2579365 0.17487977 -0.13768907 -0.27634537
0.2626569 -0.24535014 -0.34297094 0.31384432 -0.081049986 0.47054777 -0.5361844 0.12448521
-0.23092377 0.14763942 -0.051628213 -0.1088736 0.017777383 0.05158075 0.22316606 -0.3919326
-0.18411236 -0.4637525 0.09374242 -0.11048099 0.08778834 0.03646491 0.09288264 0.1294175
-0.17757946 0.11515099 0.12790905 0.43906897 0.099701345 0.11758746 -0.044915937 0.06075191
-0.056955777 0.038563333 -0.16668326 -0.024952075 -0.106972694 -0.0435491 0.054157853 -0.031967916
0.027040482 0.22227749 0.12186378 -0.15907337 -0.33149135 -0.16848013 0.3566622 -0.112756126
0.08884613 0.106836684 -0.12157877 0.33255982 -0.034411304 0.12190837 -0.07326855 0.07513556
0.11562931 0.031483997 0.040353686 -0.1884831 0.15359575 0.19839785 0.10818742 0.3580021
0.24233682 0.025437305 0.07781113 0.055183172 -0.100284845 -0.20030884 -0.00067837955 0.13890389
00000000: b2b9 1c3d b8fc 143e 84ce 2a3e 1784 a03c
00000010: 5265 93bd f779 8e3c 414f 94be 152f 23bd
00000020: fccb 17be 9896 e23d 22d5 8d3d 2e80 e93b
00000030: aceb 3ebd 0044 423d 452b 8a3e 3ccf 2f3d
00000040: af31 babd 0c4a 80be d6e2 4bbe 43ca 1dbe
00000050: 578e f3bd 24a0 033e beba 863e 3528 8dbe
00000060: fb7b 133d 113f 173c a335 02be 0a3d b93d
00000070: 3277 82bd fad3 b93d a6d7 d93d 2efa 9fbe
00000080: ea6e 7abd c52b 983e 7bb6 883e d978 13be
00000090: 47fe 34be 2c90 fcbd 482e 2cbe 8421 4e3c
000000a0: deaa 6ebe 5d2e 59bd 6e3c 4b3e 1b01 34be
000000b0: 9b62 713e 0f95 bbbd 73b1 8d3e 8e1a 6c3e
000000c0: ae7d f9bd a457 803d debd 653e 1de0 8dbd
000000d0: c499 41be 38e9 5abd 2fc1 60bd b521 d4bd
000000e0: 05d4 1abc 5980 8fbe 762e cf3d 0164 f83d
000000f0: 5d74 79bc ca32 ea3d 6bcf e0bd 9cc1 ddbd
00000100: 72c4 42bd 71c1 6d3e e22f 533e 077b 803d
00000110: 639e e6be bc77 153e 7db5 05be 27b4 bd3d
00000120: 0cf5 343d 1b0d 813d a868 84be 5915 61be
00000130: efeb 4c3e 4f77 143e d637 05be be5e f2bd
00000140: 762c 86bd 9b32 f73e 2fe7 c1be b1df db3b
00000150: 004a 593e 9396 efbd 8f8c 9fbe 4c0d 563e
00000160: 658e e1bd 3bc2 97be 0584 14bf ca55 dabd
00000170: 4913 31be 0085 083e b16e 4bbe 1db9 77bd
00000180: b929 ecbe 0589 bd3e 009a c03b f8e7 2b3e
00000190: b8df 34be f5a4 6d3e 0165 793d a3b4 11be
000001a0: ec57 d1bd 64b0 7ebe 6074 273e 8c93 9ebe
000001b0: c6b5 12bd 1b02 1b3d ff37 a63e b0c4 b63c
000001c0: 99e5 353c 1b61 5cbe 0f03 81be 9dd2 cd3d
000001d0: 2af0 d43e 13a0 75be 87a8 92be 2d97 eebe
000001e0: 38c9 47bf bb96 553e a7f5 323e c704 86bd
000001f0: 31d0 763e 264e 02be 95fd 27be 5dd7 c5be
00000200: d6d5 873d 0e1e 15be 094d a9be e971 2fbc
00000210: 4017 943c 12a4 41be 04d3 7b3e df3a 5a3e
00000220: 564c 013e bbdb 14bf e59e 4bbe 1314 ae3e
00000230: 5d55 b0bd 2efa 1e3e a879 62be 07d7 63be
00000240: 8db3 1fbc 21db 12be 2399 1dbd 9eb5 d63e
00000250: 4f84 143e 74d3 d8bd c661 9b3d 2950 2dbd
00000260: 1e4f 5b3e 6bc5 66be ebf4 163e f2ec 9e3d
00000270: 17f4 b53c 383f 4dbe df93 7f3e 308f 89bd
00000280: 110c c43d eaa4 8fbc 083f 5bbc d822 a83d
00000290: 4a03 86be 4ed1 08be 26a4 593e 23b6 25be
000002a0: 63f3 52be c548 453e 5ebc 6f3e 3283 bdbe
000002b0: 79ab 863e 794c a5be cd65 7fbd 71b6 9bbe
000002c0: 1b0f 02bd 5153 85bc c3a3 4ebe 590b 9d3e
000002d0: 4110 84be af13 333e 5dfe 0cbe 247d 8dbe
000002e0: f77a 863e 113d 7bbe e399 afbe 34b0 a03e
000002f0: 89fd a5bd a3eb f03e 6143 09bf 1af2 fe3d
00000300: 4877 6cbe ca2e 173e 1b78 53bd 1ff9 debd
00000310: e0a1 913c 5646 533d a585 643e 64ab c8be
00000320: f387 3cbe f870 edbe 07fc bf3d db43 e2bd
00000330: 60ca b33d 3b5c 153d 4139 be3d 0586 043e
00000340: 64d7 35be 48d4 eb3d 97fa 023e a6cd e03e
00000350: 3830 cc3d b2d1 f03d c6f9 37bd ffd6 783d
00000360: 764a 69bd 96f4 1d3d 04af 2abe 4b68 ccbc
00000370: 8014 dbbd 8b60 32bd a0d4 5d3d caf0 02bd
00000380: 0084 dd3c b69c 633e b893 f93d 21e4 22be
00000390: 3cb9 a9be 0e86 2cbe 6e9c b63e afec e6bd
000003a0: f6f4 b53d 31cd da3d 4afe f8bd 4845 aa3e
000003b0: def2 0cbd 18ab f93d d20d 96bd ace0 993d
000003c0: 0fcf ec3d 5df5 003d e849 253d b701 41be
000003d0: 3448 1d3e ce28 4b3e 5e91 dd3d 0d4c b73e
000003e0: 2527 783e e561 d03c 715b 9f3d c007 623d
000003f0: 2462 cdbd c31d 4dbe 48d5 31ba d23c 0e3e

network.6.bias f4 [5]
0.022126222 -0.14673185 0.019473227 0.28226858 0.032190315
00000000: 0d42 b53c e040 16be 5186 9f3c 8285 903e
00000010: fed9 033d

network.0.weight f4 [128, 43]
-0.005038105 -0.3091904 0.112819925 -0.3556372 0.17239076 -0.16009825 -0.21901266 0.13742939
0.16417558 -0.16214162 -0.017676832 -0.11556667 -0.18321523 0.07800422 -0.49654105 0.23933405
-0.5805833 0.52728075 0.11596121 -0.07991984 -0.13716109 -0.087766334 0.12985319 -0.0012772287
-0.091350935 0.16759537 -0.046019875 0.33849058 -0.0073426752 -0.0076478263 0.0682377 -0.05369988
-0.1823939 0.5864436 0.15984195 0.24595518 0.4161095 0.22122397 -0.3203677 -0.77559435
0.5845968 -0.49335003 0.03774549 -0.16519095 0.7003912 -0.5524052 -0.06508258 0.14615555
-0.18459105 -1.3070244 0.082657486 0.09166626 -0.038023453 0.041999336 0.044109125 0.23359805
-0.16227354 0.77704585 0.55025935 -1.1188217 0.6152226 -0.3367937 -0.18591627 0.06141204
0.082058065 -0.081380576 0.11609866 -0.046586253 -0.096358 0.09693809 0.2796673 -0.27063477
0.34144342 0.15682924 -0.096784875 -0.06700719 0.2580747 -0.1232115 0.22683379 0.15196581
-0.9872437 0.4077339 -0.39027518 0.5333836 -0.5233657 0.09680121 0.08296055 0.04900721
0.012431552 0.27666888 -0.10140715 -0.08080126 0.06655698 0.043407675 0.040695835 -0.0936578
-0.033666972 -0.004744466 -1.078861 -0.6275488 -0.07928954 0.010640619 -0.98650986 1.1344596
0.7491572 0.038169313 -0.18390925 0.15968771 0.09758513 -0.1756292 0.059935182 -0.15009323
0.016646305 0.12959035 0.10215385 -0.41156307 -0.16686353 0.021231212 0.13773379 0.0983189
-0.09910957 -0.5521908 0.33442554 -0.15000297 -0.084368095 -0.41244757 -0.13838653 -0.40901142
-0.036285426 0.011200433 0.3827084 -0.36428928 0.47503415 0.20095895 -0.18180686 -0.5383937
-0.17965011 -0.026955638 0.058513746 -0.1342432 0.01246308 0.1886207 -0.7178226 0.42499566
0.053312223 -0.9195807 0.31854892 -0.642959 0.08835625 -0.071242444 0.18370159 -0.017899908
-0.019534081 -0.120459475 0.0857287 -0.18668589 -0.2839334 -0.30760005 0.03270608 -0.10307467
-0.121314555 0.08387708 -0.21273403 -0.031754166 -0.40748468 0.3818735 -0.7965961 -0.025937473
0.2200323 0.3282899 -0.5517605 0.03809116 -0.14574891 0.1428954 -0.1482808 0.00075181824
-0.63903755 0.1341519 0.3021007 -0.08717285 -0.045906283 0.14056504 -0.10394172 -0.17114513
0.16525246 -0.4489341 0.2202463 0.31731924 -0.44588062 -0.047960956 -0.6449615 -0.08383517
0.17296724 -0.17466044 0.03444508 0.15730797 -0.016495243 0.08065083 0.1395174 -0.48944488
1.0003253 -0.819726 -0.040309727 0.47697696 -0.17990011 -0.84084386 0.1069037 -0.9090278
0.79480016 0.13549234 -0.72156143 -0.302399 0.43690443 -0.09435313 0.11721236 -0.031579234
0.3456943 -0.13199782 0.1998633 -0.021437882 0.12952831 0.12623137 0.022331666 0.036364317
-0.15786575 0.04979279 -0.04501757 -0.51847434 -0.3793055 0.49894223 0.07696679 -0.6518969
-0.16962814 -0.4000149 0.0633418 0.08143682 0.11926313 0.10132679 -0.12744011 -0.07973378
-0.12745032 -0.11795269 -0.18864158 0.25744927 0.26602554 0.13541089 -0.16278538 0.013468754
-0.17387718 0.09618714 -0.19927347 -0.005713566 0.57287824 -0.04944864 0.083781295 -0.16701332
00000000: b016 a5bb 344e 9ebe 220e e73d 1416 b6be
00000010: 3487 303e ccf0 23be db44 60be 4aba 0c3e
00000020: a51d 283e 7408 26be 01cf 90bc 38ae ecbd
00000030: c69c 3bbe adc0 9f3d a13a febe fc13 753e
00000040: 1ba1 14bf dffb 063f 127d ed3d 03ad a3bd
00000050: f573 0cbe d6be b3bd 3cf8 043e af68 a7ba
00000060: 3316 bbbd 1f9e 2b3e 567f 3cbd a34e ad3e
00000070: d39a f0bb 9e9a fabb 35c0 8b3d 68f4 5bbd
00000080: 77c5 3abe 2b21 163f 9cad 233e addb 7b3e
00000090: 4e0c d53e 8988 623e 3c07 a4be 5a8d 46bf
000000a0: 23a8 153f 6098 fcbe 049b 1a3d d127 29be
000000b0: d64c 333f 6d6a 0dbf 044a 85bd cda9 153e
000000c0: 7005 3dbe 934c a7bf 5448 a93d 85bb bb3d
000000d0: 7bbe 1bbd 7f07 2c3d c5ab 343d 5434 6f3e
000000e0: 092b 26be 7aec 463f ccdd 0c3f 8d35 8fbf
000000f0: 3a7f 1d3f 3970 acbe d660 3ebe 318b 7b3d
00000100: 0f0e a83d dcaa a6bd 22c5 ed3d 3ad1 3ebd
00000110: 5857 c5bd 7a87 c63d 8d30 8f3e a490 8abe
00000120: acd1 ae3e d897 203e 2637 c6bd 113b 89bd
00000130: 5e22 843e 5056 fcbd 1e47 683e ed9c 1b3e
00000140: 01bc 7cbf 7fc2 d03e 26d2 c7be d48b 083f
00000150: 4bfb 05bf b63f c63d 39e7 a93d c9bb 483d
00000160: b5ad 4b3c 8ba7 8d3e 8dae cfbd 227b a5bd
00000170: 074f 883d 3fcc 313d adb0 263d a9cf bfbd
00000180: 61e6 09bd 7777 9bbb 1e18 8abf 0aa7 20bf
00000190: 8e62 a2bd fe55 2e3c e98b 7cbf f935 913f
000001a0: c4c8 3f3f 6d57 1c3d b552 3cbe 2d85 233e
000001b0: b6da c73d 24d8 33be 987e 753d 0ab2 19be
000001c0: d55d 883c 55b3 043e 0a36 d13d 65b8 d2be
000001d0: 46de 2abe 14ed ad3c 160a 0d3e 6b5b c93d
000001e0: f5f9 cabd 605c 0dbf d339 ab3e 619a 19be
000001f0: 2ec9 acbd 542c d3be 33b5 0dbe f269 d1be
00000200: 07a0 14bd 0582 373c 5bf2 c33e 2084 babe
00000210: ad37 f33e 2fc8 4d3e 942b 3abe 2bd4 09bf
00000220: 33f6 37be 12d2 dcbc 1cac 6f3d 0d77 09be
00000230: f231 4c3c c925 413e 39c3 37bf 0899 d93e
00000240: eb5d 5a3d a469 6bbf d818 a33e f698 24bf
00000250: 1ff4 b43d 8fe7 91bd 451c 3c3e d4a2 92bc
00000260: f005 a0bc 75b3 f6bd 8792 af3d 962a 3fbe
00000270: b85f 91be c17d 9dbe cff6 053d d018 d3bd
00000280: c473 f8bd bfc7 ab3d f3d6 59be a810 02bd
00000290: d5a1 d0be ec84 c33e b9ed 4bbf d37a d4bc
000002a0: 2650 613e 9d15 a83e 2d40 0dbf 7a05 1c3d
000002b0: 343f 15be 2c53 123e ecd6 17be ab15 453a
000002c0: f797 23bf 1e5f 093e f1ac 9a3e ae87 b2bd
000002d0: 3a08 3cbd 48f0 0f3e 66df d4bd ab40 2fbe
000002e0: f137 293e b1da e5be 3f88 613e ab77 a23e
000002f0: 774a e4be b572 44bd 321c 25bf c6b1 abbd
00000300: 531e 313e 30da 32be 4916 0d3d 5715 213e
00000310: 0821 87bc 432c a53d a6dd 0e3e 8598 fabe
00000320: a90a 803f 90d9 51bf d01b 25bd 5336 f43e
00000330: bc37 38be 8b41 57bf 54f0 da3d 0cb6 68bf
00000340: 0678 4b3f 81be 0a3e 40b8 38bf 0bd4 9abe
00000350: f0b1 df3e 373c c1bd 090d f03d 3a59 01bd
00000360: d8fe b03e 702a 07be f7a8 4c3e 7f9e afbc
00000370: 12a3 043e cc42 013e e6f0 b63c c0f2 143d
00000380: 8fa7 21be 86f3 4b3d 5864 38bd bcba 04bf
00000390: 5534 c2be 5b75 ff3e c4a0 9d3d b7e2 26bf
000003a0: 00b3 2dbe c1ce ccbe 58b9 813d 59c8 a63d
000003b0: 3a40 f43d 6c84 cf3d a97f 02be 774b a3bd
000003c0: 5682 02be 2e91 f1bd 422b 41be 64d0 833e
000003d0: 8034 883e 27a9 0a3e 36b1 26be 0cac 5c3c
000003e0: dc0c 32be c3fd c43d 580e 4cbe de38 bbbb
000003f0: 26a8 123f a88a 4abd 8795 ab3d 8a05 2bbe

network.0.bias f4 [128]
-2.7022977 -2.893485 -1.0807956 -2.8873022 -2.5411665 -1.5845939 -2.223905 -2.2454665
-1.5039333 -1.432151 -2.5522685 -0.65534127 -2.224125 -1.5586329 -2.2674172 -2.3651276
-1.8139826 -2.6323643 -0.5936845 -2.271141 -2.924239 -2.055992 -0.4220891 -2.823632
-2.10107 -1.6857612 -1.2220821 -1.9464736 -2.1606588 -1.605814 -2.382521 -2.732272
-1.153433 -1.7554413 -2.3818161 -0.46704158 -2.8661935 -2.5319657 -2.1679502 -0.92433965
-2.2793767 -0.94866204 -2.5234146 -1.7486842 -3.046723 -1.4537073 -1.7112995 -2.2292302
-1.5128167 -2.2187307 -2.9633367 -1.4359045 -1.9339066 -1.9747585 -0.9710169 -2.927967
-1.1444114 -2.4825072 -2.3723073 -1.3876071 -2.8214307 -2.0527105 -1.6681609 -2.3282075
-1.7337838 -1.2572681 -2.6029181 -0.8762414 -1.9466944 -1.7277037 -2.705835 -0.31050727
-0.890368 -1.4496442 -2.1089575 -1.3643726 -0.8218994 -2.2431393 -2.6689954 -0.8753619
-2.2015183 -1.8350526 -1.8947046 0.00931076 -2.3046465 -2.4527292 -1.1805197 -1.5835333
-1.5081928 -1.8150852 -1.7007476 -2.5985062 -0.6609273 -0.9006193 -1.4273505 -2.2761245
-1.4615443 -1.4145119 -2.3584836 -1.4329512 -2.923691 -0.71192634 -2.406798 -1.9255062
-2.6834161 -2.6966727 -1.1388835 -1.1978011 -1.0266988 -1.7805098 -0.9683119 -1.5189669
-2.2453778 -2.5742817 -2.550068 -2.392717 -3.0824666 -2.928028 -0.66790915 -1.3661665
-1.8729322 -1.4619559 -2.1190746 -1.866404 -2.7847717 -2.509028 -1.1829028 -1.5966693
00000000: 72f2 2cc0 dc2e 39c0 8357 8abf 8fc9 38c0
00000010: 79a2 22c0 f9d3 cabf 7654 0ec0 b9b5 0fc0
00000020: e380 c0bf b950 b7bf 5e58 23c0 72c4 27bf
00000030: 1058 0ec0 4881 c7bf 5d1d 11c0 405e 17c0
00000040: 9530 e8bf a878 28c0 b5fb 17bf 605a 11c0
00000050: bb26 3bc0 5f95 03c0 101c d8be 63b6 34c0
00000060: ee77 06c0 06c7 d7bf 306d 9cbf 0c26 f9bf
00000070: 3c48 0ac0 508b cdbf 397b 18c0 8bdd 2ec0
00000080: b1a3 93bf 4db2 e0bf ad6f 18c0 1320 efbe
00000090: b76f 37c0 ba0b 22c0 b2bf 0ac0 86a1 6cbf
000000a0: 4fe1 11c0 84db 72bf a07f 21c0 e2d4 dfbf
000000b0: 82fd 42c0 1513 babf dd0b dbbf b5ab 0ec0
000000c0: faa3 c1bf afff 0dc0 4fa7 3dc0 b8cb b7bf
000000d0: 408a f7bf e3c4 fcbf 9094 78bf d063 3bc0
000000e0: 137c 92bf 66e1 1ec0 e2d3 17c0 1c9d b1bf
000000f0: 5292 34c0 9c5f 03c0 4c86 d5bf 5a01 15c0
00000100: a1ec ddbf 29ee a0bf 3696 26c0 5b51 60bf
00000110: 482d f9bf 6525 ddbf 672c 2dc0 cffa 9ebe
00000120: 28ef 63bf f18d b9bf 29f9 06c0 c3a3 aebf
00000130: 0068 52bf 988f 0fc0 d2d0 2ac0 b817 60bf
00000140: ade5 0cc0 01e3 eabf ae85 f2bf 288c 183c
00000150: 547f 13c0 84f9 1cc0 451b 97bf 38b1 cabf
00000160: 760c c1bf b654 e8bf 19b2 d9bf ed4d 26c0
00000170: 8832 29bf fd8e 66bf 6cb3 b6bf 06ac 11c0
00000180: e213 bbbf ba0e b5bf 65f1 16c0 f26a b7bf
00000190: c11d 3bc0 ce40 36bf fa08 1ac0 fd76 f6bf
000001a0: 17bd 2bc0 4996 2cc0 efc6 91bf 8c51 99bf
000001b0: de6a 83bf bfe7 e3bf 4ae3 77bf 826d c2bf
000001c0: 45b4 0fc0 08c1 24c0 5034 23c0 4622 19c0
000001d0: 2247 45c0 d064 3bc0 18fc 2abf 8bde aebf
000001e0: 3ebc efbf 5f21 bbbf eb9e 07c0 54e6 eebf
000001f0: b339 32c0 ea93 20c0 5c69 97bf a95f ccbf

network.3.weight f4 [64, 128]
0.007830319 -0.063340135 -0.08788518 -0.4610935 -0.04815786 0.111035034 -0.23020864 -0.13603574
-0.21781166 0.14557275 -0.13274379 -0.21503983 -0.10951534 -0.14463647 -0.2110663 -0.47546205
-0.073446065 -0.2666151 -0.20585343 -0.088700816 -0.39738625 -0.40099388 -0.57291037 -0.22364953
-0.026107833 0.22589447 -0.005643594 -0.4565875 -0.89249617 -0.42559263 0.062061593 -0.3535503
0.037664175 -0.24889848 -0.105941534 -0.50588816 -0.3706847 -0.20719494 -0.17074837 -0.27110654
-0.3057972 -0.25079286 -0.10758392 -0.6631516 -0.3988356 -0.5006973 -0.22954416 0.15094094
-0.31323192 -0.23916498 -0.30788037 -0.48709846 -0.13891493 0.08474232 -0.4880909 0.014321577
-0.2095453 -0.27706528 -0.17161484 -0.23649582 -0.12452042 -0.10358865 -0.35972816 -0.12709126
-0.1673367 -0.17330468 -0.05031093 -0.034849852 -0.28547865 -0.048582215 0.16318189 -0.41994023
-0.3904846 -0.18729162 -0.31969172 -0.16184695 -0.20308922 -0.30094334 -0.18122202 -0.4585049
-0.21768337 -0.17626302 -0.33051398 -0.21150818 -0.21620007 -0.11156888 -0.21713322 -0.116442546
-0.4051415 -0.029678546 -0.25160182 -0.15589477 -0.29225057 -0.22862872 -0.38070607 -0.22454149
-0.26747802 0.03887002 -0.39544764 -0.23266011 -0.049585037 -0.03092898 -0.14517087 0.13265331
-0.042302832 -0.051877696 -0.36407113 -0.13071848 -0.74632573 0.07512077 -0.43995216 -0.2915331
-0.045527153 -0.007915509 0.05186842 -0.056945894 -0.27105564 -0.1291394 0.17792422 -0.39761996
-0.09076854 -0.1527749 -0.22688751 -0.33002284 -0.030036528 -0.00837026 -0.056411665 -0.17521432
-0.059329413 -0.38481814 -0.22365448 -0.22260222 -0.28512743 -0.09139432 -0.23496453 -0.084646985
-0.24568461 -0.33123413 -0.1567521 -0.15301895 -0.399571 -0.2557058 -0.7223431 -0.876877
-0.12988503 -0.24556737 -0.47029954 0.28233352 -0.010370373 -0.31966794 -0.32247892 -0.32659462
-0.18572083 -0.1988603 -0.08110062 0.014888655 0.25794515 -0.52621657 0.0061711227 -0.8622019
-0.806086 -0.23803699 -0.04949772 -0.17250468 -0.15828463 -0.2597372 -0.3626688 -0.543523
-0.14878693 -1.0835564 0.00781484 -0.32853332 -0.0044266796 -0.5545391 -1.1452637 -0.21767364
-0.48677817 -0.01992041 -0.6726159 -0.046801545 -0.29079172 -0.16508822 -1.3585333 0.20258263
-0.5033876 -0.09208885 -0.25436643 -0.74038255 -0.19144268 -0.085981205 -0.18703145 -0.4478076
-0.484133 -0.45640007 0.09089771 -0.052188322 -0.3213941 -0.08942109 0.010823385 -0.2938391
-0.11171904 -0.32164475 -0.3377796 -0.14326534 -0.08627601 -0.1891161 -0.24403507 -0.3484014
0.042967565 -0.10275836 -0.29668307 -0.4003457 -0.42389178 -0.8202309 -0.54234326 -0.5272283
-0.23796204 -0.17825162 -0.14162923 -0.40753615 -0.39430654 -0.22203839 -0.6283938 -0.43629548
-0.32502764 -0.36843675 -0.42465624 -0.37311855 -0.61284506 0.013575306 -0.44318426 0.05276214
0.05994006 -0.08473595 -0.46821833 -0.37293398 -0.08102844 0.059464492 -0.26677382 -0.09666514
-0.6410138 -0.04385301 -0.3572474 -0.38946864 -0.291813 -0.21025625 0.11984141 -0.28038844
-0.25881758 -0.08241146 -0.24196813 -0.78779614 -0.46708116 0.20963347 -0.59844714 -0.8423459
00000000: bd4a 003c 79b8 81bd 25fd b3bd 7214 ecbe
00000010: 2d41 45bd 5666 e33d d0bb 6bbe f44c 0bbe
00000020: 050a 5fbe 0611 153e fded 07be 6733 5cbe
00000030: 9449 e0bd 951b 14be c421 58be c36f f3be
00000040: e46a 96bd c681 88be 3ecb 52be c6a8 b5bd
00000050: 3676 cbbe 124f cdbe 41aa 12bf 6204 65be
00000060: 18e0 d5bc e150 673e e6ed b8bb d6c5 e9be
00000070: a17a 64bf 47e7 d9be 4c34 7e3d 8b04 b5be
00000080: c045 1a3d 3edf 7ebe e0f7 d8bd e381 01bf
00000090: 63ca bdbe e92a 54be a9d8 2ebe 7ace 8abe
000000a0: 7391 9cbe ec67 80be f554 dcbd 4ec4 29bf
000000b0: 2e34 ccbe b32d 00bf a00d 6bbe 4390 1a3e
000000c0: ef5f a0be aae7 74be 7fa2 9dbe f864 f9be
000000d0: b73f 0ebe 628d ad3d 0de7 f9be 0ca5 6a3c
000000e0: 0b93 56be 80db 8dbe cdbb 2fbe f62b 72be
000000f0: 9004 ffbd 4926 d4bd 4a2e b8be 3624 02be
00000100: 505a 2bbe c876 31be d512 4ebd b8be 0ebd
00000110: 422a 92be 25fe 46bd 2719 273e 6802 d7be
00000120: 99ed c7be 60c9 3fbe a2ae a3be 35bb 25be
00000130: 9ff6 4fbe 3f15 9abe 4492 39be 27c1 eabe
00000140: 64e8 5ebe 4b7e 34be 2139 a9be 9a95 58be
00000150: 8d63 5dbe 3a7e e4bd 2c58 5ebe 6e79 eebd
00000160: b56e cfbe 6c20 f3bc f4d1 80be e1a2 1fbe
00000170: dea1 95be a61d 6abe e8eb c2be 34ee 65be
00000180: e1f2 88be 2c36 1f3d 1d78 cabe 743e 6ebe
00000190: ae19 4bbd c65e fdbc aca7 14be 45d6 073e
000001a0: bc45 2dbd b57d 54bd 8867 babe 11db 05be
000001b0: 340f 3fbf ebd8 993d 6941 e1be d443 95be
000001c0: ae7a 3abd 0db0 01bc fb73 543d 1940 69bd
000001d0: cec7 8abe 1e3d 04be c431 363e d894 cbbe
000001e0: dbe4 b9bd 0671 1cbe 3355 68be c1f8 a8be
000001f0: 2a0f f6bc 6a23 09bc eb0f 67bd 626b 33be
00000200: 6603 73bd e206 c5be ae05 65be d6f1 63be
00000210: 39fc 91be f22c bbbd 8b9a 70be 665b adbd
00000220: bf94 7bbe 8597 a9be 9f83 20be 00b1 1cbe
00000230: 9294 ccbe dfeb 82be 7aeb 38bf 037b 60bf
00000240: 9500 05be 0376 7bbe 1acb f0be 058e 903e
00000250: 7fe8 29bc 84ab a3be f51b a5be 6937 a7be
00000260: 9a2d 3ebe 09a2 4bbe 1518 a6bd 8cef 733c
00000270: 6311 843e 21b6 06bf 2137 ca3b 44b9 5cbf
00000280: a75b 4ebf f8bf 73be 1fbe 4abd 11a5 30be
00000290: 5e15 22be 46fc 84be baaf b9be 5324 0bbf
000002a0: 9a5b 18be fab1 8abf d109 003c 8535 a8be
000002b0: ae0d 91bb 46f6 0dbf 0098 92bf d7e5 5ebe
000002c0: fd3a f9be 2130 a3bc 8e30 2cbf fab2 3fbd
000002d0: a7e2 94be e30c 29be 6be4 adbf d271 4f3e
000002e0: 02de 00bf 1499 bcbd 513c 82be b689 3dbf
000002f0: 8d09 44be ea16 b0bd 2c85 3fbe 0a47 e5be
00000300: 48e0 f7be 45ad e9be 9428 ba3d 6cc3 55bd
00000310: c48d a4be 6822 b7bd 9154 313c 1472 96be
00000320: f4cc e4bd 9fae a4be 73f1 acbe 26b4 12be
00000330: 7ab1 b0bd a7a7 41be 54e4 79be ab61 b2be
00000340: c2fe 2f3d fa72 d2bd d8e6 97be 1dfa ccbe
00000350: 5808 d9be a7fa 51bf 02d7 0abf 6ff8 06bf
00000360: 52ac 73be 9887 36be 4107 11be 94a8 d0be
00000370: 8ce2 c9be 085e 63be 6bde 20bf 1f62 dfbe
00000380: 066a a6be bea3 bcbe 8b6c d9be 6509 bfbe
00000390: 6ae3 1cbf f66a 5e3c 0ce9 e2be 1d1d 583d
000003a0: b583 753d 0b8a adbd 50ba efbe 34f1 bebe
000003b0: 3df2 a5bd 0a91 733d 9496 88be 5ff8 c5bd
000003c0: 7b19 24bf 379f 33bd 22e9 b6be 6f68 c7be
000003d0: 8368 95be 6a4d 57be 6a6f f53d 138f 8fbe
000003e0: bd83 84be 57c7 a8bd 7ec6 77be 02ad 49bf
000003f0: 4325 efbe 28aa 563e d533 19bf fba3 57bf

network.3.bias f4 [64]
-1.2321362 -0.87837684 -0.632765 0.0015435253 -0.8870347 -0.7488577 -0.8863461 -0.75542295
-0.5408634 -0.8613745 -0.80130935 -1.0592645 -0.84880716 -1.098631 -0.6363843 -0.66101295
-0.7761669 -1.3782064 -0.7040636 0.34273076 -1.0261973 -0.9684494 -0.61576563 -0.74957603
-0.5459111 0.26025483 -1.277934 -0.7465024 -0.9994141 -0.8916345 -0.77717555 -0.93022376
1.1187025 -0.8543303 -1.4082836 -0.9341275 -0.75377256 -0.6406403 0.2785956 -0.8076834
-0.5642698 -0.97198623 -0.67257017 -0.8740868 -0.94976443 -0.8861418 -1.0720454 -0.15062067
-0.60350585 -0.80473423 -0.7190446 -0.6920015 -0.7357103 1.5406133 -0.7296634 -0.8328567
-0.44583556 -0.44101217 -1.1834636 -0.7647676 -0.8654559 -1.0198176 1.185482 0.6952567
00000000: a4b6 9dbf 4edd 60bf e3fc 21bf 1d50 ca3a
00000010: b514 63bf 23b5 3fbf 94e7 62bf 6663 41bf
00000020: 0676 0abf 0a83 5cbf 9c22 4dbf fb95 87bf
00000030: 6d4b 59bf f19f 8cbf 15ea 22bf 2538 29bf
00000040: e0b2 46bf 1169 b0bf 833d 34bf 687a af3e
00000050: 6f5a 83bf 4dec 77bf d1a2 1dbf 37e4 3fbf
00000060: d4c0 0bbf 1f40 853e 5793 a3bf c81a 3fbf
00000070: 9ad9 7fbf 2942 64bf faf4 46bf 2523 6ebf
00000080: a531 8f3f 64b5 5abf a342 b4bf fb22 6fbf
00000090: 3df7 40bf 0101 24bf 15a4 8e3e 57c4 4ebf
000000a0: fc73 10bf 17d4 78bf 8f2d 2cbf 27c4 5fbf
000000b0: c323 73bf 30da 62bf c938 89bf 4e3c 1abe
000000c0: 5c7f 1abf 1003 4ebf 4f13 38bf 0327 31bf
000000d0: 8357 3cbf d132 c53f 38cb 3abf 1936 55bf
000000e0: 8f44 e4be 59cc e1be bc7b 97bf cfc7 43bf
000000f0: 858e 5dbf 6289 82bf e0bd 973f 58fc 313f

network.6.weight f4 [5, 64]
0.07861367 -0.04934313 -0.0051038912 0.0347036 -0.015209608 -0.0648683 -0.032661915 -0.007606563
-0.16619587 0.052351054 0.029863942 -0.07089427 -0.0040007317 -0.015280184 -0.08365805 -0.059034444
0.017779632 -0.15631272 -0.11439832 -0.07527301 -0.084732294 0.021224473 0.15145367 -0.0987084
0.042672437 -0.041025367 5.152542e-05 0.017474663 -0.10823501 -0.03922236 0.13406572 -0.062898755
0.008203023 0.13023344 -0.063993216 -0.008166816 0.009195028 0.16064508 -0.028779818 -0.07125693
0.025074827 -0.09142912 -0.030464878 -0.08567184 0.103209585 0.023050759 0.064507775 -0.019322796
-0.04930109 -0.09245308 0.15564339 -0.031575352 -0.04550806 -0.0639382 0.14344774 0.07721068
-0.02590543 0.058660865 0.020411674 0.06243909 0.0056475545 0.057938866 -0.03517948 -0.12533168
-0.047550626 0.17864642 0.21040893 0.09873253 -0.33499616 0.0972832 -0.086456366 0.09876153
0.008346506 0.05969733 -0.21667099 -0.18071634 0.17596187 0.11797457 -0.13166788 -0.13127226
-0.085632056 0.3393897 -0.2769843 -0.024415191 0.20048995 -0.12897708 -0.25272673 0.19332689
-0.14407776 -0.25579143 -0.4881945 -0.12487666 -0.18566021 0.10749134 -0.19765551 -0.063529976
-0.25566405 0.2891818 -0.065583825 0.10697165 -0.19121835 0.21032286 0.12955612 -0.1187508
-0.06192293 -0.22052708 0.14419305 -0.19967237 -0.048744872 -0.026177796 0.2825952 -0.07770516
-0.019482877 -0.18412901 -0.12282542 0.10049937 0.38479042 -0.11347796 -0.22812706 -0.35417578
-0.582518 0.19229895 0.16974449 -0.090000875 0.18874933 -0.037239395 -0.11363067 -0.34504402
0.06632588 -0.19511549 -0.24152416 0.0029000544 0.005646759 -0.17762741 0.19788939 0.11521312
0.14628223 -0.49201187 -0.08525206 0.29961714 -0.06581953 0.08552217 -0.16413751 -0.1512179
0.0078067174 -0.09616353 -0.06825416 0.33165583 0.13781078 0.0045200107 0.0401103 -0.08800154
0.16036019 -0.2219085 0.1194718 0.07255226 0.04313042 -0.22055946 0.23992258 -0.017760722
0.117651075 -0.035644084 0.050343033 0.14721715 -0.14453535 -0.112468205 0.17907254 -0.1726751
-0.22058323 0.19477916 0.22093642 -0.34690282 0.26302698 -0.2384369 -0.052804265 -0.19694445
-0.08545724 -0.019612223 -0.20581767 0.23160598 -0.25439095 0.16989745 -0.082407326 -0.24323255
0.22286904 -0.24443036 -0.3123229 0.29242626 -0.115238555 0.39613754 -0.30850935 0.1268185
-0.23092377 0.10036283 -0.05079152 -0.121020526 0.013293182 0.038605068 0.09266441 -0.30777332
-0.19190963 -0.27021676 0.013761774 -0.09954087 0.048678193 0.059823915 0.04970014 0.037148517
-0.07642908 0.035387248 0.106756106 0.22184865 0.054169796 0.11411753 0.0006877488 0.04831196
-0.11292373 0.039925665 -0.1509727 0.010075329 -0.09519347 -0.05080336 0.093776695 0.040840086
0.07976124 0.094338566 0.16782917 -0.14795649 -0.18292905 -0.18838784 0.21786003 -0.11571123
0.03168652 0.12052939 -0.1596514 0.22595346 -0.04844132 0.07917859 -0.097855784 0.12918429
0.13058715 0.013252941 0.053937055 -0.2110569 0.18067577 0.20002471 0.10348127 0.25782108
0.14937073 0.012510524 0.11687204 0.050190516 -0.09878485 -0.090393625 -0.021067314 0.15523739
00000000: 3400 a13d 061c 4abd 8b3e a7bb 5d25 0e3d
00000010: b831 79bc acd9 84bd 80c8 05bd 7a40 f9bb
00000020: 402f 2abe 0f6e 563d 3aa5 f43c 0431 91bd
00000030: 9218 83bb bd59 7abc e954 abbd 1ace 71bd
00000040: 97a6 913c 7110 20be ab49 eabd bc28 9abd
00000050: 2088 adbd f2de ad3c ac16 1b3e a127 cabd
00000060: 4bc9 2e3d 370a 28bd 001d 5838 0627 8f3c
00000070: 51aa ddbd a0a7 20bd 8648 093e 10d1 80bd
00000080: f965 063c ea5b 053e e00e 83bd 1cce 05bc
00000090: bea6 163c 2580 243e a7c3 ebbc 27ef 91bd
000000a0: b969 cd3c 313f bbbd 7b91 f9bc b874 afbd
000000b0: 8c5f d33d f2d4 bc3c a71c 843d d74a 9ebc
000000c0: f1ef 49bd 0a58 bdbd fb60 1f3e 2855 01bd
000000d0: a966 3abd 08f2 82bd f7e3 123e a220 9e3d
000000e0: a037 d4bc 6046 703d 6236 a73c 22c0 7f3d
000000f0: 1f0f b93b 4e51 6d3d 5c18 10bd f356 00be
00000100: 72c4 42bd 16ef 363e 7075 573e 4834 ca3d
00000110: 9e84 abbe 6a3c c73d 0910 b1bd 7c43 ca3d
00000120: c9bf 083c 3085 743d 00df 5dbe b40d 39be
00000130: 592f 343e a79c f13d f2d3 06be 3c6c 06be
00000140: dc5f afbd 7dc4 ad3e e3d0 8dbe 5e02 c8bc
00000150: 3d4d 4d3e 9112 04be 6665 81be 7cf7 453e
00000160: 1f89 13be 18f7 82be a1f4 f9be 56bf ffbd
00000170: b61d 3ebe 6b24 dc3d 3566 4abe 011c 82bd
00000180: 66e6 82be a30f 943e d050 86bd f413 db3d
00000190: bece 43be e05e 573e 5caa 043e 9f33 f3bd
000001a0: e6a2 7dbd dad1 61be 58a7 133e ea76 4cbe
000001b0: b4a8 47bd d172 d6bc 51b0 903e e223 9fbd
000001c0: 8e9a 9fbc 518c 3cbe e58b fbbd 9dd2 cd3d
000001d0: 4003 c53e 2267 e8bd 249a 69be 8756 b5be
000001e0: e61f 15bf 04ea 443e 80d1 2d3e 6152 b8bd
000001f0: 8147 413e 5688 18bd 32b7 e8bd 9ca9 b0be
00000200: ddd5 873d 5bcc 47be 1c52 77be d70e 3e3b
00000210: 7308 b93b f6e3 35be 84a3 4a3e dbf4 eb3d
00000220: 02cb 153e fbe8 fbbe a298 aebd 6b67 993e
00000230: 64cc 86bd 3f26 af3d aa13 28be ddd8 1abe
00000240: 7ecf ff3b 63f1 c4bd d6c8 8bbd cbce a93e
00000250: 451e 0d3e 991c 943b b34a 243d 273a b4bd
00000260: 7635 243e fb3b 63be a2ad f43d 4796 943d
00000270: 86a9 303d 57da 61be 44ae 753e ef7e 91bc
00000280: 0cf3 f03d 88ff 11bd 7f34 4e3d 18c0 163e
00000290: 1301 14be bb55 e6bd cb5e 373e bed1 30be
000002a0: 92e0 61be 3074 473e 283d 623e 3f9d b1be
000002b0: 79ab 863e cd28 74be 4949 58bd ceab 49be
000002c0: 3504 afbd d0a9 a0bc dec1 52be 1e2a 6d3e
000002d0: 883f 82be 99f9 2d3e 2cc5 a8bd f411 79be
000002e0: c837 643e f44b 7abe cae8 9fbe e5b8 953e
000002f0: 3102 ecbd 8ad2 ca3e f0f4 9dbe b5dc 013e
00000300: 4877 6cbe 078b cd3d c50a 50bd 9cd9 f7bd
00000310: a5cb 593c 5920 1e3d d7c6 bd3d 7794 9dbe
00000320: f583 44be da59 8abe 1079 613c 15dc cbbd
00000330: c962 473d ec09 753d 6092 4b3d 0b29 183d
00000340: d986 9cbd 38f2 103d f2a2 da3d 4b2c 633e
00000350: 26e1 5d3d 74b6 e93d 0a4a 343a c3e2 453d
00000360: 8e44 e7bd 1889 233d 9698 1abe fe12 253c
00000370: cbf4 c2bd 2f17 50bd ff0d c03d ef47 273d
00000380: dc59 a33d 9434 c13d 69db 2b3e e881 17be
00000390: c151 3bbe bee8 40be b316 5f3e 02fa ecbd
000003a0: b9c9 013d 1dd8 f63d a87b 23be 5860 673e
000003b0: 686a 46bd 6228 a23d 9d68 c8bd e348 043e
000003c0: a3b8 053e dd22 593c 1aed 5c3d 4d1f 58be
000003d0: 1203 393e 47d3 4c3e fded d33d 2001 843e
000003e0: a4f4 183e f1f8 4c3c 9c5a ef3d 9294 4d3d
000003f0: b64f cabd 4b20 b9bd 5c95 acbc 8df6 1e3e

network.6.bias f4 [5]
-0.00050451554 -0.086241186 0.029131375 0.2179738 0.05609696
00000000: 7741 04ba 389f b0bd eca4 ee3c 8634 5f3e
00000010: edc5 653d
