experiments/checkpoints/20251210_110803/checkpoint_ep179.pt (torch, 246605 bytes, 24 tensors)

network.0.weight f4 [128, 43]
000000 b0 16 a5 bb be 64 50 bf 50 1f 1e 3f cf 1e c8 bf
       -0.005038105 -0.8140372 0.6176653 -1.5634402
000010 59 bc f4 bf cc f0 23 be d5 36 b1 3f 4a ba 0c 3e
       -1.9119979 -0.16009825 1.3844858 0.13742939
000020 a5 1d 28 3e 74 08 26 be 01 cf 90 bc 38 ae ec bd
       0.16417558 -0.16214162 -0.017676832 -0.11556667
000030 4b 9e 8f 3f 2e 8e e8 be d9 0e 06 3e b7 9b 18 bf
       1.1220182 -0.45420974 0.13091601 -0.596126
000040 31 c5 d1 bf 75 bf f2 3f 21 25 59 3f 03 ad a3 bd
       -1.6388303 1.8964678 0.8482228 -0.07991984
000050 f5 73 0c be d6 be b3 bd 3c f8 04 3e ab 68 a7 ba
       -0.13716109 -0.087766334 0.12985319 -0.0012772282
000060 33 16 bb bd 1f 9e 2b 3e 56 7f 3c bd 96 39 ce bf
       -0.091350935 0.16759537 -0.046019875 -1.6111324
000070 81 1a 1c 40 f7 40 94 bf 32 c0 8b 3d 98 4a cc 3f
       2.4391177 -1.1582326 0.06823768 1.5960264
000080 77 c5 3a be 68 7c ae bf 9c ad 23 3e f7 ca 43 3e
       -0.1823939 -1.3631716 0.15984195 0.19120394
000090 f4 be 54 bf 7e cf ce 3f e1 54 18 c0 64 4d 41 c0
       -0.8310387 1.6157072 -2.3801806 -3.0203485
0000a0 fe 30 3c 40 e1 61 11 c0 04 9b 1a 3d d1 27 29 be
       2.9404902 -2.271599 0.03774549 -0.16519095
0000b0 17 aa be 3f c1 b8 ab bf cc 0c 78 bf 73 92 ac be
       1.4895657 -1.3415757 -0.96894526 -0.33705482
0000c0 70 05 3d be 2f e0 91 c0 54 48 a9 3d 85 bb bb 3d
       -0.18459105 -4.558616 0.082657486 0.09166626
0000d0 7b be 1b bd 7c 07 2c 3d c5 ab 34 3d 27 40 06 c0
       -0.038023453 0.041999325 0.044109125 -2.0976655
0000e0 20 36 61 c0 9b 25 10 bf 53 a1 2a 3f 45 cd ff bf
       -3.5189285 -0.5630738 0.6665241 -1.9984518
0000f0 63 7c ab bc 4c 58 8a 3e d6 60 3e be 31 8b 7b 3d
       -0.020933336 0.2702049 -0.18591627 0.06141204
000100 0f 0e a8 3d dc aa a6 bd 22 c5 ed 3d 3a d1 3e bd
       0.082058065 -0.081380576 0.11609866 -0.046586253
000110 58 57 c5 bd 7a 87 c6 3d 62 6e 87 3f e7 f4 c7 bf
       -0.096358 0.09693809 1.0580561 -1.5621613
000120 6f 86 c0 3f d8 97 20 3e 12 64 17 bf 11 3b 89 bd
       1.5041026 0.15682924 -0.5913707 -0.06700719
000130 bd aa 84 3f 50 56 fc bd 46 f7 07 c0 a8 35 d9 3f
       1.0364605 -0.1232115 -2.1244674 1.69695
000140 b2 10 d2 bf fb 1f a8 bf 06 07 39 be 5b 46 49 40
       -1.6411345 -1.313476 -0.18069085 3.1449192
000150 37 41 bc bf b6 3f c6 3d 39 e7 a9 3d 47 f3 cc bf
       -1.4707402 0.09680121 0.08296055 -1.6011742
000160 79 d0 d4 3f a5 fc 87 40 0d 76 90 c0 22 7b a5 bd
       1.6626121 4.2495904 -4.5144105 -0.08080126
000170 cd 56 ad 40 3f cc 31 3d ad b0 26 3d a9 cf bf bd
       5.416846 0.043407675 0.040695835 -0.0936578
000180 61 e6 09 bd 77 77 9b bb 60 43 02 c1 8d f9 0e c0
       -0.033666972 -0.004744466 -8.141449 -2.2339814
000190 88 bb 05 c0 49 08 ef 3e f7 e6 07 c0 86 57 64 40
       -2.089571 0.4668601 -2.123472 3.567842
0001a0 8e 46 cf be 6d 57 1c 3d b5 52 3c be 2d 85 23 3e
       -0.40483516 0.038169313 -0.18390925 0.15968771
0001b0 b6 da c7 3d 24 d8 33 be 98 7e 75 3d 0a b2 19 be
       0.09758513 -0.1756292 0.059935182 -0.15009323
0001c0 d5 5d 88 3c ae 74 01 be e9 f7 0d bf 4f fa e8 c0
       0.016646305 -0.12642166 -0.55456406 -7.2805552
0001d0 46 de 2a be 92 71 44 bf 16 0a 0d 3e dd 7a 21 be
       -0.16686353 -0.76735795 0.13773379 -0.15769525
0001e0 f5 f9 ca bd bf 10 76 bf 53 5c a1 3f 54 c9 90 3e
       -0.09910957 -0.961193 1.26063 0.282786
0001f0 4a 3c 50 c0 8d 3b 89 c0 94 b9 2b 40 2d 2d 6f 3f
       -3.2536798 -4.2885194 2.6832018 0.9342831
000200 07 a0 14 bd 05 82 37 3c 04 31 cd 3f 8a d5 ca bf
       -0.036285426 0.011200433 1.6030583 -1.5846417
000210 d9 20 c5 be 3c a9 81 bf 94 2b 3a be 10 85 94 c0
       -0.38501623 -1.0129771 -0.18180686 -4.641243
000220 33 f6 37 be 12 d2 dc bc 1c ac 6f 3d 09 77 09 be
       -0.17965011 -0.026955638 0.058513746 -0.13424315
000230 f2 31 4c 3c aa 31 27 bf 5d 24 ae c0 fd 24 fc be
       0.01246308 -0.65310156 -5.441939 -0.4924697
000240 3d 4a 00 40 be 7a 44 c0 87 5f 5f 40 9b f8 e8 3f
       2.0045311 -3.0699916 3.4902055 1.8200868
000250 1f f4 b4 3d 8f e7 91 bd 45 1c 3c 3e d4 a2 92 bc
       0.08835625 -0.071242444 0.18370159 -0.017899908
000260 f0 05 a0 bc 75 b3 f6 bd 7f 92 af 3d 96 2a 3f be
       -0.019534081 -0.120459475 0.08572864 -0.18668589
000270 8f dd c9 bf 5d db 22 3f eb bb ae bf d0 18 d3 bd
       -1.5770739 0.6361597 -1.3651098 -0.10307467
000280 c1 3c 5b 3f bf c7 ab 3d 65 c0 c0 bf a8 10 02 bd
       0.8563958 0.08387708 -1.5058714 -0.031754166
000290 10 fa cc bf ed ab 0c 3f 96 ca 19 bf f2 47 60 bf
       -1.6013813 0.5494984 -0.60074747 -0.8760978
0002a0 85 b1 5c 40 bb d6 44 bf 73 14 97 bf 7a 05 1c 3d
       3.448335 -0.7689015 -1.1803116 0.03809116
0002b0 34 3f 15 be 84 69 70 3f 83 ca 71 bf 37 88 11 40
       -0.14574891 0.93911004 -0.94449633 2.273939
0002c0 e2 c4 c1 bf 1e 5f 09 3e 90 a7 e4 3f ae 87 b2 bd
       -1.5138209 0.1341519 1.7863636 -0.08717285
0002d0 3a 08 3c bd 48 f0 0f 3e 66 df d4 bd ab 40 2f be
       -0.045906283 0.14056504 -0.10394172 -0.17114513
0002e0 15 5e 8b be e3 9b 64 c0 0f 22 b0 3e b9 22 e6 3e
       -0.27220216 -3.5720146 0.34400985 0.44948366
0002f0 48 0c 29 3e a7 4a 6d 3d 66 36 a9 3f c6 b1 ab bd
       0.16508591 0.057932522 1.3219726 -0.08383517
000300 53 1e 31 3e 30 da 32 be 49 16 0d 3d 57 15 21 3e
       0.17296724 -0.17466044 0.03444508 0.15730797
000310 08 21 87 bc 43 2c a5 3d a6 dd 0e 3e 6e c4 4c bf
       -0.016495243 0.08065083 0.1395174 -0.7998723
000320 50 6a 7b 40 6a 94 c7 c0 d0 1b 25 bd a8 2c dc 3f
       3.9283638 -6.236867 -0.040309727 1.7201128
000330 bc 37 38 be f1 5c 93 bf 54 f0 da 3d e8 6d e4 3f
       -0.17990011 -1.1512738 0.1069037 1.7846041
000340 b1 8b 34 3f 66 11 af 3f 9c a1 5e c0 63 ea 71 3d
       0.7052565 1.3677185 -3.4786139 0.05906142
000350 fc fd 1d 3e ef 64 b4 bf 09 0d f0 3d 3a 59 01 bd
       0.15428919 -1.4093302 0.11721236 -0.031579234
000360 5f 35 5e bf 14 75 8a 3f 50 8d 75 3f 56 0f 2b 3d
       -0.8680019 1.081698 0.9591875 0.041762672
000370 12 a3 04 3e cb 49 94 3f e6 f0 b6 3c c0 f2 14 3d
       0.12952831 1.158502 0.022331666 0.036364317
000380 8f a7 21 be 86 f3 4b 3d 4d 64 38 bd e4 55 bc 3e
       -0.15786575 0.04979279 -0.04501753 0.3678428
000390 e8 5d 08 bf 35 1a b0 3f fb dd 88 bd 8f 57 5c 3f
       -0.5326829 1.3757998 -0.066829644 0.86071104
0003a0 b6 67 10 c0 21 56 f9 bf 58 b9 81 3d 59 c8 a6 3d
       -2.25633 -1.947941 0.0633418 0.08143682
0003b0 3a 40 f4 3d 6c 84 cf 3d a9 7f 02 be 77 4b a3 bd
       0.11926313 0.10132679 -0.12744011 -0.07973378
0003c0 56 82 02 be 2e 91 f1 bd e3 4a 16 bf d2 e8 58 be
       -0.12745032 -0.11795269 -0.5870802 -0.21182564
0003d0 07 fa b2 bf 27 a9 0a 3e c1 57 24 be 0c ac 5c 3c
       -1.3982552 0.13541089 -0.160491 0.013468754
0003e0 61 83 12 bf c3 fd c4 3d 42 8f 0a bf 85 d1 9e be
       -0.5723172 0.09618714 -0.54124844 -0.31019226
0003f0 9d 41 03 bc a1 4f e6 bf 67 bd 77 3f 20 82 07 bf
       -0.008011249 -1.7993051 0.9677338 -0.5293293

network.0.bias f4 [128]
000000 19 ae 4d c1 4f 68 3e c1 a0 03 f8 c0 31 9b 3d c1
       -12.855004 -11.900466 -7.7504425 -11.850389
000010 bc 20 53 c1 db 81 12 c1 3f 65 2b c1 06 aa 3c c1
       -13.195492 -9.156703 -10.712218 -11.79151
000020 14 b1 2f c1 b6 7c 40 c1 ea 36 33 c1 1f be e7 c0
       -10.980732 -12.030447 -11.200907 -7.241958
000030 8e 97 19 c1 3a e9 81 c1 78 d7 0e c1 59 1a 39 c1
       -9.599501 -16.23888 -8.927605 -11.568933
000040 2d 7d 61 c1 67 57 44 c1 dc de cc c0 ca 75 24 c1
       -14.0930605 -12.271338 -6.4022045 -10.278757
000050 fd 85 20 c1 ba fd 05 c1 37 42 fb c0 e7 c2 55 c1
       -10.032712 -8.374445 -7.851833 -13.360084
000060 91 3c df c0 c8 c2 21 c1 34 49 ea c0 4e 67 36 c1
       -6.9761434 -10.110054 -7.321436 -11.400221
000070 9c 37 ee c0 73 7b 03 c1 b7 e3 32 c1 e0 b1 30 c1
       -7.4442883 -8.217639 -11.180594 -11.0434265
000080 fc 3b db c0 6c fd 1d c1 33 47 5b c1 ff cf d2 c0
       -6.8510723 -9.874371 -13.704883 -6.58789
000090 ed d7 30 c1 1b 03 6e c1 e9 ee 49 c1 ab d2 0a c1
       -11.052716 -14.875758 -12.620828 -8.676433
0000a0 de 60 30 c1 01 c9 f6 c0 cb 49 1d c1 76 21 a1 c0
       -11.023649 -7.7120366 -9.830516 -5.0353346
0000b0 aa be 81 c1 f3 42 65 c1 30 bf 4a c1 aa 5e 38 c1
       -16.218098 -14.328845 -12.671677 -11.523111
0000c0 40 e8 89 c1 83 a2 45 c1 72 b2 7c c1 9c f5 22 c1
       -17.238403 -12.352176 -15.793566 -10.184963
0000d0 01 7e c0 c0 23 10 25 c1 c0 3a 07 c1 3c ef 69 c1
       -6.0153813 -10.31644 -8.451843 -14.620907
0000e0 08 ad 31 c1 ab f1 34 c1 7f 50 41 c1 ba 5f 0e c1
       -11.104744 -11.309001 -12.082152 -8.898371
0000f0 9a 3b 33 c1 52 18 0d c1 e8 66 eb c0 fc 98 29 c1
       -11.202051 -8.818438 -7.356312 -10.59985
000100 de ad 19 c1 6a 79 30 c1 d1 5b cb c0 7b 79 0d c1
       -9.604948 -11.029642 -6.354958 -8.842158
000110 30 c7 17 c1 4f e2 34 c1 db cf 3a c1 06 95 11 c1
       -9.48613 -11.305251 -11.675746 -9.098883
000120 62 9b 10 c1 e4 fb 24 c1 61 51 56 c1 d8 67 3b c1
       -9.037935 -10.311497 -13.394868 -11.7128525
000130 c4 4b e0 c0 00 01 b5 c0 10 ec 38 c1 4e d0 23 c1
       -7.0092487 -5.656372 -11.557632 -10.238356
000140 78 30 4b c1 78 7b 34 c1 d1 c0 f8 c0 83 92 70 c0
       -12.699333 -11.280144 -7.773537 -3.7589424
000150 64 7b 1a c1 91 00 44 c1 35 3d 37 c1 a6 7e 26 c1
       -9.655125 -12.250138 -11.452443 -10.40592
000160 f9 59 20 c1 69 15 a0 c0 9a a5 5f c1 67 0c 5f c1
       -10.021966 -5.0026135 -13.97793 -13.940528
000170 5a b5 11 c1 3a 28 07 c1 c0 ad 55 c0 e7 6a 10 c1
       -9.106775 -8.447321 -3.3387299 -9.026099
000180 f7 34 09 c1 27 38 58 c1 2c 15 2f c1 b0 52 a1 c0
       -8.575431 -13.513709 -10.942669 -5.0413437
000190 7d b9 23 c1 f0 fc 02 c1 d0 ce 21 c1 46 fc fd c0
       -10.232785 -8.186752 -10.112991 -7.937045
0001a0 15 29 36 c1 82 ca 18 c1 b6 6d 15 c1 9b a1 12 c1
       -11.38503 -9.54944 -9.339285 -9.164454
0001b0 ad b0 12 c1 39 4f 50 c1 34 97 03 c1 34 13 a1 c0
       -9.168134 -13.019341 -8.224415 -5.033594
0001c0 df a6 60 c1 b4 7f 5c c1 22 02 13 c1 70 06 23 c1
       -14.04074 -13.7811775 -9.188021 -10.189072
0001d0 23 4f 44 c1 d9 87 e1 c0 f6 9e 28 c1 cd a1 46 c1
       -12.2693205 -7.047833 -10.538809 -12.414502
0001e0 e7 e8 0a c1 93 f5 40 c1 2c c5 ed c0 b4 83 26 c1
       -8.681861 -12.059955 -7.430319 -10.407154
0001f0 05 9e 32 c1 3d 1c 11 c1 de 7e 17 c1 6e 04 27 c1
       -11.163579 -9.069394 -9.468473 -10.438581

network.3.weight f4 [64, 128]
000000 bb 0f 79 bd 53 e3 83 bd 42 a0 ae bd 5f 15 19 bf
       -0.060806017 -0.06439843 -0.085266605 -0.59798235
000010 aa 1a 76 bd d9 84 e5 3d 79 6a 7c be 97 13 2a be
       -0.060084023 0.11206979 -0.24649991 -0.16609035
000020 e6 d0 a2 be 31 46 16 3e e9 da 09 be ce 30 8a be
       -0.31800002 0.14675213 -0.13462414 -0.2699036
000030 83 13 66 be d3 e0 b2 be 70 ca 66 be bc 73 23 bf
       -0.2246838 -0.34937152 -0.22538161 -0.6384847
000040 2e 08 98 bd d0 b8 9c be 64 47 64 be a5 fe 3b be
       -0.07423435 -0.3060975 -0.22292858 -0.18358858
000050 98 26 03 bf 7b 65 13 bf 3a e9 76 bf 74 91 ab be
       -0.51230764 -0.5757672 -0.96449625 -0.3350941
000060 dc 05 2c bd be 74 81 bd d5 04 ca 3c f3 80 13 bf
       -0.041997775 -0.06321095 0.024660507 -0.57618636
000070 b8 ff 98 bf 23 df 29 bf 69 f3 58 3d f2 d4 e8 be
       -1.1953039 -0.66356105 0.05296651 -0.45474964
000080 00 17 24 3b 48 48 d2 be be 8a 24 be 6f a0 21 bf
       0.0025038123 -0.4107077 -0.16068551 -0.6313543
000090 2a 41 fc be ac 72 98 be 4c a0 7c be eb e7 0d bf
       -0.49268466 -0.29774988 -0.24670523 -0.55432004
0000a0 c6 d1 c8 be 5b 67 b4 be 7e 3c ec bd 52 25 5e bf
       -0.39222544 -0.35235104 -0.115349755 -0.86775696
0000b0 0d 84 39 bf de 70 4b bf 9a 33 b7 be 86 b3 21 3e
       -0.7246712 -0.79469097 -0.35781556 0.15791139
0000c0 e7 bf cc be f7 79 a1 be 18 5a d4 be 68 2b 1b bf
       -0.3999016 -0.31538364 -0.41474986 -0.6061311
0000d0 9a 16 3d be 1a b9 cc 3d cc dd 2b bf 9a 8b ec ba
       -0.18465653 0.09996243 -0.6713531 -0.0018046976
0000e0 3e b4 ac be 10 e9 bf be 9c d4 58 be f1 52 cd be
       -0.33731264 -0.374825 -0.21174854 -0.40102342
0000f0 49 ba 02 be 51 31 3f be 6d b1 f8 be 00 dc 17 be
       -0.12766375 -0.18671156 -0.48572865 -0.14830017
000100 28 a2 67 bd ad c4 43 be c3 3b cd bd 53 0e 62 bd
       -0.05655113 -0.19117995 -0.10021164 -0.055189442
000110 c7 55 b8 be b5 b5 f0 bd 53 e0 56 3e bc dc 12 bf
       -0.36002943 -0.11753408 0.2098401 -0.57368064
000120 13 a5 6d bf 36 ef 53 be c6 f4 bf be 02 52 4b be
       -0.9283001 -0.2069672 -0.37491435 -0.19855502
000130 dd 91 86 be b7 4a dd be ee 3e 55 be 99 2d 4f bf
       -0.2628316 -0.43221065 -0.20824787 -0.8092895
000140 66 be de be 28 30 38 be 6e 5e c9 be 39 6a 08 bf
       -0.43504637 -0.1798712 -0.39329857 -0.5328708
000150 d3 c3 ba be 90 56 67 be 61 9b 97 be 41 ba df be
       -0.36477527 -0.22591615 -0.29610732 -0.43696788
000160 62 28 11 bf 43 ea 5d bc e0 e9 12 bf 0f b9 4e be
       -0.56702244 -0.013544622 -0.57388115 -0.20187782
000170 7f ee bb be 67 db af be 3a ef 01 bf 76 0a 88 be
       -0.36705396 -0.34347078 -0.50755656 -0.2657048
000180 ae 03 ad be a9 86 59 be 48 dc 0e bf 5e 6d 8d be
       -0.3379187 -0.21242775 -0.5580487 -0.27622503
000190 11 fd 92 be f7 1f 94 be dc ab 20 be cc 5e 8a 3e
       -0.287087 -0.28930637 -0.15690559 0.2702545
0001a0 f3 35 62 bd df 14 60 bd a4 45 01 bf 78 20 14 be
       -0.05522723 -0.054707404 -0.5049689 -0.14465511
0001b0 b3 73 81 bf 86 c5 28 bd 32 49 10 bf ef 84 d5 be
       -1.0113434 -0.041203998 -0.5636169 -0.41702983
0001c0 7a 5c 80 bd ca e6 b2 bc ae fb 8a 3c 1c 14 ec bd
       -0.062676385 -0.021838564 0.016965713 -0.11527273
0001d0 4f 53 9b be 13 c1 1c be 73 49 09 3e e5 e5 29 bf
       -0.30336997 -0.15308027 0.13406925 -0.66366416
0001e0 c9 96 c1 bd d4 dc 45 be 1b 02 a4 be c1 ce d9 be
       -0.09452588 -0.1932252 -0.32032856 -0.42540553
0001f0 0d 04 23 be 94 6f 1f bc 5f 81 f7 bd 8c a9 9e be
       -0.15919514 -0.009731192 -0.120852225 -0.3098873
000200 9f 45 a5 bd c9 e5 f2 be f9 4e a5 be b3 94 99 be
       -0.0806992 -0.47440937 -0.32286814 -0.2999626
000210 d8 77 ad be 96 d8 d8 bd a8 74 b4 be ba b9 cb bd
       -0.33880496 -0.105881855 -0.35245252 -0.09947534
000220 c1 b0 9c be e2 ad f8 be bf 9f 55 be 92 d3 53 be
       -0.30603603 -0.48570162 -0.2086172 -0.20686176
000230 10 4b f3 be 2d c9 9a be 7d e2 76 bf 21 4d 9d bf
       -0.47518206 -0.3023161 -0.96439344 -1.2289163
000240 d2 b5 b8 bd 64 a9 8e be bc 01 19 bf b1 38 bd b6
       -0.090190545 -0.2786361 -0.5976827 -5.6392387e-06
000250 f6 61 d8 bc 63 54 d7 be 0f 4a dc be f9 8b ca be
       -0.026413899 -0.4205657 -0.43025252 -0.39559916
000260 7a c0 93 be 2a 79 84 be 90 f6 70 bd f3 81 ee 3c
       -0.28857785 -0.2587369 -0.05882889 0.029114699
000270 4f 45 14 bd f5 d3 3a bf 5d ea a5 be b7 ab 92 bf
       -0.03619891 -0.7297967 -0.32405367 -1.1458653
000280 a5 34 8b bf 65 42 87 be bf bd b5 bd d5 82 01 bf
       -1.0875441 -0.26417843 -0.08874082 -0.5059026
000290 d8 76 29 be d5 cd 9b be fb 63 f6 be b4 f6 40 bf
       -0.16549242 -0.30430475 -0.48123154 -0.7537644
0002a0 a0 7b 84 be e1 0a c1 bf 05 b7 12 bd 1c e1 d4 be
       -0.25875568 -1.5081445 -0.035819072 -0.41577995
0002b0 23 d5 91 bc 95 15 37 bf 07 16 be bf 73 ba aa be
       -0.017801827 -0.71517307 -1.4850472 -0.33345374
0002c0 8b f9 32 bf 73 4d 23 bd c6 ab 6f bf 4d 8d 49 bd
       -0.6991202 -0.039868783 -0.9362148 -0.04920702
0002d0 06 8d e7 be 87 56 70 be e1 e9 f0 bf 98 cd 5e 3c
       -0.4522478 -0.23470508 -1.8821374 0.013598822
0002e0 61 d9 2a bf bf 16 0e be 98 eb c5 be 4c e6 77 bf
       -0.66737944 -0.13875864 -0.38656306 -0.9683578
0002f0 53 5d 9a be 57 88 1d be a9 25 3f be 73 eb 15 bf
       -0.30149326 -0.15384041 -0.1866671 -0.5856239
000300 2d 43 1f bf 0b a3 23 bf 59 19 4e be 69 6e f3 bd
       -0.6221188 -0.6392066 -0.20126857 -0.118862934
000310 ad b1 bf be a0 d6 45 be 8a 9e d3 3c 96 52 bf be
       -0.37440243 -0.19320154 0.025832433 -0.37367696
000320 b9 56 f2 bd bf 10 dc be d7 06 d6 be c2 16 12 be
       -0.11832947 -0.42981526 -0.41802093 -0.14266494
000330 c5 d0 ca bd 4c e6 a0 be 3d cb e7 be 24 3b f4 be
       -0.09903101 -0.31425703 -0.45272246 -0.4770137
000340 23 6f c1 3c b7 14 df bd e8 bf ed be 73 94 11 bf
       0.023612564 -0.10892623 -0.46435475 -0.5686714
000350 f5 3a 34 bf 3b 32 8d bf 19 a0 2a bf 51 ce 35 bf
       -0.7040246 -1.1030954 -0.6665054 -0.7101794
000360 55 df 86 be 9c 27 52 be 9d b7 76 be 1b a2 0a bf
       -0.26342264 -0.20522922 -0.2409348 -0.54153603
000370 dd df 13 bf 04 65 a7 be ca c4 6e bf f7 68 08 bf
       -0.57763463 -0.32694256 -0.93269026 -0.53285164
000380 39 d5 c7 be 75 85 e4 be 3f 81 1a bf f6 7b 0f bf
       -0.39029863 -0.4463307 -0.60353464 -0.56048524
000390 9c 42 59 bf 3e b9 4a bd 8f 15 17 bf f6 7e c8 bd
       -0.8486726 -0.049493067 -0.5901727 -0.09789841
0003a0 17 7e ba 3c 8c b0 01 be bd e1 1b bf 7e d6 ec be
       0.022765202 -0.12665004 -0.60891324 -0.46257395
0003b0 7f d2 f1 bd d0 fe 1e bd 80 c9 b7 be 35 fe ef bd
       -0.11807727 -0.038817227 -0.3589592 -0.11718408
0003c0 f1 df 61 bf aa b0 e3 bd 3c fc df be 86 df e1 be
       -0.8823233 -0.1111768 -0.43747127 -0.44115847
0003d0 60 de b7 be 59 ac 9a be 75 c5 59 be 42 3b 76 be
       -0.35911846 -0.30209616 -0.2126673 -0.24046043
0003e0 53 74 a5 be e1 27 19 be 02 e3 92 be a2 33 87 bf
       -0.3231531 -0.14956619 -0.28688818 -1.0562632
0003f0 0f 7a 31 bf 77 5a 98 3c 67 8e 62 bf 6e 16 ab bf
       -0.6932687 0.018597824 -0.8849854 -1.336622

network.3.bias f4 [64]
000000 67 dc 32 c0 34 d5 1d c0 e5 6f 0f c0 f6 61 57 c0
       -2.7947023 -2.466138 -2.2412045 -3.365354
000010 bb 30 10 c0 fc 3b 21 c0 48 59 21 c0 c9 ff 4e c0
       -2.2529743 -2.5192862 -2.5210743 -3.234362
000020 94 67 c9 bf 19 2e 0d c0 4a 18 1c c0 3c af f0 bf
       -1.5734735 -2.2059386 -2.4389825 -1.8803477
000030 60 16 3d c0 cb fa 4e c0 f8 6b 0c c0 a9 aa 16 c0
       -2.9544907 -3.2340572 -2.19409 -2.3541663
000040 47 b8 13 c0 4b 07 69 c0 58 b2 b5 bf ae eb 14 c0
       -2.3081224 -3.6410701 -1.4195051 -2.3268847
000050 03 02 22 c0 a9 8f 3a c0 6f 1a 04 c0 a0 af 1b c0
       -2.5313728 -2.9150183 -2.0641134 -2.4325943
000060 d6 2d 0b c0 ed 3f c8 bf 8c e6 22 c0 de 4d 5a c0
       -2.1746726 -1.5644509 -2.5453215 -3.4110026
000070 ab 52 3b c0 9b b9 f6 bf 1f bf 3d c0 da 0c 36 c0
       -2.9269207 -1.9275392 -2.96479 -2.8445344
000080 56 58 8f bf 42 33 33 c0 56 74 6d c0 4d 6a 0e c0
       -1.1198833 -2.8000035 -3.7102256 -2.225238
000090 e4 65 25 c0 10 6f 18 c0 83 df 1c 3f 2d 43 db bf
       -2.584344 -2.3817787 0.6127855 -1.7129875
0000a0 57 92 1f c0 e6 92 57 c0 5a 01 05 c0 5f 5a 42 c0
       -2.4933069 -3.368341 -2.0782075 -3.0367658
0000b0 6e d1 31 c0 cf 98 5b c0 d3 26 74 c0 fb 0c 1f c0
       -2.7784076 -3.4312017 -3.8148696 -2.4851673
0000c0 b8 01 9b bf d1 bd 00 c0 7c 89 e9 bf 76 4d 2e c0
       -1.21099 -2.0115855 -1.8245082 -2.7234778
0000d0 98 79 7c c0 6f 65 ae 3f 50 48 90 c0 41 00 6f c0
       -3.9449215 1.3624705 -4.508827 -3.7343905
0000e0 5e 68 8c c0 5a fc a4 bf 43 66 6c c0 8b 24 0d c0
       -4.38774 -1.2889512 -3.6937416 -2.2053554
0000f0 c4 03 17 c0 68 6d 28 c0 5a 20 e9 3e ff c1 07 c0
       -2.3596048 -2.6316776 0.45532495 -2.1212156

network.6.weight f4 [5, 64]
000000 e0 9d 8e be c8 d4 17 3e 69 61 71 3e 5f 36 3d be
       -0.27854824 0.14827263 0.23572315 -0.18477772
000010 e4 98 18 be 84 20 99 be 35 67 51 3e 3e eb 08 3e
       -0.14902073 -0.2990762 0.20449527 0.13370988
000020 1f c6 19 be 3c 0b b2 bd f8 1e 7c bd a7 dd 3a be
       -0.15016983 -0.08693549 -0.06155297 -0.18248616
000030 d1 c5 b5 bd eb 20 6d 3d 18 18 6b 3d ea b5 5e be
       -0.08875621 0.05789272 0.057396024 -0.21749082
000040 d7 b6 26 3d 11 4e 97 3d 08 34 f2 3d 18 2e ca bd
       0.040701713 0.07387937 0.118263304 -0.09872073
000050 3b 0c aa 3d e3 6b 9e 3d ba 9d c6 3c 50 a2 f1 3d
       0.08303114 0.077354215 0.024245132 0.11798537
000060 ed 20 06 3e 50 dc d6 3c 5e 01 4b bd b0 80 82 be
       0.13098498 0.0262281 -0.04956185 -0.25488806
000070 d4 ab ce bd af 67 cc bd ef db 81 3d aa c1 70 3e
       -0.10091367 -0.099807136 0.06340777 0.23511377
000080 af b7 a1 3b 2b 1b 2c bd 99 5e 8b 3e bb 26 97 be
       0.004935227 -0.042018097 0.2722061 -0.29521737
000090 9c 77 43 3d c8 0b 55 be 8a fc 4d be 55 c2 30 be
       0.04772149 -0.20805275 -0.20115867 -0.17261632
0000a0 b7 d3 93 be 9d cd 22 be c5 65 b2 bc 65 07 1e be
       -0.28872463 -0.15898748 -0.021777043 -0.15432508
0000b0 5b 0f 9a bd b6 cc 06 be 67 dc 42 3c a3 75 0f 3e
       -0.0752246 -0.13164029 0.011893368 0.14009719
0000c0 ae 7d f9 bd cd 7a 8a 3d 50 8b 8c be 15 4e de 3d
       -0.121821746 0.06761704 -0.27450037 0.10854737
0000d0 73 87 31 be 7a ad f0 bd 46 d4 8f 3e b6 7d 1f 3e
       -0.17336826 -0.11751838 0.2809164 0.15575299
0000e0 5e 63 96 be 0c 92 60 be 6c cb b5 3b 2d 1a 05 be
       -0.29372686 -0.21930712 0.0055479314 -0.12998267
0000f0 a4 c1 98 be ab 6c ec 3d 1a a6 2b be 48 5b c6 3c
       -0.29835236 0.11544164 -0.16762581 0.024213448
000100 72 c4 42 bd 71 c1 6d 3e e2 2f 53 3e 07 7b 80 3d
       -0.047550626 0.23218323 0.20623735 0.062734656
000110 63 9e e6 be bc 77 15 3e 7d b5 05 be 27 b4 bd 3d
       -0.45042714 0.14596456 -0.13057514 0.09262877
000120 0c f5 34 3d 1b 0d 81 3d a8 68 84 be 59 15 61 be
       0.044179007 0.06301328 -0.25861096 -0.219808
000130 ef eb 4c 3e 4f 77 14 3e d6 37 05 be be 5e f2 bd
       0.20011877 0.14498638 -0.13009581 -0.11834477
000140 76 2c 86 bd 9b 32 f7 3e 2f e7 c1 be b1 df db 3b
       -0.06551449 0.48280796 -0.37871692 0.0067100157
000150 00 4a 59 3e 93 96 ef bd 8f 8c 9f be 4c 0d 56 3e
       0.21219635 -0.11698642 -0.31161925 0.2090351
000160 65 8e e1 bd 3b c2 97 be 05 84 14 bf ca 55 da bd
       -0.11013488 -0.29640374 -0.58013946 -0.10660894
000170 49 13 31 be 00 85 08 3e b1 6e 4b be 1d b9 77 bd
       -0.17292513 0.13331985 -0.19866444 -0.060479272
000180 b9 29 ec be 05 89 bd 3e 00 9a c0 3b f8 e7 2b 3e
       -0.46125582 0.370186 0.005877733 0.16787708
000190 b8 df 34 be f5 a4 6d 3e 01 65 79 3d a3 b4 11 be
       -0.17663467 0.23207457 0.06088734 -0.14229064
0001a0 ec 57 d1 bd 64 b0 7e be 60 74 27 3e 8c 93 9e be
       -0.10221848 -0.24871975 0.16352987 -0.30971944
0001b0 c6 b5 12 bd 1b 02 1b 3d ff 37 a6 3e b0 c4 b6 3c
       -0.035817884 0.037843805 0.32464597 0.022310585
0001c0 99 e5 35 3c 1b 61 5c be 0f 03 81 be 9d d2 cd 3d
       0.011102104 -0.21521418 -0.25197646 0.10049937
0001d0 2a f0 d4 3e 13 a0 75 be 87 a8 92 be 2d 97 ee be
       0.4158948 -0.23986845 -0.286442 -0.46599713
0001e0 38 c9 47 bf bb 96 55 3e a7 f5 32 3e c7 04 86 bd
       -0.7804141 0.2085828 0.17476521 -0.0654388
0001f0 31 d0 76 3e 26 4e 02 be 95 fd 27 be 5d d7 c5 be
       0.24102856 -0.12725124 -0.16405328 -0.38640872
000200 d6 d5 87 3d 0e 1e 15 be 09 4d a9 be e9 71 2f bc
       0.06632583 -0.14562246 -0.33066586 -0.010708311
000210 40 17 94 3c 12 a4 41 be 04 d3 7b 3e df 3a 5a 3e
       0.018077493 -0.18910244 0.24592215 0.2131152
000220 56 4c 01 3e bb db 14 bf e5 9e 4b be 13 14 ae 3e
       0.12626776 -0.5814778 -0.19884832 0.3399969
000230 5d 55 b0 bd 2e fa 1e 3e a8 79 62 be 07 d7 63 be
       -0.08610032 0.15525123 -0.2211672 -0.22249995
000240 8d b3 1f bc 21 db 12 be 23 99 1d bd 9e b5 d6 3e
       -0.009747398 -0.14341404 -0.03847612 0.41935438
000250 4f 84 14 3e 74 d3 d8 bd c6 61 9b 3d 29 50 2d bd
       0.14503597 -0.105872065 0.07587008 -0.042312775
000260 1e 4f 5b 3e 6b c5 66 be eb f4 16 3e f2 ec 9e 3d
       0.214169 -0.22536246 0.14741866 0.077600375
000270 17 f4 b5 3c 38 3f 4d be df 93 7f 3e 30 8f 89 bd
       0.022211118 -0.20043647 0.24958752 -0.06716764
000280 11 0c c4 3d ea a4 8f bc 08 3f 5b bc d8 22 a8 3d
       0.09572614 -0.017534692 -0.013381727 0.08209771
000290 4a 03 86 be 4e d1 08 be 26 a4 59 3e 23 b6 25 be
       -0.26174384 -0.13361093 0.21254024 -0.16182761
0002a0 63 f3 52 be c5 48 45 3e 5e bc 6f 3e 32 83 bd be
       -0.20600657 0.1926604 0.234117 -0.37014157
0002b0 79 ab 86 3e 79 4c a5 be cd 65 7f bd 71 b6 9b be
       0.26302698 -0.32284907 -0.062352944 -0.3041263
0002c0 1b 0f 02 bd 51 53 85 bc c3 a3 4e be 59 0b 9d 3e
       -0.031752687 -0.01627508 -0.20179658 0.3067272
0002d0 41 10 84 be af 13 33 3e 5d fe 0c be 24 7d 8d be
       -0.2579365 0.17487977 -0.13768907 -0.27634537
0002e0 f7 7a 86 3e 11 3d 7b be e3 99 af be 34 b0 a0 3e
       0.2626569 -0.24535014 -0.34297094 0.31384432
0002f0 89 fd a5 bd a3 eb f0 3e 61 43 09 bf 1a f2 fe 3d
       -0.081049986 0.47054777 -0.5361844 0.12448521
000300 48 77 6c be ca 2e 17 3e 1b 78 53 bd 1f f9 de bd
       -0.23092377 0.14763942 -0.051628213 -0.1088736
000310 e0 a1 91 3c 56 46 53 3d a5 85 64 3e 64 ab c8 be
       0.017777383 0.05158075 0.22316606 -0.3919326
000320 f3 87 3c be f8 70 ed be 07 fc bf 3d db 43 e2 bd
       -0.18411236 -0.4637525 0.09374242 -0.11048099
000330 60 ca b3 3d 3b 5c 15 3d 41 39 be 3d 05 86 04 3e
       0.08778834 0.03646491 0.09288264 0.1294175
000340 64 d7 35 be 48 d4 eb 3d 97 fa 02 3e a6 cd e0 3e
       -0.17757946 0.11515099 0.12790905 0.43906897
000350 38 30 cc 3d b2 d1 f0 3d c6 f9 37 bd ff d6 78 3d
       0.099701345 0.11758746 -0.044915937 0.06075191
000360 76 4a 69 bd 96 f4 1d 3d 04 af 2a be 4b 68 cc bc
       -0.056955777 0.038563333 -0.16668326 -0.024952075
000370 80 14 db bd 8b 60 32 bd a0 d4 5d 3d ca f0 02 bd
       -0.106972694 -0.0435491 0.054157853 -0.031967916
000380 00 84 dd 3c b6 9c 63 3e b8 93 f9 3d 21 e4 22 be
       0.027040482 0.22227749 0.12186378 -0.15907337
000390 3c b9 a9 be 0e 86 2c be 6e 9c b6 3e af ec e6 bd
       -0.33149135 -0.16848013 0.3566622 -0.112756126
0003a0 f6 f4 b5 3d 31 cd da 3d 4a fe f8 bd 48 45 aa 3e
       0.08884613 0.106836684 -0.12157877 0.33255982
0003b0 de f2 0c bd 18 ab f9 3d d2 0d 96 bd ac e0 99 3d
       -0.034411304 0.12190837 -0.07326855 0.07513556
0003c0 0f cf ec 3d 5d f5 00 3d e8 49 25 3d b7 01 41 be
       0.11562931 0.031483997 0.040353686 -0.1884831
0003d0 34 48 1d 3e ce 28 4b 3e 5e 91 dd 3d 0d 4c b7 3e
       0.15359575 0.19839785 0.10818742 0.3580021
0003e0 25 27 78 3e e5 61 d0 3c 71 5b 9f 3d c0 07 62 3d
       0.24233682 0.025437305 0.07781113 0.055183172
0003f0 24 62 cd bd c3 1d 4d be 48 d5 31 ba d2 3c 0e 3e
       -0.100284845 -0.20030884 -0.00067837955 0.13890389

network.6.bias f4 [5]
000000 80 e6 64 3e e0 40 16 be 51 86 9f 3c 82 85 90 3e
       0.22353554 -0.14673185 0.019473227 0.28226858
000010 fe d9 03 3d
       0.032190315

network.0.weight f4 [128, 43]
000000 b0 16 a5 bb fc 7d 50 bf 37 39 1e 3f 43 e9 c7 bf
       -0.005038105 -0.81442237 0.6180605 -1.5618061
000010 aa 96 f4 bf cc f0 23 be 6b be b0 3f 4a ba 0c 3e
       -1.9108479 -0.16009825 1.3808111 0.13742939
000020 a5 1d 28 3e 74 08 26 be 01 cf 90 bc 38 ae ec bd
       0.16417558 -0.16214162 -0.017676832 -0.11556667
000030 0b b7 8f 3f db 2f e7 be 8c bc 06 3e 6e d7 18 bf
       1.1227735 -0.45153698 0.13157862 -0.5970372
000040 24 75 d1 bf 2b 1b f3 3f 1b cb 59 3f 03 ad a3 bd
       -1.6363873 1.8992666 0.8507554 -0.07991984
000050 f5 73 0c be d6 be b3 bd 3c f8 04 3e af 68 a7 ba
       -0.13716109 -0.087766334 0.12985319 -0.0012772287
000060 33 16 bb bd 1f 9e 2b 3e 56 7f 3c bd 4b 5d ce bf
       -0.091350935 0.16759537 -0.046019875 -1.6122221
000070 5e d6 1b 40 80 86 94 bf 35 c0 8b 3d 91 b2 cb 3f
       2.434959 -1.1603546 0.0682377 1.5913869
000080 77 c5 3a be 48 a0 ae bf 9c ad 23 3e 1a ee 41 3e
       -0.1823939 -1.3642664 0.15984195 0.18938485
000090 07 38 55 bf 51 8c ce 3f 38 4f 18 c0 50 61 41 c0
       -0.83288616 1.6136571 -2.3798351 -3.0215645
0000a0 e1 0a 3c 40 56 3c 11 c0 04 9b 1a 3d d1 27 29 be
       2.938164 -2.2693076 0.03774549 -0.16519095
0000b0 93 a1 bf 3f 59 b0 ac bf 55 c6 76 bf 33 c9 ae be
       1.4971184 -1.3491317 -0.9639638 -0.34137878
0000c0 70 05 3d be 5d 1c 92 c0 54 48 a9 3d 85 bb bb 3d
       -0.18459105 -4.5659623 0.082657486 0.09166626
0000d0 7b be 1b bd 7f 07 2c 3d c5 ab 34 3d 70 c3 05 c0
       -0.038023453 0.041999336 0.044109125 -2.0900536
0000e0 cf a2 60 c0 45 2d 0e bf 4e ed 2c 3f 31 15 00 c0
       -3.509937 -0.55537826 0.675496 -2.0012934
0000f0 0a a2 dc bc ed b1 84 3e d6 60 3e be 31 8b 7b 3d
       -0.026932735 0.25916997 -0.18591627 0.06141204
000100 0f 0e a8 3d dc aa a6 bd 22 c5 ed 3d 3a d1 3e bd
       0.082058065 -0.081380576 0.11609866 -0.046586253
000110 58 57 c5 bd 7a 87 c6 3d 78 84 86 3f 58 a4 c8 bf
       -0.096358 0.09693809 1.0509176 -1.5675154
000120 09 2c c1 3f d8 97 20 3e 1f 6d 1a bf 11 3b 89 bd
       1.5091563 0.15682924 -0.60322756 -0.06700719
000130 bd c0 83 3f 50 56 fc bd de f5 07 c0 00 7a d8 3f
       1.0293194 -0.1232115 -2.1243815 1.6912231
000140 e4 fd d3 bf 58 88 a7 bf 24 c4 3e be 1c 0c 49 40
       -1.6561856 -1.3088484 -0.18629509 3.141364
000150 ef 6a bb bf b6 3f c6 3d 39 e7 a9 3d 14 ee a9 bf
       -1.4642009 0.09680121 0.08296055 -1.3275781
000160 45 cb b1 3f 02 c5 7a 40 bd c3 7f c0 22 7b a5 bd
       1.3890158 3.9182744 -3.996322 -0.08080126
000170 7d 56 95 40 3f cc 31 3d ad b0 26 3d a9 cf bf bd
       4.6668077 0.043407675 0.040695835 -0.0936578
000180 61 e6 09 bd 77 77 9b bb 86 f0 05 c1 3a 58 28 c0
       -0.033666972 -0.004744466 -8.371222 -2.630385
000190 ad 91 19 c0 2c fc 63 3f 93 03 12 c0 87 17 6c 40
       -2.3995163 0.8905666 -2.2814682 3.688936
0001a0 4b 3a 9c bf 6d 57 1c 3d b5 52 3c be 2d 85 23 3e
       -1.220529 0.038169313 -0.18390925 0.15968771
0001b0 b6 da c7 3d 24 d8 33 be 98 7e 75 3d 0a b2 19 be
       0.09758513 -0.1756292 0.059935182 -0.15009323
0001c0 d5 5d 88 3c 94 cf 79 bb 5d 2f 40 be 6c aa cd c0
       0.016646305 -0.003811811 -0.18768068 -6.4270535
0001d0 46 de 2a be b6 ba 3c bf 16 0a 0d 3e b7 b5 0f bd
       -0.16686353 -0.737224 0.13773379 -0.035085406
0001e0 f5 f9 ca bd df 65 29 bf 9b 22 b5 3f c7 8c 6d 3e
       -0.09910957 -0.6617107 1.4151186 0.23198234
0001f0 0f d0 1f c0 b3 2c 6f c0 ee 04 11 40 a3 65 73 3f
       -2.497074 -3.7371032 2.265926 0.9507696
000200 07 a0 14 bd 05 82 37 3c 0a 36 f1 3f 83 da ee bf
       -0.036285426 0.011200433 1.8844616 -1.8660434
000210 a0 b5 17 bf 8a 38 3a bf 94 2b 3a be 42 7f 8a c0
       -0.5926151 -0.7274252 -0.18180686 -4.3280344
000220 33 f6 37 be 12 d2 dc bc 1c ac 6f 3d 0d 77 09 be
       -0.17965011 -0.026955638 0.058513746 -0.1342432
000230 f2 31 4c 3c 12 a7 b2 bf 3e 60 c2 c0 77 81 70 be
       0.01246308 -1.3957236 -6.0742483 -0.23486887
000240 e4 59 79 3f 33 4e 3e c0 61 52 3f 40 65 07 8b 3f
       0.9740279 -2.973523 2.989403 1.0861632
000250 1f f4 b4 3d 8f e7 91 bd 45 1c 3c 3e d4 a2 92 bc
       0.08835625 -0.071242444 0.18370159 -0.017899908
000260 f0 05 a0 bc 75 b3 f6 bd 87 92 af 3d 96 2a 3f be
       -0.019534081 -0.120459475 0.0857287 -0.18668589
000270 c7 39 b5 bf 32 8b 37 3f 7e cc be bf d0 18 d3 bd
       -1.4158257 0.7169677 -1.4906156 -0.10307467
000280 24 33 19 bf bf c7 ab 3d a6 1c ac bf a8 10 02 bd
       -0.5984366 0.08387708 -1.3446243 -0.031754166
000290 42 e0 dd bf 03 79 50 3f 2c 91 0c 3c 37 fa a3 bf
       -1.7334063 0.8143465 0.008579534 -1.2810735
0002a0 85 d7 2f 40 1e 2e b0 be 1c 29 d2 bf 7a 05 1c 3d
       2.7475293 -0.34410185 -1.6418796 0.03809116
0002b0 34 3f 15 be da df 70 3f fa 40 72 bf 00 6e 11 40
       -0.14574891 0.9409157 -0.94630396 2.2723389
0002c0 46 2b c2 bf 1e 5f 09 3e 46 90 e4 3f ae 87 b2 bd
       -1.5169456 0.1341519 1.7856529 -0.08717285
0002d0 3a 08 3c bd 48 f0 0f 3e 66 df d4 bd ab 40 2f be
       -0.045906283 0.14056504 -0.10394172 -0.17114513
0002e0 20 a1 8a be 0a 2d 64 c0 e0 c5 ac 3e 50 86 e6 3e
       -0.27076054 -3.565249 0.33744717 0.45024347
0002f0 ff 01 2c 3e 39 11 70 3d e1 1f a9 3f c6 b1 ab bd
       0.16797636 0.058610175 1.3212854 -0.08383517
000300 53 1e 31 3e 30 da 32 be 49 16 0d 3d 57 15 21 3e
       0.17296724 -0.17466044 0.03444508 0.15730797
000310 08 21 87 bc 43 2c a5 3d a6 dd 0e 3e 13 87 4d bf
       -0.016495243 0.08065083 0.1395174 -0.8028423
000320 aa 31 7b 40 67 aa c7 c0 d0 1b 25 bd 8e ad db 3f
       3.9249063 -6.239551 -0.040309727 1.716234
000330 bc 37 38 be 5f be 93 bf 54 f0 da 3d ba 67 e4 3f
       -0.17990011 -1.1542472 0.1069037 1.7844155
000340 cc c3 35 3f ae 0a af 3f 91 02 5e c0 ae 48 7a 3d
       0.7100189 1.3675134 -3.4689066 0.06110447
000350 69 c5 20 3e 93 d8 b4 bf 09 0d f0 3d 3a 59 01 bd
       0.15700306 -1.4128593 0.11721236 -0.031579234
000360 d8 2f 5e bf aa 72 8a 3f e3 94 75 3f 1e 1c 2a 3d
       -0.86791754 1.0816243 0.9593031 0.04153072
000370 12 a3 04 3e 6d 41 94 3f e6 f0 b6 3c c0 f2 14 3d
       0.12952831 1.1582466 0.022331666 0.036364317
000380 8f a7 21 be 86 f3 4b 3d 58 64 38 bd 9a 46 bc 3e
       -0.15786575 0.04979279 -0.04501757 0.36772615
000390 43 5f 08 bf 32 1f b0 3f 48 9d 88 bd 19 4f 5c 3f
       -0.5327036 1.375952 -0.06670624 0.86058193
0003a0 f8 66 10 c0 24 56 f9 bf 58 b9 81 3d 59 c8 a6 3d
       -2.2562847 -1.9479413 0.0633418 0.08143682
0003b0 3a 40 f4 3d 6c 84 cf 3d a9 7f 02 be 77 4b a3 bd
       0.11926313 0.10132679 -0.12744011 -0.07973378
0003c0 56 82 02 be 2e 91 f1 bd a2 4f 16 bf 77 e9 58 be
       -0.12745032 -0.11795269 -0.5871526 -0.2118281
0003d0 92 f2 b2 bf 27 a9 0a 3e 55 a6 24 be 0c ac 5c 3c
       -1.3980277 0.13541089 -0.16079076 0.013468754
0003e0 aa 87 12 bf c3 fd c4 3d 94 86 0a bf 25 d1 9e be
       -0.57238257 0.09618714 -0.541116 -0.3101894
0003f0 b3 29 02 bc eb 48 e6 bf 8d b6 77 3f 61 8a 07 bf
       -0.007944512 -1.7991003 0.96762925 -0.52945524

network.0.bias f4 [128]
000000 f6 92 4d c1 7f 2c 3e c1 c6 33 e9 c0 35 ef 2f c1
       -12.848379 -11.885863 -7.28757 -10.9959
000010 b0 f0 52 c1 d7 7e 12 c1 1c 3e 22 c1 a4 20 35 c1
       -13.183762 -9.155967 -10.140163 -11.320469
000020 69 f3 26 c1 60 c5 37 c1 88 a7 32 c1 dc 49 e4 c0
       -10.434426 -11.485687 -11.165901 -7.134016
000030 ee a9 17 c1 0b 8b 77 c1 d7 ef 0e c1 57 ba 37 c1
       -9.478987 -15.471446 -8.933555 -11.482993
000040 20 94 58 c1 16 e4 43 c1 8e f3 ba c0 ed 70 24 c1
       -13.536163 -12.243185 -5.842231 -10.27757
000050 ff 83 20 c1 67 fc 05 c1 54 3e fb c0 f2 9f 4a c1
       -10.032226 -8.374122 -7.8513584 -12.664049
000060 b6 39 df c0 5f 3b 1d c1 87 fe ec c0 d3 c8 2c c1
       -6.975795 -9.826995 -7.40607 -10.799029
000070 e1 34 ee c0 b9 79 03 c1 5e 92 2d c1 51 f3 2f c1
       -7.443955 -8.217217 -10.848234 -10.996903
000080 1e b8 ce c0 c0 71 15 c1 60 d7 5a c1 fa 7c d0 c0
       -6.4599752 -9.340271 -13.677582 -6.515256
000090 31 d5 30 c1 27 ae 60 c1 f5 a0 49 c1 67 cf 0a c1
       -11.052049 -14.042518 -12.601796 -8.675635
0000a0 6d 50 30 c1 f4 c6 f6 c0 f0 45 1d c1 97 20 a1 c0
       -11.019635 -7.7117863 -9.829575 -5.0352283
0000b0 56 43 76 c1 c2 a0 5e c1 4a 63 37 c1 d9 0f 36 c1
       -15.391439 -13.9142475 -11.4617405 -11.378869
0000c0 64 40 82 c1 13 18 43 c1 3b 81 7b c1 1d ce 22 c1
       -16.28144 -12.1933775 -15.71905 -10.175321
0000d0 2f 7d c0 c0 99 0d 25 c1 0f 32 07 c1 3b 36 69 c1
       -6.015281 -10.31582 -8.449721 -14.57574
0000e0 b9 cd 28 c1 ab e2 34 c1 a9 42 40 c1 7a 5d 0e c1
       -10.550225 -11.305339 -12.016274 -8.897821
0000f0 70 35 33 c1 bf 16 0d c1 3d 5d ee c0 cc 46 23 c1
       -11.200546 -8.818053 -7.4488816 -10.204784
000100 1c 95 18 c1 64 28 25 c1 c6 8d dd c0 2d 4e 0d c1
       -9.536404 -10.322361 -6.9235563 -8.831586
000110 1b b5 17 c1 62 01 34 c1 fc c8 3a c1 7d 51 11 c1
       -9.481715 -11.250338 -11.674068 -9.082395
000120 4a d9 09 c1 e1 38 21 c1 4a 4c 53 c1 60 5e 36 c1
       -8.615549 -10.076386 -13.206125 -11.398041
000130 ff c6 dc c0 17 00 b5 c0 95 a7 37 c1 fa fa 1e c1
       -6.8992915 -5.656261 -11.478414 -9.936274
000140 90 d9 4a c1 ea c6 31 c1 c5 bd f8 c0 d4 db 65 c0
       -12.678116 -11.111063 -7.773165 -3.5915422
000150 6b f4 0d c1 ba 6a 41 c1 58 c5 2e c1 c0 14 26 c1
       -8.872172 -12.088556 -10.92318 -10.380066
000160 ac f5 1f c1 97 14 a0 c0 9f fa 57 c1 45 72 5a c1
       -9.9974785 -5.0025134 -13.498687 -13.652898
000170 06 5d 12 c1 eb 20 07 c1 e3 ac 55 c0 41 05 13 c1
       -9.147711 -8.445537 -3.3386772 -9.188783
000180 e3 c0 04 c1 66 8e 55 c1 55 10 2f c1 ac 51 a1 c0
       -8.2970915 -13.347265 -10.941487 -5.0412197
000190 24 b7 23 c1 d6 98 ef c0 2d cc 21 c1 ff f9 fd c0
       -10.232212 -7.4874067 -10.112348 -7.936767
0001a0 cb ef 32 c1 08 ea 16 c1 8c 3e 0d c1 9c 9a 12 c1
       -11.183543 -9.432137 -8.82777 -9.162746
0001b0 36 91 12 c1 ef 57 3e c1 d9 93 03 c1 c4 62 95 c0
       -9.160452 -11.896468 -8.223596 -4.6683064
0001c0 3c 7a 52 c1 bf 39 51 c1 42 01 13 c1 db da 20 c1
       -13.154842 -13.076598 -9.187807 -10.0534315
0001d0 54 17 3f c1 23 87 e1 c0 14 e6 26 c1 87 d1 3e c1
       -11.943195 -7.047746 -10.431171 -11.926154
0001e0 29 4d f2 c0 59 00 3f c1 e2 22 ee c0 3b 72 26 c1
       -7.571919 -11.937585 -7.441758 -10.402888
0001f0 50 9b 32 c1 0b 1b 11 c1 6f 19 0d c1 50 f5 26 c1
       -11.162918 -9.069102 -8.818709 -10.434891

network.3.weight f4 [64, 128]
000000 dc 0d 79 bd ed e2 83 bd 56 a0 ae bd b6 14 19 bf
       -0.060804233 -0.06439767 -0.085266754 -0.5979723
000010 04 1a 76 bd b3 84 e5 3d 6c 6a 7c be 7f 13 2a be
       -0.060083404 0.11206951 -0.24649972 -0.16609
000020 e7 d0 a2 be f6 45 16 3e 45 da 09 be 35 30 8a be
       -0.31800005 0.14675125 -0.1346217 -0.26989904
000030 94 12 66 be 69 e0 b2 be 7b ca 66 be 67 73 23 bf
       -0.22468024 -0.34936836 -0.22538178 -0.63847965
000040 f6 07 98 bd be b8 9c be bb 46 64 be 10 fe 3b be
       -0.074233934 -0.30609697 -0.22292607 -0.18358636
000050 dd 25 03 bf 3e 65 13 bf de e8 76 bf bf 90 ab be
       -0.5122965 -0.5757636 -0.9644908 -0.3350887
000060 27 05 2c bd d0 6a 81 bd da 03 ca 3c 96 80 13 bf
       -0.0419971 -0.06319201 0.02466004 -0.5761808
000070 9e ff 98 bf 27 df 29 bf 81 f3 58 3d 5b d4 e8 be
       -1.1953008 -0.6635613 0.0529666 -0.45474514
000080 c3 23 24 3b aa 47 d2 be 4f 8a 24 be 37 a0 21 bf
       0.002504573 -0.410703 -0.16068386 -0.63135093
000090 04 41 fc be 36 72 98 be 54 a0 7c be c5 e7 0d bf
       -0.49268353 -0.29774636 -0.24670535 -0.5543178
0000a0 d1 d1 c8 be 40 67 b4 be 3b 3c ec bd 32 25 5e bf
       -0.39222577 -0.35235023 -0.115349256 -0.86775506
0000b0 ce 83 39 bf e9 70 4b bf e0 32 b7 be f7 b2 21 3e
       -0.72466743 -0.7946916 -0.35781002 0.15790926
0000c0 49 bf cc be ef 79 a1 be 62 59 d4 be 16 2b 1b bf
       -0.3998969 -0.3153834 -0.41474444 -0.6061262
0000d0 e8 15 3d be 09 b9 cc 3d 4f dd 2b bf e0 7f ec ba
       -0.18465388 0.0999623 -0.67134565 -0.0018043481
0000e0 27 b4 ac be 90 e8 bf be 42 d4 58 be e5 52 cd be
       -0.33731195 -0.3748212 -0.2117472 -0.40102306
0000f0 0d ba 02 be ea 30 3f be 4c b1 f8 be 6e db 17 be
       -0.12766285 -0.18671003 -0.48572767 -0.148298
000100 03 a5 67 bd 11 c4 43 be 4f 3b cd bd f1 0d 62 bd
       -0.05655385 -0.19117762 -0.10021078 -0.055189077
000110 80 55 b8 be 19 b5 f0 bd 42 e0 56 3e 86 dc 12 bf
       -0.3600273 -0.11753292 0.20983985 -0.5736774
000120 2a a3 6d bf 22 ef 53 be 48 f4 bf be a9 51 4b be
       -0.92827094 -0.2069669 -0.3749106 -0.1985537
000130 a5 91 86 be 72 4a dd be 4a 3e 55 be 10 2d 4f bf
       -0.26282993 -0.4322086 -0.20824543 -0.80928135
000140 0f be de be 00 30 38 be 71 5e c9 be 7e 69 08 bf
       -0.43504378 -0.1798706 -0.39329866 -0.5328597
000150 60 c3 ba be 06 56 67 be 5e 9b 97 be 3e b9 df be
       -0.36477184 -0.22591409 -0.29610723 -0.43696016
000160 ce 27 11 bf b1 eb 5d bc c6 e9 12 bf c1 b8 4e be
       -0.5670136 -0.013544963 -0.5738796 -0.20187666
000170 d0 ed bb be 2f db af be ed ee 01 bf 35 0a 88 be
       -0.36704874 -0.3434691 -0.50755197 -0.26570287
000180 0f 03 ad be c8 26 59 be 4d dc 0e bf 1d 6d 8d be
       -0.33791396 -0.212062 -0.558049 -0.2762231
000190 39 fc 92 be 90 1f 94 be af ab 20 be 4d 5e 8a 3e
       -0.28708056 -0.2893033 -0.15690492 0.2702507
0001a0 d3 35 62 bd 83 14 60 bd 65 45 01 bf f6 1f 14 be
       -0.055227112 -0.05470706 -0.5049651 -0.14465317
0001b0 7d 73 81 bf 29 c2 28 bd 26 49 10 bf 9a 84 d5 be
       -1.0113369 -0.04120079 -0.56361616 -0.4170273
0001c0 ff 5b 80 bd d0 e5 b2 bc 54 fd 8a 3c 4a 13 ec bd
       -0.06267547 -0.021838099 0.0169665 -0.115271166
0001d0 ee 52 9b be 8e c0 1c be bc 49 09 3e 67 e5 29 bf
       -0.30336708 -0.15307829 0.13407034 -0.66365665
0001e0 41 96 c1 bd c9 dc 45 be 97 01 a4 be 42 ce d9 be
       -0.09452487 -0.19322504 -0.32032463 -0.42540175
0001f0 25 03 23 be 46 6f 1f bc ff 80 f7 bd d6 a8 9e be
       -0.15919168 -0.0097311195 -0.12085151 -0.30988187
000200 07 45 a5 bd b4 e5 f2 be 67 4e a5 be 0e 94 99 be
       -0.080698065 -0.47440875 -0.3228638 -0.2999577
000210 77 77 ad be 2a d8 d8 bd 88 74 b4 be 91 b9 cb bd
       -0.33880207 -0.10588105 -0.35245156 -0.09947503
000220 26 b0 9c be 64 ad f8 be 2a 9f 55 be 02 d3 53 be
       -0.3060314 -0.48569787 -0.20861498 -0.20685962
000230 7c 4a f3 be a6 c8 9a be 04 e2 76 bf 66 4c 9d bf
       -0.47517765 -0.30231208 -0.9643862 -1.228894
000240 64 b6 b8 bd bd a8 8e be 2e 01 19 bf fe c8 05 36
       -0.09019163 -0.27863112 -0.59767425 1.9935537e-06
000250 06 61 d8 bc e2 53 d7 be 6a 49 dc be 01 8c ca be
       -0.026413452 -0.42056185 -0.4302476 -0.3955994
000260 de bf 93 be ed 78 84 be 47 f7 70 bd 2e 81 ee 3c
       -0.2885732 -0.2587351 -0.058829572 0.029114332
000270 70 3e 14 bd c8 d3 3a bf 21 e9 a5 be 4e ab 92 bf
       -0.036192358 -0.729794 -0.32404426 -1.1458528
000280 5d 34 8b bf 35 42 87 be 6e bd b5 bd 47 82 01 bf
       -1.0875355 -0.264177 -0.088740215 -0.5058941
000290 77 76 29 be 96 cd 9b be 74 63 f6 be 19 f6 40 bf
       -0.16549097 -0.30430287 -0.48122752 -0.75375515
0002a0 45 7b 84 be 69 0a c1 bf 64 b6 12 bd 8a e0 d4 be
       -0.25875297 -1.5081302 -0.035818473 -0.4157756
0002b0 36 d4 91 bc 30 15 37 bf 60 15 be bf e7 b9 aa be
       -0.017801385 -0.71516705 -1.4850273 -0.33344957
0002c0 d8 f8 32 bf 19 4d 23 bd 23 ab 6f bf 51 8d 49 bd
       -0.69910955 -0.039868448 -0.9362051 -0.049207035
0002d0 fb 8c e7 be 3c 56 70 be e4 e9 f0 bf 9d de 5e 3c
       -0.45224747 -0.23470396 -1.8821378 0.01360288
0002e0 27 d9 2a bf a5 16 0e be a1 eb c5 be 2c e6 77 bf
       -0.667376 -0.13875826 -0.38656333 -0.9683559
0002f0 d6 5c 9a be c6 87 1d be 07 26 3f be 56 eb 15 bf
       -0.30148953 -0.15383825 -0.1866685 -0.5856222
000300 be 42 1f bf 0f a3 23 bf ec fa 4b bd 00 6e f3 bd
       -0.62211215 -0.6392068 -0.049799845 -0.11886215
000310 18 b1 bf be 4f d6 45 be 8b 9d d3 3c 90 52 bf be
       -0.374398 -0.19320033 0.025831958 -0.37367678
000320 bc 56 f2 bd 62 10 dc be 4a 06 d6 be dd 16 12 be
       -0.118329495 -0.4298125 -0.41801673 -0.14266534
000330 c1 d0 ca bd 47 e6 a0 be 80 ca e7 be 1c 3b f4 be
       -0.09903098 -0.31425688 -0.45271683 -0.47701347
000340 ba 6f c1 3c 42 14 df bd ab bf ed be 66 94 11 bf
       0.023612846 -0.10892536 -0.46435294 -0.56867063
000350 b8 3a 34 bf bd 31 8d bf 1f a0 2a bf d8 cd 35 bf
       -0.704021 -1.1030804 -0.66650575 -0.7101722
000360 fd de 86 be e2 26 52 be db b6 76 be 7d a1 0a bf
       -0.26342002 -0.20522645 -0.24093191 -0.5415266
000370 e6 df 13 bf c7 64 a7 be ab c4 6e bf bd 68 08 bf
       -0.57763517 -0.32694075 -0.9326884 -0.5328482
000380 b1 d4 c7 be 3b 85 e4 be c6 80 1a bf ad 7b 0f bf
       -0.39029458 -0.44632897 -0.6035274 -0.5604809
000390 6a 42 59 bf 7b b7 4a bd fe 14 17 bf ab 7d c8 bd
       -0.84866965 -0.049491387 -0.59016407 -0.09789594
0003a0 ef 7f ba 3c 6d b0 01 be 1e e1 1b bf 23 d6 ec be
       0.022766082 -0.12664957 -0.60890377 -0.46257123
0003b0 ec d1 f1 bd ed fc 1e bd e0 c8 b7 be f3 fd ef bd
       -0.118076175 -0.038815428 -0.35895443 -0.11718359
0003c0 e3 df 61 bf 85 af e3 bd 82 fb df be 1b df e1 be
       -0.8823225 -0.11117462 -0.43746573 -0.44115528
0003d0 f8 dd b7 be be ab 9a be 81 ab 7a bd 9b 3b 76 be
       -0.35911536 -0.30209154 -0.061198715 -0.24046175
0003e0 e7 73 a5 be 76 27 19 be c6 e2 92 be 5d 33 87 bf
       -0.3231499 -0.1495646 -0.2868864 -1.056255
0003f0 08 7a 31 bf 03 63 98 3c 1b 8e 62 bf 17 16 ab bf
       -0.6932683 0.0186019 -0.88498086 -1.3366116

network.3.bias f4 [64]
000000 a5 d5 32 c0 93 23 14 c0 a5 68 08 c0 7c 1d 57 c0
       -2.7942898 -2.3146713 -2.131387 -3.3611746
000010 5d 2a 10 c0 9c 37 21 c0 0f 19 1a c0 59 d0 4e c0
       -2.2525856 -2.5190191 -2.4077795 -3.2314665
000020 a2 64 c9 bf f1 21 0d c0 2a 2d 1a c0 84 ae f0 bf
       -1.5733836 -2.2051966 -2.4090066 -1.8803258
000030 d3 f8 3c c0 4c f8 4e c0 40 30 0c c0 c7 8b 16 c0
       -2.952687 -3.2339048 -2.190445 -2.3522813
000040 4b a9 0a c0 23 05 69 c0 62 b1 b5 bf 82 e9 14 c0
       -2.1665828 -3.6409385 -1.4194758 -2.3267522
000050 77 9c 1e c0 9f 56 37 c0 6a ce ff bf 85 9c 1b c0
       -2.4782999 -2.864662 -1.9984868 -2.4314282
000060 b4 1f 0b c0 c8 33 c8 bf 26 e8 21 c0 f4 42 5a c0
       -2.17381 -1.5640802 -2.5297942 -3.4103365
000070 47 17 3a c0 96 b8 f6 bf fd ba 3d c0 99 ba 32 c0
       -2.9076707 -1.9275081 -2.9645379 -2.792639
000080 e3 4a 8f bf d6 38 31 c0 d2 8d 68 c0 bd 36 0e c0
       -1.1194729 -2.769094 -3.633656 -2.222091
000090 c4 63 25 c0 87 6e 18 c0 d6 d9 15 3f 9d 3e db bf
       -2.5842142 -2.381746 0.58535516 -1.7128483
0000a0 3e 87 1f c0 f6 1a 57 c0 bf b4 01 c0 4b 27 3f c0
       -2.4926295 -3.3610206 -2.0266569 -2.9867733
0000b0 7e cf 31 c0 df 5a 5b c0 08 77 73 c0 02 48 1d c0
       -2.7782893 -3.4274213 -3.80414 -2.45752
0000c0 ae 01 9b bf de bc 00 c0 b1 b4 e8 bf 48 48 2e c0
       -1.2109888 -2.0115275 -1.8180143 -2.7231617
0000d0 fd 35 78 c0 9e c3 a2 3f b9 84 8e c0 42 02 6e c0
       -3.8782952 1.2715948 -4.4537015 -3.7188878
0000e0 2d 42 8c c0 37 fb a4 bf d2 02 4d c0 8c eb 0c c0
       -4.383078 -1.2889165 -3.2032971 -2.2018766
0000f0 3a 60 14 c0 23 66 28 c0 6c 2d 3b 3f 69 5e 07 c0
       -2.3183732 -2.631234 0.73116183 -2.1151373
