experiments/checkpoints/20251210_110803/checkpoint_ep109.pt (torch, 246605 bytes, 24 tensors)

network.0.weight f4 [128, 43]
00000000: b016 a5bb 20d1 23bf a517 e33e 19c8 81bf
00000010: 87e2 ddbf ccf0 23be a847 013f 4aba 0c3e
00000020: a51d 283e 7408 26be 01cf 90bc 38ae ecbd
00000030: d6f0 ba3f 8f54 a33e dbd2 a33e 49ea 25bf
00000040: 86ed 9bbf 5302 ef3f e4d1 b23f 03ad a3bd
00000050: f573 0cbe d6be b3bd 3cf8 043e ab68 a7ba
00000060: 3316 bbbd 1f9e 2b3e 567f 3cbd 2cb3 d4bf
00000070: c195 ca3f 513f d4bf 32c0 8b3d 6bbb 0a3f
00000080: 77c5 3abe 22f6 b4bf 9cad 233e 639f a3bd
00000090: c8f0 5abf ea52 8b3f 4f2e 22c0 3029 4bc0
000000a0: a4dd 2240 8ab7 debf 049b 1a3d d127 29be
000000b0: a9e5 cc3f 67f4 b9bf 6665 73bf fb4d ddbd
000000c0: 7005 3dbe 6e64 aac0 5448 a93d 85bb bb3d
000000d0: 7bbe 1bbd 7c07 2c3d c5ab 343d 7e8f 63bf
000000e0: 65d4 cebf 70e1 93be 8981 a93f 1240 bfbf
000000f0: f1f5 10be 94af 4e3d d660 3ebe 318b 7b3d
00000100: 0f0e a83d dcaa a6bd 22c5 ed3d 3ad1 3ebd
00000110: 5857 c5bd 7a87 c63d b5dc 983f 31a3 9abf
00000120: b24c 8e3f d897 203e 1148 98bf 113b 89bd
00000130: 0c19 963f 5056 fcbd c62f ebbf 7363 be3f
00000140: 0c23 3fc0 ac61 99bf 18fd d2be 43cf 2f40
00000150: 19b0 45bf b63f c63d 39e7 a93d 552f 3fbf
00000160: b5e9 4e3f 8065 d33f 81cf c7bf 227b a5bd
00000170: 71f1 0640 3fcc 313d adb0 263d a9cf bfbd
00000180: 61e6 09bd 7777 9bbb 815f a1c0 e43d 9cbf
00000190: a382 87be 0d75 0c3d 44b4 15c0 237a 3940
000001a0: 4283 f33e 6d57 1c3d b552 3cbe 2d85 233e
000001b0: b6da c73d 24d8 33be 987e 753d 0ab2 19be
000001c0: d55d 883c 7b82 febe 6086 b13c e6d9 88bf
000001d0: 46de 2abe d9a0 37be 160a 0d3e bf42 07bf
000001e0: f5f9 cabd 5703 80bf 46f8 cc3f 7159 e13f
000001f0: 4fdc 5d3e 857c b33b 23d4 d03f fa9a ed3f
00000200: 07a0 14bd 0582 373c 5727 c73f c9cb c4bf
00000210: c3be 053f 7c67 b9bf 942b 3abe 6821 44c0
00000220: 33f6 37be 12d2 dcbc 1cac 6f3d 0977 09be
00000230: f231 4c3c a2c2 57be 2f69 a3c0 08c5 43bf
00000240: 131e 1ebf e856 1cc0 1274 bb3f 0856 8ebf
00000250: 1ff4 b43d 8fe7 91bd 451c 3c3e d4a2 92bc
00000260: f005 a0bc 75b3 f6bd 7f92 af3d 962a 3fbe
00000270: 9de7 64be cd05 0e3f a9a2 61bf d018 d3bd
00000280: c457 2ec0 bfc7 ab3d 81fe 1bbe a810 02bd
00000290: 543b 43bf 9e34 2340 87ad 913f 752b c5bf
000002a0: bb64 0c40 720c 8e3f 897a b9bf 7a05 1c3d
000002b0: 343f 15be b194 883f 3145 89bf 4465 be3f
000002c0: f12b e5bf 1e5f 093e 7578 e03f ae87 b2bd
000002d0: 3a08 3cbd 48f0 0f3e 66df d4bd ab40 2fbe
000002e0: d6f1 29be ad3d 10c0 4696 253f 6252 ad3e
000002f0: 1a14 3e3f 6d8b d93e a65c 14bf c6b1 abbd
00000300: 531e 313e 30da 32be 4916 0d3d 5715 213e
00000310: 0821 87bc 432c a53d a6dd 0e3e 40f6 52bf
00000320: 4831 5e40 bb57 c4c0 d01b 25bd 964a 723f
00000330: bc37 38be bd75 96bf 54f0 da3d 88d3 a83f
00000340: cc91 cf3f 8518 8a3f 17a9 02c0 7e69 ab3e
00000350: 0827 413f 1ceb ecbf 090d f03d 3a59 01bd
00000360: 5f35 5ebf 1475 8a3f 508d 753f 560f 2b3d
00000370: 12a3 043e cb49 943f e6f0 b63c c0f2 143d
00000380: 8fa7 21be 86f3 4b3d 4d64 38bd e455 bc3e
00000390: e85d 08bf 351a b03f fbdd 88bd 8f57 5c3f
000003a0: b667 10c0 2156 f9bf 58b9 813d 59c8 a63d
000003b0: 3a40 f43d 6c84 cf3d a97f 02be 774b a3bd
000003c0: 5682 02be 2e91 f1bd e34a 16bf d2e8 58be
000003d0: 07fa b2bf 27a9 0a3e c157 24be 0cac 5c3c
000003e0: 6183 12bf c3fd c43d 428f 0abf 85d1 9ebe
000003f0: 9d41 03bc a14f e6bf 67bd 773f 2082 07bf
-0.005038105 -0.63990974 0.44353977 -1.013919 -1.7334756 -0.16009825 0.50499964 0.13742939
0.16417558 -0.16214162 -0.017676832 -0.11556667 1.4604747 0.3190045 0.31996807 -0.64810616
-1.2181861 1.8672584 1.3970304 -0.07991984 -0.13716109 -0.087766334 0.12985319 -0.0012772282
-0.091350935 0.16759537 -0.046019875 -1.6617179 1.5826951 -1.6581823 0.06823768 0.5419223
-0.1823939 -1.4137614 0.15984195 -0.07989385 -0.85523653 1.0884678 -2.5340765 -3.174389
2.5447779 -1.7399762 0.03774549 -0.16519095 1.6007587 -1.4527711 -0.95076597 -0.10805889
-0.18459105 -5.3247595 0.082657486 0.09166626 -0.038023453 0.041999325 0.044109125 -0.88890827
-1.6158568 -0.28882933 1.3242656 -1.4941428 -0.14156319 0.050460413 -0.18591627 0.06141204
0.082058065 -0.081380576 0.11609866 -0.046586253 -0.096358 0.09693809 1.1942354 -1.2081052
1.1117156 0.15682924 -1.1896993 -0.06700719 1.1726394 -0.1232115 -1.8373954 1.48741
-2.986514 -1.1982932 -0.4120872 2.7470253 -0.7722183 0.09680121 0.08296055 -0.746816
0.8082536 1.651535 -1.56102 -0.08080126 2.1084864 0.043407675 0.040695835 -0.0936578
-0.033666972 -0.004744466 -5.042908 -1.2206388 -0.26466855 0.034291316 -2.3391275 2.8980796
0.4756108 0.038169313 -0.18390925 0.15968771 0.09758513 -0.1756292 0.059935182 -0.15009323
0.016646305 -0.49708924 0.02167052 -1.0691497 -0.16686353 -0.17932452 0.13773379 -0.5283622
-0.09910957 -1.0001019 1.6013267 1.760542 0.21666072 0.0054774904 1.6314739 1.856292
-0.036285426 0.011200433 1.555888 -1.537469 0.52244204 -1.4484706 -0.18180686 -3.064539
-0.17965011 -0.026955638 0.058513746 -0.13424315 0.01246308 -0.2107034 -5.10659 -0.7647252
-0.6176464 -2.4428043 1.4644797 -1.1120005 0.08835625 -0.071242444 0.18370159 -0.017899908
-0.019534081 -0.120459475 0.08572864 -0.18668589 -0.22353978 0.554776 -0.88138825 -0.10307467
-2.7241068 0.08387708 -0.15233804 -0.031754166 -0.762624 2.5500865 1.1381081 -1.5403887
2.193648 1.1097548 -1.449052 0.03809116 -0.14574891 1.0670377 -1.072424 1.4874654
-1.7904035 0.1341519 1.753676 -0.08717285 -0.045906283 0.14056504 -0.10394172 -0.17114513
-0.1659616 -2.2537644 0.64682424 0.33851916 0.7424942 0.42489186 -0.5795387 -0.08383517
0.17296724 -0.17466044 0.03444508 0.15730797 -0.016495243 0.08065083 0.1395174 -0.82407
3.471758 -6.1357093 -0.040309727 0.9464506 -0.17990011 -1.1754681 0.1069037 1.3189554
1.6216369 1.0788733 -2.0415704 0.33478922 0.7545018 -1.850925 0.11721236 -0.031579234
-0.8680019 1.081698 0.9591875 0.041762672 0.12952831 1.158502 0.022331666 0.036364317
-0.15786575 0.04979279 -0.04501753 0.3678428 -0.5326829 1.3757998 -0.066829644 0.86071104
-2.25633 -1.947941 0.0633418 0.08143682 0.11926313 0.10132679 -0.12744011 -0.07973378
-0.12745032 -0.11795269 -0.5870802 -0.21182564 -1.3982552 0.13541089 -0.160491 0.013468754
-0.5723172 0.09618714 -0.54124844 -0.31019226 -0.008011249 -1.7993051 0.9677338 -0.5293293

network.0.bias f4 [128]
00000000: 07ef 36c1 461c 2bc1 521f c8c0 723e 1cc1
00000010: 22c5 2bc1 db81 12c1 7856 13c1 c854 1dc1
00000020: 8ffa f1c0 9d6d 0fc1 1a99 22c1 6480 9bc0
00000030: 28ff 22c1 e248 29c1 4985 fdc0 873e 29c1
00000040: a8ff 11c1 a3a7 37c1 1fd9 5ec0 ca75 24c1
00000050: fd85 20c1 bafd 05c1 3742 fbc0 dd9f 1bc1
00000060: 913c dfc0 cf62 09c1 a1d3 c1c0 72da f2c0
00000070: 9c37 eec0 737b 03c1 537d 38c1 5914 18c1
00000080: 5e94 bec0 cdbf 03c1 b0e9 2cc1 9321 8bc0
00000090: edd7 30c1 00d0 21c1 a7b2 24c1 abd2 0ac1
000000a0: f15b 2bc1 01c9 f6c0 9136 18c1 7621 a1c0
000000b0: 657e 24c1 6a55 2dc1 7e17 12c1 0bd3 15c1
000000c0: 988d 32c1 3cfb 1cc1 ebbf 3ac1 9be7 11c1
000000d0: 017e c0c0 2310 25c1 c03a 07c1 fa45 24c1
000000e0: ed05 12c1 e468 21c1 c30c 05c1 ba5f 0ec1
000000f0: 9a3b 33c1 5218 0dc1 4eb6 b1c0 44b0 e4c0
00000100: 6165 b5c0 37dd fac0 2f71 dec0 d7d7 fac0
00000110: 3363 0dc1 512c 23c1 5128 38c1 646f fac0
00000120: 0cef d5c0 58f1 f2c0 e871 2dc1 cb59 29c1
00000130: 02ba c9c0 0001 b5c0 d0b9 1cc1 2b5d 0bc1
00000140: 5e7e 22c1 0b5f e7c0 d1c0 f8c0 83d7 f9bf
00000150: d949 0cc1 9184 0dc1 5335 fcc0 aec3 02c1
00000160: ba8b 18c1 6915 a0c0 00a7 19c1 98a8 3cc1
00000170: 8b2f 91c0 ab1d 02c1 c0ad 55c0 58de 1ec1
00000180: 475d 03c1 4bfa 24c1 2c15 2fc1 b052 a1c0
00000190: 7db9 23c1 3bcd b9c0 d0ce 21c1 46fc fdc0
000001a0: 781e 36c1 08b4 1cc1 73b1 ddc0 9ba1 12c1
000001b0: c317 e8c0 1c84 10c1 3497 03c1 0d88 bfc0
000001c0: 6013 35c1 936f 32c1 2202 13c1 c300 1ec1
000001d0: 4f5b 34c1 d987 e1c0 2462 ecc0 9904 08c1
000001e0: 133f 9fc0 298b f9c0 a18e 81c0 8d84 0ec1
000001f0: cfcf 32c1 3d1c 11c1 2d3a 99c0 6bf5 14c1
-11.433356 -10.694403 -6.2538233 -9.765245 -10.735628 -9.156703 -9.208611 -9.833199
-7.561836 -8.964261 -10.162378 -4.8594227 -10.187294 -10.580294 -7.92252 -10.577765
-9.124916 -11.478427 -3.482002 -10.278757 -10.032712 -8.374445 -7.851833 -9.726529
-6.9761434 -8.586623 -6.0570836 -7.5891657 -7.4442883 -8.217639 -11.530597 -9.504968
-5.955611 -8.234326 -10.807053 -4.3478484 -11.052716 -10.113281 -10.293616 -8.676433
-10.709947 -7.7120366 -9.513322 -5.0353346 -10.280858 -10.833353 -9.130735 -9.364024
-11.159569 -9.8113365 -11.671855 -9.119044 -6.0153813 -10.31644 -8.451843 -10.267084
-9.126447 -10.088108 -8.315616 -8.898371 -11.202051 -8.818438 -5.553504 -7.146517
-5.6686254 -7.839504 -6.9513164 -7.8388476 -8.836719 -10.198319 -11.509843 -7.8260975
-6.6854305 -7.591961 -10.840309 -10.584422 -6.303956 -5.656372 -9.795364 -8.710246
-10.155851 -7.230352 -7.773537 -1.9518894 -8.768029 -8.844865 -7.8815093 -8.172773
-9.534113 -5.0026135 -9.6032715 -11.791161 -4.5370536 -8.132243 -3.3387299 -9.929283
-8.210273 -10.311107 -10.942669 -5.0413437 -10.232785 -5.8063025 -10.112991 -7.937045
-11.382439 -9.793953 -6.9279113 -9.164454 -7.2529006 -9.032253 -8.224415 -5.9853578
-11.31723 -11.15224 -9.188021 -9.875186 -11.272292 -7.047833 -7.38698 -8.501122
-4.9764495 -7.7982373 -4.0486608 -8.907361 -11.1757345 -9.069394 -4.7883515 -9.3099165

network.3.weight f4 [64, 128]
00000000: bb0f 79bd 53e3 83bd 42a0 aebd 5f15 19bf
00000010: aa1a 76bd d984 e53d 796a 7cbe 9713 2abe
00000020: e6d0 a2be 3146 163e e9da 09be ce30 8abe
00000030: 8313 66be d3e0 b2be 70ca 66be bc73 23bf
00000040: 2e08 98bd d0b8 9cbe 6447 64be a5fe 3bbe
00000050: 9826 03bf 7b65 13bf 3ae9 76bf 7491 abbe
00000060: dc05 2cbd be74 81bd d504 ca3c f380 13bf
00000070: b8ff 98bf 23df 29bf 69f3 583d f2d4 e8be
00000080: 0017 243b 4848 d2be be8a 24be 6fa0 21bf
00000090: 2a41 fcbe ac72 98be 4ca0 7cbe ebe7 0dbf
000000a0: c6d1 c8be 5b67 b4be 7e3c ecbd 5225 5ebf
000000b0: 0d84 39bf de70 4bbf 9a33 b7be 86b3 213e
000000c0: e7bf ccbe f779 a1be 185a d4be 682b 1bbf
000000d0: 9a16 3dbe 1ab9 cc3d ccdd 2bbf 9a8b ecba
000000e0: 3eb4 acbe 10e9 bfbe 9cd4 58be f152 cdbe
000000f0: 49ba 02be 5131 3fbe 6db1 f8be 00dc 17be
00000100: 28a2 67bd adc4 43be c33b cdbd 530e 62bd
00000110: c755 b8be b5b5 f0bd 53e0 563e bcdc 12bf
00000120: 13a5 6dbf 36ef 53be c6f4 bfbe 0252 4bbe
00000130: dd91 86be b74a ddbe ee3e 55be 992d 4fbf
00000140: 66be debe 2830 38be 6e5e c9be 396a 08bf
00000150: d3c3 babe 9056 67be 619b 97be 41ba dfbe
00000160: 6228 11bf 43ea 5dbc e0e9 12bf 0fb9 4ebe
00000170: 7fee bbbe 67db afbe 3aef 01bf 760a 88be
00000180: ae03 adbe 1d80 d73d 48dc 0ebf 5e6d 8dbe
00000190: 11fd 92be f71f 94be dcab 20be cc5e 8a3e
000001a0: f335 62bd df14 60bd a445 01bf 7820 14be
000001b0: b373 81bf 86c5 28bd 3249 10bf ef84 d5be
000001c0: 7a5c 80bd cae6 b2bc aefb 8a3c 1c14 ecbd
000001d0: 4f53 9bbe 13c1 1cbe 7349 093e e5e5 29bf
000001e0: c996 c1bd d4dc 45be 1b02 a4be c1ce d9be
000001f0: 0d04 23be 946f 1fbc 5f81 f7bd 8ca9 9ebe
00000200: 9f45 a5bd c9e5 f2be f94e a5be b394 99be
00000210: d877 adbe 96d8 d8bd a874 b4be bab9 cbbd
00000220: c1b0 9cbe e2ad f8be bf9f 55be 92d3 53be
00000230: 104b f3be 2dc9 9abe 7de2 76bf 214d 9dbf
00000240: d2b5 b8bd 64a9 8ebe bc01 19bf b138 bdb6
00000250: f661 d8bc 6354 d7be 0f4a dcbe f98b cabe
00000260: 7ac0 93be 2a79 84be 90f6 70bd f381 ee3c
00000270: 4f45 14bd f5d3 3abf 5dea a5be b7ab 92bf
00000280: a534 8bbf 6542 87be bfbd b5bd d582 01bf
00000290: d876 29be d5cd 9bbe fb63 f6be b4f6 40bf
000002a0: a07b 84be e10a c1bf 05b7 12bd 1ce1 d4be
000002b0: 23d5 91bc 9515 37bf 0716 bebf 73ba aabe
000002c0: 8bf9 32bf 734d 23bd c6ab 6fbf 4d8d 49bd
000002d0: 068d e7be 8756 70be e1e9 f0bf 98cd 5e3c
000002e0: 61d9 2abf bf16 0ebe 98eb c5be 4ce6 77bf
000002f0: 535d 9abe 5788 1dbe a925 3fbe 73eb 15bf
00000300: 2d43 1fbf 0ba3 23bf 015a ee3d 696e f3bd
00000310: adb1 bfbe a0d6 45be 8a9e d33c 9652 bfbe
00000320: b956 f2bd bf10 dcbe d706 d6be c216 12be
00000330: c5d0 cabd 4ce6 a0be 3dcb e7be 243b f4be
00000340: 236f c13c b714 dfbd e8bf edbe 7394 11bf
00000350: f53a 34bf 3b32 8dbf 19a0 2abf 51ce 35bf
00000360: 55df 86be 9c27 52be 9db7 76be 1ba2 0abf
00000370: dddf 13bf 0465 a7be cac4 6ebf f768 08bf
00000380: 39d5 c7be 7585 e4be 3f81 1abf f67b 0fbf
00000390: 9c42 59bf 3eb9 4abd 8f15 17bf f67e c8bd
000003a0: 177e ba3c 8cb0 01be bde1 1bbf 7ed6 ecbe
000003b0: 7fd2 f1bd d0fe 1ebd 80c9 b7be 35fe efbd
000003c0: f1df 61bf aab0 e3bd 3cfc dfbe 86df e1be
000003d0: 60de b7be 59ac 9abe d700 d73d 423b 76be
000003e0: 5374 a5be e127 19be 02e3 92be a233 87bf
000003f0: 0f7a 31bf 775a 983c 678e 62bf 6e16 abbf
-0.060806017 -0.06439843 -0.085266605 -0.59798235 -0.060084023 0.11206979 -0.24649991 -0.16609035
-0.31800002 0.14675213 -0.13462414 -0.2699036 -0.2246838 -0.34937152 -0.22538161 -0.6384847
-0.07423435 -0.3060975 -0.22292858 -0.18358858 -0.51230764 -0.5757672 -0.96449625 -0.3350941
-0.041997775 -0.06321095 0.024660507 -0.57618636 -1.1953039 -0.66356105 0.05296651 -0.45474964
0.0025038123 -0.4107077 -0.16068551 -0.6313543 -0.49268466 -0.29774988 -0.24670523 -0.55432004
-0.39222544 -0.35235104 -0.115349755 -0.86775696 -0.7246712 -0.79469097 -0.35781556 0.15791139
-0.3999016 -0.31538364 -0.41474986 -0.6061311 -0.18465653 0.09996243 -0.6713531 -0.0018046976
-0.33731264 -0.374825 -0.21174854 -0.40102342 -0.12766375 -0.18671156 -0.48572865 -0.14830017
-0.05655113 -0.19117995 -0.10021164 -0.055189442 -0.36002943 -0.11753408 0.2098401 -0.57368064
-0.9283001 -0.2069672 -0.37491435 -0.19855502 -0.2628316 -0.43221065 -0.20824787 -0.8092895
-0.43504637 -0.1798712 -0.39329857 -0.5328708 -0.36477527 -0.22591615 -0.29610732 -0.43696788
-0.56702244 -0.013544622 -0.57388115 -0.20187782 -0.36705396 -0.34347078 -0.50755656 -0.2657048
-0.3379187 0.105224825 -0.5580487 -0.27622503 -0.287087 -0.28930637 -0.15690559 0.2702545
-0.05522723 -0.054707404 -0.5049689 -0.14465511 -1.0113434 -0.041203998 -0.5636169 -0.41702983
-0.062676385 -0.021838564 0.016965713 -0.11527273 -0.30336997 -0.15308027 0.13406925 -0.66366416
-0.09452588 -0.1932252 -0.32032856 -0.42540553 -0.15919514 -0.009731192 -0.120852225 -0.3098873
-0.0806992 -0.47440937 -0.32286814 -0.2999626 -0.33880496 -0.105881855 -0.35245252 -0.09947534
-0.30603603 -0.48570162 -0.2086172 -0.20686176 -0.47518206 -0.3023161 -0.96439344 -1.2289163
-0.090190545 -0.2786361 -0.5976827 -5.6392387e-06 -0.026413899 -0.4205657 -0.43025252 -0.39559916
-0.28857785 -0.2587369 -0.05882889 0.029114699 -0.03619891 -0.7297967 -0.32405367 -1.1458653
-1.0875441 -0.26417843 -0.08874082 -0.5059026 -0.16549242 -0.30430475 -0.48123154 -0.7537644
-0.25875568 -1.5081445 -0.035819072 -0.41577995 -0.017801827 -0.71517307 -1.4850472 -0.33345374
-0.6991202 -0.039868783 -0.9362148 -0.04920702 -0.4522478 -0.23470508 -1.8821374 0.013598822
-0.66737944 -0.13875864 -0.38656306 -0.9683578 -0.30149326 -0.15384041 -0.1866671 -0.5856239
-0.6221188 -0.6392066 0.11638261 -0.118862934 -0.37440243 -0.19320154 0.025832433 -0.37367696
-0.11832947 -0.42981526 -0.41802093 -0.14266494 -0.09903101 -0.31425703 -0.45272246 -0.4770137
0.023612564 -0.10892623 -0.46435475 -0.5686714 -0.7040246 -1.1030954 -0.6665054 -0.7101794
-0.26342264 -0.20522922 -0.2409348 -0.54153603 -0.57763463 -0.32694256 -0.93269026 -0.53285164
-0.39029863 -0.4463307 -0.60353464 -0.56048524 -0.8486726 -0.049493067 -0.5901727 -0.09789841
0.022765202 -0.12665004 -0.60891324 -0.46257395 -0.11807727 -0.038817227 -0.3589592 -0.11718408
-0.8823233 -0.1111768 -0.43747127 -0.44115847 -0.35911846 -0.30209616 0.10498207 -0.24046043
-0.3231531 -0.14956619 -0.28688818 -1.0562632 -0.6932687 0.018597824 -0.8849854 -1.336622

network.3.bias f4 [64]
00000000: 248a 1ec0 f281 09c0 ba37 f6bf fa37 11c0
00000010: 3315 09c0 fc3b 21c0 f051 05c0 c5ac 3ac0
00000020: 9467 c9bf ccb3 f1bf c147 11c0 3caf f0bf
00000030: 3386 0fc0 cbfa 4ec0 a37b 03c0 a157 02c0
00000040: d505 d5bf 4b07 69c0 58b2 b5bf aeeb 14c0
00000050: 82b0 0dc0 e580 fbbf 0270 f2bf 0237 efbf
00000060: 273f f3bf ed3f c8bf 6790 1dc0 de4d 5ac0
00000070: 4402 27c0 9bb9 f6bf 1fbf 3dc0 e1bb 21c0
00000080: 5658 8fbf 06df 1ec0 a339 59c0 f351 f0bf
00000090: e465 25c0 106f 18c0 379b 933f 2d43 dbbf
000000a0: 0240 0bc0 4e3f 43c0 e86b e1bf 2d06 2ec0
000000b0: 6ed1 31c0 bff2 32c0 cbd2 5fc0 e737 11c0
000000c0: b801 9bbf d1bd 00c0 c6e2 c0bf 764d 2ec0
000000d0: 1ca4 5ec0 f799 d03f 023f 82c0 75ad 5ac0
000000e0: 8e41 82c0 5afc a4bf 6a90 3cc0 eba0 f1bf
000000f0: e644 fdbf d31a 14c0 d8c2 ad3f 33f4 f9bf
-2.4771814 -2.1485562 -1.9235756 -2.2690415 -2.141919 -2.5192862 -2.083126 -2.916795
-1.5734735 -1.8882995 -2.2700045 -1.8803477 -2.2425659 -3.2340572 -2.0544212 -2.0365984
-1.6642405 -3.6410701 -1.4195051 -2.3268847 -2.2138982 -1.964871 -1.8940432 -1.8688662
-1.9003648 -1.5644509 -2.4619386 -3.4110026 -2.6095133 -1.9275392 -2.96479 -2.5270922
-1.1198833 -2.4823623 -3.3941429 -1.8775009 -2.584344 -2.3817787 1.1531743 -1.7129875
-2.1757817 -3.0507388 -1.7611055 -2.719127 -2.7784076 -2.796066 -3.4972408 -2.269037
-1.21099 -2.0115855 -1.5069206 -2.7234778 -3.4787664 1.6296986 -4.0701914 -3.416837
-4.0705023 -1.2889512 -2.9463143 -1.8877233 -1.9786651 -2.3141372 1.3575087 -1.9527649

network.6.weight f4 [5, 64]
00000000: 6cf0 1f3d 6535 2dbe c29c a7bd de02 f0bd
00000010: 48b1 34be 8420 99be 40e6 463e 9c8e 3bbe
00000020: 1fc6 19be f130 6c3e 9aa0 7dbe a7dd 3abe
00000030: 64f7 df3b eb20 6d3d 69db df3d 601d cd3d
00000040: 4d2e 683e 114e 973d 0834 f23d 182e cabd
00000050: 760b 70be e6d6 7abe b776 6dbe ce5d ea3d
00000060: c8f1 6dbd 50dc d63c 355c 55be b080 82be
00000070: dfcb 5d3e af67 ccbd efdb 813d 70e8 a8bd
00000080: afb7 a13b 741d 8d3e 17ac 39bd cc6a 7b3d
00000090: 9c77 433d c80b 55be 3080 1fbe 55c2 30be
000000a0: fbc7 de3c 3978 223e dc5a 923e c33e 273e
000000b0: 5b0f 9abd 4fb6 06be d386 9cbe f546 b9bd
000000c0: ae7d f9bd cd7a 8a3d afc3 303d 154e de3d
000000d0: 9e79 dcbc 0bdb c6bd 5802 c8bb 7e75 25be
000000e0: f0f9 c33c 0c92 60be c845 913d 662c 403e
000000f0: ec4e 79bc 810a 4ebe adab e2bd 0f42 ab3b
00000100: 72c4 42bd 71c1 6d3e e22f 533e 077b 803d
00000110: 639e e6be bc77 153e 7db5 05be 27b4 bd3d
00000120: 0cf5 343d 1b0d 813d a868 84be 5915 61be
00000130: efeb 4c3e 4f77 143e d637 05be be5e f2bd
00000140: 762c 86bd 9b32 f73e 2fe7 c1be b1df db3b
00000150: 004a 593e 9396 efbd 8f8c 9fbe 4c0d 563e
00000160: 658e e1bd 3bc2 97be 0584 14bf ca55 dabd
00000170: 4913 31be 0085 083e b16e 4bbe 1db9 77bd
00000180: b929 ecbe 0589 bd3e 009a c03b f8e7 2b3e
00000190: b8df 34be f5a4 6d3e 0165 793d a3b4 11be
000001a0: ec57 d1bd 64b0 7ebe 6074 273e 8c93 9ebe
000001b0: c6b5 12bd 1b02 1b3d ff37 a63e b0c4 b63c
000001c0: 99e5 353c 1b61 5cbe 0f03 81be 9dd2 cd3d
000001d0: 2af0 d43e 13a0 75be 87a8 92be 2d97 eebe
000001e0: 38c9 47bf bb96 553e a7f5 323e c704 86bd
000001f0: 31d0 763e 264e 02be 95fd 27be 5dd7 c5be
00000200: d6d5 873d 0e1e 15be 094d a9be e971 2fbc
00000210: 4017 943c 12a4 41be 04d3 7b3e df3a 5a3e
00000220: 564c 013e bbdb 14bf e59e 4bbe 1314 ae3e
00000230: 5d55 b0bd 2efa 1e3e a879 62be 07d7 63be
00000240: 8db3 1fbc 21db 12be 2399 1dbd 9eb5 d63e
00000250: 4f84 143e 74d3 d8bd c661 9b3d 2950 2dbd
00000260: 1e4f 5b3e 6bc5 66be ebf4 163e f2ec 9e3d
00000270: 17f4 b53c 383f 4dbe df93 7f3e 308f 89bd
00000280: 110c c43d eaa4 8fbc 083f 5bbc d822 a83d
00000290: 4a03 86be 4ed1 08be 26a4 593e 23b6 25be
000002a0: 63f3 52be c548 453e 5ebc 6f3e 3283 bdbe
000002b0: 79ab 863e 794c a5be cd65 7fbd 71b6 9bbe
000002c0: 1b0f 02bd 5153 85bc c3a3 4ebe 590b 9d3e
000002d0: 4110 84be af13 333e 5dfe 0cbe 247d 8dbe
000002e0: f77a 863e 113d 7bbe e399 afbe 34b0 a03e
000002f0: 89fd a5bd a3eb f03e 6143 09bf 1af2 fe3d
00000300: 4877 6cbe ca2e 173e 1b78 53bd 1ff9 debd
00000310: e0a1 913c 5646 533d a585 643e 64ab c8be
00000320: f387 3cbe f870 edbe 07fc bf3d db43 e2bd
00000330: 60ca b33d 3b5c 153d 4139 be3d 0586 043e
00000340: 64d7 35be 48d4 eb3d 97fa 023e a6cd e03e
00000350: 3830 cc3d b2d1 f03d c6f9 37bd ffd6 783d
00000360: 764a 69bd 96f4 1d3d 04af 2abe 4b68 ccbc
00000370: 8014 dbbd 8b60 32bd a0d4 5d3d caf0 02bd
00000380: 0084 dd3c b69c 633e b893 f93d 21e4 22be
00000390: 3cb9 a9be 0e86 2cbe 6e9c b63e afec e6bd
000003a0: f6f4 b53d 31cd da3d 4afe f8bd 4845 aa3e
000003b0: def2 0cbd 18ab f93d d20d 96bd ace0 993d
000003c0: 0fcf ec3d 5df5 003d e849 253d b701 41be
000003d0: 3448 1d3e ce28 4b3e 5e91 dd3d 0d4c b73e
000003e0: 2527 783e e561 d03c 715b 9f3d c007 623d
000003f0: 2462 cdbd c31d 4dbe 48d5 31ba d23c 0e3e
0.039047644 -0.169149 -0.08184196 -0.11719297 -0.17645752 -0.2990762 0.19423771 -0.1831612
-0.15016983 0.23065545 -0.24768296 -0.18248616 0.006834911 0.05789272 0.10930521 0.100153685
0.22673912 0.07387937 0.118263304 -0.09872073 -0.23441872 -0.2449604 -0.23189817 0.11443673
-0.05809191 0.0262281 -0.20835955 -0.25488806 0.21659802 -0.099807136 0.06340777 -0.08247459
0.004935227 0.27561533 -0.045330133 0.061381146 0.04772149 -0.20805275 -0.15576243 -0.17261632
0.027194967 0.15866174 0.28584945 0.16332535 -0.0752246 -0.13155483 -0.30571613 -0.09046737
-0.121821746 0.06761704 0.04315537 0.10854737 -0.02691346 -0.09709748 -0.006103795 -0.16158101
0.02392289 -0.21930712 0.07093388 0.18766937 -0.01521657 -0.20121194 -0.11067901 0.0052263807
-0.047550626 0.23218323 0.20623735 0.062734656 -0.45042714 0.14596456 -0.13057514 0.09262877
0.044179007 0.06301328 -0.25861096 -0.219808 0.20011877 0.14498638 -0.13009581 -0.11834477
-0.06551449 0.48280796 -0.37871692 0.0067100157 0.21219635 -0.11698642 -0.31161925 0.2090351
-0.11013488 -0.29640374 -0.58013946 -0.10660894 -0.17292513 0.13331985 -0.19866444 -0.060479272
-0.46125582 0.370186 0.005877733 0.16787708 -0.17663467 0.23207457 0.06088734 -0.14229064
-0.10221848 -0.24871975 0.16352987 -0.30971944 -0.035817884 0.037843805 0.32464597 0.022310585
0.011102104 -0.21521418 -0.25197646 0.10049937 0.4158948 -0.23986845 -0.286442 -0.46599713
-0.7804141 0.2085828 0.17476521 -0.0654388 0.24102856 -0.12725124 -0.16405328 -0.38640872
0.06632583 -0.14562246 -0.33066586 -0.010708311 0.018077493 -0.18910244 0.24592215 0.2131152
0.12626776 -0.5814778 -0.19884832 0.3399969 -0.08610032 0.15525123 -0.2211672 -0.22249995
-0.009747398 -0.14341404 -0.03847612 0.41935438 0.14503597 -0.105872065 0.07587008 -0.042312775
0.214169 -0.22536246 0.14741866 0.077600375 0.022211118 -0.20043647 0.24958752 -0.06716764
0.09572614 -0.017534692 -0.013381727 0.08209771 -0.26174384 -0.13361093 0.21254024 -0.16182761
-0.20600657 0.1926604 0.234117 -0.37014157 0.26302698 -0.32284907 -0.062352944 -0.3041263
-0.031752687 -0.01627508 -0.20179658 0.3067272 -0.2579365 0.17487977 -0.13768907 -0.27634537
0.2626569 -0.24535014 -0.34297094 0.31384432 -0.081049986 0.47054777 -0.5361844 0.12448521
-0.23092377 0.14763942 -0.051628213 -0.1088736 0.017777383 0.05158075 0.22316606 -0.3919326
-0.18411236 -0.4637525 0.09374242 -0.11048099 0.08778834 0.03646491 0.09288264 0.1294175
-0.17757946 0.11515099 0.12790905 0.43906897 0.099701345 0.11758746 -0.044915937 0.06075191
-0.056955777 0.038563333 -0.16668326 -0.024952075 -0.106972694 -0.0435491 0.054157853 -0.031967916
0.027040482 0.22227749 0.12186378 -0.15907337 -0.33149135 -0.16848013 0.3566622 -0.112756126
0.08884613 0.106836684 -0.12157877 0.33255982 -0.034411304 0.12190837 -0.07326855 0.07513556
0.11562931 0.031483997 0.040353686 -0.1884831 0.15359575 0.19839785 0.10818742 0.3580021
0.24233682 0.025437305 0.07781113 0.055183172 -0.100284845 -0.20030884 -0.00067837955 0.13890389

network.6.bias f4 [5]
00000000: 28da 6e3e e040 16be 5186 9f3c 8285 903e
00000010: fed9 033d
0.23325408 -0.14673185 0.019473227 0.28226858 0.032190315

network.0.weight f4 [128, 43]
00000000: b016 a5bb 2db1 16bf 29d8 c83e a43c 6ebf
00000010: 071a 97bf ccf0 23be f4de 3dbd 4aba 0c3e
00000020: a51d 283e 7408 26be 01cf 90bc 38ae ecbd
00000030: 2b06 9f3f 33ac eb3e 1cbb 4abe 133d 56bf
00000040: 0cd9 9fbf 74a4 e73f 8830 b93f 03ad a3bd
00000050: f573 0cbe d6be b3bd 3cf8 043e af68 a7ba
00000060: 3316 bbbd 1f9e 2b3e 567f 3cbd eb57 b3bf
00000070: 994c aa3f 6b80 89bf 35c0 8b3d c0e1 d13e
00000080: 77c5 3abe e29a 93bf 9cad 233e d68c e6bd
00000090: 149c 51bf e818 163f f5ce 19c0 89df 3bc0
000000a0: d94a 1640 09ef fabf 049b 1a3d d127 29be
000000b0: cf31 db3f 9940 c8bf 9c4f 10bf 93b2 c8be
000000c0: 7005 3dbe b889 a0c0 5448 a93d 85bb bb3d
000000d0: 7bbe 1bbd 7f07 2c3d c5ab 343d a1ae 09bf
000000e0: e072 98bf 402c 613f 0d2d a33f 7126 b1bf
000000f0: b3ca 433d 4704 273e d660 3ebe 318b 7b3d
00000100: 0f0e a83d dcaa a6bd 22c5 ed3d 3ad1 3ebd
00000110: 5857 c5bd 7a87 c63d 7653 843f e00e a9bf
00000120: 8efc 893f d897 203e 28ae cebf 113b 89bd
00000130: d18f 813f 5056 fcbd 39b1 a8bf f27b e73f
00000140: 3334 3fc0 16ec bfbe fcbc a0bd 5daa 2a40
00000150: ec6b 36bf b63f c63d 39e7 a93d f580 23bf
00000160: 413b 333f f227 d43f 0ece babf 227b a5bd
00000170: d542 ca3f 3fcc 313d adb0 263d a9cf bfbd
00000180: 61e6 09bd 7777 9bbb 070d 91c0 be8d 81bf
00000190: a88c 4bbf 6f1c 713e 6afb 10c0 4f4d 3040
000001a0: 8526 173f 6d57 1c3d b552 3cbe 2d85 233e
000001b0: b6da c73d 24d8 33be 987e 753d 0ab2 19be
000001c0: d55d 883c 8c3c c8be 6582 413e 08ae abbf
000001d0: 46de 2abe 201e a0be 160a 0d3e 763f d8be
000001e0: f5f9 cabd 76f1 98bf f89c 973f a77a 833f
000001f0: 845d 97be db51 32bf 1b73 a23f d90c bd3f
00000200: 07a0 14bd 0582 373c c344 bf3f 38e9 bcbf
00000210: 497c 113f 35d7 a8bf 942b 3abe 5cc7 34c0
00000220: 33f6 37be 12d2 dcbc 1cac 6f3d 0d77 09be
00000230: f231 4c3c 52f6 143e 5d81 8dc0 1ed8 2cbf
00000240: ef34 d6be a940 01c0 6234 a43f 43c2 92bf
00000250: 1ff4 b43d 8fe7 91bd 451c 3c3e d4a2 92bc
00000260: f005 a0bc 75b3 f6bd 8792 af3d 962a 3fbe
00000270: 194a 0fbf 864a cb3e c2d1 d2bd d018 d3bd
00000280: edc6 24c0 bfc7 ab3d a51f fabe a810 02bd
00000290: 2f69 3abf 8c1c 2440 e24a 253e 9dc7 73bf
000002a0: 215b 0c40 1a8d 693f bc34 81bf 7a05 1c3d
000002b0: 343f 15be fd46 933f 7bf7 93bf 465b 4b3f
000002c0: 317d c7bf 1e5f 093e 2f95 843f ae87 b2bd
000002d0: 3a08 3cbd 48f0 0f3e 66df d4bd ab40 2fbe
000002e0: f82b dfbd 986b f3bf 7b82 b6bc 8e73 833e
000002f0: 4073 253f fd3b 623d 7ba3 32bf c6b1 abbd
00000300: 531e 313e 30da 32be 4916 0d3d 5715 213e
00000310: 0821 87bc 432c a53d a6dd 0e3e 61e8 71bf
00000320: e68e 3d40 afab bcc0 d01b 25bd cde4 3b3f
00000330: bc37 38be fcee a5bf 54f0 da3d 5b31 403f
00000340: ea3f c93f caab 8e3f 114c bdbf ee80 b73e
00000350: 311b ca3e 2c37 d0bf 090d f03d 3a59 01bd
00000360: 20ad 4abf f5b0 803f 571c 893f b7a6 32be
00000370: 12a3 043e 7501 6c3f e6f0 b63c c0f2 143d
00000380: 8fa7 21be 86f3 4b3d 5864 38bd 21f3 833e
00000390: 6933 0cbf cbbe c23f 0586 473d ea6f 3c3f
000003a0: 82c0 0cc0 f6cc f7bf 58b9 813d 59c8 a63d
000003b0: 3a40 f43d 6c84 cf3d a97f 02be 774b a3bd
000003c0: 5682 02be 2e91 f1bd 3105 27bf e7c2 5abe
000003d0: 87e0 97bf 27a9 0a3e 31e1 e0be 0cac 5c3c
000003e0: 603d 23bf c3fd c43d f8f1 d6be a16f 9cbe
000003f0: abdf 5d3d 01a0 cebf 5ab5 5f3f 6869 26bf
-0.005038105 -0.588641 0.39227417 -0.9306128 -1.1804818 -0.16009825 -0.046355203 0.13742939
0.16417558 -0.16214162 -0.017676832 -0.11556667 1.2423757 0.46029815 -0.19797939 -0.8368694
-1.2488112 1.8097062 1.4467936 -0.07991984 -0.13716109 -0.087766334 0.12985319 -0.0012772287
-0.091350935 0.16759537 -0.046019875 -1.4011205 1.3304626 -1.0742315 0.0682377 0.40992546
-0.1823939 -1.1531641 0.15984195 -0.11257331 -0.8187878 0.58631754 -2.4032567 -2.9355185
2.3483183 -1.9604198 0.03774549 -0.16519095 1.7124575 -1.5644714 -0.56371474 -0.3919874
-0.18459105 -5.0168114 0.082657486 0.09166626 -0.038023453 0.041999336 0.044109125 -0.5378209
-1.1910057 0.87958145 1.2748123 -1.3839856 0.04780073 0.16310225 -0.18591627 0.06141204
0.082058065 -0.081380576 0.11609866 -0.046586253 -0.096358 0.09693809 1.033797 -1.3207664
1.0780199 0.15682924 -1.6146898 -0.06700719 1.0122014 -0.1232115 -1.3179084 1.80847
-2.987561 -0.37484807 -0.07848546 2.6666481 -0.71258426 0.09680121 0.08296055 -0.6386865
0.7001229 1.657469 -1.4594133 -0.08080126 1.5801646 0.043407675 0.040695835 -0.0936578
-0.033666972 -0.004744466 -4.5328403 -1.0121381 -0.795115 0.23546003 -2.265345 2.7547185
0.5904315 0.038169313 -0.18390925 0.15968771 0.09758513 -0.1756292 0.059935182 -0.15009323
0.016646305 -0.39108694 0.18897398 -1.3412485 -0.16686353 -0.31272984 0.13773379 -0.42235917
-0.09910957 -1.1948688 1.1844778 1.0271806 -0.29563534 -0.6965615 1.2691377 1.4769546
-0.036285426 0.011200433 1.494286 -1.4758673 0.5683027 -1.3190676 -0.18180686 -2.824668
-0.17965011 -0.026955638 0.058513746 -0.1342432 0.01246308 0.14547089 -4.4220414 -0.6751727
-0.4183726 -2.0195715 1.2828486 -1.1465534 0.08835625 -0.071242444 0.18370159 -0.017899908
-0.019534081 -0.120459475 0.0857287 -0.18668589 -0.5597244 0.39705294 -0.102939144 -0.10307467
-2.5746415 0.08387708 -0.48852268 -0.031754166 -0.7281675 2.5642424 0.16141847 -0.9522646
2.193062 0.9123093 -1.0094218 0.03809116 -0.14574891 1.1506039 -1.15599 0.7943615
-1.558508 0.1341519 1.0358027 -0.08717285 -0.045906283 0.14056504 -0.10394172 -0.17114513
-0.10897058 -1.901721 -0.022279015 0.256741 0.6462898 0.05523299 -0.697807 -0.08383517
0.17296724 -0.17466044 0.03444508 0.15730797 -0.016495243 0.08065083 0.1395174 -0.9449521
2.9618468 -5.8959575 -0.040309727 0.73396 -0.17990011 -1.2963557 0.1069037 0.7507531
1.572263 1.1146176 -1.4788839 0.35840553 0.3947387 -1.6266837 0.11721236 -0.031579234
-0.7917042 1.0054003 1.0711774 -0.17446409 0.12952831 0.92189723 0.022331666 0.036364317
-0.15786575 0.04979279 -0.04501757 0.2577143 -0.54765946 1.5214475 0.048711795 0.7360827
-2.1992497 -1.9359424 0.0633418 0.08143682 0.11926313 0.10132679 -0.12744011 -0.07973378
-0.12745032 -0.11795269 -0.65242296 -0.21363412 -1.1865395 0.13541089 -0.43921807 0.013468754
-0.63765526 0.09618714 -0.41981483 -0.30553916 0.054168385 -1.6142579 0.87386096 -0.6500459

network.0.bias f4 [128]
00000000: b3fa 26c1 78c8 19c1 bcb5 aec0 d770 12c1
00000010: 38a4 18c1 a8cd 08c1 e0f2 06c1 d14a 16c1
00000020: 8cd4 d1c0 acb8 01c1 a70a 10c1 3e90 89c0
00000030: bf57 15c1 b9b3 13c1 5412 09c1 6642 16c1
00000040: fdf9 fec0 a08f 24c1 7af7 5bc0 4476 13c1
00000050: ef09 1ac1 9b97 01c1 4823 eec0 9bdf 09c1
00000060: 4419 d5c0 9f98 eac0 b5d4 b1c0 e818 cbc0
00000070: 611e e4c0 cfe8 fac0 52cd 25c1 a98e 07c1
00000080: 5cf1 9ac0 afec efc0 cc73 1bc1 0702 5bc0
00000090: 35df 26c1 4518 0fc1 61e5 10c1 e741 00c1
000000a0: 7131 1ac1 d8ed edc0 a80a 12c1 76d7 9ec0
000000b0: e251 18c1 0fd8 18c1 4545 fcc0 ac7d 08c1
000000c0: 80c8 17c1 ff7a 06c1 e564 24c1 a042 f6c0
000000d0: 830a bdc0 c342 1bc1 f3fb cec0 1232 1bc1
000000e0: f8e0 08c1 e8ee 13c1 82ee 01c1 8c60 06c1
000000f0: 4fb4 1cc1 5b61 07c1 ea9c 99c0 37c5 d1c0
00000100: 1a87 a4c0 5ead cfc0 26af cdc0 880c d5c0
00000110: 10fb f2c0 1bda 12c1 f899 28c1 728f c5c0
00000120: 3f04 b9c0 222c e4c0 6257 1bc1 a56e 12c1
00000130: 3c73 b5c0 ebb5 b2c0 e481 13c1 5e40 e6c0
00000140: 19fe 13c1 565c cbc0 68b3 eec0 b44d d1bf
00000150: 9a70 05c1 86fa fbc0 3aab e2c0 0226 05c1
00000160: 72aa 06c1 adb4 9dc0 ebea 05c1 470c 2bc1
00000170: 4ae4 7dc0 b4b3 e5c0 0837 53c0 7aae 19c1
00000180: 227b efc0 f8f1 0cc1 59a5 1dc1 8a9a 9ec0
00000190: c6d3 1bc1 f0da b8c0 40ad 18c1 6c67 f5c0
000001a0: cb7d 1fc1 30eb 12c1 a734 dac0 6fd5 f2c0
000001b0: 6e87 d3c0 38a3 f6c0 286a ecc0 c8a5 b8c0
000001c0: 9b2a 22c1 61ee 1dc1 ffc1 0ec1 463f 18c1
000001d0: 10be 2bc1 b99f dec0 ea2d c3c0 c3bf e6c0
000001e0: 7037 92c0 233c e5c0 3d7c 5ec0 adf7 00c1
000001f0: 2b46 22c1 d9fb 0bc1 c278 82c0 4e2e 06c1
-10.436206 -9.611443 -5.4596844 -9.152549 -9.540092 -8.550209 -8.434296 -9.393266
-6.5571957 -8.107586 -9.002601 -4.2988577 -9.333922 -9.231378 -8.566975 -9.391211
-7.968016 -10.285065 -3.4369798 -9.216373 -9.627425 -8.099513 -7.441807 -8.617091
-6.659334 -7.3311305 -5.557215 -6.3467903 -7.1287084 -7.840919 -10.362627 -8.472329
-4.841963 -7.497642 -9.715771 -3.4219987 -10.429494 -8.943425 -9.056001 -8.016089
-9.637071 -7.4352837 -9.127602 -4.9638014 -9.519991 -9.552749 -7.8834558 -8.530682
-9.48645 -8.405028 -10.274632 -7.695633 -5.907533 -9.703799 -6.4682555 -9.699724
-8.554924 -9.245827 -8.120729 -8.398571 -9.794021 -8.461268 -4.8004045 -6.555324
-5.141492 -6.489913 -6.4276304 -6.6577797 -7.5931473 -9.178248 -10.53759 -6.1737604
-5.7817683 -7.1303873 -9.708834 -9.152013 -5.6703167 -5.584707 -9.219212 -7.1953573
-9.249536 -6.3550215 -7.4594 -1.6351838 -8.339991 -7.8743315 -7.0834017 -8.321779
-8.416613 -4.928305 -8.369853 -10.690497 -3.9670587 -7.1781864 -3.3002338 -9.605097
-7.483781 -8.809074 -9.852868 -4.9563646 -9.7392025 -5.776726 -9.542297 -7.6688747
-9.968211 -9.182419 -6.8189273 -7.588554 -6.610282 -7.707424 -7.3879585 -5.770237
-10.135402 -9.870698 -8.922362 -9.515448 -10.733902 -6.9569974 -6.0993547 -7.2109084
-4.5692673 -7.163591 -3.476333 -8.060468 -10.142131 -8.748986 -4.077241 -8.386305

network.3.weight f4 [64, 128]
00000000: d56c 73bd 31d8 83bd 77bb aebd 4c61 18bf
00000010: ba1f 75bd 357a e53d 3315 7cbe ef75 29be
00000020: 10ca a1be 2540 163e c8d0 09be 75a0 89be
00000030: 18b6 63be 1bc7 b0be a07f 66be a09d 22bf
00000040: 1000 98bd 6151 9cbe 65ed 63be fe0b 3abe
00000050: 5f8f 02bf 0680 12bf 07e7 74bf 556c aabe
00000060: 90b7 2abd 142e 3bbd 520b c53c dce3 12bf
00000070: 1639 98bf eca6 28bf 48b2 593d e4ca e7be
00000080: 1947 523b f89e d0be 096b 23be c8fb 20bf
00000090: df00 fbbe ac84 97be 9211 7bbe 1074 0cbf
000000a0: 23ef c7be ca5c b3be 02eb ebbd cf18 5dbf
000000b0: 35d8 37bf 14ef 49bf 44e2 b5be be8e 213e
000000c0: f5db cbbe 0eb2 a0be f940 d3be 178f 1abf
000000d0: ec25 3cbe 7819 cc3d f6ec 2abf 202d c2ba
000000e0: d664 abbe 1ae8 bebe c101 58be 12a3 cbbe
000000f0: eaa9 02be 967c 3dbe a466 f7be 666c 17be
00000100: 09bb 70bd 8866 43be 782f cbbd dc62 60bd
00000110: 0792 b7be 49e1 edbd 74eb 553e f212 12bf
00000120: 52e3 67bf 2688 53be 9463 bfbe 2d91 4abe
00000130: 0ef5 85be f3f1 dbbe a8b0 54be bc60 4dbf
00000140: 9e83 dcbe 6d1d 38be ddb9 c8be d2c3 06bf
00000150: 6a3d b9be ddfd 64be 41cc 96be bd1c dcbe
00000160: 8b53 10bf c336 63bc c842 11bf 83c7 4dbe
00000170: ab29 bbbe d5ad aebe a248 01bf 769e 87be
00000180: 5f4a acbe afc6 d43d 1007 0ebf 08fb 8cbe
00000190: f48c 90be 7679 91be 6a6e 20be 2ef5 883e
000001a0: 8c26 61bd 69d9 5fbd 9b8c 00bf 20d7 13be
000001b0: b7c5 80bf 419d 1cbd 10a7 0fbf 443b d4be
000001c0: b150 7fbd 369d b0bc f2b6 903c 05af e9bd
000001d0: 69fe 9abe 2643 1cbe cb2f 0a3e 4c88 28bf
000001e0: 2b6f c1bd 9d08 45be 780c a3be 0cd4 d8be
000001f0: a0d7 1fbe 3bfd 1ebc 8adc f4bd 6d47 9dbe
00000200: d664 a4bd b2fa f1be 224a a4be 32c9 98be
00000210: dcea acbe 4e40 d8bd 3840 b3be 1d1e cbbd
00000220: f711 9cbe f517 f7be 078f 54be 7bb8 52be
00000230: 3684 f2be 924e 9abe 70a4 75bf 8f65 9cbf
00000240: 2657 babd 4052 8ebe 3c5a 18bf a3dd e83b
00000250: 64bf d5bc 2e4b d6be a92e dbbe 16d7 c9be
00000260: 06b2 92be fddb 83be d6ca 72bd d72b ec3c
00000270: d23d f8bc bec8 39bf 3fc8 a1be 61f1 91bf
00000280: e57b 8abf eafd 86be 6621 b4bd 8199 ffbe
00000290: f950 29be e258 9bbe 592c f5be 4de2 3fbf
000002a0: be5a 83be eaf3 bfbf 3222 0fbd b4fb d3be
000002b0: aaa2 8fbc 8f42 36bf 9736 bdbf 168a a9be
000002c0: 4fe2 31bf 36aa 21bd 4051 6ebf 235b 49bd
000002d0: 31e5 e5be d2e8 6ebe 5b92 efbf 226f 8e3c
000002e0: 1e02 2abf c521 0dbe b090 c4be 13bb 76bf
000002f0: 153c 99be 9823 1cbe 8d27 3fbe a936 15bf
00000300: e18d 1ebf 4ab3 22bf 314e ed3d 1bb2 f0bd
00000310: 3926 bfbe 92b5 43be 5827 d13c 2c81 bebe
00000320: a211 f2bd 90f4 dabe da33 d5be a719 12be
00000330: 154b cabd e29d 9fbe dda6 e5be 94e9 f2be
00000340: 6d9c c43c d3d3 debd 9807 ecbe a2b7 10bf
00000350: 17cb 32bf 5978 8cbf 66fd 29bf e0dd 34bf
00000360: 7d9c 86be e099 51be 9fad 74be def1 09bf
00000370: 6aef 12bf 8b51 a6be 4e35 6dbf 45ea 07bf
00000380: 9d29 c7be f4b8 e3be 2d96 19bf ef85 0ebf
00000390: 030d 58bf 558b 45bd 4e54 16bf 0050 c2bd
000003a0: f598 c03c 53d4 00be af28 1bbf ffea ebbe
000003b0: f04c f0bd 50ed 16bd 14d7 b6be b026 efbd
000003c0: 41a3 60bf d3ec e0bd 8229 dfbe b057 e1be
000003d0: 892d b7be ddba 99be da9c d73d 150d 77be
000003e0: 45cb a4be fac6 17be 246d 92be 6583 86bf
000003f0: 4651 30bf 2bb9 b73c 1416 61bf d0d1 a9bf
-0.059429962 -0.064377196 -0.0853185 -0.59523463 -0.05984471 0.1120495 -0.24617462 -0.16548894
-0.31599474 0.14672907 -0.1345855 -0.26880231 -0.22237432 -0.34526905 -0.22509623 -0.63521767
-0.07421887 -0.30530837 -0.22258528 -0.18168637 -0.51000017 -0.572266 -0.9566502 -0.33285776
-0.041678965 -0.04569824 0.02405325 -0.57378936 -1.1892421 -0.658797 0.053148538 -0.4527198
0.0032085835 -0.40746284 -0.159588 -0.6288419 -0.49024102 -0.29593408 -0.24518421 -0.548646
-0.39049634 -0.3503173 -0.115194336 -0.8636598 -0.7181428 -0.7888043 -0.3552419 0.15777108
-0.3981625 -0.31385845 -0.41260508 -0.6037459 -0.18373841 0.09965795 -0.66767824 -0.0014814474
-0.3347537 -0.37286454 -0.21094419 -0.3977285 -0.1276013 -0.18504557 -0.48320496 -0.14787444
-0.05877212 -0.19082081 -0.09921163 -0.05478178 -0.35853598 -0.11615235 0.208906 -0.5706016
-0.9058124 -0.20657405 -0.3738066 -0.19781943 -0.26163524 -0.4295803 -0.20770514 -0.8022573
-0.43069166 -0.17979975 -0.39204302 -0.5264255 -0.36179668 -0.22362466 -0.29452708 -0.42990676
-0.56377476 -0.013868037 -0.56742525 -0.20095639 -0.36555228 -0.34116998 -0.50501454 -0.26488084
-0.3365049 0.103894584 -0.55479527 -0.27535272 -0.2823254 -0.2841298 -0.1566712 0.26749557
-0.0549684 -0.054650698 -0.50214547 -0.14437532 -1.0060338 -0.038235907 -0.5611429 -0.41451466
-0.062332813 -0.021559339 0.01766536 -0.114103355 -0.30272225 -0.1525999 0.13494794 -0.6583297
-0.09445032 -0.19241567 -0.3184545 -0.4234928 -0.15609598 -0.00970393 -0.11956127 -0.30718556
-0.080270454 -0.47261578 -0.3208781 -0.29841 -0.33772933 -0.1055914 -0.35009933 -0.09917853
-0.30482456 -0.48260465 -0.20757686 -0.20578186 -0.47366494 -0.3013807 -0.95954037 -1.2218493
-0.090986535 -0.27797127 -0.59512687 0.0071064993 -0.026092239 -0.41854233 -0.42809036 -0.3942191
-0.28651446 -0.25753775 -0.05927547 0.028829498 -0.030302916 -0.72571933 -0.31598088 -1.1401788
-1.081906 -0.26365596 -0.08795433 -0.49921802 -0.16534795 -0.3034125 -0.47885397 -0.7495468
-0.25655168 -1.4996312 -0.03494472 -0.41402972 -0.017533619 -0.7119531 -1.4782284 -0.33113164
-0.69485945 -0.039468966 -0.9309273 -0.04915918 -0.44901422 -0.23331001 -1.8716539 0.017386977
-0.6640948 -0.13782413 -0.38391638 -0.963792 -0.2992865 -0.15247953 -0.18667431 -0.5828653
-0.6193524 -0.63554823 0.115871795 -0.11752721 -0.3733385 -0.19112232 0.025531456 -0.37207925
-0.118197694 -0.4276471 -0.41641122 -0.14267598 -0.09877602 -0.31175143 -0.4485387 -0.4744383
0.02400037 -0.10880246 -0.46099544 -0.565302 -0.6984114 -1.0974227 -0.6640228 -0.70651054
-0.26291266 -0.20468855 -0.23894356 -0.53884685 -0.57396567 -0.32484087 -0.9265946 -0.5309184
-0.38898936 -0.44477046 -0.59994775 -0.55673116 -0.84394854 -0.04822858 -0.5872239 -0.09487915
0.023510436 -0.12580995 -0.60608953 -0.46077725 -0.11733425 -0.036847413 -0.35710967 -0.11677301
-0.87749106 -0.10982671 -0.43586355 -0.44012213 -0.35776928 -0.30025378 0.10527964 -0.24126084
-0.32186332 -0.14821997 -0.28598893 -1.0508848 -0.68874013 0.022427162 -0.87924314 -1.3267155

network.3.bias f4 [64]
00000000: 4b27 1cc0 11c9 07c0 9948 efbf 98cd 0abf
00000010: 9c1b 07c0 4ce1 11c0 b3b1 03c0 526e 18c0
00000020: ce3a bfbf d5e7 e5bf 0dd6 08c0 dad2 edbf
00000030: 956b 09c0 1211 46c0 571d fcbf 6334 f0bf
00000040: 7af4 d1bf 8968 60c0 ae3f b3bf f0bb 0dc0
00000050: 2881 0ac0 9663 07c0 4dc4 e7bf bc0b ebbf
00000060: 072f dbbf 165d 9bbf 5839 16c0 c626 32c0
00000070: c7f1 1fc0 f253 f2bf 9301 2fc0 7965 17c0
00000080: bd46 3ebf 824f 02c0 c27f 43c0 5caf eabf
00000090: 017f 1cc0 182b 15c0 9388 653f 213b cabf
000000a0: 4a86 f3bf 73bc 30c0 94f3 dabf bb43 2bc0
000000b0: 56ef 2bc0 ff8f 25c0 458b 51c0 2af9 01c0
000000c0: 0a73 99bf 84a9 fabf f42a bebf 46ac 1cc0
000000d0: 2a3c 36c0 7780 ef3f 8b56 56c0 ef1e 4ec0
000000e0: 393e 67c0 ad76 9fbf e524 39c0 4c60 d8bf
000000f0: e1f4 e9bf e64c 0fc0 6a97 823f b989 e1bf
-2.4398983 -2.1216471 -1.869403 -0.5421996 -2.1110601 -2.279376 -2.057721 -2.3817334
-1.4939821 -1.7961375 -2.1380646 -1.8579972 -2.1471913 -3.094792 -1.9696454 -1.8765987
-1.6402733 -3.5063803 -1.4003808 -2.2145958 -2.164133 -2.1154532 -1.8106781 -1.8362956
-1.7123727 -1.2137783 -2.34725 -2.7836165 -2.499132 -1.8931868 -2.734471 -2.3655684
-0.7432669 -2.0361028 -3.0546727 -1.8334765 -2.4452517 -2.3307552 0.8966152 -1.5799295
-1.9025357 -2.761502 -1.7105584 -2.676009 -2.686483 -2.5869138 -3.2741253 -2.0308328
-1.1988232 -1.9582982 -1.4856858 -2.4480147 -2.8474221 1.8711079 -3.3490322 -3.220638
-3.6131728 -1.2458092 -2.8928769 -1.6904387 -1.8277856 -2.2390685 1.0202458 -1.7620155

network.6.weight f4 [5, 64]
00000000: d99d eb3c aa46 29be b0f5 6fbd 9c97 d83c
00000010: 5001 2ebe 6bcc 04be 5536 403e 23eb 243d
00000020: 3aee 20be c996 283e 13dc 16be aa4b 33be
00000030: 9695 c13c f058 003d 1123 d43d c329 49be
00000040: 6195 5d3e fca0 a13c ccde de3d c3dd aabd
00000050: 378e 5bbe d768 45be a36b 48be b593 d63d
00000060: 0f7d 26bd b515 50bc 04c6 39be 5c1e 62bd
00000070: da73 3a3e bbc5 d3bd da05 9e3d c08d adbd
00000080: 5685 6e3c b7a8 7d3e aa6a 773e 8e42 883d
00000090: ee05 193d 937c 3ebe bb01 e2bd 37cd 7ebd
000000a0: 665b 6cbd 2bf4 2cbd 08a4 803e 9cf5 1c3e
000000b0: db12 0dbd f878 77bd 4f28 0abe 5d24 513d
000000c0: 6e83 f6bd 8553 303d 3d80 3a3d 9cc4 51bc
000000d0: b037 073e 9383 a4bd e52f 203d ca3b a1bd
000000e0: 4801 4ebe fa16 48be d2b0 993d 1bd5 cb3d
000000f0: 4a9e c53d e9bf 2dbe 8288 c7bd b946 ffbc
00000100: 72c4 42bd 56a8 6c3e 0b46 533e bef5 813d
00000110: 0d6f e5be 4778 143e d0cd 04be 91f4 bd3d
00000120: e503 323d fde9 803d aefa 83be c047 60be
00000130: 4c6d 4c3e 24e9 133e 3140 05be cde6 f2bd
00000140: e9ff 86bd 10ba f53e d5db c0be e16d c73b
00000150: 550c 593e 7614 f0bd d8f1 9ebe 2abb 553e
00000160: f4f2 e2bd 5557 97be 940b 14bf c615 dbbd
00000170: 3456 31be 7ffd 073e a569 4bbe 61f9 77bd
00000180: b40d eabe 54b4 bc3e e4a9 913b d5a7 2a3e
00000190: 942c 35be 8132 6d3e a408 7f3d 1c39 11be
000001a0: beb0 cfbd 481c 7ebe 290f 273e 3872 9dbe
000001b0: 8dc5 13bd 71c0 153d e2c9 a53e a058 a63c
000001c0: 3eda 2b3c e0bd 5bbe 545f 7fbe 9dd2 cd3d
000001d0: d49e d43e 9807 73be 5b0f 92be 2d71 edbe
000001e0: 64c5 46bf 6241 553e efda 323e c406 87bd
000001f0: b9bd 753e 3675 00be 8ef4 26be 0b6b c5be
00000200: ddd5 873d 5122 16be 3b63 a8be faf9 2abc
00000210: 730c 923c a367 41be dbd6 7a3e ce38 583e
00000220: 35b5 013e 4f66 14bf b849 49be 02aa ad3e
00000230: 4f80 afbd 128c 1d3e b54d 61be db60 62be
00000240: c6ef 19bc 10e3 11be 3d0b 20bd 3fcf d53e
00000250: 625e 143e b54b d4bd 51ea 993d 5e10 31bd
00000260: 4234 5a3e 43b3 66be c261 163e 25b8 9e3d
00000270: e463 b93c c5a8 4dbe 6661 7f3e bb87 87bd
00000280: c1f2 c43d f89d 92bc b151 46bc 5fcf aa3d
00000290: 30cf 84be f261 08be 97f4 583e e9ee 25be
000002a0: c73f 53be e053 453e 7477 6f3e d945 bdbe
000002b0: 79ab 863e a96e a4be 629d 7ebd ee9c 9abe
000002c0: 2478 06bd 8fdf 85bc 2db9 4ebe ce45 9c3e
000002d0: 4e07 84be 9ff9 323e 16dc 0bbe 1e26 8dbe
000002e0: ce12 863e 6838 7bbe 6c49 afbe b277 a03e
000002f0: 1665 a7bd 5728 f03e 0d18 08bf f50a ff3d
00000300: 4877 6cbe b936 163e 6766 53bd f178 dfbd
00000310: 90e5 903c 0636 523d e3d7 613e 07ce c7be
00000320: 13b1 3cbe b874 ebbe 2db3 bc3d 4cd1 e1bd
00000330: 952f b23d f346 173d 2473 bc3d 24a1 023e
00000340: 19c4 33be 708e e83d 5c8b 023e 5e93 de3e
00000350: 6d51 ca3d 96ad f03d 2e3b 34bd b7d1 773d
00000360: f3e2 6dbd 6111 1e3d ca5c 2abe bda7 c6bc
00000370: ab98 dabd 5cf9 32bd 2315 613d d3ec f9bc
00000380: 1e2c e63c 84fc 603e c076 fb3d a2a9 22be
00000390: f132 a8be 0def 2cbe ca2f b53e 850b e7bd
000003a0: 919c b33d 335d db3d 658e fabd 062d a93e
000003b0: ba19 0ebd d8e9 f73d 7f10 97bd 0719 9c3d
000003c0: b06c ed3d 3eec fe3c 9e67 263d 0b78 41be
000003d0: 68d6 1d3e 3231 4b3e b35f dd3d 1345 b63e
000003e0: e53e 763e b942 ce3c d9f5 a03d 309f 613d
000003f0: 6952 cdbd dedb 4abe 107c 8eba 5d92 0e3e
0.028761791 -0.16530862 -0.058583915 0.02643948 -0.16992688 -0.12968604 0.18770726 0.040263306
-0.15715876 0.1646377 -0.14732389 -0.17509332 0.023630898 0.031334817 0.10358251 -0.19644837
0.21639015 0.019730084 0.10882339 -0.08343079 -0.2144097 -0.19278274 -0.1957231 0.10477392
-0.04064661 -0.012700488 -0.18141943 -0.055204734 0.18208256 -0.103404485 0.0771596 -0.08474302
0.014558157 0.24771391 0.24161783 0.06653319 0.03735917 -0.18602209 -0.11035486 -0.062207427
-0.05770435 -0.042225044 0.25125146 0.15328068 -0.03444181 -0.0604181 -0.13491939 0.05106007
-0.12036787 0.0430484 0.045532454 -0.012803223 0.13204837 -0.08032908 0.039108176 -0.07872732
-0.20117676 -0.19540015 0.07504429 0.09952756 0.09649332 -0.16967739 -0.09742834 -0.031161653
-0.047550626 0.2311109 0.20632188 0.063457 -0.44811288 0.14499007 -0.12969136 0.09275163
0.043460745 0.0629463 -0.2577719 -0.2190237 0.19963568 0.14444405 -0.13012768 -0.11860428
-0.0659178 0.47993517 -0.3766772 0.0060860966 0.2119611 -0.117226526 -0.31043887 0.20872179
-0.11081496 -0.29558817 -0.57830167 -0.10697512 -0.1731804 0.13280295 -0.19864519 -0.06054056
-0.4571358 0.3685633 0.0044453014 0.16665585 -0.17692786 0.23163797 0.0622641 -0.14181942
-0.10141133 -0.24815476 0.16314377 -0.30751204 -0.03607707 0.03656048 0.32380587 0.020305932
0.010489045 -0.2145915 -0.24938709 0.10049937 0.41527426 -0.23733366 -0.2852734 -0.4637541
-0.77644944 0.20825723 0.17466329 -0.06593087 0.23998155 -0.12544712 -0.16304228 -0.3855823
0.06632588 -0.14661528 -0.32888207 -0.010435576 0.017828202 -0.1888719 0.24496023 0.2111542
0.12666781 -0.5796861 -0.19657028 0.33918768 -0.08569395 0.15385464 -0.22002299 -0.2210726
-0.009395545 -0.14246774 -0.039073218 0.4175968 0.14489129 -0.103660025 0.075153954 -0.0432285
0.21308997 -0.2252932 0.14685729 0.077499665 0.02263064 -0.20083912 0.24939498 -0.066176854
0.09616614 -0.017897591 -0.012104438 0.08340334 -0.25939322 -0.13318613 0.21187054 -0.16204418
-0.20629798 0.19270277 0.23385412 -0.36967352 0.26302698 -0.32115677 -0.06216181 -0.30197853
-0.03282942 -0.016341953 -0.20187826 0.30522007 -0.25786823 0.17478035 -0.13658175 -0.27568144
0.26186222 -0.24533236 -0.34235704 0.3134132 -0.081735775 0.46905777 -0.531617 0.12453262
-0.23092377 0.14669313 -0.05161133 -0.109117396 0.017687589 0.051321052 0.2205501 -0.39024374
-0.18426923 -0.45987487 0.092138626 -0.11026248 0.08700482 0.036932897 0.09201649 0.12756783
-0.17555274 0.11355293 0.12748474 0.43471807 0.09878812 0.11751859 -0.04400175 0.060502734
-0.058077764 0.038590793 -0.16636959 -0.024249906 -0.1067365 -0.04369484 0.0549518 -0.030508434
0.028097209 0.21971327 0.12278509 -0.15885022 -0.32851365 -0.16888066 0.35388023 -0.11281494
0.08770097 0.10711136 -0.12234191 0.33042163 -0.034692504 0.12105149 -0.07376193 0.07621961
0.11592996 0.031118508 0.04062616 -0.18893449 0.1541382 0.19842985 0.10809269 0.35599574
0.2404743 0.0251783 0.07859392 0.055083454 -0.10025484 -0.19810435 -0.0010870714 0.1392302

network.6.bias f4 [5]
00000000: 1fc8 1b3e 0703 15be 541c a13c c7dc 8f3e
00000010: 6cd0 053d
0.15213059 -0.14551936 0.019666828 0.28098127 0.03266947
