experiments/checkpoints/20251210_110803/checkpoint_ep89.pt (torch, 246569 bytes, 24 tensors)

network.0.weight f4 [128, 43]
000000 b0 16 a5 bb fa 8e 0d bf 34 94 b6 3e 28 5e 60 bf
       -0.005038105 -0.5529629 0.35659945 -0.8764367
000010 c1 00 3e bf cc f0 23 be fd a4 54 bf 4a ba 0c 3e
       -0.742199 -0.16009825 -0.8306425 0.13742939
000020 a5 1d 28 3e 74 08 26 be 01 cf 90 bc 38 ae ec bd
       0.16417558 -0.16214162 -0.017676832 -0.11556667
000030 77 e8 6f 3f 96 23 17 3f e6 48 38 bf 5a 69 7e bf
       0.9371409 0.59038675 -0.71986234 -0.99379504
000040 4a cd 9b bf f7 0d 16 40 0f 2f db 3f 03 ad a3 bd
       -1.2172024 2.3446023 1.7123736 -0.07991984
000050 f5 73 0c be d6 be b3 bd 3c f8 04 3e ab 68 a7 ba
       -0.13716109 -0.087766334 0.12985319 -0.0012772282
000060 33 16 bb bd 1f 9e 2b 3e 56 7f 3c bd e2 f3 a0 bf
       -0.091350935 0.16759537 -0.046019875 -1.2574427
000070 05 80 43 3f 3d 10 81 bf 32 c0 8b 3d 96 70 5c 3e
       0.7636722 -1.008308 0.06823768 0.21527323
000080 77 c5 3a be 01 37 81 bf 9c ad 23 3e 57 b6 97 bd
       -0.1823939 -1.0094911 0.15984195 -0.074078254
000090 1d 9e 30 bf 88 98 4b be 01 65 18 c0 33 00 31 c0
       -0.6899126 -0.19882405 -2.3811648 -2.7656372
0000a0 43 53 f2 3f ed 29 ee bf 04 9b 1a 3d d1 27 29 be
       1.893166 -1.8606545 0.03774549 -0.16519095
0000b0 cc 24 df 3f 9a 33 cc bf 2b d3 02 be c3 62 75 bf
       1.7433105 -1.5953248 -0.12775867 -0.95853823
0000c0 70 05 3d be 4c 86 9c c0 54 48 a9 3d 85 bb bb 3d
       -0.18459105 -4.8913937 0.082657486 0.09166626
0000d0 7b be 1b bd 7c 07 2c 3d c5 ab 34 3d c7 14 19 be
       -0.038023453 0.041999325 0.044109125 -0.14949332
0000e0 ed 39 f6 be 19 d1 fe 3f c6 4b 89 3f fd ee 9b bf
       -0.4809107 1.9907562 1.0726249 -1.2182308
0000f0 8d 49 9a 3e 26 f3 0b 3f d6 60 3e be 31 8b 7b 3d
       0.3013424 0.5466789 -0.18591627 0.06141204
000100 0f 0e a8 3d dc aa a6 bd 22 c5 ed 3d 3a d1 3e bd
       0.082058065 -0.081380576 0.11609866 -0.046586253
000110 58 57 c5 bd 7a 87 c6 3d 82 34 82 3f bc bf bc bf
       -0.096358 0.09693809 1.0172274 -1.4746013
000120 2d 0b 6c 3f d8 97 20 3e f0 16 19 c0 11 3b 89 bd
       0.9220455 0.15682924 -2.392025 -0.06700719
000130 d2 e1 7e 3f 50 56 fc bd 7c ed fc be d9 3e 29 40
       0.99563324 -0.1232115 -0.49399936 2.644461
000140 62 b1 35 c0 a5 ef 8c 3f 1a 81 9c 3e ca 7d 1e 40
       -2.8389516 1.1010634 0.30567247 2.4764276
000150 86 d3 44 3e b6 3f c6 3d 39 e7 a9 3d 55 70 c9 be
       0.19221315 0.09680121 0.08296055 -0.39343515
000160 dd e4 e8 3e 5a 55 18 40 e3 18 a3 bf 22 7b a5 bd
       0.4548711 2.3802094 -1.274197 -0.08080126
000170 61 2a 84 3f 3f cc 31 3d ad b0 26 3d a9 cf bf bd
       1.0325433 0.043407675 0.040695835 -0.0936578
000180 61 e6 09 bd 77 77 9b bb 18 2a 6b c0 21 65 3f be
       -0.033666972 -0.004744466 -3.6744442 -0.18690921
000190 0c ba f1 bf 89 57 d1 3d e6 a2 cf bf c2 56 3f 40
       -1.8884902 0.10221774 -1.6221588 2.9896703
0001a0 b6 42 06 bf 6d 57 1c 3d b5 52 3c be 2d 85 23 3e
       -0.5244554 0.038169313 -0.18390925 0.15968771
0001b0 b6 da c7 3d 24 d8 33 be 98 7e 75 3d 0a b2 19 be
       0.09758513 -0.1756292 0.059935182 -0.15009323
0001c0 d5 5d 88 3c ea 7e 68 bf 87 cf 5b 3b bd 97 08 c0
       0.016646305 -0.90818655 0.0033540444 -2.1342614
0001d0 46 de 2a be da 8f a6 bf 16 0a 0d 3e 62 80 70 bf
       -0.16686353 -1.301265 0.13773379 -0.93945897
0001e0 f5 f9 ca bd fd 60 ff be 58 29 8f 3f 1c 82 25 3e
       -0.09910957 -0.49878684 1.1184492 0.16162914
0001f0 dc 5b 2c bf f1 d2 92 bf 46 95 81 3f 26 d3 bd 3f
       -0.67327666 -1.1470624 1.012368 1.4830062
000200 07 a0 14 bd 05 82 37 3c d9 04 bd 3f 51 a9 ba bf
       -0.036285426 0.011200433 1.4767104 -1.4582921
000210 f3 96 e3 be 5c 03 06 bf 94 2b 3a be 9a 3d 41 c0
       -0.44451103 -0.52348876 -0.18180686 -3.0193849
000220 33 f6 37 be 12 d2 dc bc 1c ac 6f 3d 09 77 09 be
       -0.17965011 -0.026955638 0.058513746 -0.13424315
000230 f2 31 4c 3c f1 48 72 3f 47 08 55 c0 75 04 8d be
       0.01246308 0.9464255 -3.3286302 -0.27542463
000240 70 fa 4b bf 81 a3 e6 bf 09 a4 34 3f 59 19 eb bf
       -0.7967901 -1.8018647 0.705628 -1.836711
000250 1f f4 b4 3d 8f e7 91 bd 45 1c 3c 3e d4 a2 92 bc
       0.08835625 -0.071242444 0.18370159 -0.017899908
000260 f0 05 a0 bc 75 b3 f6 bd 7f 92 af 3d 96 2a 3f be
       -0.019534081 -0.120459475 0.08572864 -0.18668589
000270 8e 9a b4 bf 9a 34 8c 3e a5 89 0d 3f d0 18 d3 bd
       -1.4109666 0.27383882 0.55288154 -0.10307467
000280 29 36 cc bf bf c7 ab 3d 76 7d ab bf a8 10 02 bd
       -1.5954028 0.08387708 -1.3397663 -0.031754166
000290 76 ac 93 bf 8c 46 04 40 c1 90 4d bf 36 04 ca 3e
       -1.1537006 2.0668058 -0.80299 0.39456338
0002a0 87 f7 e3 3f c0 8a 04 3f e1 66 76 bf 7a 05 1c 3d
       1.7809914 0.51774216 -0.9625073 0.03809116
0002b0 34 3f 15 be 8c b1 a1 3f 0c 62 a2 bf 13 d4 cd be
       -0.14574891 1.2632308 -1.2686172 -0.40200862
0002c0 ed 99 99 bf 1e 5f 09 3e 26 8a 16 3f ae 87 b2 bd
       -1.20001 0.1341519 0.5880455 -0.08717285
0002d0 3a 08 3c bd 48 f0 0f 3e 66 df d4 bd ab 40 2f be
       -0.045906283 0.14056504 -0.10394172 -0.17114513
0002e0 9d 56 02 bf a6 6e b0 bf d3 53 13 bf 17 e4 2f 3f
       -0.5091341 -1.3783767 -0.5754978 0.6870741
0002f0 14 c2 11 3f 8d 9c 35 3e 05 c5 8e bf c6 b1 ab bd
       0.56936765 0.177355 -1.1153876 -0.08383517
000300 53 1e 31 3e 30 da 32 be 49 16 0d 3d 57 15 21 3e
       0.17296724 -0.17466044 0.03444508 0.15730797
000310 08 21 87 bc 43 2c a5 3d a6 dd 0e 3e f8 0c 83 bf
       -0.016495243 0.08065083 0.1395174 -1.0238333
000320 cc fd 12 40 c3 a4 a2 c0 d0 1b 25 bd 95 fb 55 3f
       2.2967405 -5.0826125 -0.040309727 0.8358701
000330 bc 37 38 be bf 07 b0 bf 54 f0 da 3d 06 63 cc be
       -0.17990011 -1.3752364 0.1069037 -0.399193
000340 73 71 e0 3f ca cd b1 3f 0b dd 4d bf 8d 74 61 3f
       1.7534622 1.3890927 -0.8041541 0.8806847
000350 15 56 fa 3e d0 61 d0 bf 09 0d f0 3d 3a 59 01 bd
       0.488938 -1.627985 0.11721236 -0.031579234
000360 30 96 10 bf 28 4b 47 3f 13 4a d6 3f ff d0 8e bf
       -0.5647917 0.77849054 1.6741356 -1.115753
000370 12 a3 04 3e 2e bc 76 3e e6 f0 b6 3c c0 f2 14 3d
       0.12952831 0.24095222 0.022331666 0.036364317
000380 8f a7 21 be 86 f3 4b 3d 4d 64 38 bd a4 f5 d7 3e
       -0.15786575 0.04979279 -0.04501753 0.42179596
000390 c2 dd 5d be db 8c 1e 40 9f 7f fb bd b4 45 20 3f
       -0.21666625 2.4773471 -0.12280201 0.6260636
0003a0 d3 c5 13 c0 51 c0 1a c0 58 b9 81 3d 59 c8 a6 3d
       -2.3089492 -2.417988 0.0633418 0.08143682
0003b0 3a 40 f4 3d 6c 84 cf 3d a9 7f 02 be 77 4b a3 bd
       0.11926313 0.10132679 -0.12744011 -0.07973378
0003c0 56 82 02 be 2e 91 f1 bd 93 83 53 bf 8f f3 0a bf
       -0.12745032 -0.11795269 -0.8262264 -0.5427789
0003d0 92 b3 69 bf 27 a9 0a 3e c0 5c db bf 0c ac 5c 3c
       -0.9128963 0.13541089 -1.713768 0.013468754
0003e0 0f bc 4f bf c3 fd c4 3d 0d ec d0 3d dc 30 15 bc
       -0.8114633 0.09618714 0.10201273 -0.009105887
0003f0 fd 26 75 3e b0 62 e8 bf 78 47 1e 3f 15 e5 9f bf
       0.23940654 -1.8155117 0.618278 -1.2491785

network.0.bias f4 [128]
000000 fe b2 1b c1 d6 65 07 c1 a9 75 91 c0 8a 81 0c c1
       -9.731199 -8.462362 -4.545613 -8.781626
000010 7e 02 09 c1 c7 4b f3 c0 d5 4a f4 c0 d5 20 06 c1
       -8.563108 -7.603 -7.634135 -8.383016
000020 76 35 c2 c0 46 9f df c0 93 25 fe c0 b2 27 01 c0
       -6.069026 -6.9881926 -7.9420867 -2.0180478
000030 6c 2b 09 c1 94 4b 04 c1 4d d3 f1 c0 a9 25 02 c1
       -8.573101 -8.268452 -7.5570436 -8.134194
000040 ce 90 cd c0 31 fc 14 c1 95 80 70 c0 25 bd f8 c0
       -6.4239264 -9.31157 -3.757848 -7.773089
000050 1d 12 12 c1 ba fd 05 c1 d3 53 f0 c0 7c 1a 01 c1
       -9.129422 -8.374445 -7.5102324 -8.068966
000060 e5 10 ce c0 41 8c ba c0 a9 02 a8 c0 c7 2c a8 c0
       -6.4395623 -5.829621 -5.2503247 -5.255466
000070 52 bc dd c0 34 ab f3 c0 05 fe 15 c1 a5 d0 fc c0
       -6.9292383 -7.614649 -9.3745165 -7.9004693
000080 22 ad 8a c0 73 60 e6 c0 1e c4 0a c1 67 9a 28 c0
       -4.3336344 -7.1992736 -8.67288 -2.634424
000090 09 a3 1f c1 58 45 f8 c0 0e 61 ed c0 97 a7 e0 c0
       -9.9773035 -7.758465 -7.4180975 -7.0204577
0000a0 70 e8 02 c1 01 c9 f6 c0 6e 27 15 c1 76 21 a1 c0
       -8.181747 -7.7120366 -9.322126 -5.0353346
0000b0 50 9c 0c c1 2c a5 08 c1 78 9f ca c0 17 f6 ec c0
       -8.788162 -8.540325 -6.3319664 -7.4050403
0000c0 23 bc 04 c1 41 31 e6 c0 b6 be 0b c1 35 48 d1 c0
       -8.295932 -7.1935124 -8.73406 -6.5400643
0000d0 01 7e c0 c0 58 66 0b c1 f3 3a 8b c0 52 ea 08 c1
       -6.0153813 -8.712486 -4.350946 -8.557207
0000e0 f3 ed f7 c0 be ef 11 c1 8b c2 f9 c0 b8 f8 00 c1
       -7.7477965 -9.121031 -7.804998 -8.060722
0000f0 6f b9 04 c1 7c 97 0a c1 b3 31 86 c0 ce 61 af c0
       -8.295272 -8.6619835 -4.193567 -5.480689
000100 b5 73 8e c0 e8 cc 94 c0 86 84 c0 c0 c2 f0 b2 c0
       -4.4516244 -4.650013 -6.016177 -5.5918894
000110 31 80 c3 c0 aa 3a 08 c1 ee 63 20 c1 db 2e 8a c0
       -6.1093984 -8.514322 -10.024397 -4.3182197
000120 60 80 a5 c0 49 b9 c9 c0 98 d5 0d c1 37 1b f9 c0
       -5.171921 -6.303868 -8.864647 -7.784572
000130 8e 80 9a c0 00 01 b5 c0 4f cf 04 c1 30 7b ad c0
       -4.8281927 -5.656372 -8.300612 -5.4212875
000140 de e0 0d c1 92 41 a1 c0 fe d8 f3 c0 8c 2b d6 be
       -8.867399 -5.039254 -7.6202383 -0.418301
000150 eb 15 02 c1 aa da e3 c0 1f 79 c5 c0 e9 9a f1 c0
       -8.130351 -7.1204424 -6.1710353 -7.55016
000160 13 5e eb c0 69 15 a0 c0 d0 25 f8 c0 7f cb 13 c1
       -7.3552337 -5.0026135 -7.754616 -9.237182
000170 dc 7e 29 c0 ff 1c b7 c0 c0 ad 55 c0 25 3f 0d c1
       -2.648368 -5.7222896 -3.3387299 -8.827916
000180 9b eb c7 c0 98 bc f9 c0 e5 20 15 c1 b0 52 a1 c0
       -6.2475104 -7.8042717 -9.320531 -5.0413437
000190 b9 47 16 c1 fa a0 bd c0 a9 06 18 c1 46 fc fd c0
       -9.39251 -5.9259005 -9.501626 -7.937045
0001a0 69 fc 0b c1 6f 41 10 c1 76 e2 a4 c0 3d 99 c9 c0
       -8.749124 -9.015975 -5.152644 -6.299956
0001b0 10 55 ab c0 74 b6 c8 c0 91 2e c1 c0 c0 07 b4 c0
       -5.3541336 -6.272272 -6.0369344 -5.625946
0001c0 c6 44 11 c1 cf 4d 10 c1 22 02 13 c1 be 82 11 c1
       -9.07929 -9.018996 -9.188021 -9.0944195
0001d0 fb 2f 22 c1 d9 87 e1 c0 be bd 8d c0 59 c9 c3 c0
       -10.136714 -7.047833 -4.429412 -6.1183286
0001e0 57 25 82 c0 cb 36 e1 c0 27 29 36 c0 f6 0d de c0
       -4.067058 -7.0379386 -2.8462617 -6.939204
0001f0 13 5b 0a c1 0d 4e 08 c1 78 16 6f c0 62 bd ee c0
       -8.647235 -8.519055 -3.7357464 -7.460618

network.3.weight f4 [64, 128]
000000 bb 0f 79 bd 53 e3 83 bd 42 a0 ae bd 5f 15 19 bf
       -0.060806017 -0.06439843 -0.085266605 -0.59798235
000010 aa 1a 76 bd d9 84 e5 3d 79 6a 7c be 97 13 2a be
       -0.060084023 0.11206979 -0.24649991 -0.16609035
000020 e6 d0 a2 be 31 46 16 3e e9 da 09 be ce 30 8a be
       -0.31800002 0.14675213 -0.13462414 -0.2699036
000030 83 13 66 be d3 e0 b2 be 70 ca 66 be bc 73 23 bf
       -0.2246838 -0.34937152 -0.22538161 -0.6384847
000040 2e 08 98 bd d0 b8 9c be 64 47 64 be a5 fe 3b be
       -0.07423435 -0.3060975 -0.22292858 -0.18358858
000050 98 26 03 bf 7b 65 13 bf 3a e9 76 bf 74 91 ab be
       -0.51230764 -0.5757672 -0.96449625 -0.3350941
000060 dc 05 2c bd be 74 81 bd d5 04 ca 3c f3 80 13 bf
       -0.041997775 -0.06321095 0.024660507 -0.57618636
000070 b8 ff 98 bf 23 df 29 bf 69 f3 58 3d f2 d4 e8 be
       -1.1953039 -0.66356105 0.05296651 -0.45474964
000080 00 17 24 3b 48 48 d2 be be 8a 24 be 6f a0 21 bf
       0.0025038123 -0.4107077 -0.16068551 -0.6313543
000090 2a 41 fc be ac 72 98 be 4c a0 7c be eb e7 0d bf
       -0.49268466 -0.29774988 -0.24670523 -0.55432004
0000a0 c6 d1 c8 be 5b 67 b4 be 7e 3c ec bd 52 25 5e bf
       -0.39222544 -0.35235104 -0.115349755 -0.86775696
0000b0 0d 84 39 bf de 70 4b bf 9a 33 b7 be 86 b3 21 3e
       -0.7246712 -0.79469097 -0.35781556 0.15791139
0000c0 e7 bf cc be f7 79 a1 be 18 5a d4 be 68 2b 1b bf
       -0.3999016 -0.31538364 -0.41474986 -0.6061311
0000d0 9a 16 3d be 1a b9 cc 3d cc dd 2b bf 9a 8b ec ba
       -0.18465653 0.09996243 -0.6713531 -0.0018046976
0000e0 3e b4 ac be 10 e9 bf be 9c d4 58 be f1 52 cd be
       -0.33731264 -0.374825 -0.21174854 -0.40102342
0000f0 49 ba 02 be 51 31 3f be 6d b1 f8 be 00 dc 17 be
       -0.12766375 -0.18671156 -0.48572865 -0.14830017
000100 28 a2 67 bd ad c4 43 be c3 3b cd bd 53 0e 62 bd
       -0.05655113 -0.19117995 -0.10021164 -0.055189442
000110 c7 55 b8 be b5 b5 f0 bd 53 e0 56 3e bc dc 12 bf
       -0.36002943 -0.11753408 0.2098401 -0.57368064
000120 13 a5 6d bf 36 ef 53 be c6 f4 bf be 02 52 4b be
       -0.9283001 -0.2069672 -0.37491435 -0.19855502
000130 dd 91 86 be b7 4a dd be ee 3e 55 be 99 2d 4f bf
       -0.2628316 -0.43221065 -0.20824787 -0.8092895
000140 66 be de be 28 30 38 be 6e 5e c9 be 39 6a 08 bf
       -0.43504637 -0.1798712 -0.39329857 -0.5328708
000150 d3 c3 ba be 90 56 67 be 61 9b 97 be 41 ba df be
       -0.36477527 -0.22591615 -0.29610732 -0.43696788
000160 62 28 11 bf 43 ea 5d bc e0 e9 12 bf 0f b9 4e be
       -0.56702244 -0.013544622 -0.57388115 -0.20187782
000170 7f ee bb be 67 db af be 3a ef 01 bf 76 0a 88 be
       -0.36705396 -0.34347078 -0.50755656 -0.2657048
000180 ae 03 ad be 1d 80 d7 3d 48 dc 0e bf 5e 6d 8d be
       -0.3379187 0.105224825 -0.5580487 -0.27622503
000190 11 fd 92 be f7 1f 94 be dc ab 20 be cc 5e 8a 3e
       -0.287087 -0.28930637 -0.15690559 0.2702545
0001a0 f3 35 62 bd df 14 60 bd a4 45 01 bf 78 20 14 be
       -0.05522723 -0.054707404 -0.5049689 -0.14465511
0001b0 b3 73 81 bf 86 c5 28 bd 32 49 10 bf ef 84 d5 be
       -1.0113434 -0.041203998 -0.5636169 -0.41702983
0001c0 7a 5c 80 bd ca e6 b2 bc ae fb 8a 3c 1c 14 ec bd
       -0.062676385 -0.021838564 0.016965713 -0.11527273
0001d0 4f 53 9b be 13 c1 1c be 73 49 09 3e e5 e5 29 bf
       -0.30336997 -0.15308027 0.13406925 -0.66366416
0001e0 c9 96 c1 bd d4 dc 45 be 1b 02 a4 be c1 ce d9 be
       -0.09452588 -0.1932252 -0.32032856 -0.42540553
0001f0 0d 04 23 be 94 6f 1f bc 5f 81 f7 bd 8c a9 9e be
       -0.15919514 -0.009731192 -0.120852225 -0.3098873
000200 9f 45 a5 bd c9 e5 f2 be f9 4e a5 be b3 94 99 be
       -0.0806992 -0.47440937 -0.32286814 -0.2999626
000210 d8 77 ad be 96 d8 d8 bd a8 74 b4 be ba b9 cb bd
       -0.33880496 -0.105881855 -0.35245252 -0.09947534
000220 c1 b0 9c be e2 ad f8 be bf 9f 55 be 92 d3 53 be
       -0.30603603 -0.48570162 -0.2086172 -0.20686176
000230 10 4b f3 be 2d c9 9a be 7d e2 76 bf 21 4d 9d bf
       -0.47518206 -0.3023161 -0.96439344 -1.2289163
000240 d2 b5 b8 bd 64 a9 8e be bc 01 19 bf b1 38 bd b6
       -0.090190545 -0.2786361 -0.5976827 -5.6392387e-06
000250 f6 61 d8 bc 63 54 d7 be 0f 4a dc be f9 8b ca be
       -0.026413899 -0.4205657 -0.43025252 -0.39559916
000260 7a c0 93 be 2a 79 84 be 90 f6 70 bd f3 81 ee 3c
       -0.28857785 -0.2587369 -0.05882889 0.029114699
000270 4f 45 14 bd f5 d3 3a bf 5d ea a5 be b7 ab 92 bf
       -0.03619891 -0.7297967 -0.32405367 -1.1458653
000280 a5 34 8b bf 65 42 87 be bf bd b5 bd d5 82 01 bf
       -1.0875441 -0.26417843 -0.08874082 -0.5059026
000290 d8 76 29 be d5 cd 9b be fb 63 f6 be b4 f6 40 bf
       -0.16549242 -0.30430475 -0.48123154 -0.7537644
0002a0 a0 7b 84 be e1 0a c1 bf 05 b7 12 bd 1c e1 d4 be
       -0.25875568 -1.5081445 -0.035819072 -0.41577995
0002b0 23 d5 91 bc 95 15 37 bf 07 16 be bf 73 ba aa be
       -0.017801827 -0.71517307 -1.4850472 -0.33345374
0002c0 8b f9 32 bf 73 4d 23 bd c6 ab 6f bf 4d 8d 49 bd
       -0.6991202 -0.039868783 -0.9362148 -0.04920702
0002d0 06 8d e7 be 87 56 70 be e1 e9 f0 bf 98 cd 5e 3c
       -0.4522478 -0.23470508 -1.8821374 0.013598822
0002e0 61 d9 2a bf bf 16 0e be 98 eb c5 be 4c e6 77 bf
       -0.66737944 -0.13875864 -0.38656306 -0.9683578
0002f0 53 5d 9a be 57 88 1d be a9 25 3f be 73 eb 15 bf
       -0.30149326 -0.15384041 -0.1866671 -0.5856239
000300 2d 43 1f bf 0b a3 23 bf 01 5a ee 3d 69 6e f3 bd
       -0.6221188 -0.6392066 0.11638261 -0.118862934
000310 ad b1 bf be a0 d6 45 be 8a 9e d3 3c 96 52 bf be
       -0.37440243 -0.19320154 0.025832433 -0.37367696
000320 b9 56 f2 bd bf 10 dc be d7 06 d6 be c2 16 12 be
       -0.11832947 -0.42981526 -0.41802093 -0.14266494
000330 c5 d0 ca bd 4c e6 a0 be 3d cb e7 be 24 3b f4 be
       -0.09903101 -0.31425703 -0.45272246 -0.4770137
000340 23 6f c1 3c b7 14 df bd e8 bf ed be 73 94 11 bf
       0.023612564 -0.10892623 -0.46435475 -0.5686714
000350 f5 3a 34 bf 3b 32 8d bf 19 a0 2a bf 51 ce 35 bf
       -0.7040246 -1.1030954 -0.6665054 -0.7101794
000360 55 df 86 be 9c 27 52 be 9d b7 76 be 1b a2 0a bf
       -0.26342264 -0.20522922 -0.2409348 -0.54153603
000370 dd df 13 bf 04 65 a7 be ca c4 6e bf f7 68 08 bf
       -0.57763463 -0.32694256 -0.93269026 -0.53285164
000380 39 d5 c7 be 75 85 e4 be 3f 81 1a bf f6 7b 0f bf
       -0.39029863 -0.4463307 -0.60353464 -0.56048524
000390 9c 42 59 bf 3e b9 4a bd 8f 15 17 bf f6 7e c8 bd
       -0.8486726 -0.049493067 -0.5901727 -0.09789841
0003a0 17 7e ba 3c 8c b0 01 be bd e1 1b bf 7e d6 ec be
       0.022765202 -0.12665004 -0.60891324 -0.46257395
0003b0 7f d2 f1 bd d0 fe 1e bd 80 c9 b7 be 35 fe ef bd
       -0.11807727 -0.038817227 -0.3589592 -0.11718408
0003c0 f1 df 61 bf aa b0 e3 bd 3c fc df be 86 df e1 be
       -0.8823233 -0.1111768 -0.43747127 -0.44115847
0003d0 60 de b7 be 59 ac 9a be d7 00 d7 3d 42 3b 76 be
       -0.35911846 -0.30209616 0.10498207 -0.24046043
0003e0 53 74 a5 be e1 27 19 be 02 e3 92 be a2 33 87 bf
       -0.3231531 -0.14956619 -0.28688818 -1.0562632
0003f0 0f 7a 31 bf 77 5a 98 3c 67 8e 62 bf 6e 16 ab bf
       -0.6932687 0.018597824 -0.8849854 -1.336622

network.3.bias f4 [64]
000000 24 8a 1e c0 f2 81 09 c0 ba 37 f6 bf 9c 46 e6 3d
       -2.4771814 -2.1485562 -1.9235756 0.112439364
000010 33 15 09 c0 12 ea 0c c0 f0 51 05 c0 8c bc 06 c0
       -2.141919 -2.2017865 -2.083126 -2.105258
000020 49 47 9f bf 62 e2 cf bf 8b ea f9 bf 3c af f0 bf
       -1.244363 -1.6240962 -1.9524702 -1.8803477
000030 eb 6a ff bf 6d a7 3a c0 d9 31 02 c0 1f cc ee bf
       -1.9954504 -2.9164689 -2.0342925 -1.8656043
000040 d5 05 d5 bf 14 bc 63 c0 58 b2 b5 bf ae eb 14 c0
       -1.6642405 -3.5583544 -1.4195051 -2.3268847
000050 82 b0 0d c0 71 23 0b c0 02 70 f2 bf 02 37 ef bf
       -2.2138982 -2.1740382 -1.8940432 -1.8688662
000060 3d 8c b4 bf 33 ab 8b bf e8 42 08 c0 ff 72 1a c0
       -1.4105297 -1.0911621 -2.1290836 -2.4132688
000070 0e af 12 c0 9b b9 f6 bf 2a 5f 19 c0 87 2e 00 c0
       -2.2919345 -1.9275392 -2.3964334 -2.0028398
000080 71 11 41 3e 7f fc df bf 99 e5 44 c0 71 34 ed bf
       0.1885431 -1.7498931 -3.0765135 -1.8531629
000090 86 44 02 c0 10 6f 18 c0 7b 06 5f 3f 4b d4 b2 bf
       -2.0354323 -2.3817787 0.87119263 -1.3971037
0000a0 dc 4d c5 bf 59 bf 2d c0 e8 6b e1 bf 2d 06 2e c0
       -1.5414386 -2.714804 -1.7611055 -2.719127
0000b0 69 7d 1d c0 32 f5 04 c0 16 89 4b c0 2e c7 f9 bf
       -2.4607794 -2.0774655 -3.180242 -1.951391
0000c0 b8 01 9b bf d1 bd 00 c0 c6 e2 c0 bf 9a c9 05 c0
       -1.21099 -2.0115855 -1.5069206 -2.0904298
0000d0 d2 8a f3 bf a7 c7 2e 40 69 87 2a c0 87 59 46 c0
       -1.902674 2.7309358 -2.6645148 -3.0992143
0000e0 f5 cc 5b c0 5a fc a4 bf bf 21 3b c0 15 24 96 bf
       -3.4343846 -1.2889512 -2.9239347 -1.1729761
0000f0 4d 9c d4 bf 24 a1 0f c0 fa 97 dc 3e 19 0b b1 bf
       -1.6610199 -2.2442102 0.430847 -1.3831512

network.6.weight f4 [5, 64]
000000 6c f0 1f 3d 65 35 2d be c2 9c a7 bd d5 a8 8f 3c
       0.039047644 -0.169149 -0.08184196 0.01753656
000010 48 b1 34 be 93 e9 97 3c 40 e6 46 3e 3f 4e 3b 3e
       -0.17645752 0.018543994 0.19423771 0.18291567
000020 0c 9a 7c be b4 5b bc bb 2a 0e 8f 3d a7 dd 3a be
       -0.24668139 -0.0057482366 0.069851235 -0.18248616
000030 aa a1 87 3d a1 75 84 be a3 23 05 3e 4b a6 8c be
       0.06622632 -0.25870994 0.13001876 -0.2747062
000040 4d 2e 68 3e 5b a6 cd bb 08 34 f2 3d 18 2e ca bd
       0.22673912 -0.0062759346 0.118263304 -0.09872073
000050 76 0b 70 be 94 2d 40 be b7 76 6d be ce 5d ea 3d
       -0.23441872 -0.18767387 -0.23189817 0.11443673
000060 87 8e 87 3d ae 0e f6 bd a3 35 02 be 29 53 6a 3e
       0.06618982 -0.12014519 -0.12715773 0.22883286
000070 9c ed ce bd af 67 cc bd d0 aa 3b 3e ee 1e 8e 3b
       -0.10103914 -0.099807136 0.18326879 0.004337183
000080 31 b7 0e bd a8 6f a7 bc fb 69 8b 3e 08 a2 b8 3d
       -0.034842674 -0.020438984 0.27229294 0.0901528
000090 c5 48 10 3e c8 0b 55 be 8e 36 fd bd a4 ac 0d 3e
       0.1409026 -0.20805275 -0.12363921 0.13835388
0000a0 8a ed 0a 3d fe 3c 0c be dc 5a 92 3e c3 3e 27 3e
       0.03391794 -0.13695142 0.28584945 0.16332535
0000b0 7e 36 78 3e e0 53 c6 3d 70 92 43 3c 29 80 68 3e
       0.24239537 0.09683967 0.011936769 0.22705139
0000c0 ae 7d f9 bd cd 7a 8a 3d af c3 30 3d e2 dc 02 3e
       -0.121821746 0.06761704 0.04315537 0.12779573
0000d0 46 3e 24 3e 57 54 75 bd e3 3d c4 3c 12 ca 1f 3e
       0.1603938 -0.059894886 0.023955291 0.15604427
0000e0 29 dc cb bb 0c 92 60 be 75 3c cf 3d 01 64 f8 3d
       -0.0062213135 -0.21930712 0.10118953 0.12128449
0000f0 f1 d7 9a 3e 8e b2 94 be b6 76 1f be a2 67 0c 3e
       0.30242875 -0.29042476 -0.15572628 0.13711408
000100 72 c4 42 bd 71 c1 6d 3e e2 2f 53 3e 07 7b 80 3d
       -0.047550626 0.23218323 0.20623735 0.062734656
000110 63 9e e6 be bc 77 15 3e 7d b5 05 be 27 b4 bd 3d
       -0.45042714 0.14596456 -0.13057514 0.09262877
000120 0c f5 34 3d 1b 0d 81 3d a8 68 84 be 59 15 61 be
       0.044179007 0.06301328 -0.25861096 -0.219808
000130 ef eb 4c 3e 4f 77 14 3e d6 37 05 be be 5e f2 bd
       0.20011877 0.14498638 -0.13009581 -0.11834477
000140 76 2c 86 bd 9b 32 f7 3e 2f e7 c1 be b1 df db 3b
       -0.06551449 0.48280796 -0.37871692 0.0067100157
000150 00 4a 59 3e 93 96 ef bd 8f 8c 9f be 4c 0d 56 3e
       0.21219635 -0.11698642 -0.31161925 0.2090351
000160 65 8e e1 bd 3b c2 97 be 05 84 14 bf ca 55 da bd
       -0.11013488 -0.29640374 -0.58013946 -0.10660894
000170 49 13 31 be 00 85 08 3e b1 6e 4b be 1d b9 77 bd
       -0.17292513 0.13331985 -0.19866444 -0.060479272
000180 b9 29 ec be 05 89 bd 3e 00 9a c0 3b f8 e7 2b 3e
       -0.46125582 0.370186 0.005877733 0.16787708
000190 b8 df 34 be f5 a4 6d 3e 01 65 79 3d a3 b4 11 be
       -0.17663467 0.23207457 0.06088734 -0.14229064
0001a0 ec 57 d1 bd 64 b0 7e be 60 74 27 3e 8c 93 9e be
       -0.10221848 -0.24871975 0.16352987 -0.30971944
0001b0 c6 b5 12 bd 1b 02 1b 3d ff 37 a6 3e b0 c4 b6 3c
       -0.035817884 0.037843805 0.32464597 0.022310585
0001c0 99 e5 35 3c 1b 61 5c be 0f 03 81 be 9d d2 cd 3d
       0.011102104 -0.21521418 -0.25197646 0.10049937
0001d0 2a f0 d4 3e 13 a0 75 be 87 a8 92 be 2d 97 ee be
       0.4158948 -0.23986845 -0.286442 -0.46599713
0001e0 38 c9 47 bf bb 96 55 3e a7 f5 32 3e c7 04 86 bd
       -0.7804141 0.2085828 0.17476521 -0.0654388
0001f0 31 d0 76 3e 26 4e 02 be 95 fd 27 be 5d d7 c5 be
       0.24102856 -0.12725124 -0.16405328 -0.38640872
000200 d6 d5 87 3d 0e 1e 15 be 09 4d a9 be e9 71 2f bc
       0.06632583 -0.14562246 -0.33066586 -0.010708311
000210 40 17 94 3c 12 a4 41 be 04 d3 7b 3e df 3a 5a 3e
       0.018077493 -0.18910244 0.24592215 0.2131152
000220 56 4c 01 3e bb db 14 bf e5 9e 4b be 13 14 ae 3e
       0.12626776 -0.5814778 -0.19884832 0.3399969
000230 5d 55 b0 bd 2e fa 1e 3e a8 79 62 be 07 d7 63 be
       -0.08610032 0.15525123 -0.2211672 -0.22249995
000240 8d b3 1f bc 21 db 12 be 23 99 1d bd 9e b5 d6 3e
       -0.009747398 -0.14341404 -0.03847612 0.41935438
000250 4f 84 14 3e 74 d3 d8 bd c6 61 9b 3d 29 50 2d bd
       0.14503597 -0.105872065 0.07587008 -0.042312775
000260 1e 4f 5b 3e 6b c5 66 be eb f4 16 3e f2 ec 9e 3d
       0.214169 -0.22536246 0.14741866 0.077600375
000270 17 f4 b5 3c 38 3f 4d be df 93 7f 3e 30 8f 89 bd
       0.022211118 -0.20043647 0.24958752 -0.06716764
000280 11 0c c4 3d ea a4 8f bc 08 3f 5b bc d8 22 a8 3d
       0.09572614 -0.017534692 -0.013381727 0.08209771
000290 4a 03 86 be 4e d1 08 be 26 a4 59 3e 23 b6 25 be
       -0.26174384 -0.13361093 0.21254024 -0.16182761
0002a0 63 f3 52 be c5 48 45 3e 5e bc 6f 3e 32 83 bd be
       -0.20600657 0.1926604 0.234117 -0.37014157
0002b0 79 ab 86 3e 79 4c a5 be cd 65 7f bd 71 b6 9b be
       0.26302698 -0.32284907 -0.062352944 -0.3041263
0002c0 1b 0f 02 bd 51 53 85 bc c3 a3 4e be 59 0b 9d 3e
       -0.031752687 -0.01627508 -0.20179658 0.3067272
0002d0 41 10 84 be af 13 33 3e 5d fe 0c be 24 7d 8d be
       -0.2579365 0.17487977 -0.13768907 -0.27634537
0002e0 f7 7a 86 3e 11 3d 7b be e3 99 af be 34 b0 a0 3e
       0.2626569 -0.24535014 -0.34297094 0.31384432
0002f0 89 fd a5 bd a3 eb f0 3e 61 43 09 bf 1a f2 fe 3d
       -0.081049986 0.47054777 -0.5361844 0.12448521
000300 48 77 6c be ca 2e 17 3e 1b 78 53 bd 1f f9 de bd
       -0.23092377 0.14763942 -0.051628213 -0.1088736
000310 e0 a1 91 3c 56 46 53 3d a5 85 64 3e 64 ab c8 be
       0.017777383 0.05158075 0.22316606 -0.3919326
000320 f3 87 3c be f8 70 ed be 07 fc bf 3d db 43 e2 bd
       -0.18411236 -0.4637525 0.09374242 -0.11048099
000330 60 ca b3 3d 3b 5c 15 3d 41 39 be 3d 05 86 04 3e
       0.08778834 0.03646491 0.09288264 0.1294175
000340 64 d7 35 be 48 d4 eb 3d 97 fa 02 3e a6 cd e0 3e
       -0.17757946 0.11515099 0.12790905 0.43906897
000350 38 30 cc 3d b2 d1 f0 3d c6 f9 37 bd ff d6 78 3d
       0.099701345 0.11758746 -0.044915937 0.06075191
000360 76 4a 69 bd 96 f4 1d 3d 04 af 2a be 4b 68 cc bc
       -0.056955777 0.038563333 -0.16668326 -0.024952075
000370 80 14 db bd 8b 60 32 bd a0 d4 5d 3d ca f0 02 bd
       -0.106972694 -0.0435491 0.054157853 -0.031967916
000380 00 84 dd 3c b6 9c 63 3e b8 93 f9 3d 21 e4 22 be
       0.027040482 0.22227749 0.12186378 -0.15907337
000390 3c b9 a9 be 0e 86 2c be 6e 9c b6 3e af ec e6 bd
       -0.33149135 -0.16848013 0.3566622 -0.112756126
0003a0 f6 f4 b5 3d 31 cd da 3d 4a fe f8 bd 48 45 aa 3e
       0.08884613 0.106836684 -0.12157877 0.33255982
0003b0 de f2 0c bd 18 ab f9 3d d2 0d 96 bd ac e0 99 3d
       -0.034411304 0.12190837 -0.07326855 0.07513556
0003c0 0f cf ec 3d 5d f5 00 3d e8 49 25 3d b7 01 41 be
       0.11562931 0.031483997 0.040353686 -0.1884831
0003d0 34 48 1d 3e ce 28 4b 3e 5e 91 dd 3d 0d 4c b7 3e
       0.15359575 0.19839785 0.10818742 0.3580021
0003e0 25 27 78 3e e5 61 d0 3c 71 5b 9f 3d c0 07 62 3d
       0.24233682 0.025437305 0.07781113 0.055183172
0003f0 24 62 cd bd c3 1d 4d be 48 d5 31 ba d2 3c 0e 3e
       -0.100284845 -0.20030884 -0.00067837955 0.13890389

network.6.bias f4 [5]
000000 b7 5d b2 3d e0 40 16 be 51 86 9f 3c 82 85 90 3e
       0.08709281 -0.14673185 0.019473227 0.28226858
000010 fe d9 03 3d
       0.032190315

network.0.weight f4 [128, 43]
000000 b0 16 a5 bb e2 ef 29 bf 82 55 ef 3e b9 0d 1e bf
       -0.005038105 -0.6638166 0.46744925 -0.6173969
000010 d8 7f 09 be cc f0 23 be b1 46 42 bf 4a ba 0c 3e
       -0.13427675 -0.16009825 -0.75889117 0.13742939
000020 a5 1d 28 3e 74 08 26 be 01 cf 90 bc 38 ae ec bd
       0.16417558 -0.16214162 -0.017676832 -0.11556667
000030 64 5c f1 3e 7b f1 51 3f ac aa 5e bf bd 4d 43 bf
       0.471408 0.82009095 -0.86979175 -0.76290494
000040 c7 f1 9e bf ea 3f e0 3f 69 d3 b2 3f 03 ad a3 bd
       -1.2417535 1.7519505 1.3970767 -0.07991984
000050 f5 73 0c be d6 be b3 bd 3c f8 04 3e af 68 a7 ba
       -0.13716109 -0.087766334 0.12985319 -0.0012772287
000060 33 16 bb bd 1f 9e 2b 3e 56 7f 3c bd 59 05 f4 be
       -0.091350935 0.16759537 -0.046019875 -0.4766033
000070 a9 19 1b 3f cc 19 9d be 35 c0 8b 3d b9 23 9a 3e
       0.6058603 -0.30683744 0.0682377 0.3010538
000080 77 c5 3a be ff 23 6a be 9c ad 23 3e 29 fc e6 3d
       -0.1823939 -0.22865294 0.15984195 0.112785645
000090 a0 18 ac be 7f 87 e4 3d d5 bd 9e bf f0 85 07 c0
       -0.33612537 0.11158656 -1.2401682 -2.11755
0000a0 e3 ed e4 3f 87 69 dd bf 04 9b 1a 3d d1 27 29 be
       1.7885097 -1.7297829 0.03774549 -0.16519095
0000b0 2c e5 9a 3f f7 f3 87 bf 79 dc ae be 9d fd 43 be
       1.2101188 -1.0621327 -0.34152582 -0.19139715
0000c0 70 05 3d be 7e d7 75 c0 54 48 a9 3d 85 bb bb 3d
       -0.18459105 -3.8412776 0.082657486 0.09166626
0000d0 7b be 1b bd 7f 07 2c 3d c5 ab 34 3d 94 77 3a 3e
       -0.038023453 0.041999336 0.044109125 0.18209678
0000e0 d8 9a b6 be cf 66 f7 3f 80 04 61 3f 4e b6 b9 bf
       -0.3566501 1.932825 0.8789749 -1.450876
0000f0 b9 47 1f 3f 50 4d ba be d6 60 3e be 31 8b 7b 3d
       0.62218815 -0.3638711 -0.18591627 0.06141204
000100 0f 0e a8 3d dc aa a6 bd 22 c5 ed 3d 3a d1 3e bd
       0.082058065 -0.081380576 0.11609866 -0.046586253
000110 58 57 c5 bd 7a 87 c6 3d f6 c0 14 3f 15 dd 91 bf
       -0.096358 0.09693809 0.58106935 -1.1395594
000120 cc 20 83 3f d8 97 20 3e 69 fa b2 bf 11 3b 89 bd
       1.0244384 0.15682924 -1.3982669 -0.06700719
000130 c7 39 0f 3f 50 56 fc bd 38 b6 29 bf 57 a3 d4 3f
       0.55947536 -0.1232115 -0.6629367 1.6612347
000140 11 29 02 c0 16 83 2d 3f 2c 8c 94 3d aa 36 06 40
       -2.0337565 0.67778146 0.07253298 2.0970864
000150 1c ec 9f be b6 3f c6 3d 39 e7 a9 3d 2d 8d c4 be
       -0.31234825 0.09680121 0.08296055 -0.3838896
000160 ea 01 e4 3e 3f 09 cb 3f 77 f8 59 bf 22 7b a5 bd
       0.4453271 1.5862197 -0.8514475 -0.08080126
000170 65 72 5c 3f 3f cc 31 3d ad b0 26 3d a9 cf bf bd
       0.8611205 0.043407675 0.040695835 -0.0936578
000180 61 e6 09 bd 77 77 9b bb b3 3e 2f c0 97 fc 14 bf
       -0.033666972 -0.004744466 -2.7382019 -0.5819792
000190 44 28 c6 bf ce c7 94 3e 97 e8 c5 bf 8e d5 25 40
       -1.5481038 0.2905869 -1.5461606 2.5911593
0001a0 71 42 5f 3d 6d 57 1c 3d b5 52 3c be 2d 85 23 3e
       0.054506723 0.038169313 -0.18390925 0.15968771
0001b0 b6 da c7 3d 24 d8 33 be 98 7e 75 3d 0a b2 19 be
       0.09758513 -0.1756292 0.059935182 -0.15009323
0001c0 d5 5d 88 3c 63 b3 03 bf 4f 66 4a bd 28 e6 a5 bf
       0.016646305 -0.514456 -0.049413975 -1.2960863
0001d0 46 de 2a be 8b 4f 39 bf 16 0a 0d 3e d8 b4 0b bf
       -0.16686353 -0.72387 0.13773379 -0.5457282
0001e0 f5 f9 ca bd 53 99 4e bf 59 1a 3a 3f 6d ba a7 be
       -0.09910957 -0.80702704 0.72696453 -0.3275942
0001f0 2a 38 e1 bd 0e ce 8c bf 7b ce fc 3e 9f 61 0d 3f
       -0.109970406 -1.1000383 0.49376282 0.5522708
000200 07 a0 14 bd 05 82 37 3c f8 ee 56 3f e5 37 52 bf
       -0.036285426 0.011200433 0.8395839 -0.8211654
000210 ab 49 a8 3e fb 4e dd be 94 2b 3a be 87 04 08 c0
       0.32868704 -0.4322432 -0.18180686 -2.1252763
000220 33 f6 37 be 12 d2 dc bc 1c ac 6f 3d 0d 77 09 be
       -0.17965011 -0.026955638 0.058513746 -0.1342432
000230 f2 31 4c 3c 9c 0e 5f 3f 84 1d 0c c0 38 55 30 be
       0.01246308 0.8713167 -2.1893015 -0.17220008
000240 49 e8 5a bf 45 4c 79 bf 73 6c 1b 3f b3 01 00 c0
       -0.8551069 -0.97382003 0.60712355 -2.0001037
000250 1f f4 b4 3d 8f e7 91 bd 45 1c 3c 3e d4 a2 92 bc
       0.08835625 -0.071242444 0.18370159 -0.017899908
000260 f0 05 a0 bc 75 b3 f6 bd 87 92 af 3d 96 2a 3f be
       -0.019534081 -0.120459475 0.0857287 -0.18668589
000270 30 f5 51 bf 95 77 d2 3e 08 aa 0c 3f d0 18 d3 bd
       -0.8201475 0.4110686 0.5494695 -0.10307467
000280 3d 4f ae bf bf c7 ab 3d 06 bb 3f bf a8 10 02 bd
       -1.3617932 0.08387708 -0.7489475 -0.031754166
000290 e0 52 79 bf 2e dc 8d 3f 17 4e 8a bf 05 0c 17 bd
       -0.9739208 1.1082819 -1.0805081 -0.036876697
0002a0 f0 81 95 3f 8e 74 19 3f 40 e4 6b bf 7a 05 1c 3d
       1.1680279 0.59943473 -0.92145157 0.03809116
0002b0 34 3f 15 be 67 b7 60 3f 61 18 62 bf ae cb 3b be
       -0.14574891 0.8777985 -0.8831845 -0.18339416
0002c0 23 ac 9f bf 1e 5f 09 3e 29 d0 ed 3e ae 87 b2 bd
       -1.2474407 0.1341519 0.46447876 -0.08717285
0002d0 3a 08 3c bd 48 f0 0f 3e 66 df d4 bd ab 40 2f be
       -0.045906283 0.14056504 -0.10394172 -0.17114513
0002e0 60 92 aa bd 8f a0 8d bf 21 73 a1 bc 78 eb 32 3f
       -0.083287 -1.1064624 -0.019708218 0.69890547
0002f0 81 ba d0 bd 33 fa c0 bd 09 e3 ba bf c6 b1 ab bd
       -0.10191823 -0.09422722 -1.4600536 -0.08383517
000300 53 1e 31 3e 30 da 32 be 49 16 0d 3d 57 15 21 3e
       0.17296724 -0.17466044 0.03444508 0.15730797
000310 08 21 87 bc 43 2c a5 3d a6 dd 0e 3e a0 6f 3f bf
       -0.016495243 0.08065083 0.1395174 -0.747797
000320 9a dd 18 40 6d aa 52 c0 d0 1b 25 bd 00 90 95 3f
       2.3885255 -3.291652 -0.040309727 1.168457
000330 bc 37 38 be 89 b2 8c bf 54 f0 da 3d df 49 81 bf
       -0.17990011 -1.0991985 0.1069037 -1.0100669
000340 64 89 b2 3f 9a 7b 65 3f 0b d8 68 bf 74 55 be 3e
       1.3948178 0.89641726 -0.90954655 0.3717457
000350 18 25 e1 3e 2e 20 5e bf 09 0d f0 3d 3a 59 01 bd
       0.43973613 -0.8676785 0.11721236 -0.031579234
000360 c7 d2 b3 be 53 9e 10 3f 55 54 bc 3f 88 10 78 bf
       -0.35121748 0.56491584 1.4713236 -0.96900225
000370 12 a3 04 3e 5d 83 9a be e6 f0 b6 3c c0 f2 14 3d
       0.12952831 -0.30178347 0.022331666 0.036364317
000380 8f a7 21 be 86 f3 4b 3d 58 64 38 bd 45 68 b8 be
       -0.15786575 0.04979279 -0.04501757 -0.3601705
000390 4d dc 25 bf d5 7a e5 3f e4 ce 5a 3f f1 d3 55 3e
       -0.6478928 1.792811 0.8547194 0.2088163
0003a0 9b 77 c6 bf 09 13 b4 bf 58 b9 81 3d 59 c8 a6 3d
       -1.5505251 -1.4068309 0.0633418 0.08143682
0003b0 3a 40 f4 3d 6c 84 cf 3d a9 7f 02 be 77 4b a3 bd
       0.11926313 0.10132679 -0.12744011 -0.07973378
0003c0 56 82 02 be 2e 91 f1 bd 3b 7c 83 bf 62 d3 8a be
       -0.12745032 -0.11795269 -1.0272287 -0.27114397
0003d0 f4 a0 35 bd 27 a9 0a 3e da f2 bd bf 0c ac 5c 3c
       -0.04434295 0.13541089 -1.4839737 0.013468754
0003e0 79 98 81 bf c3 fd c4 3d 8f d7 0a 3e a0 e6 c3 be
       -1.0124656 0.09618714 0.13558792 -0.3826189
0003f0 ac 9a b6 3e f3 68 bd be 76 5c bc 3e 04 e5 99 bf
       0.3566488 -0.36994132 0.36789292 -1.2023015

network.0.bias f4 [128]
000000 80 a9 f4 c0 76 82 e4 c0 c1 a3 67 c0 5e 3b e4 c0
       -7.645691 -7.1409254 -3.6193697 -7.132247
000010 b0 e7 e2 c0 3d 97 b0 c0 98 26 bc c0 63 a3 c9 c0
       -7.090782 -5.5184617 -5.879711 -6.3011947
000020 1c a0 94 c0 e6 1e a8 c0 05 a9 d0 c0 a3 4a a3 bf
       -4.6445446 -5.253772 -6.5206323 -1.2757152
000030 cb 61 d7 c0 2d ce bd c0 5e 93 bd c0 ac e2 c2 c0
       -6.7306876 -5.931418 -5.924239 -6.09017
000040 26 a7 a9 c0 9e 44 e9 c0 fd 4e 27 c0 5d 70 d5 c0
       -5.301654 -7.289626 -2.614196 -6.669966
000050 30 ed e8 c0 df d8 cd c0 86 ce 9f c0 d0 20 d3 c0
       -7.2789536 -6.4327235 -4.9939604 -6.5977554
000060 cd e0 98 c0 69 1d 82 c0 93 1f 7e c0 b2 2d 83 c0
       -4.7774415 -4.06609 -3.9706771 -4.099328
000070 7e ad a9 c0 fe 1a b7 c0 a3 ea eb c0 07 14 d9 c0
       -5.3024282 -5.722045 -7.372392 -6.7836947
000080 f1 e5 57 c0 61 10 aa c0 10 ad d4 c0 e4 c1 0c c0
       -3.3734095 -5.3144994 -6.646126 -2.1993341
000090 53 36 00 c1 3a 5f ca c0 56 80 c6 c0 a0 7d 98 c0
       -8.013263 -6.3241243 -6.203166 -4.765335
0000a0 e7 3a cc c0 4b 39 b8 c0 5a 4f da c0 bf f7 90 c0
       -6.38219 -5.756994 -6.8221865 -4.5302424
0000b0 d6 3c e8 c0 82 bc c9 c0 ad 58 9e c0 34 74 ac c0
       -7.2574263 -6.304261 -4.9483247 -5.389185
0000c0 ce 04 b4 c0 c0 76 b4 c0 03 85 d9 c0 ab 53 95 c0
       -5.6255865 -5.639496 -6.797487 -4.6664634
0000d0 d2 1c a8 c0 7e e4 d8 c0 40 dc 36 c0 14 f6 e6 c0
       -5.253518 -6.777892 -2.857193 -7.217539
0000e0 2c f6 b9 c0 6f ca dd c0 5a 5c cc c0 c6 0e b4 c0
       -5.8113003 -6.930961 -6.3862734 -5.6268034
0000f0 f3 fe d4 c0 11 b6 c9 c0 f1 13 53 c0 21 2b 99 c0
       -6.6561217 -6.303475 -3.2980921 -4.7865148
000100 9c 5b 82 c0 33 5a 66 c0 51 32 a4 c0 5f 76 69 c0
       -4.073683 -3.5992553 -5.131142 -3.6478498
000110 a2 b8 aa c0 e3 95 ce c0 c9 e8 f7 c0 03 f7 f9 bf
       -5.335038 -6.4557967 -7.747166 -1.9528507
000120 14 2d 61 c0 e0 14 99 c0 42 29 da c0 c4 bf c3 c0
       -3.5183764 -4.783798 -6.8175364 -6.117159
000130 fb 37 62 c0 bc cf a4 c0 41 32 da c0 61 c5 61 c0
       -3.5346668 -5.150358 -6.8186345 -3.527672
000140 94 20 d8 c0 a7 a7 82 c0 31 3f b2 c0 09 01 2b bd
       -6.753977 -4.0829654 -5.570214 -0.041749034
000150 31 9c cb c0 ac 50 ae c0 2d 72 98 c0 f3 62 aa c0
       -6.3628163 -5.4473476 -4.7639375 -5.324579
000160 f0 7b b4 c0 ae 4a 8f c0 59 d2 a8 c0 3e 1c e5 c0
       -5.640129 -4.477866 -5.275677 -7.1596975
000170 0a b3 ed bf b9 82 67 c0 d6 47 44 c0 5a 5e dd c0
       -1.8570263 -3.6173537 -3.0668845 -6.9177675
000180 cd e9 93 c0 3a 5b b8 c0 c5 6f e1 c0 f5 1e 8e c0
       -4.62229 -5.761136 -7.0448937 -4.441279
000190 95 c9 ea c0 64 8d 82 c0 6d e5 d8 c0 0d 5f c1 c0
       -7.337107 -4.0797596 -6.778006 -6.042853
0001a0 42 de e3 c0 5a 6e e2 c0 e8 5f 6a c0 34 7c 7d c0
       -7.120881 -7.0759706 -3.6621037 -3.9607058
0001b0 68 29 82 c0 ca bf 8a c0 e4 e6 8a c0 2d 7c 88 c0
       -4.0675545 -4.3359118 -4.340685 -4.265158
0001c0 db 20 dc c0 2e 96 df c0 36 f6 e9 c0 12 15 e6 c0
       -6.8790107 -6.9870825 -7.311305 -7.190072
0001d0 3d 62 02 c1 1b ff cc c0 94 5a 42 c0 1d ce 92 c0
       -8.148984 -6.406141 -3.0367785 -4.5876603
0001e0 1c 16 6d c0 dd 34 a0 c0 e0 60 47 c0 d3 64 a9 c0
       -3.7044744 -5.006453 -3.1152878 -5.2935576
0001f0 c4 9f e0 c0 a4 ea da c0 97 3b 45 c0 c8 42 af c0
       -7.0195026 -6.8411427 -3.081762 -5.476902

network.3.weight f4 [64, 128]
000000 00 42 51 bd c2 94 83 bd 5d 62 af bd 08 1f 14 bf
       -0.051088333 -0.06424858 -0.08563683 -0.5785985
000010 ec 2f 6f bd 3d 38 e5 3d 23 0e 7a be 61 b8 25 be
       -0.05839531 0.11192367 -0.24419455 -0.16183616
000020 fc 8d 9b be 8b 1a 16 3e e5 94 09 be 9c 36 86 be
       -0.30381763 0.14658563 -0.13435705 -0.2621354
000030 ea 60 55 be b2 09 a4 be 85 b7 64 be 29 8b 1d bf
       -0.20837751 -0.32038647 -0.22335632 -0.61540467
000040 cd cd 97 bd 6d dc 99 be 6a cd 61 be e5 3c 2e be
       -0.074123 -0.30050984 -0.22051015 -0.17015417
000050 aa f8 fd be f5 0f 0d bf 0a b8 68 bf 1b 7d a3 be
       -0.49603778 -0.55102473 -0.9090582 -0.31931385
000060 a3 ce 22 bd 77 bd 77 3d 4d df a6 3c 41 2b 0f bf
       -0.039747845 0.060483422 0.02037015 -0.55925375
000070 1f 83 93 bf 74 3f 21 bf 61 39 5e 3d cd 7e e1 be
       -1.152439 -0.62987447 0.05425394 -0.44042054
000080 e9 29 f5 3b 65 8d c6 be eb 9a 1c be 6e 14 1d bf
       0.0074818027 -0.3877975 -0.15293472 -0.613593
000090 64 69 f3 be 2d e2 91 be 8e 9d 71 be 10 a4 03 bf
       -0.47541344 -0.2849287 -0.23595259 -0.51422215
0000a0 44 8e c2 be f7 0a ad be 2f fc e9 bd 1b bb 56 bf
       -0.37999165 -0.33797428 -0.11425053 -0.8387925
0000b0 e8 b4 2d bf 5c c9 40 bf f6 e6 ad be ad b0 20 3e
       -0.67854166 -0.7530725 -0.33965272 0.15692396
0000c0 5d 77 c6 be dd f3 9b be 9b 9a cc be 01 db 16 bf
       -0.38762942 -0.3045949 -0.39961705 -0.58927923
0000d0 ab 74 36 be 9b 4f c8 3d 49 39 25 bf 1a d9 fa 39
       -0.17817943 0.097808085 -0.64540535 0.0004784547
0000e0 76 71 a3 be cf d2 b8 be 21 03 53 be 18 66 c1 be
       -0.319225 -0.36098334 -0.20606662 -0.37773204
0000f0 c0 45 02 be 4e 24 33 be 71 8f ef be af c8 14 be
       -0.1272192 -0.17494318 -0.46789125 -0.1452968
000100 a0 f0 93 bd 0a 2d 41 be cf c3 be bd d0 42 56 bd
       -0.0722363 -0.18864837 -0.09314691 -0.05230981
000110 6d ee b2 be ae b7 dc bd eb 1c 50 3e 60 4a 0d bf
       -0.3494753 -0.107772216 0.20323531 -0.5519161
000120 a8 fd 44 bf 3d 15 51 be e8 f3 bb be a8 ff 45 be
       -0.7694955 -0.20418258 -0.36709523 -0.19335806
000130 57 3d 82 be d9 c6 d3 be a7 53 51 be c4 76 42 bf
       -0.25437424 -0.41362646 -0.20442067 -0.7596247
000140 00 fd ce be 6d aa 37 be b0 d1 c4 be fb 88 f9 be
       -0.404274 -0.17936106 -0.3844123 -0.4873732
000150 a5 fe af be c4 c2 56 be 1e e2 91 be 29 31 c6 be
       -0.34373966 -0.20972735 -0.28492826 -0.3870938
000160 42 4a 0b bf d9 ab 81 bc aa 3b 07 bf 84 0e 48 be
       -0.54410183 -0.015829014 -0.52825415 -0.19536787
000170 19 82 b6 be 68 88 a7 be 9f ac fa be b2 0e 85 be
       -0.35646132 -0.32721257 -0.48959824 -0.25987774
000180 4e e8 a7 be 97 42 c4 3d cd f7 08 bf 0c 45 8a be
       -0.32794422 0.095830135 -0.53503114 -0.27005804
000190 9d c5 81 be 3a 65 81 be 82 f8 1e be 39 65 80 3e
       -0.2534608 -0.25272542 -0.15524486 0.25077227
0001a0 6f b7 5a bd cc 70 5e bd e0 54 f8 be 1d 1b 12 be
       -0.053397592 -0.05430679 -0.48502254 -0.14268155
0001b0 b3 4c 79 bf 7b ce a5 bc 01 ce 0b bf 1e 6c cc be
       -0.9738266 -0.02024006 -0.5461121 -0.39926237
0001c0 31 c7 76 bd a2 c0 a2 bc db 76 b3 3c 7d 2a db bd
       -0.060248557 -0.019867245 0.02190726 -0.10701463
0001d0 a6 fb 98 be 68 48 19 be 02 a5 0f 3e 4e 41 20 bf
       -0.29879493 -0.14969027 0.14027789 -0.6259965
0001e0 c4 7f c0 bd d2 ff 3f be fc 3b 9d be a2 e4 d2 be
       -0.09399369 -0.18749931 -0.30709827 -0.41190058
0001f0 ae 99 0c be 7c 47 1c bc 5d d2 e4 bd 34 e6 94 be
       -0.13730499 -0.009538528 -0.11172936 -0.2908188
000200 34 13 9f bd 7d 67 ec be b9 1d 9e be ee f8 93 be
       -0.077673346 -0.46172705 -0.30882052 -0.28900856
000210 c5 93 a9 be 2d a5 d4 bd a0 f0 ab be 37 6d c7 bd
       -0.33120552 -0.10383067 -0.3358202 -0.09737628
000220 9d 50 98 be 51 7b ed be a8 1a 4e be 12 05 4c be
       -0.29749003 -0.46383145 -0.20127356 -0.19923809
000230 c7 cf ed be 19 68 97 be 86 1c 6e bf a6 eb 96 bf
       -0.46447584 -0.29571608 -0.93012273 -1.1790664
000240 71 38 c4 bd 80 43 8c be ad 63 14 bf 35 bc 4d 3d
       -0.09581078 -0.27395248 -0.57964593 0.050228316
000250 4a c6 c5 bc ea 03 d0 be e4 79 d4 be cd 8b c5 be
       -0.024142403 -0.40627986 -0.41499245 -0.38583222
000260 a5 4b 8c be 23 22 80 be 92 e0 7d bd f7 01 de 3c
       -0.27401462 -0.25026044 -0.061981745 0.027100546
000270 16 75 b2 3b 35 73 33 bf 7f b9 88 be b2 87 8d bf
       0.0054460866 -0.70097667 -0.26704022 -1.1057036
000280 f4 1a 86 bf 72 5d 85 be d8 5c aa bd 8f da ea be
       -1.0476975 -0.26047856 -0.0831849 -0.45869872
000290 54 6b 28 be eb 92 98 be aa cb ed be c1 57 39 bf
       -0.16447192 -0.2979959 -0.46444446 -0.72399527
0002a0 e0 05 79 be fe 58 b9 bf 76 d2 f2 bc e7 8d ce be
       -0.24318647 -1.4480283 -0.029641371 -0.40342638
0002b0 e7 51 82 bc 1b 43 31 bf 75 ed b7 bf cb 55 a2 be
       -0.015908195 -0.6924302 -1.4369341 -0.3170608
0002c0 0c 47 2b bf 02 bc 17 bd ba 1d 66 bf 85 28 48 bd
       -0.66905284 -0.037044533 -0.8988911 -0.048866767
0002d0 2c d9 db be d5 3e 66 be 0f 6d e7 bf 74 4b 25 3d
       -0.42939126 -0.22484906 -1.8080157 0.04035516
0002e0 e6 e7 24 bf bb 52 07 be bf 56 bc be 3e a3 6f bf
       -0.6441635 -0.13215153 -0.36784932 -0.9360846
0002f0 01 63 92 be b7 b1 13 be 2a 33 3f be e6 ec 10 bf
       -0.2859116 -0.14423262 -0.18671861 -0.5661148
000300 dd 42 1a bf 2f 03 1d bf 52 f6 e6 3d 92 19 e0 bd
       -0.60258275 -0.6133298 0.112774506 -0.10942377
000310 d6 d9 bb be 17 cb 36 be ed 35 c2 3c 54 89 b9 be
       -0.36689633 -0.1785091 0.023707354 -0.36237586
000320 5d 6c f0 bd 6d 39 d4 be a5 35 d0 be cc 2c 12 be
       -0.11739419 -0.41450062 -0.40665928 -0.14274901
000330 52 1e c7 bd 50 d4 97 be 80 aa d8 be c8 e8 ea be
       -0.0972258 -0.2965417 -0.4231758 -0.45880723
000340 a2 e1 d7 3c d2 4a dd bd 94 98 e1 be d4 7a 0b bf
       0.026352707 -0.108052865 -0.4406172 -0.54484296
000350 da 13 2a bf df 11 88 bf 5f 20 26 bf b9 2c 2f bf
       -0.6643654 -1.0630454 -0.64893144 -0.68427616
000360 e4 06 85 be 68 3e 4e be c9 51 68 be b4 c6 05 bf
       -0.2598182 -0.20140994 -0.22687449 -0.5225632
000370 1f 3b 0d bf 6c ca 9f be 92 bd 63 bf 32 e9 04 bf
       -0.55168337 -0.31209123 -0.88961136 -0.5191833
000380 d9 19 c3 be 1a e0 de be 6b 05 14 bf 88 b1 08 bf
       -0.38105658 -0.4353035 -0.5782077 -0.5339589
000390 ab b6 50 bf 21 26 26 bd 97 c1 11 bf d3 cf 9c bd
       -0.8152873 -0.040563706 -0.5693602 -0.07656827
0003a0 ff 9b e5 3c a6 39 f7 bd 1a c8 16 bf 0b 57 e6 be
       0.028028486 -0.120715424 -0.5889908 -0.44988284
0003b0 3e 14 e7 bd 4b 00 cc bc 9a 1a b1 be 34 0b ea bd
       -0.11283158 -0.024902483 -0.34590608 -0.11427918
0003c0 36 21 59 bf 0a 2b d0 bd 96 2b da be 47 20 de be
       -0.848163 -0.10164459 -0.42611378 -0.43384
0003d0 5b fd b2 be ec 03 94 be b6 4f db 3d 71 05 7c be
       -0.3495892 -0.28909242 0.10708563 -0.2461145
0003e0 69 ca a0 be 75 6b 0f be 8d a1 8f be 38 56 82 bf
       -0.31404427 -0.14005835 -0.2805294 -1.0182562
0003f0 a9 47 29 bf 07 f6 3a 3d ca 2b 58 bf 61 21 a2 bf
       -0.6612497 0.045644786 -0.84441817 -1.2666436

network.3.bias f4 [64]
000000 ae b0 0d c0 c4 b3 fa bf a1 3b c5 bf ca c1 21 3e
       -2.2139087 -1.958611 -1.5408822 0.15796581
000010 e7 45 f6 bf 1d d8 e3 bf 2d ad f3 bf cb 41 b5 bf
       -1.9240083 -1.7800328 -1.9037224 -1.4160703
000020 d8 33 87 bf 2b 3a c1 bf ee 0a e0 bf 1c 7a dc bf
       -1.0562696 -1.5095876 -1.7503335 -1.7224765
000030 11 76 c9 bf 8d db 17 c0 21 77 c1 bf bc d4 c6 bf
       -1.5739156 -2.3727753 -1.511448 -1.5533671
000040 ea 5b bf bf 71 e9 40 c0 91 69 a4 bf 32 54 c4 bf
       -1.4949925 -3.0142481 -1.2844716 -1.5338194
000050 2e 61 ee bf 35 f6 fe bf c9 10 a7 bf 13 c4 d1 bf
       -1.8623407 -1.9918886 -1.3051997 -1.6387962
000060 04 50 a3 bf 41 c2 44 bf 83 8c 00 c0 4c d5 d9 bf
       -1.2758794 -0.7685891 -2.0085762 -1.7018218
000070 84 73 ea bf be a9 d7 bf ba 3e 02 c0 d6 2b eb bf
       -1.8316503 -1.6848676 -2.0350785 -1.8372753
000080 73 d9 71 3f 9a 2e cf bf 2d b6 32 c0 e6 8c d1 bf
       0.94472426 -1.6186097 -2.7923691 -1.6371124
000090 f7 2b e9 bf 22 5c 01 c0 6f 96 12 3f 2b 15 a7 bf
       -1.8216542 -2.0212483 0.57260793 -1.3053335
0000a0 9d d7 98 bf 26 8b 14 c0 43 b9 b3 bf 4b 89 1a c0
       -1.19408 -2.320993 -1.4040912 -2.4146297
0000b0 69 7b 0b c0 de 96 fb bf 1e 5e 33 c0 f4 22 bb bf
       -2.1794074 -1.9655416 -2.8026195 -1.4620042
0000c0 9a ff 8f bf 43 4e d1 bf e7 ae ad bf 8c bf de bf
       -1.1249878 -1.6352009 -1.3569001 -1.7402205
0000d0 ea 92 9d bf f0 dc 2b 40 0d 77 e2 bf 70 e1 1c c0
       -1.231046 2.68536 -1.7692581 -2.4512596
0000e0 86 86 31 c0 df f1 7b bf 41 cc 26 c0 34 be 8e bf
       -2.7738357 -0.9841594 -2.6062167 -1.1151795
0000f0 4e 63 be bf 2a be e5 bf 03 73 69 3f 8a b5 6f bf
       -1.4874055 -1.7948658 0.9119112 -0.9363638
