experiments/checkpoints/20251210_110803/checkpoint_ep209.pt (torch, 246605 bytes, 24 tensors)

network.0.weight f4 [128, 43]
0	0xbba516b0	-0.005038105
1	0xbf5064be	-0.8140372
2	0x3f1e1f50	0.6176653
3	0xbfc81ecf	-1.5634402
4	0xbff4bc59	-1.9119979
5	0xbe23f0cc	-0.16009825
6	0x3fb136d5	1.3844858
7	0x3e0cba4a	0.13742939
8	0x3e281da5	0.16417558
9	0xbe260874	-0.16214162
10	0xbc90cf01	-0.017676832
11	0xbdecae38	-0.11556667
12	0x3f8f9e4b	1.1220182
13	0xbee88e2e	-0.45420974
14	0x3e060ed9	0.13091601
15	0xbf189bb7	-0.596126
16	0xbfd1c531	-1.6388303
17	0x3ff2bf75	1.8964678
18	0x3f592521	0.8482228
19	0xbda3ad03	-0.07991984
20	0xbe0c73f5	-0.13716109
21	0xbdb3bed6	-0.087766334
22	0x3e04f83c	0.12985319
23	0xbaa768ab	-0.0012772282
24	0xbdbb1633	-0.091350935
25	0x3e2b9e1f	0.16759537
26	0xbd3c7f56	-0.046019875
27	0xbfce3996	-1.6111324
28	0x401c1a81	2.4391177
29	0xbf9440f7	-1.1582326
30	0x3d8bc032	0.06823768
31	0x3fcc4a98	1.5960264
32	0xbe3ac577	-0.1823939
33	0xbfae7c68	-1.3631716
34	0x3e23ad9c	0.15984195
35	0x3e43caf7	0.19120394
36	0xbf54bef4	-0.8310387
37	0x3fcecf7e	1.6157072
38	0xc01854e1	-2.3801806
39	0xc0414d64	-3.0203485
40	0x403c30fe	2.9404902
41	0xc01161e1	-2.271599
42	0x3d1a9b04	0.03774549
43	0xbe2927d1	-0.16519095
44	0x3fbeaa17	1.4895657
45	0xbfabb8c1	-1.3415757
46	0xbf780ccc	-0.96894526
47	0xbeac9273	-0.33705482
48	0xbe3d0570	-0.18459105
49	0xc091e02f	-4.558616
50	0x3da94854	0.082657486
51	0x3dbbbb85	0.09166626
52	0xbd1bbe7b	-0.038023453
53	0x3d2c077c	0.041999325
54	0x3d34abc5	0.044109125
55	0xc0064027	-2.0976655
56	0xc0613620	-3.5189285
57	0xbf10259b	-0.5630738
58	0x3f2aa153	0.6665241
59	0xbfffcd45	-1.9984518
60	0xbcab7c63	-0.020933336
61	0x3e8a584c	0.2702049
62	0xbe3e60d6	-0.18591627
63	0x3d7b8b31	0.06141204
64	0x3da80e0f	0.082058065
65	0xbda6aadc	-0.081380576
66	0x3dedc522	0.11609866
67	0xbd3ed13a	-0.046586253
68	0xbdc55758	-0.096358
69	0x3dc6877a	0.09693809
70	0x3f876e62	1.0580561
71	0xbfc7f4e7	-1.5621613
72	0x3fc0866f	1.5041026
73	0x3e2097d8	0.15682924
74	0xbf176412	-0.5913707
75	0xbd893b11	-0.06700719
76	0x3f84aabd	1.0364605
77	0xbdfc5650	-0.1232115
78	0xc007f746	-2.1244674
79	0x3fd935a8	1.69695
80	0xbfd210b2	-1.6411345
81	0xbfa81ffb	-1.313476
82	0xbe390706	-0.18069085
83	0x4049465b	3.1449192
84	0xbfbc4137	-1.4707402
85	0x3dc63fb6	0.09680121
86	0x3da9e739	0.08296055
87	0xbfc0cc94	-1.5062432
88	0x3fc8a9bc	1.5676799
89	0x409802d1	4.750344
90	0xc0c2025b	-6.0627875
91	0xbda57b22	-0.08080126
92	0x40c17f3a	6.0467806
93	0x3d31cc3f	0.043407675
94	0x3d26b0ad	0.040695835
95	0xbdbfcfa9	-0.0936578
96	0xbd09e661	-0.033666972
97	0xbb9b7777	-0.004744466
98	0xc102d359	-8.176599
99	0xc04f3753	-3.2377517
100	0xc03d2af7	-2.9557474
101	0x3e6e9392	0.23298481
102	0xc01b44af	-2.426067
103	0x40a109cc	5.032446
104	0xc0032533	-2.0491455
105	0x3d1c576d	0.038169313
106	0xbe3c52b5	-0.18390925
107	0x3e23852d	0.15968771
108	0x3dc7dab6	0.09758513
109	0xbe33d824	-0.1756292
110	0x3d757e98	0.059935182
111	0xbe19b20a	-0.15009323
112	0x3c885dd5	0.016646305
113	0xbdfb780c	-0.122787565
114	0xbf9ae2dd	-1.2100483
115	0xc104e835	-8.306691
116	0xbe2ade46	-0.16686353
117	0xbecc804c	-0.39941633
118	0x3e0d0a16	0.13773379
119	0xbe1dc237	-0.15406118
120	0xbdcaf9f5	-0.09910957
121	0xbe222810	-0.15835595
122	0x40343791	2.8158915
123	0x3d8ddfad	0.069274284
124	0xc03684e6	-2.8518615
125	0xc0ac4e0d	-5.3845277
126	0x3ff2f124	1.897984
127	0xbf2e6569	-0.6812349
128	0xbd14a007	-0.036285426
129	0x3c378205	0.011200433
130	0x3f73d5ba	0.95247996
131	0xbf6f1ec6	-0.9340633
132	0xbf3d5e3c	-0.73971915
133	0xbf13506c	-0.5754459
134	0xbe3a2b94	-0.18180686
135	0xc0520d2d	-3.2820542
136	0xbe37f633	-0.17965011
137	0xbcdcd212	-0.026955638
138	0x3d6fac1c	0.058513746
139	0xbe097709	-0.13424315
140	0x3c4c31f2	0.01246308
141	0xbf54ad0e	-0.8307656
142	0xc0d0ebf8	-6.528805
143	0xbfb99a2e	-1.4500177
144	0x3f821c7b	1.0164942
145	0xc04f1638	-3.2357311
146	0x405af113	3.420964
147	0x3f6665ce	0.8999909
148	0x3db4f41f	0.08835625
149	0xbd91e78f	-0.071242444
150	0x3e3c1c45	0.18370159
151	0xbc92a2d4	-0.017899908
152	0xbca005f0	-0.019534081
153	0xbdf6b375	-0.120459475
154	0x3daf927f	0.08572864
155	0xbe3f2a96	-0.18668589
156	0xbf6caa5f	-0.92447466
157	0x3f9900f6	1.1953418
158	0xbf7d8303	-0.99028033
159	0xbdd318d0	-0.10307467
160	0x3fe3c581	1.7794648
161	0x3dabc7bf	0.08387708
162	0xbf5a7011	-0.8532725
163	0xbd0210a8	-0.031754166
164	0xbfcbaa62	-1.5911372
165	0x3e31b0c7	0.17352591
166	0xbe75000c	-0.23925799
167	0xbfcc8e2f	-1.5980891
168	0x4020d1c0	2.5128021
169	0x3db8b561	0.0901897
170	0xbf986755	-1.1906534
171	0x3d1c057a	0.03809116
172	0xbe153f34	-0.14574891
173	0x3f706984	0.93911004
174	0xbf71ca83	-0.94449633
175	0x40118837	2.273939
176	0xbfc1c4e2	-1.5138209
177	0x3e095f1e	0.1341519
178	0x3fe4a790	1.7863636
179	0xbdb287ae	-0.08717285
180	0xbd3c083a	-0.045906283
181	0x3e0ff048	0.14056504
182	0xbdd4df66	-0.10394172
183	0xbe2f40ab	-0.17114513
184	0xbe8b5e15	-0.27220216
185	0xc0649be3	-3.5720146
186	0x3eb0220f	0.34400985
187	0x3ee622b9	0.44948366
188	0x3e290c48	0.16508591
189	0x3d6d4aa7	0.057932522
190	0x3fa93666	1.3219726
191	0xbdabb1c6	-0.08383517
192	0x3e311e53	0.17296724
193	0xbe32da30	-0.17466044
194	0x3d0d1649	0.03444508
195	0x3e211557	0.15730797
196	0xbc872108	-0.016495243
197	0x3da52c43	0.08065083
198	0x3e0edda6	0.1395174
199	0xbf4cc46e	-0.7998723
200	0x407b6a50	3.9283638
201	0xc0c7946a	-6.236867
202	0xbd251bd0	-0.040309727
203	0x3fdc2ca8	1.7201128
204	0xbe3837bc	-0.17990011
205	0xbf935cf1	-1.1512738
206	0x3ddaf054	0.1069037
207	0x3fe46de8	1.7846041
208	0x3f348bb1	0.7052565
209	0x3faf1166	1.3677185
210	0xc05ea19c	-3.4786139
211	0x3d71ea63	0.05906142
212	0x3e1dfdfc	0.15428919
213	0xbfb464ef	-1.4093302
214	0x3df00d09	0.11721236
215	0xbd01593a	-0.031579234
216	0xbf5e355f	-0.8680019
217	0x3f8a7514	1.081698
218	0x3f758d50	0.9591875
219	0x3d2b0f56	0.041762672
220	0x3e04a312	0.12952831
221	0x3f9449cb	1.158502
222	0x3cb6f0e6	0.022331666
223	0x3d14f2c0	0.036364317
224	0xbe21a78f	-0.15786575
225	0x3d4bf386	0.04979279
226	0xbd38644d	-0.04501753
227	0x3ebc55e4	0.3678428
228	0xbf085de8	-0.5326829
229	0x3fb01a35	1.3757998
230	0xbd88ddfb	-0.066829644
231	0x3f5c578f	0.86071104
232	0xc01067b6	-2.25633
233	0xbff95621	-1.947941
234	0x3d81b958	0.0633418
235	0x3da6c859	0.08143682
236	0x3df4403a	0.11926313
237	0x3dcf846c	0.10132679
238	0xbe027fa9	-0.12744011
239	0xbda34b77	-0.07973378
240	0xbe028256	-0.12745032
241	0xbdf1912e	-0.11795269
242	0xbf164ae3	-0.5870802
243	0xbe58e8d2	-0.21182564
244	0xbfb2fa07	-1.3982552
245	0x3e0aa927	0.13541089
246	0xbe2457c1	-0.160491
247	0x3c5cac0c	0.013468754
248	0xbf128361	-0.5723172
249	0x3dc4fdc3	0.09618714
250	0xbf0a8f42	-0.54124844
251	0xbe9ed185	-0.31019226
252	0xbc03419d	-0.008011249
253	0xbfe64fa1	-1.7993051
254	0x3f77bd67	0.9677338
255	0xbf078220	-0.5293293

network.0.bias f4 [128]
0	0xc14dae19	-12.855004
1	0xc13e684f	-11.900466
2	0xc10a3ce7	-8.639869
3	0xc1516429	-13.086953
4	0xc15320bc	-13.195492
5	0xc11281db	-9.156703
6	0xc1400e2f	-12.003463
7	0xc146f048	-12.433662
8	0xc14fa82f	-12.97856
9	0xc14a4437	-12.641654
10	0xc1386609	-11.524911
11	0xc0e5e8bb	-7.1846595
12	0xc1136def	-9.214339
13	0xc18cb7c0	-17.589722
14	0xc113ec35	-9.245168
15	0xc13e912a	-11.91044
16	0xc1860c66	-16.756054
17	0xc1445767	-12.271338
18	0xc0f6cc8c	-7.712469
19	0xc12475ca	-10.278757
20	0xc12085fd	-10.032712
21	0xc105fdba	-8.374445
22	0xc0fb4237	-7.851833
23	0xc16754a2	-14.458162
24	0xc0df3c91	-6.9761434
25	0xc1177026	-9.46488
26	0xc0b6918b	-5.7052665
27	0xc146eccf	-12.432815
28	0xc0ee379c	-7.4442883
29	0xc1037b73	-8.217639
30	0xc164dc9d	-14.303861
31	0xc130b1e0	-11.0434265
32	0xc0e15d2f	-7.042625
33	0xc11f2102	-9.945559
34	0xc15b4733	-13.704883
35	0xc0ebb889	-7.3662763
36	0xc130d7ed	-11.052716
37	0xc18748a4	-16.91047
38	0xc14ad1ba	-12.676203
39	0xc1118445	-9.094792
40	0xc13060de	-11.023649
41	0xc0f6c901	-7.7120366
42	0xc11d49cb	-9.830516
43	0xc0a12176	-5.0353346
44	0xc189cdbe	-17.22546
45	0xc16a4d53	-14.643878
46	0xc1506db7	-13.026786
47	0xc1385eaa	-11.523111
48	0xc196baf8	-18.841293
49	0xc1468ae2	-12.408907
50	0xc1882589	-17.018328
51	0xc122f59c	-10.184963
52	0xc0c07e01	-6.0153813
53	0xc1251023	-10.31644
54	0xc1073ac0	-8.451843
55	0xc18ee0d3	-17.859777
56	0xc13bd5b9	-11.739678
57	0xc134f1ab	-11.309001
58	0xc13c7d7b	-11.780635
59	0xc10e5fba	-8.898371
60	0xc1333b9a	-11.202051
61	0xc10d1852	-8.818438
62	0xc10335a5	-8.200597
63	0xc12e71d0	-10.902786
64	0xc119adde	-9.604948
65	0xc13dca54	-11.8618965
66	0xc108824e	-8.531813
67	0xc10d797b	-8.842158
68	0xc117c730	-9.48613
69	0xc1263b89	-10.389535
70	0xc13acfdb	-11.675746
71	0xc1119506	-9.098883
72	0xc1103915	-9.013936
73	0xc12fa6df	-10.97824
74	0xc1565161	-13.394868
75	0xc1499fb2	-12.601488
76	0xc0f5ee5b	-7.685346
77	0xc0b50100	-5.656372
78	0xc14e5e99	-12.898095
79	0xc11bb276	-9.73107
80	0xc150409a	-13.015772
81	0xc1761995	-15.381246
82	0xc0f8c0d1	-7.773537
83	0xc0a35ab7	-5.1048236
84	0xc1249bea	-10.288065
85	0xc15de4ef	-13.868392
86	0xc149b222	-12.605989
87	0xc1267ea6	-10.40592
88	0xc12059f9	-10.021966
89	0xc0a01569	-5.0026135
90	0xc15fa59a	-13.97793
91	0xc15f0c67	-13.940528
92	0xc11bad61	-9.729829
93	0xc1077e34	-8.468311
94	0xc055adc0	-3.3387299
95	0xc11d8bfa	-9.846674
96	0xc108e93f	-8.556945
97	0xc16751b8	-14.457451
98	0xc12f152c	-10.942669
99	0xc0a152b0	-5.0413437
100	0xc123b97d	-10.232785
101	0xc0ecb403	-7.396974
102	0xc121ced0	-10.112991
103	0xc0fdfc46	-7.937045
104	0xc1455b32	-12.3347645
105	0xc1224c74	-10.143665
106	0xc12dbe39	-10.858941
107	0xc112a19b	-9.164454
108	0xc112b0ad	-9.168134
109	0xc17a5c78	-15.647575
110	0xc1039734	-8.224415
111	0xc0c34006	-6.1015654
112	0xc1593813	-13.57619
113	0xc161378a	-14.076059
114	0xc1130222	-9.188021
115	0xc1324f4a	-11.144358
116	0xc1453c16	-12.327169
117	0xc0e187d9	-7.047833
118	0xc11ee9ce	-9.932081
119	0xc156ddee	-13.429182
120	0xc12c1bb0	-10.75676
121	0xc1627634	-14.153858
122	0xc105cee1	-8.363008
123	0xc12683b4	-10.407154
124	0xc1329e05	-11.163579
125	0xc1111c3d	-9.069394
126	0xc122396f	-10.139022
127	0xc127046e	-10.438581

network.3.weight f4 [64, 128]
0	0xbd790fbb	-0.060806017
1	0xbd83e353	-0.06439843
2	0xbdaea042	-0.085266605
3	0xbf19155f	-0.59798235
4	0xbd761aaa	-0.060084023
5	0x3de584d9	0.11206979
6	0xbe7c6a79	-0.24649991
7	0xbe2a1397	-0.16609035
8	0xbea2d0e6	-0.31800002
9	0x3e164631	0.14675213
10	0xbe09dae9	-0.13462414
11	0xbe8a30ce	-0.2699036
12	0xbe661383	-0.2246838
13	0xbeb2e0d3	-0.34937152
14	0xbe66ca70	-0.22538161
15	0xbf2373bc	-0.6384847
16	0xbd98082e	-0.07423435
17	0xbe9cb8d0	-0.3060975
18	0xbe644764	-0.22292858
19	0xbe3bfea5	-0.18358858
20	0xbf032698	-0.51230764
21	0xbf13657b	-0.5757672
22	0xbf76e93a	-0.96449625
23	0xbeab9174	-0.3350941
24	0xbd2c05dc	-0.041997775
25	0xbd8174be	-0.06321095
26	0x3cca04d5	0.024660507
27	0xbf1380f3	-0.57618636
28	0xbf98ffb8	-1.1953039
29	0xbf29df23	-0.66356105
30	0x3d58f369	0.05296651
31	0xbee8d4f2	-0.45474964
32	0x3b241700	0.0025038123
33	0xbed24848	-0.4107077
34	0xbe248abe	-0.16068551
35	0xbf21a06f	-0.6313543
36	0xbefc412a	-0.49268466
37	0xbe9872ac	-0.29774988
38	0xbe7ca04c	-0.24670523
39	0xbf0de7eb	-0.55432004
40	0xbec8d1c6	-0.39222544
41	0xbeb4675b	-0.35235104
42	0xbdec3c7e	-0.115349755
43	0xbf5e2552	-0.86775696
44	0xbf39840d	-0.7246712
45	0xbf4b70de	-0.79469097
46	0xbeb7339a	-0.35781556
47	0x3e21b386	0.15791139
48	0xbeccbfe7	-0.3999016
49	0xbea179f7	-0.31538364
50	0xbed45a18	-0.41474986
51	0xbf1b2b68	-0.6061311
52	0xbe3d169a	-0.18465653
53	0x3dccb91a	0.09996243
54	0xbf2bddcc	-0.6713531
55	0xbaec8b9a	-0.0018046976
56	0xbeacb43e	-0.33731264
57	0xbebfe910	-0.374825
58	0xbe58d49c	-0.21174854
59	0xbecd52f1	-0.40102342
60	0xbe02ba49	-0.12766375
61	0xbe3f3151	-0.18671156
62	0xbef8b16d	-0.48572865
63	0xbe17dc00	-0.14830017
64	0xbd67a228	-0.05655113
65	0xbe43c4ad	-0.19117995
66	0xbdcd3bc3	-0.10021164
67	0xbd620e53	-0.055189442
68	0xbeb855c7	-0.36002943
69	0xbdf0b5b5	-0.11753408
70	0x3e56e053	0.2098401
71	0xbf12dcbc	-0.57368064
72	0xbf6da513	-0.9283001
73	0xbe53ef36	-0.2069672
74	0xbebff4c6	-0.37491435
75	0xbe4b5202	-0.19855502
76	0xbe8691dd	-0.2628316
77	0xbedd4ab7	-0.43221065
78	0xbe553eee	-0.20824787
79	0xbf4f2d99	-0.8092895
80	0xbedebe66	-0.43504637
81	0xbe383028	-0.1798712
82	0xbec95e6e	-0.39329857
83	0xbf086a39	-0.5328708
84	0xbebac3d3	-0.36477527
85	0xbe675690	-0.22591615
86	0xbe979b61	-0.29610732
87	0xbedfba41	-0.43696788
88	0xbf112862	-0.56702244
89	0xbc5dea43	-0.013544622
90	0xbf12e9e0	-0.57388115
91	0xbe4eb90f	-0.20187782
92	0xbebbee7f	-0.36705396
93	0xbeafdb67	-0.34347078
94	0xbf01ef3a	-0.50755656
95	0xbe880a76	-0.2657048
96	0xbead03ae	-0.3379187
97	0xbe5986a9	-0.21242775
98	0xbf0edc48	-0.5580487
99	0xbe8d6d5e	-0.27622503
100	0xbe92fd11	-0.287087
101	0xbe941ff7	-0.28930637
102	0xbe20abdc	-0.15690559
103	0x3e8a5ecc	0.2702545
104	0xbd6235f3	-0.05522723
105	0xbd6014df	-0.054707404
106	0xbf0145a4	-0.5049689
107	0xbe142078	-0.14465511
108	0xbf8173b3	-1.0113434
109	0xbd28c586	-0.041203998
110	0xbf104932	-0.5636169
111	0xbed584ef	-0.41702983
112	0xbd805c7a	-0.062676385
113	0xbcb2e6ca	-0.021838564
114	0x3c8afbae	0.016965713
115	0xbdec141c	-0.11527273
116	0xbe9b534f	-0.30336997
117	0xbe1cc113	-0.15308027
118	0xbe3bfe8e	-0.18358824
119	0xbf29e5e5	-0.66366416
120	0xbdc196c9	-0.09452588
121	0xbe45dcd4	-0.1932252
122	0xbea4021b	-0.32032856
123	0xbed9cec1	-0.42540553
124	0xbe23040d	-0.15919514
125	0xbc1f6f94	-0.009731192
126	0xbdf7815f	-0.120852225
127	0xbe9ea98c	-0.3098873
128	0xbda5459f	-0.0806992
129	0xbef2e5c9	-0.47440937
130	0xbea54ef9	-0.32286814
131	0xbe9994b3	-0.2999626
132	0xbead77d8	-0.33880496
133	0xbdd8d896	-0.105881855
134	0xbeb474a8	-0.35245252
135	0xbdcbb9ba	-0.09947534
136	0xbe9cb0c1	-0.30603603
137	0xbef8ade2	-0.48570162
138	0xbe559fbf	-0.2086172
139	0xbe53d392	-0.20686176
140	0xbef34b10	-0.47518206
141	0xbe9ac92d	-0.3023161
142	0xbf76e27d	-0.96439344
143	0xbf9d4d21	-1.2289163
144	0xbdb8b5d2	-0.090190545
145	0xbe8ea964	-0.2786361
146	0xbf1901bc	-0.5976827
147	0xb6bd38b1	-5.6392387e-06
148	0xbcd861f6	-0.026413899
149	0xbed75463	-0.4205657
150	0xbedc4a0f	-0.43025252
151	0xbeca8bf9	-0.39559916
152	0xbe93c07a	-0.28857785
153	0xbe84792a	-0.2587369
154	0xbd70f690	-0.05882889
155	0x3cee81f3	0.029114699
156	0xbd14454f	-0.03619891
157	0xbf3ad3f5	-0.7297967
158	0xbea5ea5d	-0.32405367
159	0xbf92abb7	-1.1458653
160	0xbf8b34a5	-1.0875441
161	0xbe874265	-0.26417843
162	0xbdb5bdbf	-0.08874082
163	0xbf0182d5	-0.5059026
164	0xbe2976d8	-0.16549242
165	0xbe9bcdd5	-0.30430475
166	0xbef663fb	-0.48123154
167	0xbf40f6b4	-0.7537644
168	0xbe847ba0	-0.25875568
169	0xbfc10ae1	-1.5081445
170	0xbd12b705	-0.035819072
171	0xbed4e11c	-0.41577995
172	0xbc91d523	-0.017801827
173	0xbf371595	-0.71517307
174	0xbfbe1607	-1.4850472
175	0xbeaaba73	-0.33345374
176	0xbf32f98b	-0.6991202
177	0xbd234d73	-0.039868783
178	0xbf6fabc6	-0.9362148
179	0xbd498d4d	-0.04920702
180	0xbee78d06	-0.4522478
181	0xbe705687	-0.23470508
182	0xbff0e9e1	-1.8821374
183	0x3c5ecd98	0.013598822
184	0xbf2ad961	-0.66737944
185	0xbe0e16bf	-0.13875864
186	0xbec5eb98	-0.38656306
187	0xbf77e64c	-0.9683578
188	0xbe9a5d53	-0.30149326
189	0xbe1d8857	-0.15384041
190	0xbe3f25a9	-0.1866671
191	0xbf15eb73	-0.5856239
192	0xbf1f432d	-0.6221188
193	0xbf23a30b	-0.6392066
194	0xbe4e1959	-0.20126857
195	0xbdf36e69	-0.118862934
196	0xbebfb1ad	-0.37440243
197	0xbe45d6a0	-0.19320154
198	0x3cd39e8a	0.025832433
199	0xbebf5296	-0.37367696
200	0xbdf256b9	-0.11832947
201	0xbedc10bf	-0.42981526
202	0xbed606d7	-0.41802093
203	0xbe1216c2	-0.14266494
204	0xbdcad0c5	-0.09903101
205	0xbea0e64c	-0.31425703
206	0xbee7cb3d	-0.45272246
207	0xbef43b24	-0.4770137
208	0x3cc16f23	0.023612564
209	0xbddf14b7	-0.10892623
210	0xbeedbfe8	-0.46435475
211	0xbf119473	-0.5686714
212	0xbf343af5	-0.7040246
213	0xbf8d323b	-1.1030954
214	0xbf2aa019	-0.6665054
215	0xbf35ce51	-0.7101794
216	0xbe86df55	-0.26342264
217	0xbe52279c	-0.20522922
218	0xbe76b79d	-0.2409348
219	0xbf0aa21b	-0.54153603
220	0xbf13dfdd	-0.57763463
221	0xbea76504	-0.32694256
222	0xbf6ec4ca	-0.93269026
223	0xbf0868f7	-0.53285164
224	0xbec7d539	-0.39029863
225	0xbee48575	-0.4463307
226	0xbf1a813f	-0.60353464
227	0xbf0f7bf6	-0.56048524
228	0xbf59429c	-0.8486726
229	0xbd4ab93e	-0.049493067
230	0xbf17158f	-0.5901727
231	0xbdc87ef6	-0.09789841
232	0x3cba7e17	0.022765202
233	0xbe01b08c	-0.12665004
234	0xbf1be1bd	-0.60891324
235	0xbeecd67e	-0.46257395
236	0xbdf1d27f	-0.11807727
237	0xbd1efed0	-0.038817227
238	0xbeb7c980	-0.3589592
239	0xbdeffe35	-0.11718408
240	0xbf61dff1	-0.8823233
241	0xbde3b0aa	-0.1111768
242	0xbedffc3c	-0.43747127
243	0xbee1df86	-0.44115847
244	0xbeb7de60	-0.35911846
245	0xbe9aac59	-0.30209616
246	0xbe59c575	-0.2126673
247	0xbe763b42	-0.24046043
248	0xbea57453	-0.3231531
249	0xbe1927e1	-0.14956619
250	0xbe92e302	-0.28688818
251	0xbf8733a2	-1.0562632
252	0xbf317a0f	-0.6932687
253	0x3c985a77	0.018597824
254	0xbf628e67	-0.8849854
255	0xbfab166e	-1.336622

network.3.bias f4 [64]
0	0xc04730ab	-3.1123455
1	0xc01dd534	-2.466138
2	0xc00f6fe5	-2.2412045
3	0xc05761f6	-3.365354
4	0xc01030bb	-2.2529743
5	0xc02dcdd6	-2.7156882
6	0xc0215948	-2.5210743
7	0xc0635422	-3.55201
8	0xbfc96794	-1.5734735
9	0xc00d2e19	-2.2059386
10	0xc01c184a	-2.4389825
11	0xbff0af3c	-1.8803477
12	0xc03d1660	-2.9544907
13	0xc04efacb	-3.2340572
14	0xc01252ba	-2.2862992
15	0xc016aaa9	-2.3541663
16	0xc013b847	-2.3081224
17	0xc069074b	-3.6410701
18	0xbfb5b258	-1.4195051
19	0xc014ebae	-2.3268847
20	0xc0220203	-2.5313728
21	0xc03a8fa9	-2.9150183
22	0xc0041a6f	-2.0641134
23	0xc01bafa0	-2.4325943
24	0xc00b2dd6	-2.1746726
25	0xbfc83fed	-1.5644509
26	0xc022e68c	-2.5453215
27	0xc05a4dde	-3.4110026
28	0xc03b52ab	-2.9269207
29	0xbff6b99b	-1.9275392
30	0xc03dbf1f	-2.96479
31	0xc0360cda	-2.8445344
32	0xbfac48d6	-1.3459728
33	0xc047810a	-3.117251
34	0xc06d7456	-3.7102256
35	0xc00e6a4d	-2.225238
36	0xc02565e4	-2.584344
37	0xc0186f10	-2.3817787
38	0x3f0c3ecc	0.5478332
39	0xbfdb432d	-1.7129875
40	0xc01f9257	-2.4933069
41	0xc05792e6	-3.368341
42	0xc005015a	-2.0782075
43	0xc054556a	-3.3177133
44	0xc031d16e	-2.7784076
45	0xc05b98cf	-3.4312017
46	0xc07426d3	-3.8148696
47	0xc01f0cfb	-2.4851673
48	0xbfe55a50	-1.7918186
49	0xc000bdd1	-2.0115855
50	0xbfe9897c	-1.8245082
51	0xc04478ae	-3.0698657
52	0xc07c7998	-3.9449215
53	0x3f8674e9	1.0504428
54	0xc0904850	-4.508827
55	0xc06f0041	-3.7343905
56	0xc08c685e	-4.38774
57	0xbfa4fc5a	-1.2889512
58	0xc06c6643	-3.6937416
59	0xc00d248b	-2.2053554
60	0xc01703c4	-2.3596048
61	0xc0286d68	-2.6316776
62	0x3f6391ee	0.88894546
63	0xc007c1ff	-2.1212156

network.6.weight f4 [5, 64]
0	0x3d1ef943	0.038811933
1	0x3e17d4c8	0.14827263
2	0x3e716169	0.23572315
3	0xbe3d365f	-0.18477772
4	0xbe1898e4	-0.14902073
5	0xbdcca211	-0.09991849
6	0x3e516735	0.20449527
7	0xbe3c5c09	-0.18394484
8	0xbe19c61f	-0.15016983
9	0xbdb20b3c	-0.08693549
10	0xbd7c1ef8	-0.06155297
11	0xbe3adda7	-0.18248616
12	0xbdb5c5d1	-0.08875621
13	0x3d6d20eb	0.05789272
14	0xbd8cc4cd	-0.06873474
15	0xbe5eb5ea	-0.21749082
16	0x3d26b6d7	0.040701713
17	0x3d974e11	0.07387937
18	0x3df23408	0.118263304
19	0xbdca2e18	-0.09872073
20	0x3daa0c3b	0.08303114
21	0x3d9e6be3	0.077354215
22	0x3cc69dba	0.024245132
23	0x3df1a250	0.11798537
24	0x3e0620ed	0.13098498
25	0x3cd6dc50	0.0262281
26	0xbd4b015e	-0.04956185
27	0xbe8280b0	-0.25488806
28	0xbdceabd4	-0.10091367
29	0xbdcc67af	-0.099807136
30	0x3d81dbef	0.06340777
31	0x3e70c1aa	0.23511377
32	0x3c9b9ac7	0.018994702
33	0x3e8cbb3d	0.274866
34	0x3e8b5e99	0.2722061
35	0xbe9726bb	-0.29521737
36	0x3d43779c	0.04772149
37	0xbe550bc8	-0.20805275
38	0xbe30d640	-0.1726923
39	0xbe30c255	-0.17261632
40	0xbe93d3b7	-0.28872463
41	0xbe22cd9d	-0.15898748
42	0xbcb265c5	-0.021777043
43	0x3eb46de5	0.35240093
44	0xbd9a0f5b	-0.0752246
45	0xbe06ccb6	-0.13164029
46	0x3c42dc67	0.011893368
47	0x3e0f75a3	0.14009719
48	0xbddf61d5	-0.10907332
49	0x3d8a7acd	0.06761704
50	0xbe8c8b50	-0.27450037
51	0xbe2e280e	-0.17007467
52	0xbe318773	-0.17336826
53	0xbe1951c4	-0.14972597
54	0x3e8fd446	0.2809164
55	0x3e1f7db6	0.15575299
56	0xbe96635e	-0.29372686
57	0xbe60920c	-0.21930712
58	0x3bb5cb6c	0.0055479314
59	0xbe051a2d	-0.12998267
60	0xbe98c1a4	-0.29835236
61	0x3dec6cab	0.11544164
62	0xbe10a3ed	-0.14125033
63	0x3cc65b48	0.024213448
64	0xbd42c472	-0.047550626
65	0x3e6dc171	0.23218323
66	0x3e532fe2	0.20623735
67	0x3d807b07	0.062734656
68	0xbee69e63	-0.45042714
69	0x3e1577bc	0.14596456
70	0xbe05b57d	-0.13057514
71	0x3dbdb427	0.09262877
72	0x3d34f50c	0.044179007
73	0x3d810d1b	0.06301328
74	0xbe8468a8	-0.25861096
75	0xbe611559	-0.219808
76	0x3e4cebef	0.20011877
77	0x3e14774f	0.14498638
78	0xbe0537d6	-0.13009581
79	0xbdf25ebe	-0.11834477
80	0xbd862c76	-0.06551449
81	0x3ef7329b	0.48280796
82	0xbec1e72f	-0.37871692
83	0x3bdbdfb1	0.0067100157
84	0x3e594a00	0.21219635
85	0xbdef9693	-0.11698642
86	0xbe9f8c8f	-0.31161925
87	0x3e560d4c	0.2090351
88	0xbde18e65	-0.11013488
89	0xbe97c23b	-0.29640374
90	0xbf148405	-0.58013946
91	0xbdda55ca	-0.10660894
92	0xbe311349	-0.17292513
93	0x3e088500	0.13331985
94	0xbe4b6eb1	-0.19866444
95	0xbd77b91d	-0.060479272
96	0xbeec29b9	-0.46125582
97	0x3ebd8905	0.370186
98	0x3bc09a00	0.005877733
99	0x3e2be7f8	0.16787708
100	0xbe34dfb8	-0.17663467
101	0x3e6da4f5	0.23207457
102	0x3d796501	0.06088734
103	0xbe11b4a3	-0.14229064
104	0xbdd157ec	-0.10221848
105	0xbe7eb064	-0.24871975
106	0x3e277460	0.16352987
107	0xbe9e938c	-0.30971944
108	0xbd12b5c6	-0.035817884
109	0x3d1b021b	0.037843805
110	0x3ea637ff	0.32464597
111	0x3cb6c4b0	0.022310585
112	0x3c35e599	0.011102104
113	0xbe5c611b	-0.21521418
114	0xbe81030f	-0.25197646
115	0x3dcdd29d	0.10049937
116	0x3ed4f02a	0.4158948
117	0xbe75a013	-0.23986845
118	0xbe92a887	-0.286442
119	0xbeee972d	-0.46599713
120	0xbf47c938	-0.7804141
121	0x3e5596bb	0.2085828
122	0x3e32f5a7	0.17476521
123	0xbd8604c7	-0.0654388
124	0x3e76d031	0.24102856
125	0xbe024e26	-0.12725124
126	0xbe27fd95	-0.16405328
127	0xbec5d75d	-0.38640872
128	0x3d87d5d6	0.06632583
129	0xbe151e0e	-0.14562246
130	0xbea94d09	-0.33066586
131	0xbc2f71e9	-0.010708311
132	0x3c941740	0.018077493
133	0xbe41a412	-0.18910244
134	0x3e7bd304	0.24592215
135	0x3e5a3adf	0.2131152
136	0x3e014c56	0.12626776
137	0xbf14dbbb	-0.5814778
138	0xbe4b9ee5	-0.19884832
139	0x3eae1413	0.3399969
140	0xbdb0555d	-0.08610032
141	0x3e1efa2e	0.15525123
142	0xbe6279a8	-0.2211672
143	0xbe63d707	-0.22249995
144	0xbc1fb38d	-0.009747398
145	0xbe12db21	-0.14341404
146	0xbd1d9923	-0.03847612
147	0x3ed6b59e	0.41935438
148	0x3e14844f	0.14503597
149	0xbdd8d374	-0.105872065
150	0x3d9b61c6	0.07587008
151	0xbd2d5029	-0.042312775
152	0x3e5b4f1e	0.214169
153	0xbe66c56b	-0.22536246
154	0x3e16f4eb	0.14741866
155	0x3d9eecf2	0.077600375
156	0x3cb5f417	0.022211118
157	0xbe4d3f38	-0.20043647
158	0x3e7f93df	0.24958752
159	0xbd898f30	-0.06716764
160	0x3dc40c11	0.09572614
161	0xbc8fa4ea	-0.017534692
162	0xbc5b3f08	-0.013381727
163	0x3da822d8	0.08209771
164	0xbe86034a	-0.26174384
165	0xbe08d14e	-0.13361093
166	0x3e59a426	0.21254024
167	0xbe25b623	-0.16182761
168	0xbe52f363	-0.20600657
169	0x3e4548c5	0.1926604
170	0x3e6fbc5e	0.234117
171	0xbebd8332	-0.37014157
172	0x3e86ab79	0.26302698
173	0xbea54c79	-0.32284907
174	0xbd7f65cd	-0.062352944
175	0xbe9bb671	-0.3041263
176	0xbd020f1b	-0.031752687
177	0xbc855351	-0.01627508
178	0xbe4ea3c3	-0.20179658
179	0x3e9d0b59	0.3067272
180	0xbe841041	-0.2579365
181	0x3e3313af	0.17487977
182	0xbe0cfe5d	-0.13768907
183	0xbe8d7d24	-0.27634537
184	0x3e867af7	0.2626569
185	0xbe7b3d11	-0.24535014
186	0xbeaf99e3	-0.34297094
187	0x3ea0b034	0.31384432
188	0xbda5fd89	-0.081049986
189	0x3ef0eba3	0.47054777
190	0xbf094361	-0.5361844
191	0x3dfef21a	0.12448521
192	0xbe6c7748	-0.23092377
193	0x3e172eca	0.14763942
194	0xbd53781b	-0.051628213
195	0xbddef91f	-0.1088736
196	0x3c91a1e0	0.017777383
197	0x3d534656	0.05158075
198	0x3e6485a5	0.22316606
199	0xbec8ab64	-0.3919326
200	0xbe3c87f3	-0.18411236
201	0xbeed70f8	-0.4637525
202	0x3dbffc07	0.09374242
203	0xbde243db	-0.11048099
204	0x3db3ca60	0.08778834
205	0x3d155c3b	0.03646491
206	0x3dbe3941	0.09288264
207	0x3e048605	0.1294175
208	0xbe35d764	-0.17757946
209	0x3debd448	0.11515099
210	0x3e02fa97	0.12790905
211	0x3ee0cda6	0.43906897
212	0x3dcc3038	0.099701345
213	0x3df0d1b2	0.11758746
214	0xbd37f9c6	-0.044915937
215	0x3d78d6ff	0.06075191
216	0xbd694a76	-0.056955777
217	0x3d1df496	0.038563333
218	0xbe2aaf04	-0.16668326
219	0xbccc684b	-0.024952075
220	0xbddb1480	-0.106972694
221	0xbd32608b	-0.0435491
222	0x3d5dd4a0	0.054157853
223	0xbd02f0ca	-0.031967916
224	0x3cdd8400	0.027040482
225	0x3e639cb6	0.22227749
226	0x3df993b8	0.12186378
227	0xbe22e421	-0.15907337
228	0xbea9b93c	-0.33149135
229	0xbe2c860e	-0.16848013
230	0x3eb69c6e	0.3566622
231	0xbde6ecaf	-0.112756126
232	0x3db5f4f6	0.08884613
233	0x3ddacd31	0.106836684
234	0xbdf8fe4a	-0.12157877
235	0x3eaa4548	0.33255982
236	0xbd0cf2de	-0.034411304
237	0x3df9ab18	0.12190837
238	0xbd960dd2	-0.07326855
239	0x3d99e0ac	0.07513556
240	0x3deccf0f	0.11562931
241	0x3d00f55d	0.031483997
242	0x3d2549e8	0.040353686
243	0xbe4101b7	-0.1884831
244	0x3e1d4834	0.15359575
245	0x3e4b28ce	0.19839785
246	0x3ddd915e	0.10818742
247	0x3eb74c0d	0.3580021
248	0x3e782725	0.24233682
249	0x3cd061e5	0.025437305
250	0x3d9f5b71	0.07781113
251	0x3d6207c0	0.055183172
252	0xbdcd6224	-0.100284845
253	0xbe4d1dc3	-0.20030884
254	0xba31d548	-0.00067837955
255	0x3e0e3cd2	0.13890389

network.6.bias f4 [5]
0	0x3e41f3ee	0.18940708
1	0xbe1640e0	-0.14673185
2	0x3c9f8651	0.019473227
3	0x3e908582	0.28226858
4	0x3d03d9fe	0.032190315

network.0.weight f4 [128, 43]
0	0xbba516b0	-0.005038105
1	0xbf5065dd	-0.8140543
2	0x3f1e2119	0.61769253
3	0xbfc81bae	-1.5633447
4	0xbff4ba66	-1.9119384
5	0xbe23f0cc	-0.16009825
6	0x3fb130cc	1.3843017
7	0x3e0cba4a	0.13742939
8	0x3e281da5	0.16417558
9	0xbe260874	-0.16214162
10	0xbc90cf01	-0.017676832
11	0xbdecae38	-0.11556667
12	0x3f8f9fc2	1.1220629
13	0xbee87bc0	-0.45406914
14	0x3e06180c	0.1309511
15	0xbf189f30	-0.596179
16	0xbfd1c156	-1.6387126
17	0x3ff2c4b0	1.8966274
18	0x3f592df6	0.84835756
19	0xbda3ad03	-0.07991984
20	0xbe0c73f5	-0.13716109
21	0xbdb3bed6	-0.087766334
22	0x3e04f83c	0.12985319
23	0xbaa768af	-0.0012772287
24	0xbdbb1633	-0.091350935
25	0x3e2b9e1f	0.16759537
26	0xbd3c7f56	-0.046019875
27	0xbfce3bb0	-1.6111965
28	0x401c16e9	2.4388983
29	0xbf9444de	-1.1583517
30	0x3d8bc035	0.0682377
31	0x3fcc4266	1.5957763
32	0xbe3ac577	-0.1823939
33	0xbfae7eae	-1.363241
34	0x3e23ad9c	0.15984195
35	0x3e43b153	0.19110613
36	0xbf54c5c2	-0.83114254
37	0x3fcecc36	1.615607
38	0xc0185486	-2.380159
39	0xc0414e4b	-3.0204036
40	0x403c2f56	2.9403892
41	0xc0116001	-2.2714846
42	0x3d1a9b04	0.03774549
43	0xbe2927d1	-0.16519095
44	0x3fbeb761	1.4899713
45	0xbfabc628	-1.3419847
46	0xbf77fb70	-0.9686804
47	0xbeacb063	-0.33728322
48	0xbe3d0570	-0.18459105
49	0xc091e3c4	-4.5590534
50	0x3da94854	0.082657486
51	0x3dbbbb85	0.09166626
52	0xbd1bbe7b	-0.038023453
53	0x3d2c077f	0.041999336
54	0x3d34abc5	0.044109125
55	0xc006395e	-2.0972514
56	0xc0612e1d	-3.5184395
57	0xbf100abc	-0.5626638
58	0x3f2ac09d	0.66700155
59	0xbfffd230	-1.9986019
60	0xbcae1a51	-0.021252783
61	0x3e8a0b62	0.2696181
62	0xbe3e60d6	-0.18591627
63	0x3d7b8b31	0.06141204
64	0x3da80e0f	0.082058065
65	0xbda6aadc	-0.081380576
66	0x3dedc522	0.11609866
67	0xbd3ed13a	-0.046586253
68	0xbdc55758	-0.096358
69	0x3dc6877a	0.09693809
70	0x3f8761e4	1.0576749
71	0xbfc7fe74	-1.5624528
72	0x3fc08f94	1.5043817
73	0x3e2097d8	0.15682924
74	0xbf178dab	-0.59200543
75	0xbd893b11	-0.06700719
76	0x3f849e15	1.0360743
77	0xbdfc5650	-0.1232115
78	0xc007f6ad	-2.124431
79	0x3fd92b89	1.6966411
80	0xbfd22ae4	-1.6419339
81	0xbfa817cf	-1.3132266
82	0xbe39557a	-0.18099013
83	0x4049437a	3.1447434
84	0xbfbc359c	-1.470386
85	0x3dc63fb6	0.09680121
86	0x3da9e739	0.08296055
87	0xc004398e	-2.0660129
88	0x40082820	2.127449
89	0x40891eea	4.2850237
90	0xc0aeabdd	-5.4584794
91	0xbda57b22	-0.08080126
92	0x40bf38de	5.975692
93	0x3d31cc3f	0.043407675
94	0x3d26b0ad	0.040695835
95	0xbdbfcfa9	-0.0936578
96	0xbd09e661	-0.033666972
97	0xbb9b7777	-0.004744466
98	0xc10b2a61	-8.697846
99	0xc05ca65e	-3.4476542
100	0xc023514b	-2.5518367
101	0x3f04e5ff	0.51913446
102	0xc0296978	-2.6470623
103	0x408e5354	4.447672
104	0xbf68405f	-0.9072322
105	0x3d1c576d	0.038169313
106	0xbe3c52b5	-0.18390925
107	0x3e23852d	0.15968771
108	0x3dc7dab6	0.09758513
109	0xbe33d824	-0.1756292
110	0x3d757e98	0.059935182
111	0xbe19b20a	-0.15009323
112	0x3c885dd5	0.016646305
113	0xbdf53d4c	-0.11974582
114	0xbf95b593	-1.1696037
115	0xc0fb2380	-7.8480835
116	0xbe2ade46	-0.16686353
117	0x3ae9796d	0.0017812677
118	0x3e0d0a16	0.13773379
119	0xbe1aa4d9	-0.15101947
120	0xbdcaf9f5	-0.09910957
121	0xbf32427d	-0.69632703
122	0x40234e3e	2.5516505
123	0xbe7ba655	-0.2457517
124	0xc01ce266	-2.4513183
125	0xc0a43528	-5.131489
126	0x40064e63	2.0985343
127	0xbd5de296	-0.054171167
128	0xbd14a007	-0.036285426
129	0x3c378205	0.011200433
130	0x3f8c66a7	1.0968827
131	0xbf8a0ad8	-1.0784559
132	0xbf30c65d	-0.6905268
133	0xbf21d8eb	-0.63221616
134	0xbe3a2b94	-0.18180686
135	0xc05dff36	-3.4687018
136	0xbe37f633	-0.17965011
137	0xbcdcd212	-0.026955638
138	0x3d6fac1c	0.058513746
139	0xbe09770d	-0.1342432
140	0x3c4c31f2	0.01246308
141	0xbf5cf0c3	-0.86304873
142	0xc0cd3c21	-6.41359
143	0xbfa7f805	-1.3122565
144	0x3f841d30	1.0321407
145	0xc055350d	-3.331363
146	0x4056d82a	3.3569436
147	0x3f81f218	1.0152006
148	0x3db4f41f	0.08835625
149	0xbd91e78f	-0.071242444
150	0x3e3c1c45	0.18370159
151	0xbc92a2d4	-0.017899908
152	0xbca005f0	-0.019534081
153	0xbdf6b375	-0.120459475
154	0x3daf9287	0.0857287
155	0xbe3f2a96	-0.18668589
156	0xbf859799	-1.0436889
157	0x3f8b0e93	1.0863823
158	0xbf7f1818	-0.9964614
159	0xbdd318d0	-0.10307467
160	0x3fcc8972	1.5979445
161	0x3dabc7bf	0.08387708
162	0xbf78f56c	-0.97249484
163	0xbd0210a8	-0.031754166
164	0xbfc803b4	-1.562613
165	0x3e8fcc2c	0.28085458
166	0xbea9653c	-0.33085048
167	0xbfc599de	-1.5437582
168	0x4026eb61	2.6081164
169	0x3cb56729	0.022143917
170	0xbf9319a2	-1.1492198
171	0x3d1c057a	0.03809116
172	0xbe153f34	-0.14574891
173	0x3f706fb2	0.93920434
174	0xbf71d0d2	-0.9445926
175	0x401186de	2.2738566
176	0xbfc1ca36	-1.5139835
177	0x3e095f1e	0.1341519
178	0x3fe4a6bb	1.7863382
179	0xbdb287ae	-0.08717285
180	0xbd3c083a	-0.045906283
181	0x3e0ff048	0.14056504
182	0xbdd4df66	-0.10394172
183	0xbe2f40ab	-0.17114513
184	0xbe8b5414	-0.27212584
185	0xc064965a	-3.5716767
186	0x3eaff40f	0.3436589
187	0x3ee62835	0.4495255
188	0x3e2934f3	0.16524105
189	0x3d6d70c8	0.057968885
190	0x3fa93595	1.3219477
191	0xbdabb1c6	-0.08383517
192	0x3e311e53	0.17296724
193	0xbe32da30	-0.17466044
194	0x3d0d1649	0.03444508
195	0x3e211557	0.15730797
196	0xbc872108	-0.016495243
197	0x3da52c43	0.08065083
198	0x3e0edda6	0.1395174
199	0xbf4ccebd	-0.8000296
200	0x407b6785	3.9281933
201	0xc0c79566	-6.236987
202	0xbd251bd0	-0.040309727
203	0x3fdc261c	1.719913
204	0xbe3837bc	-0.17990011
205	0xbf936238	-1.1514349
206	0x3ddaf054	0.1069037
207	0x3fe46dcb	1.7846006
208	0x3f349c36	0.7055086
209	0x3faf10d7	1.3677014
210	0xc05e9950	-3.4781075
211	0x3d725ca8	0.059170395
212	0x3e1e2404	0.15443426
213	0xbfb46b70	-1.4095287
214	0x3df00d09	0.11721236
215	0xbd01593a	-0.031579234
216	0xbf5e34d2	-0.8679935
217	0x3f8a74f5	1.0816942
218	0x3f758d63	0.95918864
219	0x3d2b027e	0.041750424
220	0x3e04a312	0.12952831
221	0x3f94495b	1.1584886
222	0x3cb6f0e6	0.022331666
223	0x3d14f2c0	0.036364317
224	0xbe21a78f	-0.15786575
225	0x3d4bf386	0.04979279
226	0xbd386458	-0.04501757
227	0x3ebc5539	0.3678377
228	0xbf085e94	-0.53269315
229	0x3fb01a77	1.3758076
230	0xbd88dada	-0.066823676
231	0x3f5c576d	0.860709
232	0xc010679e	-2.2563243
233	0xbff95624	-1.9479413
234	0x3d81b958	0.0633418
235	0x3da6c859	0.08143682
236	0x3df4403a	0.11926313
237	0x3dcf846c	0.10132679
238	0xbe027fa9	-0.12744011
239	0xbda34b77	-0.07973378
240	0xbe028256	-0.12745032
241	0xbdf1912e	-0.11795269
242	0xbf164b6d	-0.5870884
243	0xbe58e959	-0.21182765
244	0xbfb2f9a0	-1.398243
245	0x3e0aa927	0.13541089
246	0xbe245c17	-0.16050754
247	0x3c5cac0c	0.013468754
248	0xbf128375	-0.5723184
249	0x3dc4fdc3	0.09618714
250	0xbf0a8eb5	-0.54124004
251	0xbe9ed176	-0.3101918
252	0xbc0332b0	-0.00800769
253	0xbfe64f0b	-1.7992872
254	0x3f77bcc4	0.9677241
255	0xbf07824b	-0.52933186

network.0.bias f4 [128]
0	0xc14dac7e	-12.854612
1	0xc13e655d	-11.899747
2	0xc106c192	-8.422258
3	0xc14dd8ce	-12.865431
4	0xc1531def	-13.194808
5	0xc112811e	-9.156523
6	0xc13dd5c8	-11.864693
7	0xc1432bc8	-12.198189
8	0xc1456a28	-12.338417
9	0xc145f51b	-12.37234
10	0xc13535b0	-11.325607
11	0xc0e3f53b	-7.1236854
12	0xc113c995	-9.236714
13	0xc1894307	-17.157728
14	0xc111bca6	-9.108557
15	0xc13a1140	-11.629211
16	0xc180b408	-16.087906
17	0xc1445130	-12.269821
18	0xc0e14fa9	-7.040974
19	0xc1247537	-10.278617
20	0xc1208567	-10.032569
21	0xc105fd35	-8.374318
22	0xc0fb418c	-7.8517513
23	0xc1642b63	-14.260592
24	0xc0df3c1a	-6.9760866
25	0xc11994ff	-9.598876
26	0xc0c5a82d	-6.1767793
27	0xc14135af	-12.075606
28	0xc0ee3743	-7.444246
29	0xc1037b05	-8.217534
30	0xc1553690	-13.325821
31	0xc130a780	-11.040894
32	0xc0cf7937	-6.4835467
33	0xc11e3782	-9.888552
34	0xc15b4141	-13.703431
35	0xc0e5b958	-7.178875
36	0xc130d788	-11.05262
37	0xc181b478	-16.21312
38	0xc14a5e38	-12.648003
39	0xc110cf2d	-9.05058
40	0xc130603a	-11.023493
41	0xc0f6c904	-7.712038
42	0xc11d4946	-9.830389
43	0xc0a120df	-5.0352626
44	0xc18712c8	-16.88417
45	0xc1679863	-14.474704
46	0xc155e159	-13.3675165
47	0xc1383f04	-11.515385
48	0xc192712a	-18.305256
49	0xc146ba28	-12.420448
50	0xc1877dc5	-16.93641
51	0xc122f3e0	-10.18454
52	0xc0c07dc9	-6.0153546
53	0xc1250fe7	-10.316382
54	0xc1073a59	-8.451745
55	0xc182e6c3	-16.362677
56	0xc1376d36	-11.464163
57	0xc134f10c	-11.308849
58	0xc13d14f4	-11.8176155
59	0xc10e5f4d	-8.898267
60	0xc1333b40	-11.201965
61	0xc10d17f5	-8.818349
62	0xc1054b1a	-8.330835
63	0xc13303f1	-11.188462
64	0xc1199f3f	-9.601378
65	0xc13bd508	-11.73951
66	0xc100696f	-8.025741
67	0xc10d76e8	-8.84153
68	0xc117c67d	-9.485959
69	0xc12746c3	-10.454776
70	0xc13acfe0	-11.675751
71	0xc1119133	-9.097949
72	0xc10ea7b6	-8.915945
73	0xc13166b3	-11.087573
74	0xc1562878	-13.38488
75	0xc146f696	-12.435202
76	0xc0ea10ce	-7.3145514
77	0xc0b50060	-5.656296
78	0xc14c50f3	-12.769763
79	0xc11c6cbb	-9.776546
80	0xc14f3898	-12.951317
81	0xc16080d2	-14.03145
82	0xc0f8c024	-7.7734547
83	0xc0981f33	-4.7538085
84	0xc12005b1	-10.0013895
85	0xc155c5c4	-13.360783
86	0xc1461641	-12.380433
87	0xc126790f	-10.404555
88	0xc12054b1	-10.020677
89	0xc0a014e7	-5.0025516
90	0xc15f3d5c	-13.95248
91	0xc15ece0a	-13.9253025
92	0xc1144bbb	-9.268489
93	0xc1077608	-8.466316
94	0xc055ad3a	-3.338698
95	0xc11d0afa	-9.81518
96	0xc108b250	-8.543533
97	0xc160620f	-14.02394
98	0xc12f14bf	-10.942565
99	0xc0a15217	-5.0412707
100	0xc123b8ef	-10.23265
101	0xc0ebb843	-7.366243
102	0xc121ce4f	-10.112868
103	0xc0fdfbfc	-7.93701
104	0xc1425f35	-12.148244
105	0xc11effed	-9.937482
106	0xc12988a3	-10.595859
107	0xc112a126	-9.164343
108	0xc112aeb2	-9.16765
109	0xc16d0eb5	-14.816091
110	0xc1039725	-8.2244005
111	0xc0c927d9	-6.286114
112	0xc15feaaa	-13.994791
113	0xc15ef5fa	-13.935053
114	0xc1130206	-9.187994
115	0xc12ae157	-10.680015
116	0xc144f37b	-12.309443
117	0xc0e1879b	-7.0478034
118	0xc1214e03	-10.081546
119	0xc153112f	-13.191695
120	0xc11f797a	-9.967157
121	0xc153f349	-13.246896
122	0xc1064fe0	-8.394501
123	0xc126826c	-10.406841
124	0xc1329d70	-11.163437
125	0xc1111c16	-9.069357
126	0xc11a6998	-9.65078
127	0xc127036f	-10.438338

network.3.weight f4 [64, 128]
0	0xbd790f0c	-0.060805365
1	0xbd83e2ed	-0.06439767
2	0xbdaea056	-0.085266754
3	0xbf1914b6	-0.5979723
4	0xbd761a04	-0.060083404
5	0x3de584b3	0.11206951
6	0xbe7c6a6c	-0.24649972
7	0xbe2a137f	-0.16609
8	0xbea2d0e7	-0.31800005
9	0x3e1645f6	0.14675125
10	0xbe09da45	-0.1346217
11	0xbe8a3035	-0.26989904
12	0xbe6612e3	-0.22468142
13	0xbeb2e0a0	-0.34937
14	0xbe66ca7b	-0.22538178
15	0xbf237367	-0.63847965
16	0xbd9807f6	-0.074233934
17	0xbe9cb8be	-0.30609697
18	0xbe6446bb	-0.22292607
19	0xbe3bfe38	-0.18358696
20	0xbf0325dd	-0.5122965
21	0xbf13653e	-0.5757636
22	0xbf76e90c	-0.9644935
23	0xbeab90bf	-0.3350887
24	0xbd2c0527	-0.0419971
25	0xbd817421	-0.06320978
26	0x3cca04d9	0.024660515
27	0xbf138096	-0.5761808
28	0xbf98ff9e	-1.1953008
29	0xbf29df27	-0.6635613
30	0x3d58f381	0.0529666
31	0xbee8d45b	-0.45474514
32	0x3b2417cd	0.00250386
33	0xbed247b2	-0.41070324
34	0xbe248a4f	-0.16068386
35	0xbf21a037	-0.63135093
36	0xbefc4104	-0.49268353
37	0xbe987236	-0.29774636
38	0xbe7ca054	-0.24670535
39	0xbf0de7c5	-0.5543178
40	0xbec8d1d1	-0.39222577
41	0xbeb46740	-0.35235023
42	0xbdec3c3b	-0.115349256
43	0xbf5e2532	-0.86775506
44	0xbf3983d8	-0.724668
45	0xbf4b70e9	-0.7946916
46	0xbeb732e0	-0.35781002
47	0x3e21b2f7	0.15790926
48	0xbeccbf49	-0.3998969
49	0xbea179ef	-0.3153834
50	0xbed45962	-0.41474444
51	0xbf1b2b16	-0.6061262
52	0xbe3d15e8	-0.18465388
53	0x3dccb909	0.0999623
54	0xbf2bdd4f	-0.67134565
55	0xbaec8add	-0.0018046756
56	0xbeacb427	-0.33731195
57	0xbebfe890	-0.3748212
58	0xbe58d442	-0.2117472
59	0xbecd52f1	-0.40102342
60	0xbe02ba0d	-0.12766285
61	0xbe3f30f8	-0.18671024
62	0xbef8b14c	-0.48572767
63	0xbe17db6e	-0.148298
64	0xbd67a2e2	-0.05655182
65	0xbe43c411	-0.19117762
66	0xbdcd3b81	-0.10021115
67	0xbd620dfb	-0.055189114
68	0xbeb85580	-0.3600273
69	0xbdf0b58c	-0.11753377
70	0x3e56e042	0.20983985
71	0xbf12dc86	-0.5736774
72	0xbf6da463	-0.9282896
73	0xbe53ef22	-0.2069669
74	0xbebff448	-0.3749106
75	0xbe4b51a9	-0.1985537
76	0xbe8691a5	-0.26282993
77	0xbedd4a72	-0.4322086
78	0xbe553e4a	-0.20824543
79	0xbf4f2d29	-0.80928284
80	0xbedebe52	-0.43504578
81	0xbe383000	-0.1798706
82	0xbec95e71	-0.39329866
83	0xbf086985	-0.5328601
84	0xbebac360	-0.36477184
85	0xbe675653	-0.22591524
86	0xbe979b5e	-0.29610723
87	0xbedfb9e2	-0.43696505
88	0xbf1127ce	-0.5670136
89	0xbc5dea99	-0.013544702
90	0xbf12e9ce	-0.5738801
91	0xbe4eb8c1	-0.20187666
92	0xbebbedd0	-0.36704874
93	0xbeafdb2f	-0.3434691
94	0xbf01eeed	-0.50755197
95	0xbe880a35	-0.26570287
96	0xbead030f	-0.33791396
97	0xbe5981a8	-0.21240866
98	0xbf0edc4d	-0.558049
99	0xbe8d6d1d	-0.2762231
100	0xbe92fc8e	-0.2870831
101	0xbe941ff6	-0.28930634
102	0xbe20abaf	-0.15690492
103	0x3e8a5e4d	0.2702507
104	0xbd6235d3	-0.055227112
105	0xbd601483	-0.05470706
106	0xbf014565	-0.5049651
107	0xbe141ff6	-0.14465317
108	0xbf81737d	-1.0113369
109	0xbd28c51f	-0.041203614
110	0xbf104926	-0.56361616
111	0xbed5849a	-0.4170273
112	0xbd805bff	-0.06267547
113	0xbcb2e618	-0.021838233
114	0x3c8afc1c	0.016965918
115	0xbdec139b	-0.11527177
116	0xbe9b52ee	-0.30336708
117	0xbe1cc08e	-0.15307829
118	0xbdfb9050	-0.12283385
119	0xbf29e567	-0.66365665
120	0xbdc19641	-0.09452487
121	0xbe45dcc9	-0.19322504
122	0xbea40197	-0.32032463
123	0xbed9ce42	-0.42540175
124	0xbe2303af	-0.15919374
125	0xbc1f6f46	-0.0097311195
126	0xbdf78164	-0.12085226
127	0xbe9ea8d6	-0.30988187
128	0xbda54507	-0.080698065
129	0xbef2e5b4	-0.47440875
130	0xbea54e67	-0.3228638
131	0xbe99940e	-0.2999577
132	0xbead7777	-0.33880207
133	0xbdd8d82a	-0.10588105
134	0xbeb47488	-0.35245156
135	0xbdcbb991	-0.09947503
136	0xbe9cb026	-0.3060314
137	0xbef8ad64	-0.48569787
138	0xbe559f2a	-0.20861498
139	0xbe53d302	-0.20685962
140	0xbef34a7c	-0.47517765
141	0xbe9ac8a6	-0.30231208
142	0xbf76e204	-0.9643862
143	0xbf9d4c66	-1.228894
144	0xbdb8b65f	-0.090191595
145	0xbe8ea8bd	-0.27863112
146	0xbf19012e	-0.59767425
147	0xb6af93d9	-5.232618e-06
148	0xbcd8616a	-0.026413638
149	0xbed753e2	-0.42056185
150	0xbedc496a	-0.4302476
151	0xbeca8c01	-0.3955994
152	0xbe93bfde	-0.2885732
153	0xbe8478ed	-0.2587351
154	0xbd70f72b	-0.058829468
155	0x3cee817b	0.029114475
156	0xbd1444ae	-0.03619831
157	0xbf3ad3c8	-0.729794
158	0xbea5e9df	-0.32404992
159	0xbf92ab4e	-1.1458528
160	0xbf8b345d	-1.0875355
161	0xbe874235	-0.264177
162	0xbdb5bd70	-0.08874023
163	0xbf018255	-0.50589496
164	0xbe297677	-0.16549097
165	0xbe9bcd96	-0.30430287
166	0xbef66374	-0.48122752
167	0xbf40f619	-0.75375515
168	0xbe847b45	-0.25875297
169	0xbfc10a69	-1.5081302
170	0xbd12b706	-0.035819076
171	0xbed4e08a	-0.4157756
172	0xbc91d476	-0.017801505
173	0xbf371530	-0.71516705
174	0xbfbe1560	-1.4850273
175	0xbeaab9e7	-0.33344957
176	0xbf32f8d8	-0.69910955
177	0xbd234d1f	-0.03986847
178	0xbf6fab23	-0.9362051
179	0xbd498d51	-0.049207035
180	0xbee78d03	-0.4522477
181	0xbe70563c	-0.23470396
182	0xbff0e9e4	-1.8821378
183	0x3c5ece83	0.013599041
184	0xbf2ad927	-0.667376
185	0xbe0e16a5	-0.13875826
186	0xbec5eba1	-0.38656333
187	0xbf77e62c	-0.9683559
188	0xbe9a5cd6	-0.30148953
189	0xbe1d87c6	-0.15383825
190	0xbe3f2607	-0.1866685
191	0xbf15eb56	-0.5856222
192	0xbf1f42be	-0.62211215
193	0xbf23a30f	-0.6392068
194	0xbe45d676	-0.19320092
195	0xbdf36e6c	-0.11886296
196	0xbebfb118	-0.374398
197	0xbe45d689	-0.1932012
198	0x3cd39de2	0.02583212
199	0xbebf5290	-0.37367678
200	0xbdf256bc	-0.118329495
201	0xbedc1062	-0.4298125
202	0xbed6064a	-0.41801673
203	0xbe1216dd	-0.14266534
204	0xbdcad0c1	-0.09903098
205	0xbea0e647	-0.31425688
206	0xbee7cabb	-0.4527186
207	0xbef43b1c	-0.47701347
208	0x3cc16f30	0.023612589
209	0xbddf1442	-0.10892536
210	0xbeedbfbb	-0.4643534
211	0xbf119466	-0.56867063
212	0xbf343ab8	-0.704021
213	0xbf8d31bd	-1.1030804
214	0xbf2aa01f	-0.66650575
215	0xbf35cdd8	-0.7101722
216	0xbe86defd	-0.26342002
217	0xbe5226e2	-0.20522645
218	0xbe76b70c	-0.24093264
219	0xbf0aa17d	-0.5415266
220	0xbf13dfe6	-0.57763517
221	0xbea764c7	-0.32694075
222	0xbf6ec4ab	-0.9326884
223	0xbf0868bd	-0.5328482
224	0xbec7d4b1	-0.39029458
225	0xbee4853b	-0.44632897
226	0xbf1a80c6	-0.6035274
227	0xbf0f7bad	-0.5604809
228	0xbf59426a	-0.84866965
229	0xbd4ab889	-0.049492393
230	0xbf1714fe	-0.59016407
231	0xbdc87f01	-0.09789849
232	0x3cba7e9f	0.022765456
233	0xbe01b06d	-0.12664957
234	0xbf1be11e	-0.60890377
235	0xbeecd623	-0.46257123
236	0xbdf1d1ec	-0.118076175
237	0xbd1efec6	-0.03881719
238	0xbeb7c8e0	-0.35895443
239	0xbdeffdf3	-0.11718359
240	0xbf61dfe3	-0.8823225
241	0xbde3aff3	-0.11117544
242	0xbedffb82	-0.43746573
243	0xbee1df1b	-0.44115528
244	0xbeb7ddf8	-0.35911536
245	0xbe9aabbe	-0.30209154
246	0xbe518208	-0.20459759
247	0xbe763b9b	-0.24046175
248	0xbea573e7	-0.3231499
249	0xbe192776	-0.1495646
250	0xbe92e2c6	-0.2868864
251	0xbf87335d	-1.056255
252	0xbf317a08	-0.6932683
253	0x3c985acf	0.018597988
254	0xbf628e1b	-0.88498086
255	0xbfab1617	-1.3366116

network.3.bias f4 [64]
0	0xc0434d33	-3.0515869
1	0xc01d514f	-2.4580877
2	0xc00f0fbc	-2.2353354
3	0xc0575eab	-3.365153
4	0xc0103026	-2.2529387
5	0xc02c9328	-2.6964817
6	0xc020f69b	-2.5150516
7	0xc060d7a9	-3.5131629
8	0xbfc96709	-1.5734569
9	0xc00d2d85	-2.2059033
10	0xc01bfe0a	-2.4373803
11	0xbff0ae84	-1.8803258
12	0xc03d14b2	-2.9543881
13	0xc04efa61	-3.234032
14	0xc00d139d	-2.204322
15	0xc016a8b1	-2.354046
16	0xc0133ce1	-2.3005908
17	0xc0690723	-3.6410606
18	0xbfb5b1b8	-1.419486
19	0xc014eb16	-2.3268485
20	0xc021d3ef	-2.5285604
21	0xc03a637b	-2.9123218
22	0xc003e17c	-2.0606375
23	0xc01bae77	-2.4325235
24	0xc00b2cea	-2.1746163
25	0xbfc83f68	-1.564435
26	0xc022d8d8	-2.544485
27	0xc05a4d5f	-3.4109724
28	0xc03b41ed	-2.9258988
29	0xbff6b964	-1.9275327
30	0xc03dbea8	-2.9647617
31	0xc035df71	-2.8417628
32	0xbfa8d403	-1.3189701
33	0xc044ff59	-3.0780852
34	0xc06d3185	-3.7061474
35	0xc00e67de	-2.2250896
36	0xc02565d7	-2.5843408
37	0xc0186f16	-2.3817801
38	0x3f094324	0.53618073
39	0xbfdb42ea	-1.7129796
40	0xc01f916f	-2.4932516
41	0xc0578c61	-3.367943
42	0xc004d445	-2.075456
43	0xc052d630	-3.294323
44	0xc031d0c0	-2.778366
45	0xc05b95e8	-3.4310246
46	0xc0741dca	-3.8143182
47	0xc01ef515	-2.4837086
48	0xbfd86911	-1.6907064
49	0xc000bd75	-2.0115635
50	0xbfe97de7	-1.8241547
51	0xc040e096	-3.0137076
52	0xc07c3f82	-3.9413762
53	0x3f8f5978	1.1199179
54	0xc0902ff2	-4.5058527
55	0xc06ef2e4	-3.7335749
56	0xc08c6684	-4.387514
57	0xbfa4fc5f	-1.2889518
58	0xc06ab9fc	-3.6676016
59	0xc00d21c6	-2.2051864
60	0xc016dfce	-2.35741
61	0xc0286cd7	-2.631643
62	0x3f5f811a	0.8730637
63	0xc007bca1	-2.120888

network.6.weight f4 [5, 64]
0	0xbcb322c9	-0.021867173
1	0x3e0f9318	0.14020956
2	0x3e6b65c3	0.22988038
3	0xbe3d28da	-0.18472615
4	0xbe1899e2	-0.14902452
5	0xbdf476f0	-0.11936748
6	0x3e4ee1ca	0.20203319
7	0xbe14d945	-0.14536007
8	0xbe19c6d5	-0.15017255
9	0xbdb1fac0	-0.08690405
10	0xbd81a230	-0.06329763
11	0xbe3add28	-0.18248427
12	0xbdb5b33a	-0.088720754
13	0x3d6d1f1f	0.057891008
14	0x3d31109c	0.04322873
15	0xbe5ea2e0	-0.2174182
16	0x3d1b2ab8	0.037882537
17	0x3d974cc2	0.07387687
18	0x3df23394	0.11826244
19	0xbdca2d70	-0.09871948
20	0x3da4439f	0.0802071
21	0x3d99184c	0.074753374
22	0x3c9baf61	0.019004526
23	0x3df1a0d4	0.11798254
24	0x3e061aa4	0.130961
25	0x3cd6d811	0.026226075
26	0xbd51661a	-0.051122762
27	0xbe827f1a	-0.25487596
28	0xbdcc9653	-0.099896096
29	0xbdcc67c8	-0.09980732
30	0x3d81dc2c	0.063408226
31	0x3e6def0f	0.23235725
32	0x3c8f3ea5	0.017485926
33	0x3e74c3ea	0.2390286
34	0x3e894a7a	0.26814634
35	0xbe971037	-0.29504558
36	0x3d43773b	0.04772113
37	0xbe550b82	-0.20805171
38	0xbe24fda2	-0.16112378
39	0xbe30c05d	-0.17260881
40	0xbe93d1e3	-0.28871068
41	0xbe226e94	-0.15862495
42	0xbc9c9cf4	-0.01911781
43	0x3ea2b33c	0.3177737
44	0xbd9a0de4	-0.07522181
45	0xbe06a5e2	-0.13149217
46	0x3c39d911	0.011343257
47	0x3e0ddfa5	0.13854845
48	0xbd50849f	-0.050907727
49	0x3d8a7a05	0.06761555
50	0xbe8c5e90	-0.27415895
51	0xbe0cb226	-0.13739833
52	0xbe2e33f8	-0.17012012
53	0xbdd2df74	-0.102965266
54	0x3e8e6bfc	0.2781676
55	0x3e1ea964	0.15494305
56	0xbe96479f	-0.29351518
57	0xbe609183	-0.21930508
58	0x3bec22c1	0.0072062914
59	0xbe04edb1	-0.12981297
60	0xbe97aaba	-0.29622442
61	0x3dec6434	0.1154255
62	0xbdf5b57b	-0.11997505
63	0x3cc5f229	0.024163323
64	0xbd42c472	-0.047550626
65	0x3e6dc14b	0.23218267
66	0x3e533081	0.20623972
67	0x3d807ba2	0.06273581
68	0xbee69df3	-0.4504238
69	0x3e1577b6	0.14596447
70	0xbe05b555	-0.13057454
71	0x3dbdb47f	0.092629425
72	0x3d34f4a8	0.044178635
73	0x3d810c5d	0.06301186
74	0xbe846885	-0.25860992
75	0xbe6114c3	-0.21980576
76	0x3e4cebd1	0.20011832
77	0x3e1476ae	0.14498398
78	0xbe053854	-0.13009769
79	0xbdf25f53	-0.11834588
80	0xbd862cdc	-0.06551525
81	0x3ef7327c	0.48280704
82	0xbec1e6b9	-0.3787134
83	0x3bdbdf2a	0.006709953
84	0x3e594972	0.21219423
85	0xbdef96d2	-0.116986886
86	0xbe9f8c2e	-0.31161636
87	0x3e560d52	0.20903519
88	0xbde18ea2	-0.11013533
89	0xbe97c1a6	-0.2963993
90	0xbf1483f6	-0.58013856
91	0xbdda5631	-0.10660971
92	0xbe3113af	-0.17292665
93	0x3e0884dd	0.13331933
94	0xbe4b6e91	-0.19866396
95	0xbd77b9a3	-0.06047977
96	0xbeec297b	-0.46125397
97	0x3ebd88c0	0.37018394
98	0x3bc0998f	0.0058776806
99	0x3e2be777	0.16787516
100	0xbe34e057	-0.17663704
101	0x3e6da463	0.2320724
102	0x3d7965c3	0.060888063
103	0xbe11b46e	-0.14228985
104	0xbdd157da	-0.102218345
105	0xbe7eafac	-0.24871701
106	0x3e277467	0.16352998
107	0xbe9e92f6	-0.30971497
108	0xbd12b63d	-0.035818327
109	0x3d1b01ae	0.0378434
110	0x3ea637ff	0.32464597
111	0x3cb6c4b8	0.0223106
112	0x3c35e548	0.011102028
113	0xbe5c60da	-0.21521321
114	0xbe8102fd	-0.25197592
115	0x3dcdd29d	0.10049937
116	0x3ed4f02a	0.4158948
117	0xbe759f5c	-0.23986572
118	0xbe92a82e	-0.28643936
119	0xbeee9693	-0.46599254
120	0xbf47c8f9	-0.78041035
121	0x3e559692	0.2085822
122	0x3e32f4f0	0.17476249
123	0xbd860504	-0.065439254
124	0x3e76d00c	0.24102801
125	0xbe024d75	-0.1272486
126	0xbe27fd1f	-0.16405152
127	0xbec5d751	-0.38640836
128	0x3d87d5dd	0.06632588
129	0xbe151ea5	-0.14562471
130	0xbea94d0f	-0.33066604
131	0xbc2f71b7	-0.010708264
132	0x3c941696	0.018077176
133	0xbe41a389	-0.1891004
134	0x3e7bd2dc	0.24592155
135	0x3e5a3ada	0.21311513
136	0x3e014c6c	0.12626809
137	0xbf14db76	-0.5814737
138	0xbe4b9e39	-0.19884576
139	0x3eae13b7	0.33999416
140	0xbdb05510	-0.086099744
141	0x3e1efa16	0.15525088
142	0xbe627903	-0.22116475
143	0xbe63d703	-0.22249989
144	0xbc1fb33e	-0.0097473245
145	0xbe12daf6	-0.1434134
146	0xbd1d99bd	-0.038476694
147	0x3ed6b54a	0.41935188
148	0x3e1483f6	0.14503464
149	0xbdd8d37a	-0.10587211
150	0x3d9b61c6	0.07587008
151	0xbd2d5066	-0.042313002
152	0x3e5b4ea2	0.21416715
153	0xbe66c503	-0.22536092
154	0x3e16f42e	0.14741585
155	0x3d9eecce	0.07760011
156	0x3cb5f4e7	0.022211505
157	0xbe4d3f68	-0.20043719
158	0x3e7f93cc	0.24958724
159	0xbd898e7d	-0.067166306
160	0x3dc40cb8	0.095727384
161	0xbc8fa514	-0.01753477
162	0xbc5b3f02	-0.013381721
163	0x3da82366	0.08209877
164	0xbe8602ad	-0.26173916
165	0xbe08d0a5	-0.13360842
166	0x3e59a412	0.21253994
167	0xbe25b64e	-0.16182825
168	0xbe52f391	-0.20600726
169	0x3e454920	0.19266176
170	0x3e6fbc53	0.23411684
171	0xbebd8280	-0.37013626
172	0x3e86ab79	0.26302698
173	0xbea54c0f	-0.3228459
174	0xbd7f65b4	-0.06235285
175	0xbe9bb626	-0.30412406
176	0xbd020fbc	-0.031753287
177	0xbc8553ac	-0.01627525
178	0xbe4ea470	-0.20179915
179	0x3e9d0ac6	0.30672282
180	0xbe84103d	-0.2579364
181	0x3e331368	0.17487872
182	0xbe0cfe2d	-0.13768835
183	0xbe8d7cbd	-0.2763423
184	0x3e867afd	0.26265708
185	0xbe7b3cdc	-0.24534935
186	0xbeaf998f	-0.34296843
187	0x3ea0af97	0.31383964
188	0xbda5fe2e	-0.081051216
189	0x3ef0eb74	0.47054636
190	0xbf0942b5	-0.5361741
191	0x3dfef2db	0.12448665
192	0xbe6c7748	-0.23092377
193	0x3e172ec6	0.14763936
194	0xbd53779a	-0.051627733
195	0xbddef9b1	-0.108874686
196	0x3c91a1ae	0.01777729
197	0x3d534662	0.051580794
198	0x3e64853b	0.22316448
199	0xbec8aac1	-0.39192775
200	0xbe3c887f	-0.18411444
201	0xbeed70d3	-0.4637514
202	0x3dbffb50	0.09374106
203	0xbde243e3	-0.110481046
204	0x3db3ca38	0.087788045
205	0x3d155c5d	0.036465038
206	0x3dbe3888	0.09288126
207	0x3e04856d	0.12941523
208	0xbe35d738	-0.1775788
209	0x3debd453	0.11515107
210	0x3e02fa1d	0.12790723
211	0x3ee0cdab	0.43906912
212	0x3dcc2f89	0.09970004
213	0x3df0d1ac	0.11758742
214	0xbd37f950	-0.044915497
215	0x3d78d6cc	0.06075172
216	0xbd694b1a	-0.056956388
217	0x3d1df525	0.038563866
218	0xbe2aaef7	-0.16668306
219	0xbccc67c9	-0.024951832
220	0xbddb140a	-0.106971815
221	0xbd326147	-0.043549802
222	0x3d5dd4b9	0.054157946
223	0xbd02f0bd	-0.031967867
224	0x3cdd8441	0.027040603
225	0x3e639c6b	0.22227637
226	0x3df993db	0.12186404
227	0xbe22e3a7	-0.15907155
228	0xbea9b8df	-0.33148858
229	0xbe2c86d6	-0.16848311
230	0x3eb69c18	0.35665965
231	0xbde6ecda	-0.112756446
232	0x3db5f4e8	0.08884603
233	0x3ddacdb9	0.1068377
234	0xbdf8fea3	-0.12157943
235	0x3eaa44b7	0.3325555
236	0xbd0cf33c	-0.034411654
237	0x3df9aa84	0.121907264
238	0xbd960e7d	-0.07326982
239	0x3d99e165	0.07513694
240	0x3deccfe2	0.11563088
241	0x3d00f4ed	0.03148358
242	0x3d254a7e	0.040354244
243	0xbe4101d0	-0.18848348
244	0x3e1d487d	0.15359683
245	0x3e4b2908	0.19839871
246	0x3ddd90c2	0.10818626
247	0x3eb74be0	0.35800076
248	0x3e782704	0.24233633
249	0x3cd061c2	0.02543724
250	0x3d9f5bbd	0.077811696
251	0x3d6207bb	0.055183154
252	0xbdcd61c9	-0.10028417
253	0xbe4d1d09	-0.20030607
254	0xba31d6a5	-0.00067839987
255	0x3e0e3cec	0.13890427

network.6.bias f4 [5]
0	0x3e4df5e9	0.20113339
1	0xbe16407e	-0.1467304
2	0x3c9f86b5	0.019473413
3	0x3e90854e	0.28226703
4	0x3d03da54	0.032190636
