experiments/checkpoints/20251210_110803/checkpoint_ep39.pt (torch, 246569 bytes, 24 tensors)

network.0.weight f4 [128, 43]
0	0xbba516b0	-0.005038105
1	0xbde51a64	-0.11186674
2	0xbdad104b	-0.08450373
3	0xbe3c1dcd	-0.18370743
4	0xbd33887c	-0.043831334
5	0xbe23f0cc	-0.16009825
6	0xbe1edbe9	-0.15513577
7	0x3e0cba4a	0.13742939
8	0x3e281da5	0.16417558
9	0xbe260874	-0.16214162
10	0xbc90cf01	-0.017676832
11	0xbdecae38	-0.11556667
12	0xbf014585	-0.50496703
13	0xbe0c97ba	-0.13729754
14	0xbeea9dd9	-0.45823553
15	0x3cb69ab9	0.022290574
16	0xbedf42e2	-0.43605715
17	0x3bdedae6	0.006800997
18	0x3c110b17	0.008852742
19	0xbda3ad03	-0.07991984
20	0xbe0c73f5	-0.13716109
21	0xbdb3bed6	-0.087766334
22	0x3e04f83c	0.12985319
23	0xbaa768ab	-0.0012772282
24	0xbdbb1633	-0.091350935
25	0x3e2b9e1f	0.16759537
26	0xbd3c7f56	-0.046019875
27	0x3e945ab9	0.28975466
28	0x3c6b826c	0.014374357
29	0xbccdbd4a	-0.025114674
30	0x3d8bc032	0.06823768
31	0x3db3ecca	0.08785398
32	0xbe3ac577	-0.1823939
33	0x3f09a74a	0.5377089
34	0x3e23ad9c	0.15984195
35	0x3e88f996	0.2675292
36	0x3e8885c5	0.26664558
37	0x3e29c21f	0.16577958
38	0xbf196829	-0.5992456
39	0xbe95d60e	-0.29264873
40	0x3e2b4b68	0.16727984
41	0xbe5e93f3	-0.21736126
42	0x3d1a9b04	0.03774549
43	0xbe2927d1	-0.16519095
44	0x3f0ff95f	0.56239885
45	0xbed42e09	-0.41441372
46	0xbcfea3b0	-0.031083912
47	0x3e2e25ab	0.17006557
48	0xbe3d0570	-0.18459105
49	0xbeb8fc2f	-0.361299
50	0x3da94854	0.082657486
51	0x3dbbbb85	0.09166626
52	0xbd1bbe7b	-0.038023453
53	0x3d2c077c	0.041999325
54	0x3d34abc5	0.044109125
55	0xbcdb505e	-0.02677172
56	0xbee3c969	-0.444896
57	0x3f3327b3	0.6998245
58	0x3ef685e1	0.48149016
59	0xbf3b3599	-0.7312866
60	0x3e45d960	0.19321203
61	0xbdc69e04	-0.09698108
62	0xbe3e60d6	-0.18591627
63	0x3d7b8b31	0.06141204
64	0x3da80e0f	0.082058065
65	0xbda6aadc	-0.081380576
66	0x3dedc522	0.11609866
67	0xbd3ed13a	-0.046586253
68	0xbdc55758	-0.096358
69	0x3dc6877a	0.09693809
70	0x3ea81c15	0.32833925
71	0xbee420ce	-0.44556278
72	0x3ef14d4d	0.47129288
73	0x3e2097d8	0.15682924
74	0x3c2255fb	0.009908195
75	0xbd893b11	-0.06700719
76	0x3e9d0df3	0.30674705
77	0xbdfc5650	-0.1232115
78	0x3d5602af	0.052248653
79	0xbe519d37	-0.20470129
80	0xbf8978cc	-1.0739989
81	0x3e75b86f	0.23996137
82	0xbef92716	-0.48662633
83	0x3eb9432c	0.3618406
84	0xbf0f4266	-0.5596069
85	0x3dc63fb6	0.09680121
86	0x3da9e739	0.08296055
87	0x3e565ccd	0.20933838
88	0xbe1772f7	-0.1478995
89	0xbee40f76	-0.44543046
90	0x3f28e009	0.6596685
91	0xbda57b22	-0.08080126
92	0xbc32fd72	-0.010924684
93	0x3d31cc3f	0.043407675
94	0x3d26b0ad	0.040695835
95	0xbdbfcfa9	-0.0936578
96	0xbd09e661	-0.033666972
97	0xbb9b7777	-0.004744466
98	0xbf483d13	-0.7821819
99	0xbf26fd1b	-0.6522996
100	0xbe6be509	-0.23036589
101	0xbe094f25	-0.13409097
102	0xbf4edd9d	-0.80806905
103	0x3f299985	0.6624988
104	0x3ec9660b	0.39335665
105	0x3d1c576d	0.038169313
106	0xbe3c52b5	-0.18390925
107	0x3e23852d	0.15968771
108	0x3dc7dab6	0.09758513
109	0xbe33d824	-0.1756292
110	0x3d757e98	0.059935182
111	0xbe19b20a	-0.15009323
112	0x3c885dd5	0.016646305
113	0x3d7bccf6	0.061474763
114	0x3d828c2d	0.06374393
115	0xbe98b2e5	-0.29823986
116	0xbe2ade46	-0.16686353
117	0xbdbb564b	-0.091473185
118	0x3e0d0a16	0.13773379
119	0x3cf76c11	0.030202897
120	0xbdcaf9f5	-0.09910957
121	0xbeb12822	-0.3460093
122	0x3ed6c365	0.4194595
123	0x3f0054f0	0.50129604
124	0xbf009c38	-0.5023837
125	0xbd820c63	-0.06350019
126	0xbdf0dd89	-0.117610045
127	0xbf116b4c	-0.5680435
128	0xbd14a007	-0.036285426
129	0x3c378205	0.011200433
130	0x3f2287b7	0.63488334
131	0xbf1dd08f	-0.6164636
132	0x3e975a70	0.29561186
133	0x3c664a67	0.014055825
134	0xbe3a2b94	-0.18180686
135	0xbd69a4f0	-0.057042062
136	0xbe37f633	-0.17965011
137	0xbcdcd212	-0.026955638
138	0x3d6fac1c	0.058513746
139	0xbe097709	-0.13424315
140	0x3c4c31f2	0.01246308
141	0xbdecfd5f	-0.11571764
142	0xbf0d3530	-0.5515928
143	0x3f19b00a	0.6003424
144	0x3e496938	0.19669044
145	0xbf7c2471	-0.98493105
146	0x3e13c523	0.1443067
147	0xbef082be	-0.46974748
148	0x3db4f41f	0.08835625
149	0xbd91e78f	-0.071242444
150	0x3e3c1c45	0.18370159
151	0xbc92a2d4	-0.017899908
152	0xbca005f0	-0.019534081
153	0xbdf6b375	-0.120459475
154	0x3daf927f	0.08572864
155	0xbe3f2a96	-0.18668589
156	0xbdc31c8d	-0.0952693
157	0xbed5b4b5	-0.4173943
158	0xbe43ac7e	-0.1910877
159	0xbdd318d0	-0.10307467
160	0x3e8075cb	0.2508987
161	0x3dabc7bf	0.08387708
162	0xbcc52e50	-0.024069935
163	0xbd0210a8	-0.031754166
164	0xbec25518	-0.37955546
165	0x3f22d702	0.63609326
166	0xbdbee0d0	-0.09320223
167	0xbcb1bb26	-0.021695685
168	0x39a8c3a2	0.00032189215
169	0x3e3bee00	0.18352509
170	0xbe8cd150	-0.27503443
171	0x3d1c057a	0.03809116
172	0xbe153f34	-0.14574891
173	0x3f1f02d4	0.6211369
174	0xbf2063c4	-0.6265223
175	0xbe0a1fc2	-0.13488677
176	0xbdc6e836	-0.097122595
177	0x3e095f1e	0.1341519
178	0x3ebcecfa	0.3689955
179	0xbdb287ae	-0.08717285
180	0xbd3c083a	-0.045906283
181	0x3e0ff048	0.14056504
182	0xbdd4df66	-0.10394172
183	0xbe2f40ab	-0.17114513
184	0xbdd70be8	-0.10500318
185	0xbeb7a284	-0.35866177
186	0xbde2c789	-0.110732146
187	0xbda721f0	-0.0816077
188	0xbf0207f2	-0.50793374
189	0x3dc21c1d	0.094780184
190	0xbe55cb09	-0.20878233
191	0xbdabb1c6	-0.08383517
192	0x3e311e53	0.17296724
193	0xbe32da30	-0.17466044
194	0x3d0d1649	0.03444508
195	0x3e211557	0.15730797
196	0xbc872108	-0.016495243
197	0x3da52c43	0.08065083
198	0x3e0edda6	0.1395174
199	0xbe61ef84	-0.22064024
200	0x3f532198	0.82473135
201	0xbea589cb	-0.3233169
202	0xbd251bd0	-0.040309727
203	0x3ed349dc	0.41267288
204	0xbe3837bc	-0.17990011
205	0xbf127111	-0.57203776
206	0x3ddaf054	0.1069037
207	0xbea59ca6	-0.32346076
208	0x3ec18641	0.3779774
209	0x3e135068	0.14386141
210	0xbe9334ad	-0.28751126
211	0x3c015a2d	0.007895035
212	0x3eebcf0a	0.46056396
213	0x3e9f8601	0.31156924
214	0x3df00d09	0.11721236
215	0xbd01593a	-0.031579234
216	0x3ee89813	0.45428523
217	0xbe765cf8	-0.24058902
218	0x3d6bc772	0.057563253
219	0x3d288cb4	0.04114981
220	0x3e04a312	0.12952831
221	0x3f047a30	0.51748943
222	0x3cb6f0e6	0.022331666
223	0x3d14f2c0	0.036364317
224	0xbe21a78f	-0.15786575
225	0x3d4bf386	0.04979279
226	0xbd38644d	-0.04501753
227	0xbf3636d9	-0.7117744
228	0xbe9fa4f1	-0.31180528
229	0xb97c4418	-0.0002405796
230	0x3e9b54a6	0.3033802
231	0xbf8e38d8	-1.1111097
232	0xbe618af2	-0.2202566
233	0xbf20d94d	-0.62831575
234	0x3d81b958	0.0633418
235	0x3da6c859	0.08143682
236	0x3df4403a	0.11926313
237	0x3dcf846c	0.10132679
238	0xbe027fa9	-0.12744011
239	0xbda34b77	-0.07973378
240	0xbe028256	-0.12745032
241	0xbdf1912e	-0.11795269
242	0x3ede87ff	0.43463132
243	0x3f1388d9	0.5763069
244	0x3e35dd9c	0.17760319
245	0x3e0aa927	0.13541089
246	0x3eaa5ddd	0.33274737
247	0x3c5cac0c	0.013468754
248	0x3ee61735	0.4493958
249	0x3dc4fdc3	0.09618714
250	0x3d095850	0.033531487
251	0x3e9ac4fd	0.30228415
252	0x3e4b82c1	0.19874097
253	0xbe6b6676	-0.22988304
254	0x3d31e8e7	0.043435004
255	0x3d1512b1	0.03639478

network.0.bias f4 [128]
0	0xc002a2f2	-2.0411954
1	0xc01fafb1	-2.4950984
2	0xbf6d530a	-0.9270483
3	0xc0210dd7	-2.5164697
4	0xbff05143	-1.8774799
5	0xbf8b020f	-1.0860003
6	0xbfdec6e0	-1.7404442
7	0xbfb02b3c	-1.3763194
8	0xbfaf74d3	-1.3707527
9	0xbf23c4e9	-0.63972336
10	0xc0021f93	-2.0331771
11	0xbf35e728	-0.7105584
12	0xbf9ca118	-1.2236662
13	0xbfc911dd	-1.5708576
14	0xbfdcc0f0	-1.724638
15	0xc007d507	-2.1223772
16	0xbfd192d7	-1.6372937
17	0xbff65174	-1.9243608
18	0xbf12d182	-0.57350934
19	0xbfa5c34f	-1.2950228
20	0xc01d4eb3	-2.4579284
21	0xbfd027b2	-1.6262114
22	0x3e2c6ffa	0.1683959
23	0xc0134f7e	-2.3017268
24	0xbfd0522f	-1.627508
25	0xbfb8a807	-1.4426278
26	0xbf6dbb96	-0.9286436
27	0xbfc678d8	-1.5505629
28	0xbff60a28	-1.922185
29	0xbfaec455	-1.3653666
30	0xbfbbe23d	-1.4678417
31	0xbfe71b98	-1.8055296
32	0xbf86bfcc	-1.0527282
33	0xbfc663e6	-1.5499237
34	0xbfb92b99	-1.446643
35	0xbece3846	-0.40277308
36	0xbfd0a2ed	-1.6299721
37	0xc00c7443	-2.194596
38	0xbfbefe37	-1.492133
39	0xbf170d09	-0.59004265
40	0xbfae0c4a	-1.35975
41	0x3e31bb44	0.17356592
42	0xbfca1454	-1.5787454
43	0xbf50033f	-0.81254953
44	0xc00fe99f	-2.248634
45	0xbf167dfa	-0.58785975
46	0xbf992a88	-1.1966105
47	0xbff016f6	-1.8757007
48	0xbf9d5046	-1.2290123
49	0xbfcc88bf	-1.5979232
50	0xc045206f	-3.0801046
51	0xbfb69ebd	-1.4267193
52	0xbffc888f	-1.9729174
53	0xbf7f94b9	-0.9983631
54	0xbf24c59f	-0.64364046
55	0xc02a61db	-2.6622226
56	0xbf0736a3	-0.52817744
57	0xbfa026c8	-1.2511835
58	0xbfe94aab	-1.8225912
59	0xbf684a4e	-0.9073838
60	0xc000e1ef	-2.01379
61	0xbfb9942f	-1.4498347
62	0xbfae4b2c	-1.3616691
63	0xbfbdd224	-1.4829755
64	0xc00a59e3	-2.1617362
65	0xbf18a15a	-0.596212
66	0xc0206c9c	-2.506629
67	0xbf74e3b9	-0.9565998
68	0xbfd8ea2b	-1.6946462
69	0xbfb747ef	-1.4318827
70	0xbffb971e	-1.9655492
71	0xbf0c704a	-0.5485884
72	0xbf1395de	-0.57650554
73	0xbfcc97e2	-1.5983851
74	0xbf85ad02	-1.0443423
75	0xbf71c0c7	-0.9443478
76	0xbf4d693b	-0.80238694
77	0xbfb3b46a	-1.4039433
78	0xc0206958	-2.5064297
79	0xbf624c54	-0.8839772
80	0xbff9148b	-1.9459394
81	0xbfea0018	-1.8281279
82	0xc00a00fd	-2.1563103
83	0x3e323516	0.17403063
84	0xc00c90f7	-2.196348
85	0xc01ac737	-2.418409
86	0xbefdde7d	-0.49583808
87	0xbf15c81e	-0.5850848
88	0xbfa724fc	-1.3058162
89	0xbfa2e8f7	-1.2727345
90	0xbfe6c9bd	-1.8030316
91	0xc0150959	-2.3286955
92	0xbda08081	-0.0783701
93	0xbf586d06	-0.84541357
94	0xbf037be2	-0.51360905
95	0xbfc8c23c	-1.5684276
96	0xbf8bcbdc	-1.0921588
97	0xbf802eb1	-1.0014249
98	0xbfd778ac	-1.6833701
99	0xbf4b6e6a	-0.79465353
100	0xc03253a7	-2.7863557
101	0xbdf6a580	-0.12043285
102	0xc00bb0a1	-2.1826556
103	0xbfcb385c	-1.5876575
104	0xbff237dc	-1.8923297
105	0xc00746de	-2.1137004
106	0xbf9c83f9	-1.2227775
107	0xbf4295d6	-0.7600988
108	0xbf3f58c1	-0.747448
109	0xbfc22265	-1.5166746
110	0xbecde553	-0.40214023
111	0xbfa30185	-1.2734839
112	0xc00326ea	-2.0492501
113	0xbff13112	-1.88431
114	0xbfb27ac1	-1.3943712
115	0xbfb0364f	-1.3766574
116	0xc0121b52	-2.2829175
117	0xc00256c6	-2.0365462
118	0xbf14c2ff	-0.5811004
119	0xbeef6b60	-0.46761608
120	0xbfb1e6f2	-1.3898604
121	0xbf9db284	-1.2320104
122	0xbfc59a9e	-1.543781
123	0xbfb48874	-1.4104142
124	0xc027329a	-2.6124635
125	0xbfa30d35	-1.2738405
126	0xbf9a9502	-1.2076724
127	0xbf807b74	-1.0037675

network.3.weight f4 [64, 128]
0	0xbd790fbb	-0.060806017
1	0xbd83e353	-0.06439843
2	0xbdaea042	-0.085266605
3	0xbf19155f	-0.59798235
4	0xbd761aaa	-0.060084023
5	0x3de584d9	0.11206979
6	0xbe7c6a79	-0.24649991
7	0xbe2a1397	-0.16609035
8	0xbea2d0e6	-0.31800002
9	0x3e164631	0.14675213
10	0xbe09dae9	-0.13462414
11	0xbe8a30ce	-0.2699036
12	0xbe0cb9aa	-0.137427
13	0xbe20c699	-0.15700759
14	0xbe66ca70	-0.22538161
15	0xbf2373bc	-0.6384847
16	0xbd98082e	-0.07423435
17	0xbe9cb8d0	-0.3060975
18	0xbe644764	-0.22292858
19	0xbe3bfea5	-0.18358858
20	0xbf032698	-0.51230764
21	0xbf13657b	-0.5757672
22	0xbf25a7ea	-0.6470934
23	0xbeab9174	-0.3350941
24	0xbd2c05dc	-0.041997775
25	0x3e824640	0.25444221
26	0x3cca04d5	0.024660507
27	0xbf1380f3	-0.57618636
28	0xbf98ffb8	-1.1953039
29	0xbf29df23	-0.66356105
30	0x3d58f369	0.05296651
31	0xbee8d4f2	-0.45474964
32	0x3b241700	0.0025038123
33	0xbed24848	-0.4107077
34	0xbe248abe	-0.16068551
35	0xbf21a06f	-0.6313543
36	0xbefc412a	-0.49268466
37	0xbe9872ac	-0.29774988
38	0xbe7ca04c	-0.24670523
39	0xbe725800	-0.23666382
40	0xbec8d1c6	-0.39222544
41	0xbeb4675b	-0.35235104
42	0xbdec3c7e	-0.115349755
43	0xbf5e2552	-0.86775696
44	0xbed06523	-0.4070216
45	0xbf4b70de	-0.79469097
46	0xbeb7339a	-0.35781556
47	0x3e21b386	0.15791139
48	0xbeccbfe7	-0.3999016
49	0xbea179f7	-0.31538364
50	0xbed45a18	-0.41474986
51	0xbf1b2b68	-0.6061311
52	0xbe3d169a	-0.18465653
53	0x3dccb91a	0.09996243
54	0xbf2bddcc	-0.6713531
55	0xbaec8b9a	-0.0018046976
56	0xbeacb43e	-0.33731264
57	0xbebfe910	-0.374825
58	0xbe58d49c	-0.21174854
59	0xbecd52f1	-0.40102342
60	0xbe02ba49	-0.12766375
61	0xbe3f3151	-0.18671156
62	0xbef8b16d	-0.48572865
63	0xbe17dc00	-0.14830017
64	0xbea2416b	-0.31690535
65	0xbe43c4ad	-0.19117995
66	0xbdcd3bc3	-0.10021164
67	0xbd620e53	-0.055189442
68	0xbeb855c7	-0.36002943
69	0xbdf0b5b5	-0.11753408
70	0x3e56e053	0.2098401
71	0xbf12dcbc	-0.57368064
72	0xbe9637de	-0.29339498
73	0xbe53ef36	-0.2069672
74	0xbebff4c6	-0.37491435
75	0xbe4b5202	-0.19855502
76	0xbe8691dd	-0.2628316
77	0xbedd4ab7	-0.43221065
78	0xbe553eee	-0.20824787
79	0xbefbb765	-0.49163356
80	0xbe246a63	-0.16056208
81	0xbe383028	-0.1798712
82	0xbec95e6e	-0.39329857
83	0xbe5cba1c	-0.2155537
84	0xbebac3d3	-0.36477527
85	0xbe675690	-0.22591615
86	0xbe979b61	-0.29610732
87	0xbdf46efd	-0.11935232
88	0xbf112862	-0.56702244
89	0xbc5dea43	-0.013544622
90	0xbe833070	-0.25622892
91	0xbe4eb90f	-0.20187782
92	0xbebbee7f	-0.36705396
93	0xbeafdb67	-0.34347078
94	0xbf01ef3a	-0.50755656
95	0xbe880a76	-0.2657048
96	0xbead03ae	-0.3379187
97	0x3d458729	0.048224602
98	0xbf0edc48	-0.5580487
99	0xbe8d6d5e	-0.27622503
100	0x3cfa54c2	0.030557994
101	0x3ce83cd6	0.028349321
102	0xbe20abdc	-0.15690559
103	0x3e18f46a	0.14936987
104	0xbd6235f3	-0.05522723
105	0xbd6014df	-0.054707404
106	0xbf0145a4	-0.5049689
107	0xbe142078	-0.14465511
108	0xbf8173b3	-1.0113434
109	0xbd1e2c94	-0.03861673
110	0xbf104932	-0.5636169
111	0xbed584ef	-0.41702983
112	0xbd805c7a	-0.062676385
113	0xbcb2e6ca	-0.021838564
114	0x3c8afbae	0.016965713
115	0xbdec141c	-0.11527273
116	0xbe9b534f	-0.30336997
117	0xbe1cc113	-0.15308027
118	0x3ebc6b1b	0.36800465
119	0xbeb12873	-0.34601173
120	0xbdc196c9	-0.09452588
121	0xbe45dcd4	-0.1932252
122	0xbea4021b	-0.32032856
123	0xbed9cec1	-0.42540553
124	0x3d3c6238	0.045992106
125	0xbc1f6f94	-0.009731192
126	0xbdf7815f	-0.120852225
127	0xbe9ea98c	-0.3098873
128	0xbda5459f	-0.0806992
129	0xbef2e5c9	-0.47440937
130	0xbea54ef9	-0.32286814
131	0xbe9994b3	-0.2999626
132	0xbead77d8	-0.33880496
133	0xbdd8d896	-0.105881855
134	0xbeb474a8	-0.35245252
135	0xbdcbb9ba	-0.09947534
136	0xbe9cb0c1	-0.30603603
137	0xbef8ade2	-0.48570162
138	0xbe559fbf	-0.2086172
139	0xbe53d392	-0.20686176
140	0xbef34b10	-0.47518206
141	0xbe9ac92d	-0.3023161
142	0xbf76e27d	-0.96439344
143	0xbf9d4d21	-1.2289163
144	0xbdb8b5d2	-0.090190545
145	0xbe8ea964	-0.2786361
146	0xbf1901bc	-0.5976827
147	0x3ea29fb1	0.3176246
148	0xbcd861f6	-0.026413899
149	0xbed75463	-0.4205657
150	0xbedc4a0f	-0.43025252
151	0xbeca8bf9	-0.39559916
152	0xbe93c07a	-0.28857785
153	0xbe84792a	-0.2587369
154	0xbd70f690	-0.05882889
155	0x3cee81f3	0.029114699
156	0x3ee2b2cf	0.44277045
157	0xbf3ad3f5	-0.7297967
158	0xbbd35c2d	-0.006450197
159	0xbf92abb7	-1.1458653
160	0xbf8b34a5	-1.0875441
161	0xbe7e0c22	-0.24809316
162	0xbdb5bdbf	-0.08874082
163	0xbe41f7a1	-0.18942119
164	0xbe2976d8	-0.16549242
165	0xbe9bcdd5	-0.30430475
166	0xbef663fb	-0.48123154
167	0xbf2957a2	-0.6614934
168	0xbe847ba0	-0.25875568
169	0xbf9cb6fa	-1.224334
170	0xbd12b705	-0.035819072
171	0xbed4e11c	-0.41577995
172	0xbc91d523	-0.017801827
173	0xbf371595	-0.71517307
174	0xbfe1abc2	-1.7630541
175	0xbeaaba73	-0.33345374
176	0xbf18d75c	-0.5970361
177	0xbd234d73	-0.039868783
178	0xbf6fabc6	-0.9362148
179	0xbd498d4d	-0.04920702
180	0xbe09db4c	-0.13462561
181	0xbe705687	-0.23470508
182	0xbff0e9e1	-1.8821374
183	0x3ea96b69	0.3308976
184	0xbf2ad961	-0.66737944
185	0xbe0e16bf	-0.13875864
186	0xbec5eb98	-0.38656306
187	0xbf77e64c	-0.9683578
188	0xbe9a5d53	-0.30149326
189	0xbe1d8857	-0.15384041
190	0xbe3f25a9	-0.1866671
191	0xbf15eb73	-0.5856239
192	0xbf1f432d	-0.6221188
193	0xbf23a30b	-0.6392066
194	0x3dee5a01	0.11638261
195	0xbdf36e69	-0.118862934
196	0xbebfb1ad	-0.37440243
197	0xbe45d6a0	-0.19320154
198	0x3cd39e8a	0.025832433
199	0xbebf5296	-0.37367696
200	0x3c55855b	0.013032283
201	0xbedc10bf	-0.42981526
202	0xbed606d7	-0.41802093
203	0xbe1216c2	-0.14266494
204	0xbbcfa89c	-0.0063372385
205	0xbea0e64c	-0.31425703
206	0xbe0b9c7d	-0.13633914
207	0xbecaa122	-0.3957606
208	0x3cc16f23	0.023612564
209	0xbddf14b7	-0.10892623
210	0xbe16b65d	-0.14718004
211	0xbf119473	-0.5686714
212	0xbed4a153	-0.4152933
213	0xbf8d323b	-1.1030954
214	0xbf2aa019	-0.6665054
215	0xbf35ce51	-0.7101794
216	0xbe86df55	-0.26342264
217	0xbe52279c	-0.20522922
218	0xbe76b79d	-0.2409348
219	0xbf0aa21b	-0.54153603
220	0xbe851e63	-0.25999746
221	0xbea76504	-0.32694256
222	0xbf6ec4ca	-0.93269026
223	0xbf0868f7	-0.53285164
224	0xbec7d539	-0.39029863
225	0xbee48575	-0.4463307
226	0xbf1a813f	-0.60353464
227	0xbf0f7bf6	-0.56048524
228	0xbf59429c	-0.8486726
229	0x3d370ab4	0.04468794
230	0xbf17158f	-0.5901727
231	0x3e6f89cd	0.2339241
232	0x3cba7e17	0.022765202
233	0xbe01b08c	-0.12665004
234	0xbf1be1bd	-0.60891324
235	0xbeecd67e	-0.46257395
236	0xbdf1d27f	-0.11807727
237	0x3e072e16	0.13201174
238	0xbeb7c980	-0.3589592
239	0xbdeffe35	-0.11718408
240	0xbf61dff1	-0.8823233
241	0xbde3b0aa	-0.1111768
242	0xbedffc3c	-0.43747127
243	0xbee1df86	-0.44115847
244	0xbeb7de60	-0.35911846
245	0xbe9aac59	-0.30209616
246	0x3eb2ebe8	0.34945607
247	0xbf0ede3d	-0.5580786
248	0xbea57453	-0.3231531
249	0xbe1927e1	-0.14956619
250	0xbe92e302	-0.28688818
251	0xbf8733a2	-1.0562632
252	0xbe5c37fc	-0.21505731
253	0x3eabf966	0.33588713
254	0xbf628e67	-0.8849854
255	0xbf6386c2	-0.888775

network.3.bias f4 [64]
0	0xbfd8e39d	-1.6944462
1	0xbf43c32d	-0.7646969
2	0xbf0e28ee	-0.55531204
3	0xbb4a0001	-0.0030822756
4	0xbf4adb00	-0.7924042
5	0xbf25a161	-0.6469937
6	0xbf4157d1	-0.7552462
7	0xbf7a7b7c	-0.9784467
8	0xbf457126	-0.77125776
9	0xbf39bf2d	-0.72557336
10	0xbf75f645	-0.960789
11	0xbf585557	-0.8450522
12	0xbf5d09d0	-0.863431
13	0xbf8904d1	-1.0704595
14	0xbf55909a	-0.8342377
15	0xbf4e1cbd	-0.805126
16	0xbf3c4cc4	-0.73554635
17	0xbfa36daa	-1.2767842
18	0xbf48edb5	-0.7848771
19	0x3f891eac	1.0712485
20	0xbf92cedb	-1.1469377
21	0xbf70d179	-0.9406963
22	0xbf29dfd5	-0.66357166
23	0xbf5b8fa1	-0.85766035
24	0xbf435784	-0.76305413
25	0x3f4e24c7	0.8052487
26	0xbf96cc02	-1.1781008
27	0xbf5fba53	-0.87393683
28	0xbf8c6cb7	-1.0970677
29	0xbf520f29	-0.8205438
30	0xbf6b0ed2	-0.9181949
31	0xbf5ae237	-0.85501426
32	0x3f670ba8	0.9025216
33	0xbf62ad03	-0.88545245
34	0xbfa4123b	-1.2818063
35	0xbf84a8a4	-1.0363965
36	0xbf292158	-0.66066504
37	0xbf23de8d	-0.6401146
38	0x3f6e9aae	0.9320477
39	0xbf805d2b	-1.0028433
40	0xbf3537c2	-0.70788205
41	0xbf4efb20	-0.80851936
42	0xbf3d7ab9	-0.74015385
43	0xbe2e5e26	-0.17028102
44	0xbf8ec04c	-1.1152434
45	0xbf47dff3	-0.78076094
46	0xbf317451	-0.6931811
47	0x3f53b95f	0.8270473
48	0xbf14ed48	-0.5817456
49	0xbf3b83d0	-0.73248005
50	0xbf491576	-0.7854837
51	0xbf39018c	-0.72267985
52	0xbf13ba7f	-0.57706445
53	0x3fdb4117	1.7129239
54	0xbf1fe81c	-0.62463546
55	0xbf1a824c	-0.6035507
56	0x3f540487	0.8281941
57	0xbf3c82c9	-0.7363706
58	0xbef9cd6c	-0.48789537
59	0xbf8befb6	-1.0932529
60	0xbf43b4ba	-0.7644764
61	0xbf7cf02a	-0.9880396
62	0x3f1bbf33	0.6083862
63	0x3f8cddec	1.1005225

network.6.weight f4 [5, 64]
0	0xbcc8c000	-0.024505615
1	0x3d0ad4b7	0.033894267
2	0xbd5faeaf	-0.05460995
3	0x3cacf2a4	0.021111794
4	0x3c3cc556	0.011521658
5	0xbde5ef42	-0.112272754
6	0x3d1b1a94	0.037867144
7	0x3d6f41ad	0.058412243
8	0xbe17cbfc	-0.14823908
9	0x3e6bf9a0	0.23044443
10	0xbc292273	-0.010323155
11	0x3d8c46bf	0.06849431
12	0x3e0a0c4b	0.13481252
13	0x3dca9f24	0.09893635
14	0x3c8b7ec9	0.01702823
15	0xbdbbe8e9	-0.091752835
16	0xbd48cde1	-0.049024466
17	0x3d5ef8c2	0.054436453
18	0x3da852d2	0.08218922
19	0xbc962ffd	-0.01833343
20	0xbddb1197	-0.10696714
21	0x3d73e889	0.059547935
22	0xbd532f87	-0.051558997
23	0x3d2ba515	0.04190548
24	0x3d137bfb	0.03600691
25	0xbdc377cc	-0.09544334
26	0xbd8a3eb7	-0.06750243
27	0xbe68226c	-0.22669381
28	0xbdc76ce0	-0.09737563
29	0x3d5258c1	0.051354174
30	0x3e16ecc2	0.14738753
31	0x3d20f523	0.03929628
32	0xbd602778	-0.05472514
33	0xba4687e6	-0.0007573351
34	0x3dd477a3	0.103743814
35	0xbc26175e	-0.010137407
36	0x3c71cc3b	0.014758165
37	0xbc989329	-0.018624859
38	0xbe4c431c	-0.19947475
39	0x3cc73140	0.024315476
40	0x3dacdfbb	0.08441111
41	0xbdfb3a04	-0.12266925
42	0x3c8d1c11	0.017225297
43	0x3bc3d52d	0.0059763403
44	0xbd9f7f9c	-0.077880114
45	0x3ddb85b1	0.10718859
46	0x3d3bbb3f	0.04583287
47	0xbddde906	-0.10835461
48	0x3e1217de	0.14266917
49	0x3d83a212	0.06427397
50	0xbd3adc1a	-0.04562006
51	0x3e7250e8	0.23663676
52	0x3dcb2f01	0.09921075
53	0xbdc2153b	-0.09476706
54	0xbced799d	-0.028988654
55	0x3b612076	0.0034351624
56	0xbd7fb144	-0.062424913
57	0x3cfa4b0a	0.03055336
58	0x3b6a81bc	0.0035782894
59	0xbda99f24	-0.08282307
60	0xbd21e145	-0.039521474
61	0x3ddee1b2	0.10882892
62	0xbd6adfe8	-0.05734244
63	0xbde8f61d	-0.113750674
64	0xbd42c472	-0.047550626
65	0x3e6dc171	0.23218323
66	0x3e532fe2	0.20623735
67	0x3d807b07	0.062734656
68	0xbee69e63	-0.45042714
69	0x3e1577bc	0.14596456
70	0xbe05b57d	-0.13057514
71	0x3dbdb427	0.09262877
72	0x3d34f50c	0.044179007
73	0x3d810d1b	0.06301328
74	0xbe8468a8	-0.25861096
75	0xbe611559	-0.219808
76	0x3e4cebef	0.20011877
77	0x3e14774f	0.14498638
78	0xbe0537d6	-0.13009581
79	0xbdf25ebe	-0.11834477
80	0xbd862c76	-0.06551449
81	0x3ef7329b	0.48280796
82	0xbec1e72f	-0.37871692
83	0x3bdbdfb1	0.0067100157
84	0x3e594a00	0.21219635
85	0xbdef9693	-0.11698642
86	0xbe9f8c8f	-0.31161925
87	0x3e560d4c	0.2090351
88	0xbde18e65	-0.11013488
89	0xbe97c23b	-0.29640374
90	0xbf148405	-0.58013946
91	0xbdda55ca	-0.10660894
92	0xbe311349	-0.17292513
93	0x3e088500	0.13331985
94	0xbe4b6eb1	-0.19866444
95	0xbd77b91d	-0.060479272
96	0xbeec29b9	-0.46125582
97	0x3ebd8905	0.370186
98	0x3bc09a00	0.005877733
99	0x3e2be7f8	0.16787708
100	0xbe34dfb8	-0.17663467
101	0x3e6da4f5	0.23207457
102	0x3d796501	0.06088734
103	0xbe11b4a3	-0.14229064
104	0xbdd157ec	-0.10221848
105	0xbe7eb064	-0.24871975
106	0x3e277460	0.16352987
107	0xbe9e938c	-0.30971944
108	0xbd12b5c6	-0.035817884
109	0x3d1b021b	0.037843805
110	0x3ea637ff	0.32464597
111	0x3cb6c4b0	0.022310585
112	0x3c35e599	0.011102104
113	0xbe5c611b	-0.21521418
114	0xbe81030f	-0.25197646
115	0x3dcdd29d	0.10049937
116	0x3ed4f02a	0.4158948
117	0xbe75a013	-0.23986845
118	0xbe92a887	-0.286442
119	0xbeee972d	-0.46599713
120	0xbf47c938	-0.7804141
121	0x3e5596bb	0.2085828
122	0x3e32f5a7	0.17476521
123	0xbd8604c7	-0.0654388
124	0x3e76d031	0.24102856
125	0xbe024e26	-0.12725124
126	0xbe27fd95	-0.16405328
127	0xbec5d75d	-0.38640872
128	0x3d87d5d6	0.06632583
129	0xbe151e0e	-0.14562246
130	0xbea94d09	-0.33066586
131	0xbc2f71e9	-0.010708311
132	0x3c941740	0.018077493
133	0xbe41a412	-0.18910244
134	0x3e7bd304	0.24592215
135	0x3e5a3adf	0.2131152
136	0x3e014c56	0.12626776
137	0xbf14dbbb	-0.5814778
138	0xbe4b9ee5	-0.19884832
139	0x3eae1413	0.3399969
140	0xbdb0555d	-0.08610032
141	0x3e1efa2e	0.15525123
142	0xbe6279a8	-0.2211672
143	0xbe63d707	-0.22249995
144	0xbc1fb38d	-0.009747398
145	0xbe12db21	-0.14341404
146	0xbd1d9923	-0.03847612
147	0x3ed6b59e	0.41935438
148	0x3e14844f	0.14503597
149	0xbdd8d374	-0.105872065
150	0x3d9b61c6	0.07587008
151	0xbd2d5029	-0.042312775
152	0x3e5b4f1e	0.214169
153	0xbe66c56b	-0.22536246
154	0x3e16f4eb	0.14741866
155	0x3d9eecf2	0.077600375
156	0x3cb5f417	0.022211118
157	0xbe4d3f38	-0.20043647
158	0x3e7f93df	0.24958752
159	0xbd898f30	-0.06716764
160	0x3dc40c11	0.09572614
161	0xbc8fa4ea	-0.017534692
162	0xbc5b3f08	-0.013381727
163	0x3da822d8	0.08209771
164	0xbe86034a	-0.26174384
165	0xbe08d14e	-0.13361093
166	0x3e59a426	0.21254024
167	0xbe25b623	-0.16182761
168	0xbe52f363	-0.20600657
169	0x3e4548c5	0.1926604
170	0x3e6fbc5e	0.234117
171	0xbebd8332	-0.37014157
172	0x3e86ab79	0.26302698
173	0xbea54c79	-0.32284907
174	0xbd7f65cd	-0.062352944
175	0xbe9bb671	-0.3041263
176	0xbd020f1b	-0.031752687
177	0xbc855351	-0.01627508
178	0xbe4ea3c3	-0.20179658
179	0x3e9d0b59	0.3067272
180	0xbe841041	-0.2579365
181	0x3e3313af	0.17487977
182	0xbe0cfe5d	-0.13768907
183	0xbe8d7d24	-0.27634537
184	0x3e867af7	0.2626569
185	0xbe7b3d11	-0.24535014
186	0xbeaf99e3	-0.34297094
187	0x3ea0b034	0.31384432
188	0xbda5fd89	-0.081049986
189	0x3ef0eba3	0.47054777
190	0xbf094361	-0.5361844
191	0x3dfef21a	0.12448521
192	0xbe6c7748	-0.23092377
193	0x3e172eca	0.14763942
194	0xbd53781b	-0.051628213
195	0xbddef91f	-0.1088736
196	0x3c91a1e0	0.017777383
197	0x3d534656	0.05158075
198	0x3e6485a5	0.22316606
199	0xbec8ab64	-0.3919326
200	0xbe3c87f3	-0.18411236
201	0xbeed70f8	-0.4637525
202	0x3dbffc07	0.09374242
203	0xbde243db	-0.11048099
204	0x3db3ca60	0.08778834
205	0x3d155c3b	0.03646491
206	0x3dbe3941	0.09288264
207	0x3e048605	0.1294175
208	0xbe35d764	-0.17757946
209	0x3debd448	0.11515099
210	0x3e02fa97	0.12790905
211	0x3ee0cda6	0.43906897
212	0x3dcc3038	0.099701345
213	0x3df0d1b2	0.11758746
214	0xbd37f9c6	-0.044915937
215	0x3d78d6ff	0.06075191
216	0xbd694a76	-0.056955777
217	0x3d1df496	0.038563333
218	0xbe2aaf04	-0.16668326
219	0xbccc684b	-0.024952075
220	0xbddb1480	-0.106972694
221	0xbd32608b	-0.0435491
222	0x3d5dd4a0	0.054157853
223	0xbd02f0ca	-0.031967916
224	0x3cdd8400	0.027040482
225	0x3e639cb6	0.22227749
226	0x3df993b8	0.12186378
227	0xbe22e421	-0.15907337
228	0xbea9b93c	-0.33149135
229	0xbe2c860e	-0.16848013
230	0x3eb69c6e	0.3566622
231	0xbde6ecaf	-0.112756126
232	0x3db5f4f6	0.08884613
233	0x3ddacd31	0.106836684
234	0xbdf8fe4a	-0.12157877
235	0x3eaa4548	0.33255982
236	0xbd0cf2de	-0.034411304
237	0x3df9ab18	0.12190837
238	0xbd960dd2	-0.07326855
239	0x3d99e0ac	0.07513556
240	0x3deccf0f	0.11562931
241	0x3d00f55d	0.031483997
242	0x3d2549e8	0.040353686
243	0xbe4101b7	-0.1884831
244	0x3e1d4834	0.15359575
245	0x3e4b28ce	0.19839785
246	0x3ddd915e	0.10818742
247	0x3eb74c0d	0.3580021
248	0x3e782725	0.24233682
249	0x3cd061e5	0.025437305
250	0x3d9f5b71	0.07781113
251	0x3d6207c0	0.055183172
252	0xbdcd6224	-0.100284845
253	0xbe4d1dc3	-0.20030884
254	0xba31d548	-0.00067837955
255	0x3e0e3cd2	0.13890389

network.6.bias f4 [5]
0	0xbd8cc8de	-0.0687425
1	0xbe1640e0	-0.14673185
2	0x3c9f8651	0.019473227
3	0x3e908582	0.28226858
4	0x3d03d9fe	0.032190315

network.0.weight f4 [128, 43]
0	0xbba516b0	-0.005038105
1	0xbd94aec5	-0.07259897
2	0xbdfd7bc6	-0.123771235
3	0x3d57a91a	0.052651502
4	0xbdb57291	-0.088597424
5	0xbe23f0cc	-0.16009825
6	0xbe1a2222	-0.15052083
7	0x3e0cba4a	0.13742939
8	0x3e281da5	0.16417558
9	0xbe260874	-0.16214162
10	0xbc90cf01	-0.017676832
11	0xbdecae38	-0.11556667
12	0xbe33c8b5	-0.17557032
13	0x3dc0ba92	0.094105855
14	0xbda55c98	-0.080743015
15	0xbd9aab13	-0.07552161
16	0xbde21094	-0.11038318
17	0x3d9786c8	0.07398754
18	0x3c7c03b1	0.0153817395
19	0xbda3ad03	-0.07991984
20	0xbe0c73f5	-0.13716109
21	0xbdb3bed6	-0.087766334
22	0x3e04f83c	0.12985319
23	0xbaa768af	-0.0012772287
24	0xbdbb1633	-0.091350935
25	0x3e2b9e1f	0.16759537
26	0xbd3c7f56	-0.046019875
27	0xbd8e140f	-0.069374196
28	0xbd853622	-0.06504466
29	0x3ba9d7e8	0.0051832087
30	0x3d8bc035	0.0682377
31	0x3d6680cf	0.056275185
32	0xbe3ac577	-0.1823939
33	0x3e36ddba	0.1785802
34	0x3e23ad9c	0.15984195
35	0x3d5b4ef6	0.0535421
36	0x3e2e7f8f	0.17040847
37	0x3ddaed60	0.10689807
38	0xbce43542	-0.027857427
39	0xbe6f2eba	-0.23357669
40	0x3d96b12a	0.0735801
41	0xbe08410c	-0.13306063
42	0x3d1a9b04	0.03774549
43	0xbe2927d1	-0.16519095
44	0x3e7b4859	0.24539317
45	0xbdc77dbb	-0.09740778
46	0x3c53048f	0.012879505
47	0xbd28c77b	-0.041205864
48	0xbe3d0570	-0.18459105
49	0xbdb5c65a	-0.08875723
50	0x3da94854	0.082657486
51	0x3dbbbb85	0.09166626
52	0xbd1bbe7b	-0.038023453
53	0x3d2c077f	0.041999336
54	0x3d34abc5	0.044109125
55	0x3b27f3c9	0.0025627485
56	0xbdfd4229	-0.12366135
57	0x3e301fec	0.17199677
58	0x3dfebbd2	0.12438168
59	0xbe44bbbe	-0.19212243
60	0x3c0966c0	0.008386314
61	0xbe47f990	-0.19528794
62	0xbe3e60d6	-0.18591627
63	0x3d7b8b31	0.06141204
64	0x3da80e0f	0.082058065
65	0xbda6aadc	-0.081380576
66	0x3dedc522	0.11609866
67	0xbd3ed13a	-0.046586253
68	0xbdc55758	-0.096358
69	0x3dc6877a	0.09693809
70	0x3e3d6d83	0.18498807
71	0x3c861488	0.016367212
72	0xbdee0d88	-0.11623675
73	0x3e2097d8	0.15682924
74	0xbd789878	-0.06069228
75	0xbd893b11	-0.06700719
76	0x3e27515b	0.16339628
77	0xbdfc5650	-0.1232115
78	0x3e200fd4	0.15631038
79	0xbe4bb6ed	-0.19894
80	0xbe16295d	-0.14664216
81	0x3e21c5aa	0.15798059
82	0xbe0d2867	-0.13784944
83	0xbc9ae015	-0.018905679
84	0xbe64d2f5	-0.22346099
85	0x3dc63fb6	0.09680121
86	0x3da9e739	0.08296055
87	0x3cbc0b46	0.022954594
88	0x3d1da1af	0.03848427
89	0xbdf20666	-0.11817627
90	0x3e6dd5b1	0.23226048
91	0xbda57b22	-0.08080126
92	0xbc95f0cf	-0.018303303
93	0x3d31cc3f	0.043407675
94	0x3d26b0ad	0.040695835
95	0xbdbfcfa9	-0.0936578
96	0xbd09e661	-0.033666972
97	0xbb9b7777	-0.004744466
98	0xbe719dc1	-0.23595335
99	0xbe40f2f1	-0.18842675
100	0xbe0808af	-0.13284563
101	0xbdac872b	-0.08424219
102	0xbe9c14ca	-0.3048461
103	0x3dc3a137	0.09552234
104	0x3e41051a	0.18849602
105	0x3d1c576d	0.038169313
106	0xbe3c52b5	-0.18390925
107	0x3e23852d	0.15968771
108	0x3dc7dab6	0.09758513
109	0xbe33d824	-0.1756292
110	0x3d757e98	0.059935182
111	0xbe19b20a	-0.15009323
112	0x3c885dd5	0.016646305
113	0x3e316190	0.17322373
114	0xbc02b769	-0.007978299
115	0xbd8b150c	-0.06791124
116	0xbe2ade46	-0.16686353
117	0x3d1bf206	0.03807261
118	0x3e0d0a16	0.13773379
119	0x3e115c05	0.14195259
120	0xbdcaf9f5	-0.09910957
121	0xbe50878c	-0.20364207
122	0x3e4c240d	0.19935627
123	0x3eb20c22	0.34774882
124	0xbb8ae3f7	-0.0042386013
125	0xbd5fd58a	-0.054647006
126	0xbcdade04	-0.026717193
127	0xbe9f7686	-0.31145114
128	0xbd14a007	-0.036285426
129	0x3c378205	0.011200433
130	0x3e36fd5b	0.17870085
131	0xbe2420d7	-0.16028152
132	0x3e46a275	0.1939791
133	0xbdb64bc1	-0.08901168
134	0xbe3a2b94	-0.18180686
135	0xbd560527	-0.052251007
136	0xbe37f633	-0.17965011
137	0xbcdcd212	-0.026955638
138	0x3d6fac1c	0.058513746
139	0xbe09770d	-0.1342432
140	0x3c4c31f2	0.01246308
141	0xbd45343d	-0.04814552
142	0xbe58b621	-0.21163227
143	0x3e88c08b	0.267094
144	0x3b829931	0.003985547
145	0xbecfd867	-0.4059479
146	0x3da920ed	0.08258233
147	0x3d03f2c5	0.032213945
148	0x3db4f41f	0.08835625
149	0xbd91e78f	-0.071242444
150	0x3e3c1c45	0.18370159
151	0xbc92a2d4	-0.017899908
152	0xbca005f0	-0.019534081
153	0xbdf6b375	-0.120459475
154	0x3daf9287	0.0857287
155	0xbe3f2a96	-0.18668589
156	0xbd9036d9	-0.07041711
157	0xbdccd7fd	-0.10002134
158	0x3e1fadbf	0.15593623
159	0xbdd318d0	-0.10307467
160	0x3d21de6e	0.039518766
161	0x3dabc7bf	0.08387708
162	0x3a4d091d	0.00078214874
163	0xbd0210a8	-0.031754166
164	0xbe1cdb56	-0.15318045
165	0x3e54271e	0.20718047
166	0x3d8b8ed5	0.068143524
167	0x3dcf5fc0	0.10125685
168	0xbc9327c5	-0.0179633
169	0xbd83922c	-0.064243644
170	0xbe4a3147	-0.1974536
171	0x3d1c057a	0.03809116
172	0xbe153f34	-0.14574891
173	0xbdd73e41	-0.10509921
174	0x3dcc36aa	0.09971364
175	0xbe26dab6	-0.16294369
176	0xbdff0db6	-0.12453787
177	0x3e095f1e	0.1341519
178	0x3dfc0395	0.12305371
179	0xbdb287ae	-0.08717285
180	0xbd3c083a	-0.045906283
181	0x3e0ff048	0.14056504
182	0xbdd4df66	-0.10394172
183	0xbe2f40ab	-0.17114513
184	0xbad77735	-0.0016438725
185	0xbd9629ae	-0.073321685
186	0xbddf5d57	-0.10906475
187	0x3d279b72	0.04091973
188	0xbc963ccb	-0.018339535
189	0xbd985b16	-0.07439248
190	0xbd6ae999	-0.057351682
191	0xbdabb1c6	-0.08383517
192	0x3e311e53	0.17296724
193	0xbe32da30	-0.17466044
194	0x3d0d1649	0.03444508
195	0x3e211557	0.15730797
196	0xbc872108	-0.016495243
197	0x3da52c43	0.08065083
198	0x3e0edda6	0.1395174
199	0x3db6df19	0.08929271
200	0x3df60c46	0.1201406
201	0x3d8296e6	0.06376438
202	0xbd251bd0	-0.040309727
203	0x3d899c05	0.067192115
204	0xbe3837bc	-0.17990011
205	0xbe863273	-0.26210365
206	0x3ddaf054	0.1069037
207	0xbdf120b3	-0.11773815
208	0x3e1bd239	0.15216912
209	0xbd001ced	-0.031277586
210	0x3c68d5a0	0.014211088
211	0xbe1bd0b2	-0.1521633
212	0x3c9caa0c	0.019124053
213	0x3e263326	0.16230449
214	0x3df00d09	0.11721236
215	0xbd01593a	-0.031579234
216	0x3e4b93d4	0.1988061
217	0x3c73f22e	0.014889283
218	0xbdbc183b	-0.09184309
219	0x3e2122d9	0.1573595
220	0x3e04a312	0.12952831
221	0x3e396fcc	0.18109053
222	0x3cb6f0e6	0.022331666
223	0x3d14f2c0	0.036364317
224	0xbe21a78f	-0.15786575
225	0x3d4bf386	0.04979279
226	0xbd386458	-0.04501757
227	0xbe797bea	-0.24363676
228	0x3cc2adac	0.023764454
229	0x3e5d0103	0.21582417
230	0x3e28687f	0.16446112
231	0xbeb21a7c	-0.3478583
232	0xbccb4147	-0.0248114
233	0xbe5a70e6	-0.2133213
234	0x3d81b958	0.0633418
235	0x3da6c859	0.08143682
236	0x3df4403a	0.11926313
237	0x3dcf846c	0.10132679
238	0xbe027fa9	-0.12744011
239	0xbda34b77	-0.07973378
240	0xbe028256	-0.12745032
241	0xbdf1912e	-0.11795269
242	0x3d2ece1d	0.042677034
243	0x3e77f9b3	0.24216346
244	0x3e0e951f	0.13924073
245	0x3e0aa927	0.13541089
246	0xbd7fd609	-0.06245998
247	0x3c5cac0c	0.013468754
248	0x3d6b47fb	0.057441693
249	0x3dc4fdc3	0.09618714
250	0x3db65df6	0.089046404
251	0x3e0ad888	0.13559163
252	0x3c5b9e50	0.013404444
253	0xbde5bf71	-0.11218155
254	0xbd78a1e1	-0.060701255
255	0xbdd3bad5	-0.1033837

network.0.bias f4 [128]
0	0xbebcf812	-0.36908013
1	0xbf0d28e5	-0.55140525
2	0xbe77b892	-0.24191502
3	0xbefc2a50	-0.49251032
4	0xbeb0179d	-0.34393016
5	0xbe4d634a	-0.20057407
6	0xbee20b02	-0.44149023
7	0xbebd12a0	-0.36928272
8	0xbeaa1bf8	-0.33224463
9	0xbe22ce8d	-0.15899105
10	0xbeeb400b	-0.45947298
11	0xbe8f7e12	-0.28025872
12	0xbeae7ec6	-0.34081095
13	0xbe8f9af2	-0.280479
14	0xbed9f236	-0.42567605
15	0xbec80323	-0.39064893
16	0xbecb4470	-0.3970065
17	0xbef71dc0	-0.48264885
18	0xbe3aca90	-0.18241334
19	0xbea7fe40	-0.32811165
20	0xbf168413	-0.5879528
21	0xbeb8dc71	-0.36105683
22	0x3e04732c	0.1293456
23	0xbf17138c	-0.590142
24	0xbebbbfb7	-0.36669704
25	0xbebae44b	-0.365023
26	0xbe598961	-0.21243812
27	0xbeece166	-0.46265715
28	0xbf079dcc	-0.52975154
29	0xbe67db77	-0.22642313
30	0xbeaa7e65	-0.33299556
31	0xbeeccdff	-0.46250913
32	0xbeab8377	-0.33498737
33	0xbecbbca6	-0.39792365
34	0xbec84e38	-0.39122176
35	0xbd6b831c	-0.057498083
36	0xbeb4e3da	-0.35330087
37	0xbf0788e4	-0.52943254
38	0xbec740c1	-0.3891659
39	0xbe32b450	-0.17451596
40	0xbe90015b	-0.28126034
41	0x3dcbc35f	0.099493735
42	0xbeb6ad9e	-0.35679334
43	0xbe16eb66	-0.14738235
44	0xbf1d8012	-0.61523545
45	0xbe575ce7	-0.21031533
46	0xbe63fed0	-0.22265172
47	0xbed2199a	-0.41035157
48	0xbea316fe	-0.3185348
49	0xbeb26b62	-0.34847552
50	0xbf2af692	-0.66782486
51	0xbeecb6d2	-0.4623323
52	0xbee2ccb5	-0.44296804
53	0xbe851478	-0.2599218
54	0xbe3d6a64	-0.18497616
55	0xbf12b793	-0.5731136
56	0xbd95662d	-0.07294879
57	0xbea36783	-0.3191491
58	0xbec62f88	-0.38708138
59	0xbe998b58	-0.29989123
60	0xbee7d013	-0.45275936
61	0xbeacaad9	-0.33724096
62	0xbeb4d82b	-0.35321173
63	0xbeb63f15	-0.35595003
64	0xbf06ba65	-0.52628165
65	0xbdd21578	-0.10258001
66	0xbf1dd39e	-0.6165103
67	0xbe90ee83	-0.2830697
68	0xbee6c4db	-0.45072064
69	0xbeb2c7fa	-0.34918195
70	0xbef6a386	-0.48171633
71	0xbe2d5dc9	-0.16930307
72	0xbe624ee4	-0.22100407
73	0xbed0a2d9	-0.40749243
74	0xbe285039	-0.16436853
75	0xbe63bb3e	-0.22239396
76	0xbe7136c8	-0.23556054
77	0xbe813f54	-0.25243628
78	0xbf23697c	-0.6383283
79	0xbe4353ae	-0.1907489
80	0xbecc44ed	-0.39896336
81	0xbeef1de0	-0.4670248
82	0xbf0ebdb9	-0.55758244
83	0xbd1ece8a	-0.03877119
84	0xbf0cee98	-0.55051565
85	0xbf0b8625	-0.54501563
86	0xbdbbe1c7	-0.09173923
87	0xbe2f3f19	-0.17113914
88	0xbe90ec2a	-0.2830518
89	0xbea3c3db	-0.31985363
90	0xbec065b9	-0.37577608
91	0xbf0affe2	-0.54296696
92	0xbde31c37	-0.11089366
93	0xbe8d9fab	-0.2766088
94	0xbdc9d337	-0.09854739
95	0xbeb2e749	-0.34942082
96	0xbe75f11e	-0.2401776
97	0xbe74ae22	-0.23894551
98	0xbeee92ea	-0.46596462
99	0xbe48d32f	-0.1961181
100	0xbf13b6d6	-0.5770086
101	0xbdb036d5	-0.086042084
102	0xbef8b2dc	-0.4857396
103	0xbecc91f0	-0.3995509
104	0xbee7ccf3	-0.4527355
105	0xbefb6003	-0.4909669
106	0xbe9be830	-0.30450583
107	0xbe7b31ee	-0.24530765
108	0xbdcbd35b	-0.09952422
109	0xbeee2a5b	-0.4651669
110	0xbe5d9c59	-0.21641673
111	0xbeab9b41	-0.33516887
112	0xbee35a39	-0.44404772
113	0xbee6cfd6	-0.4508044
114	0xbec15f17	-0.3776786
115	0xbe8fd23d	-0.28090087
116	0xbf10681f	-0.56408876
117	0xbec0ef1b	-0.37682423
118	0xbe7217e9	-0.23641934
119	0xbdff4e6f	-0.12466132
120	0xbea2a24d	-0.3176445
121	0xbea3885c	-0.3193997
122	0xbeb6913e	-0.35657686
123	0xbeb5b4c9	-0.3548949
124	0xbef14e35	-0.4712998
125	0xbe9d3e76	-0.30711716
126	0xbeb86057	-0.36011
127	0xbe86a4c2	-0.26297575

network.3.weight f4 [64, 128]
0	0x3de891c8	0.113559306
1	0xbd7cc369	-0.061709795
2	0xbdbc407a	-0.091919854
3	0xbe801d4d	-0.25022355
4	0xbcf4038a	-0.029786844
5	0x3de0223e	0.10944031
6	0xbe5208aa	-0.20511118
7	0xbdb7c8c3	-0.08973839
8	0xbd820130	-0.06347883
9	0x3e133488	0.14375508
10	0xbe04f719	-0.12984885
11	0xbe05a81f	-0.13052414
12	0x3b894457	0.004189055
13	0x3cfa3f16	0.03054766
14	0xbe418c60	-0.18901205
15	0xbe65b857	-0.22433601
16	0xbd93ee04	-0.07223132
17	0xbe52bba4	-0.20579392
18	0xbe37dc73	-0.17955188
19	0x3d6b6231	0.05746669
20	0xbe61a553	-0.22035722
21	0xbe06eda4	-0.1317659
22	0xbe508c61	-0.2036605
23	0xbd54e56d	-0.05197661
24	0xbad5b45c	-0.0016304362
25	0x3e3a4860	0.18191671
26	0xbd5652c4	-0.052325025
27	0xbe8b71fc	-0.272354
28	0xbeda22f2	-0.42604786
29	0xbd71be8a	-0.059019603
30	0x3d9bcbcf	0.07607233
31	0xbe4a67d2	-0.19766167
32	0x3dbc0f3e	0.09182595
33	0x39bbf1e0	0.0003584763
34	0xbcb10d08	-0.02161266
35	0xbea00ed0	-0.312613
36	0xbe3b22ba	-0.18274966
37	0xbd8aa757	-0.06770199
38	0xbd5c1f38	-0.05374071
39	0xbd87600a	-0.06610115
40	0xbe30cd13	-0.1726573
41	0xbdc13b13	-0.09435096
42	0xbdc3d4e0	-0.09562087
43	0xbeb228fc	-0.34796894
44	0xbe032d38	-0.12810218
45	0xbd43dfc6	-0.04782083
46	0xbd02deb8	-0.031950682
47	0x3e0f91cd	0.14020462
48	0xbe3809ce	-0.1797249
49	0xbdf95b4a	-0.12175615
50	0xbe12b217	-0.14325748
51	0xbe9b8350	-0.3037362
52	0xbd8c3184	-0.06845382
53	0x3d7b1171	0.06129593
54	0xbe52bae9	-0.20579113
55	0x3d206914	0.03916271
56	0xbc508fae	-0.012729568
57	0xbe0182ae	-0.12647507
58	0xbde0da71	-0.109791644
59	0x3c8ad455	0.01694695
60	0xbdf51970	-0.119677424
61	0x3cc858a7	0.024456335
62	0xbe299b67	-0.16563188
63	0xbdc15f11	-0.094419606
64	0xbe183aa4	-0.1486612
65	0xbe1544d1	-0.14577033
66	0x3cd98fab	0.026557764
67	0xbb66909c	-0.0035181409
68	0xbe2ebb88	-0.17063725
69	0x3d6c1100	0.0576334
70	0x3dbaff3d	0.09130714
71	0xbe3b8178	-0.18311107
72	0xbe905fd6	-0.28198117
73	0xbe20bf9f	-0.15698098
74	0xbe7041e0	-0.2346263
75	0xbdd7a7e6	-0.10530071
76	0xbde372b6	-0.11105864
77	0xbdca3525	-0.09873418
78	0xbe0ef146	-0.13959226
79	0xbe18ff68	-0.1494118
80	0xbdd5ab5b	-0.10433074
81	0xbe2ecced	-0.1707036
82	0xbe6f67ec	-0.23379487
83	0x3c9a5d54	0.01884333
84	0x3c4f91db	0.012669052
85	0x3d844001	0.0645752
86	0xbdc38ae6	-0.09547977
87	0xbde54b47	-0.11195999
88	0xbe1f82c1	-0.15577222
89	0xbd5f5cd6	-0.054531895
90	0x3c5fa4b0	0.013650104
91	0xbdae3464	-0.085060865
92	0xbe354570	-0.1770227
93	0xbd53d9c8	-0.051721364
94	0xbe3dbf62	-0.18530038
95	0xbe24ff76	-0.16113076
96	0xbe22c8bd	-0.15896888
97	0xbcb6819d	-0.022278601
98	0xbe1473ab	-0.14497249
99	0xbe2985df	-0.16554974
100	0x3dae1baf	0.08501374
101	0x3db87c27	0.09008055
102	0xbe0224b7	-0.12709318
103	0xbc517fc2	-0.0127868075
104	0xbcb77292	-0.022393499
105	0xbd42a2f4	-0.047518685
106	0xbe168e1c	-0.14702648
107	0xbddfbee5	-0.10925082
108	0xbead189c	-0.33807838
109	0xbbc0f404	-0.005888464
110	0xbe7f719f	-0.24945687
111	0xbdc9245d	-0.09821389
112	0xbc9c8bf6	-0.019109707
113	0x3c5db541	0.013531984
114	0x3dd856b8	0.10563415
115	0x3d06c486	0.032902263
116	0xbe629691	-0.22127749
117	0xbdbcf344	-0.09226087
118	0x3d9993b1	0.07498873
119	0xbe60519d	-0.21906133
120	0xbdae0a96	-0.08498113
121	0xbdb94492	-0.09046282
122	0xbda9e17b	-0.0829496
123	0xbe3b7d02	-0.18309405
124	0xbe403aae	-0.18772385
125	0xbbcd9483	-0.0062738075
126	0x3d2f87f7	0.042854276
127	0x3d040e68	0.0322403
128	0xbcd85a74	-0.026410319
129	0xbe7cbabc	-0.24680609
130	0xbd910ac0	-0.070821285
131	0xbdd3d48c	-0.103432745
132	0xbe4f4c91	-0.20244052
133	0xbd8d7876	-0.06907742
134	0xbd5d1e6c	-0.05398409
135	0xbd7d269a	-0.06180439
136	0xbe1c6174	-0.1527155
137	0xbdbf0e7e	-0.09328936
138	0xbd9d67c9	-0.07685811
139	0xbd8f851c	-0.070078105
140	0xbe90f279	-0.28309992
141	0xbe3c5241	-0.18390752
142	0xbeb2efa5	-0.3494846
143	0xbeab4e9b	-0.3345841
144	0xbe439d9f	-0.19103096
145	0xbe474c14	-0.19462615
146	0xbe8c52dc	-0.27406967
147	0x3e697014	0.2279666
148	0x3c6b0143	0.014343563
149	0xbe282f91	-0.16424395
150	0xbe2037d2	-0.15646294
151	0xbe6194bb	-0.22029392
152	0xbcdf71e4	-0.027275987
153	0xbdda5d48	-0.10662323
154	0xbdec5bbd	-0.11540935
155	0xbbe6365f	-0.0070255245
156	0x3e835672	0.2565189
157	0xbe59b6be	-0.21261117
158	0x3cd1d322	0.025613371
159	0xbed9b921	-0.42524055
160	0xbebeba59	-0.37251547
161	0xbe661f4d	-0.22472878
162	0x3c3376a6	0.010953581
163	0xbda56ca4	-0.08077362
164	0xbe16b6c3	-0.14718156
165	0xbe43ab2d	-0.19108267
166	0xbe385a7a	-0.18003264
167	0xbe6ea060	-0.23303366
168	0x3ca8daf7	0.020612223
169	0xbef0f829	-0.4706433
170	0x3d99a94b	0.07502993
171	0xbe46cbfd	-0.19413753
172	0x3c84852e	0.016176786
173	0xbe9d3b6d	-0.307094
174	0xbf14e174	-0.58156514
175	0xbd210ecb	-0.03932075
176	0xbe32a972	-0.17447451
177	0x3c3116e6	0.010808682
178	0xbe887b01	-0.26656345
179	0xbd3084e1	-0.043095473
180	0xbda955a1	-0.082682855
181	0xbd6cf214	-0.05784805
182	0xbf0d4c57	-0.5519461
183	0x3e38cafc	0.18046182
184	0xbe806473	-0.25076637
185	0xbca57583	-0.020197636
186	0xbd4fc6c9	-0.050726686
187	0xbec74517	-0.389199
188	0xbcb38dfb	-0.021918288
189	0x3c97f94e	0.018551495
190	0xbe401857	-0.18759285
191	0xbe712aae	-0.23551437
192	0xbe8b0c29	-0.27157715
193	0xbe32febd	-0.17479987
194	0x3d538472	0.05163998
195	0x3d4eed16	0.05051907
196	0xbe757e9c	-0.23974079
197	0x3d90458b	0.07044514
198	0xbc497963	-0.012297007
199	0xbe2ef3e6	-0.17085227
200	0xbdf6ef2b	-0.120573364
201	0xbe1ebc6e	-0.15501568
202	0xbe5b50a2	-0.21417478
203	0xbe13a707	-0.14419185
204	0xbda3f727	-0.08006125
205	0x3b6f7ab4	0.0036541643
206	0x3d177f14	0.036986426
207	0xbe25f248	-0.16205704
208	0x3d950f27	0.07278281
209	0xbdbefdbe	-0.09325741
210	0xbda1ac19	-0.07894153
211	0xbe10705d	-0.14105363
212	0xbd0c2003	-0.034210216
213	0xbec4dd88	-0.38450265
214	0xbeb3c04e	-0.35107654
215	0xbe7b4c1e	-0.24540755
216	0xbe4b82da	-0.19874135
217	0xbe0bf99e	-0.1366944
218	0x3c39dd1b	0.01134422
219	0xbe4df165	-0.20111616
220	0xbe21ba15	-0.15793641
221	0xbd778fcf	-0.06043988
222	0xbe237a12	-0.15964535
223	0xbe933a4c	-0.28755414
224	0xbe65df32	-0.22448424
225	0xbe7e6864	-0.2484451
226	0xbe18afef	-0.14910863
227	0xbdad09f8	-0.08449167
228	0xbe7f8e0e	-0.24956533
229	0x3dc6d072	0.097077265
230	0xbe5df4e6	-0.21675453
231	0x3dab262a	0.083568886
232	0x3df009c7	0.11720615
233	0xbca53cba	-0.020170558
234	0xbe80c28c	-0.25148427
235	0xbe707c7d	-0.23484989
236	0xbcc442a7	-0.023957564
237	0x3e418f18	0.18902242
238	0xbdff866f	-0.12476813
239	0xbd853c87	-0.06505685
240	0xbe89e05d	-0.26928988
241	0x3d7529fe	0.0598545
242	0xbe6f4682	-0.2336674
243	0xbe9ea3f5	-0.30984464
244	0xbe40a648	-0.18813431
245	0xbd8cddad	-0.06878219
246	0x3ddbc05c	0.10730049
247	0xbe977af7	-0.29586002
248	0xbe238c03	-0.15971379
249	0x3cac5287	0.021035446
250	0xbe30eabe	-0.17277047
251	0xbebf9bf0	-0.37423658
252	0xbe4078fe	-0.18796155
253	0x3e434255	0.19068272
254	0xbe20d2ca	-0.1570541
255	0xbe155a64	-0.14585263

network.3.bias f4 [64]
0	0xbecc3b68	-0.39889073
1	0xbe21061f	-0.15724991
2	0xbe3aec86	-0.18254289
3	0x3cafed93	0.021475589
4	0xbe5a2b83	-0.21305661
5	0xbe2f4518	-0.17116201
6	0xbe6300b3	-0.22168235
7	0xbe889a7e	-0.26680368
8	0xbe3e6aaf	-0.18595384
9	0xbe064ad8	-0.13114488
10	0xbe9a12b5	-0.30092397
11	0xbe7a495f	-0.24442051
12	0xbe3c9041	-0.18414403
13	0xbe97743a	-0.2958086
14	0xbe51d822	-0.20492604
15	0xbe743cf9	-0.23851384
16	0xbe50537b	-0.20344345
17	0xbe9e686b	-0.3093904
18	0xbe5ebbbf	-0.21751307
19	0x3e5a11a0	0.21295786
20	0xbe7a5d5e	-0.2444968
21	0xbe4baef8	-0.19890964
22	0xbe40a162	-0.18811563
23	0xbe749730	-0.23885798
24	0xbe587d9a	-0.21141663
25	0x3e3e6fb1	0.18597294
26	0xbe9d0350	-0.3066659
27	0xbe32c4b6	-0.17457852
28	0xbea117fd	-0.31463614
29	0xbe8382d6	-0.25685757
30	0xbe7ae470	-0.24501204
31	0xbe3d9996	-0.1851562
32	0x3e529c2c	0.20567387
33	0xbe6e58d8	-0.23276079
34	0xbe7e04d1	-0.24806525
35	0xbe8f8b35	-0.28035894
36	0xbe416756	-0.18887076
37	0xbe3099af	-0.17246126
38	0x3e8465ff	0.25859067
39	0xbe8d1385	-0.27553955
40	0xbe27d0e0	-0.16388273
41	0xbe1f9381	-0.15583612
42	0xbe4f021a	-0.20215645
43	0xbce1c7e8	-0.027561143
44	0xbe6b1ccb	-0.22960202
45	0xbe8048d0	-0.25055552
46	0xbd2e5648	-0.042562753
47	0x3e139cdc	0.14415306
48	0xbe440d1e	-0.19145629
49	0xbe51550b	-0.20442598
50	0xbe8363ad	-0.25661984
51	0xbe568d7e	-0.20952412
52	0xbe0ec032	-0.13940504
53	0x3eb51c17	0.35372993
54	0xbe285b46	-0.16441068
55	0xbe0a3737	-0.13497625
56	0x3e258ec2	0.16167739
57	0xbe3ff46c	-0.18745583
58	0xbe06eb2a	-0.13175645
59	0xbe5b59c8	-0.21420968
60	0xbe429586	-0.19002351
61	0xbe74ee7c	-0.239191
62	0x3db2c6a1	0.08729292
63	0x3eee0c71	0.46493867
