experiments/checkpoints/20251210_110803/checkpoint_ep139.pt (torch, 246605 bytes, 24 tensors)

network.0.weight f4 [128, 43]
00000000: b016 a5bb be64 50bf 501f 1e3f cf1e c8bf
00000010: 59bc f4bf ccf0 23be d536 b13f 4aba 0c3e
00000020: a51d 283e 7408 26be 01cf 90bc 38ae ecbd
00000030: 4b9e 8f3f 2e8e e8be d90e 063e b79b 18bf
00000040: 31c5 d1bf 75bf f23f 2125 593f 03ad a3bd
00000050: f573 0cbe d6be b3bd 3cf8 043e ab68 a7ba
00000060: 3316 bbbd 1f9e 2b3e 567f 3cbd 9639 cebf
00000070: 811a 1c40 f740 94bf 32c0 8b3d 984a cc3f
00000080: 77c5 3abe 687c aebf 9cad 233e f7ca 433e
00000090: f4be 54bf 7ecf ce3f e154 18c0 644d 41c0
000000a0: fe30 3c40 e161 11c0 049b 1a3d d127 29be
000000b0: 8ef1 c03f 3800 aebf afe5 29bf 1287 17bf
000000c0: 7005 3dbe b34d 98c0 5448 a93d 85bb bb3d
000000d0: 7bbe 1bbd 7c07 2c3d c5ab 343d 96fc 09c0
000000e0: 5d6a 6bc0 cf12 08bf 0c0d 713f 61b9 febf
000000f0: 1941 993d 23e8 3b3e d660 3ebe 318b 7b3d
00000100: 0f0e a83d dcaa a6bd 22c5 ed3d 3ad1 3ebd
00000110: 5857 c5bd 7a87 c63d d3bc 813f 57f1 cabf
00000120: c8b3 c13f d897 203e 02cf 27bf 113b 89bd
00000130: 5bf2 7d3f 5056 fcbd d5f2 0fc0 3c36 c73f
00000140: e9f6 e0bf 762c 87bf e9b8 80be f310 4040
00000150: b443 c1bf b63f c63d 39e7 a93d 9457 a5bf
00000160: c434 ad3f c4e7 3a40 5033 36c0 227b a5bd
00000170: 8a94 1940 3fcc 313d adb0 263d a9cf bfbd
00000180: 61e6 09bd 7777 9bbb ccd6 01c1 53ca 70c0
00000190: 9756 c1bf 08f8 a53d 042d 2ac0 4ea9 3640
000001a0: 49c9 a7bf 6d57 1c3d b552 3cbe 2d85 233e
000001b0: b6da c73d 24d8 33be 987e 753d 0ab2 19be
000001c0: d55d 883c 39a3 e9be 7082 1bbe 9760 41c0
000001d0: 46de 2abe 0b73 78be 160a 0d3e 5ba6 f9be
000001e0: f5f9 cabd 3491 0d3e c712 e63f 9d2d e53f
000001f0: dc6f aabf 21dd 8ebf 3489 0d40 c630 3c3f
00000200: 07a0 14bd 0582 373c 51fd 993f c3a1 97bf
00000210: 0bc8 54bf 2c96 d9bd 942b 3abe 0943 4ac0
00000220: 33f6 37be 12d2 dcbc 1cac 6f3d 0977 09be
00000230: f231 4c3c b1cf 12c0 4393 d8c0 b5a4 f6be
00000240: 7cb7 a9bf bbbf 34c0 3f0d e03f f6a2 afbe
00000250: 1ff4 b43d 8fe7 91bd 451c 3c3e d4a2 92bc
00000260: f005 a0bc 75b3 f6bd 7f92 af3d 962a 3fbe
00000270: eaf1 b6bf 1864 e03e 4159 9bbf d018 d3bd
00000280: cf28 f6bf bfc7 ab3d c7d4 adbf a810 02bd
00000290: 3086 a1bf be11 de3f 3b5d bf3f 2de6 08c0
000002a0: 0a56 ef3f d2b8 9e3f 23cd a9bf 7a05 1c3d
000002b0: 343f 15be 8469 703f 83ca 71bf 3788 1140
000002c0: e2c4 c1bf 1e5f 093e 90a7 e43f ae87 b2bd
000002d0: 3a08 3cbd 48f0 0f3e 66df d4bd ab40 2fbe
000002e0: 155e 8bbe e39b 64c0 0f22 b03e b922 e63e
000002f0: 480c 293e a74a 6d3d 6636 a93f c6b1 abbd
00000300: 531e 313e 30da 32be 4916 0d3d 5715 213e
00000310: 0821 87bc 432c a53d a6dd 0e3e 6ec4 4cbf
00000320: 506a 7b40 6a94 c7c0 d01b 25bd a82c dc3f
00000330: bc37 38be f15c 93bf 54f0 da3d e86d e43f
00000340: b18b 343f 6611 af3f 9ca1 5ec0 63ea 713d
00000350: fcfd 1d3e ef64 b4bf 090d f03d 3a59 01bd
00000360: 5f35 5ebf 1475 8a3f 508d 753f 560f 2b3d
00000370: 12a3 043e cb49 943f e6f0 b63c c0f2 143d
00000380: 8fa7 21be 86f3 4b3d 4d64 38bd e455 bc3e
00000390: e85d 08bf 351a b03f fbdd 88bd 8f57 5c3f
000003a0: b667 10c0 2156 f9bf 58b9 813d 59c8 a63d
000003b0: 3a40 f43d 6c84 cf3d a97f 02be 774b a3bd
000003c0: 5682 02be 2e91 f1bd e34a 16bf d2e8 58be
000003d0: 07fa b2bf 27a9 0a3e c157 24be 0cac 5c3c
000003e0: 6183 12bf c3fd c43d 428f 0abf 85d1 9ebe
000003f0: 9d41 03bc a14f e6bf 67bd 773f 2082 07bf
-0.005038105 -0.8140372 0.6176653 -1.5634402 -1.9119979 -0.16009825 1.3844858 0.13742939
0.16417558 -0.16214162 -0.017676832 -0.11556667 1.1220182 -0.45420974 0.13091601 -0.596126
-1.6388303 1.8964678 0.8482228 -0.07991984 -0.13716109 -0.087766334 0.12985319 -0.0012772282
-0.091350935 0.16759537 -0.046019875 -1.6111324 2.4391177 -1.1582326 0.06823768 1.5960264
-0.1823939 -1.3631716 0.15984195 0.19120394 -0.8310387 1.6157072 -2.3801806 -3.0203485
2.9404902 -2.271599 0.03774549 -0.16519095 1.5073717 -1.3593817 -0.66366094 -0.59190476
-0.18459105 -4.759485 0.082657486 0.09166626 -0.038023453 0.041999325 0.044109125 -2.1560416
-3.678367 -0.531537 0.9416053 -1.9900323 0.074831195 0.18350272 -0.18591627 0.06141204
0.082058065 -0.081380576 0.11609866 -0.046586253 -0.096358 0.09693809 1.013575 -1.5854901
1.513299 0.15682924 -0.65550244 -0.06700719 0.9919793 -0.1232115 -2.2491963 1.5563426
-1.7575351 -1.0560443 -0.25141075 3.0010345 -1.5098786 0.09680121 0.08296055 -1.2917352
1.3531728 2.9203959 -2.8468819 -0.08080126 2.399691 0.043407675 0.040695835 -0.0936578
-0.033666972 -0.004744466 -8.114941 -3.762349 -1.510455 0.08103949 -2.6589975 2.8540835
-1.3108302 0.038169313 -0.18390925 0.15968771 0.09758513 -0.1756292 0.059935182 -0.15009323
0.016646305 -0.45632342 -0.15186477 -3.0215204 -0.16686353 -0.24262635 0.13773379 -0.48759732
-0.09910957 0.13824922 1.797448 1.7904545 -1.3315387 -1.1161233 2.2114992 0.7351192
-0.036285426 0.011200433 1.2030431 -1.1846241 -0.8311774 -0.10624346 -0.18180686 -3.1603415
-0.17965011 -0.026955638 0.058513746 -0.13424315 0.01246308 -2.2939265 -6.7679763 -0.48172536
-1.325912 -2.8242023 1.7504042 -0.34304017 0.08835625 -0.071242444 0.18370159 -0.017899908
-0.019534081 -0.120459475 0.08572864 -0.18668589 -1.4292576 0.43826365 -1.2136613 -0.10307467
-1.9231204 0.08387708 -1.358056 -0.031754166 -1.2619076 1.7349164 1.4950327 -2.1390488
1.8698132 1.2400153 -1.3265728 0.03809116 -0.14574891 0.93911004 -0.94449633 2.273939
-1.5138209 0.1341519 1.7863636 -0.08717285 -0.045906283 0.14056504 -0.10394172 -0.17114513
-0.27220216 -3.5720146 0.34400985 0.44948366 0.16508591 0.057932522 1.3219726 -0.08383517
0.17296724 -0.17466044 0.03444508 0.15730797 -0.016495243 0.08065083 0.1395174 -0.7998723
3.9283638 -6.236867 -0.040309727 1.7201128 -0.17990011 -1.1512738 0.1069037 1.7846041
0.7052565 1.3677185 -3.4786139 0.05906142 0.15428919 -1.4093302 0.11721236 -0.031579234
-0.8680019 1.081698 0.9591875 0.041762672 0.12952831 1.158502 0.022331666 0.036364317
-0.15786575 0.04979279 -0.04501753 0.3678428 -0.5326829 1.3757998 -0.066829644 0.86071104
-2.25633 -1.947941 0.0633418 0.08143682 0.11926313 0.10132679 -0.12744011 -0.07973378
-0.12745032 -0.11795269 -0.5870802 -0.21182564 -1.3982552 0.13541089 -0.160491 0.013468754
-0.5723172 0.09618714 -0.54124844 -0.31019226 -0.008011249 -1.7993051 0.9677338 -0.5293293

network.0.bias f4 [128]
00000000: 19ae 4dc1 9e5f 3dc1 2640 d9c0 f10f 29c1
00000010: bc20 53c1 db81 12c1 2c48 20c1 eed5 25c1
00000020: f043 1bc1 ae34 24c1 4833 33c1 bf3b dfc0
00000030: e2d0 15c1 f6ee 59c1 863b 0dc1 dc2b 31c1
00000040: 73a6 35c1 486e 3fc1 57e3 abc0 ca75 24c1
00000050: fd85 20c1 bafd 05c1 3742 fbc0 fa17 30c1
00000060: 913c dfc0 2c1a 13c1 8125 fcc0 f485 11c1
00000070: 9c37 eec0 737b 03c1 e5a1 31c1 d6ce 24c1
00000080: 75f2 c1c0 1c17 0ec1 3212 53c1 9192 acc0
00000090: edd7 30c1 a96c 49c1 e9ee 49c1 abd2 0ac1
000000a0: de60 30c1 01c9 f6c0 cb49 1dc1 7621 a1c0
000000b0: 12ee 36c1 7f51 44c1 be6b 18c1 5107 2ec1
000000c0: 5e88 5dc1 52fc 32c1 1095 62c1 35e4 1dc1
000000d0: 017e c0c0 2310 25c1 c03a 07c1 2d0b 53c1
000000e0: 9092 08c1 abf1 34c1 c033 26c1 ba5f 0ec1
000000f0: 9a3b 33c1 5218 0dc1 fd30 adc0 cbb2 16c1
00000100: cd7a 09c1 fc96 ebc0 c23e f2c0 7b79 0dc1
00000110: 30c7 17c1 c935 2bc1 dbcf 3ac1 0695 11c1
00000120: ba22 09c1 0606 08c1 1e53 4cc1 1932 2ec1
00000130: 7e65 d6c0 0001 b5c0 4040 26c1 6040 1dc1
00000140: 7830 4bc1 97d2 16c1 d1c0 f8c0 bf9e 33c0
00000150: 265b 01c1 1abe 28c1 e731 16c1 8691 20c1
00000160: b1af 1bc1 6915 a0c0 6889 3bc1 ea46 44c1
00000170: 2561 d4c0 3a28 07c1 c0ad 55c0 4718 1ec1
00000180: 1120 04c1 bd55 3dc1 2c15 2fc1 b052 a1c0
00000190: 7db9 23c1 0b14 c1c0 d0ce 21c1 46fc fdc0
000001a0: 1423 36c1 1e49 1dc1 6ecb 04c1 9ba1 12c1
000001b0: adb0 12c1 4639 26c1 3497 03c1 0c51 9bc0
000001c0: 7c7a 45c1 1093 4ac1 2202 13c1 8543 1cc1
000001d0: edb1 3fc1 d987 e1c0 3226 0cc1 0f89 21c1
000001e0: 21f0 c5c0 c36c 27c1 acaa c6c0 b483 26c1
000001f0: cfcf 32c1 3d1c 11c1 8bf0 d4c0 6e04 27c1
-12.855004 -11.835844 -6.7890806 -10.566392 -13.195492 -9.156703 -10.01762 -10.364729
-9.704086 -10.262861 -11.20002 -6.976043 -9.363497 -13.62084 -8.827032 -11.073208
-11.353137 -11.964424 -5.3715014 -10.278757 -10.032712 -8.374445 -7.851833 -11.005854
-6.9761434 -9.19389 -7.879578 -9.095203 -7.4442883 -8.217639 -11.102025 -10.300497
-6.060847 -8.880642 -13.191942 -5.3928914 -11.052716 -12.589028 -12.620828 -8.676433
-11.023649 -7.7120366 -9.830516 -5.0353346 -11.433123 -12.2698965 -9.526304 -10.876786
-13.845793 -11.186602 -14.161392 -9.868215 -6.0153813 -10.31644 -8.451843 -13.190228
-8.535782 -11.309001 -10.387634 -8.898371 -11.202051 -8.818438 -5.41223 -9.418651
-8.592481 -7.3621807 -7.570161 -8.842158 -9.48613 -10.700631 -11.675746 -9.098883
-8.570978 -8.501471 -12.770292 -10.887231 -6.699889 -5.656372 -10.390686 -9.828217
-12.699333 -9.426414 -7.773537 -2.806564 -8.084753 -10.5464115 -9.387183 -10.035528
-9.730393 -5.0026135 -11.721046 -12.267313 -6.6368585 -8.447321 -3.3387299 -9.880927
-8.257829 -11.833432 -10.942669 -5.0413437 -10.232785 -6.0336967 -10.112991 -7.937045
-11.383564 -9.830351 -8.299665 -9.164454 -9.168134 -10.388983 -8.224415 -4.8536434
-12.342403 -12.660904 -9.188021 -9.766484 -11.980939 -7.047833 -8.759325 -10.095962
-6.1855626 -10.464053 -6.208334 -10.407154 -11.1757345 -9.069394 -6.654363 -10.438581

network.3.weight f4 [64, 128]
00000000: bb0f 79bd 53e3 83bd 42a0 aebd 5f15 19bf
00000010: aa1a 76bd d984 e53d 796a 7cbe 9713 2abe
00000020: e6d0 a2be 3146 163e e9da 09be ce30 8abe
00000030: 8313 66be d3e0 b2be 70ca 66be bc73 23bf
00000040: 2e08 98bd d0b8 9cbe 6447 64be a5fe 3bbe
00000050: 9826 03bf 7b65 13bf 3ae9 76bf 7491 abbe
00000060: dc05 2cbd be74 81bd d504 ca3c f380 13bf
00000070: b8ff 98bf 23df 29bf 69f3 583d f2d4 e8be
00000080: 0017 243b 4848 d2be be8a 24be 6fa0 21bf
00000090: 2a41 fcbe ac72 98be 4ca0 7cbe ebe7 0dbf
000000a0: c6d1 c8be 5b67 b4be 7e3c ecbd 5225 5ebf
000000b0: 0d84 39bf de70 4bbf 9a33 b7be 86b3 213e
000000c0: e7bf ccbe f779 a1be 185a d4be 682b 1bbf
000000d0: 9a16 3dbe 1ab9 cc3d ccdd 2bbf 9a8b ecba
000000e0: 3eb4 acbe 10e9 bfbe 9cd4 58be f152 cdbe
000000f0: 49ba 02be 5131 3fbe 6db1 f8be 00dc 17be
00000100: 28a2 67bd adc4 43be c33b cdbd 530e 62bd
00000110: c755 b8be b5b5 f0bd 53e0 563e bcdc 12bf
00000120: 13a5 6dbf 36ef 53be c6f4 bfbe 0252 4bbe
00000130: dd91 86be b74a ddbe ee3e 55be 992d 4fbf
00000140: 66be debe 2830 38be 6e5e c9be 396a 08bf
00000150: d3c3 babe 9056 67be 619b 97be 41ba dfbe
00000160: 6228 11bf 43ea 5dbc e0e9 12bf 0fb9 4ebe
00000170: 7fee bbbe 67db afbe 3aef 01bf 760a 88be
00000180: ae03 adbe a986 59be 48dc 0ebf 5e6d 8dbe
00000190: 11fd 92be f71f 94be dcab 20be cc5e 8a3e
000001a0: f335 62bd df14 60bd a445 01bf 7820 14be
000001b0: b373 81bf 86c5 28bd 3249 10bf ef84 d5be
000001c0: 7a5c 80bd cae6 b2bc aefb 8a3c 1c14 ecbd
000001d0: 4f53 9bbe 13c1 1cbe 7349 093e e5e5 29bf
000001e0: c996 c1bd d4dc 45be 1b02 a4be c1ce d9be
000001f0: 0d04 23be 946f 1fbc 5f81 f7bd 8ca9 9ebe
00000200: 9f45 a5bd c9e5 f2be f94e a5be b394 99be
00000210: d877 adbe 96d8 d8bd a874 b4be bab9 cbbd
00000220: c1b0 9cbe e2ad f8be bf9f 55be 92d3 53be
00000230: 104b f3be 2dc9 9abe 7de2 76bf 214d 9dbf
00000240: d2b5 b8bd 64a9 8ebe bc01 19bf b138 bdb6
00000250: f661 d8bc 6354 d7be 0f4a dcbe f98b cabe
00000260: 7ac0 93be 2a79 84be 90f6 70bd f381 ee3c
00000270: 4f45 14bd f5d3 3abf 5dea a5be b7ab 92bf
00000280: a534 8bbf 6542 87be bfbd b5bd d582 01bf
00000290: d876 29be d5cd 9bbe fb63 f6be b4f6 40bf
000002a0: a07b 84be e10a c1bf 05b7 12bd 1ce1 d4be
000002b0: 23d5 91bc 9515 37bf 0716 bebf 73ba aabe
000002c0: 8bf9 32bf 734d 23bd c6ab 6fbf 4d8d 49bd
000002d0: 068d e7be 8756 70be e1e9 f0bf 98cd 5e3c
000002e0: 61d9 2abf bf16 0ebe 98eb c5be 4ce6 77bf
000002f0: 535d 9abe 5788 1dbe a925 3fbe 73eb 15bf
00000300: 2d43 1fbf 0ba3 23bf 015a ee3d 696e f3bd
00000310: adb1 bfbe a0d6 45be 8a9e d33c 9652 bfbe
00000320: b956 f2bd bf10 dcbe d706 d6be c216 12be
00000330: c5d0 cabd 4ce6 a0be 3dcb e7be 243b f4be
00000340: 236f c13c b714 dfbd e8bf edbe 7394 11bf
00000350: f53a 34bf 3b32 8dbf 19a0 2abf 51ce 35bf
00000360: 55df 86be 9c27 52be 9db7 76be 1ba2 0abf
00000370: dddf 13bf 0465 a7be cac4 6ebf f768 08bf
00000380: 39d5 c7be 7585 e4be 3f81 1abf f67b 0fbf
00000390: 9c42 59bf 3eb9 4abd 8f15 17bf f67e c8bd
000003a0: 177e ba3c 8cb0 01be bde1 1bbf 7ed6 ecbe
000003b0: 7fd2 f1bd d0fe 1ebd 80c9 b7be 35fe efbd
000003c0: f1df 61bf aab0 e3bd 3cfc dfbe 86df e1be
000003d0: 60de b7be 59ac 9abe d700 d73d 423b 76be
000003e0: 5374 a5be e127 19be 02e3 92be a233 87bf
000003f0: 0f7a 31bf 775a 983c 678e 62bf 6e16 abbf
-0.060806017 -0.06439843 -0.085266605 -0.59798235 -0.060084023 0.11206979 -0.24649991 -0.16609035
-0.31800002 0.14675213 -0.13462414 -0.2699036 -0.2246838 -0.34937152 -0.22538161 -0.6384847
-0.07423435 -0.3060975 -0.22292858 -0.18358858 -0.51230764 -0.5757672 -0.96449625 -0.3350941
-0.041997775 -0.06321095 0.024660507 -0.57618636 -1.1953039 -0.66356105 0.05296651 -0.45474964
0.0025038123 -0.4107077 -0.16068551 -0.6313543 -0.49268466 -0.29774988 -0.24670523 -0.55432004
-0.39222544 -0.35235104 -0.115349755 -0.86775696 -0.7246712 -0.79469097 -0.35781556 0.15791139
-0.3999016 -0.31538364 -0.41474986 -0.6061311 -0.18465653 0.09996243 -0.6713531 -0.0018046976
-0.33731264 -0.374825 -0.21174854 -0.40102342 -0.12766375 -0.18671156 -0.48572865 -0.14830017
-0.05655113 -0.19117995 -0.10021164 -0.055189442 -0.36002943 -0.11753408 0.2098401 -0.57368064
-0.9283001 -0.2069672 -0.37491435 -0.19855502 -0.2628316 -0.43221065 -0.20824787 -0.8092895
-0.43504637 -0.1798712 -0.39329857 -0.5328708 -0.36477527 -0.22591615 -0.29610732 -0.43696788
-0.56702244 -0.013544622 -0.57388115 -0.20187782 -0.36705396 -0.34347078 -0.50755656 -0.2657048
-0.3379187 -0.21242775 -0.5580487 -0.27622503 -0.287087 -0.28930637 -0.15690559 0.2702545
-0.05522723 -0.054707404 -0.5049689 -0.14465511 -1.0113434 -0.041203998 -0.5636169 -0.41702983
-0.062676385 -0.021838564 0.016965713 -0.11527273 -0.30336997 -0.15308027 0.13406925 -0.66366416
-0.09452588 -0.1932252 -0.32032856 -0.42540553 -0.15919514 -0.009731192 -0.120852225 -0.3098873
-0.0806992 -0.47440937 -0.32286814 -0.2999626 -0.33880496 -0.105881855 -0.35245252 -0.09947534
-0.30603603 -0.48570162 -0.2086172 -0.20686176 -0.47518206 -0.3023161 -0.96439344 -1.2289163
-0.090190545 -0.2786361 -0.5976827 -5.6392387e-06 -0.026413899 -0.4205657 -0.43025252 -0.39559916
-0.28857785 -0.2587369 -0.05882889 0.029114699 -0.03619891 -0.7297967 -0.32405367 -1.1458653
-1.0875441 -0.26417843 -0.08874082 -0.5059026 -0.16549242 -0.30430475 -0.48123154 -0.7537644
-0.25875568 -1.5081445 -0.035819072 -0.41577995 -0.017801827 -0.71517307 -1.4850472 -0.33345374
-0.6991202 -0.039868783 -0.9362148 -0.04920702 -0.4522478 -0.23470508 -1.8821374 0.013598822
-0.66737944 -0.13875864 -0.38656306 -0.9683578 -0.30149326 -0.15384041 -0.1866671 -0.5856239
-0.6221188 -0.6392066 0.11638261 -0.118862934 -0.37440243 -0.19320154 0.025832433 -0.37367696
-0.11832947 -0.42981526 -0.41802093 -0.14266494 -0.09903101 -0.31425703 -0.45272246 -0.4770137
0.023612564 -0.10892623 -0.46435475 -0.5686714 -0.7040246 -1.1030954 -0.6665054 -0.7101794
-0.26342264 -0.20522922 -0.2409348 -0.54153603 -0.57763463 -0.32694256 -0.93269026 -0.53285164
-0.39029863 -0.4463307 -0.60353464 -0.56048524 -0.8486726 -0.049493067 -0.5901727 -0.09789841
0.022765202 -0.12665004 -0.60891324 -0.46257395 -0.11807727 -0.038817227 -0.3589592 -0.11718408
-0.8823233 -0.1111768 -0.43747127 -0.44115847 -0.35911846 -0.30209616 0.10498207 -0.24046043
-0.3231531 -0.14956619 -0.28688818 -1.0562632 -0.6932687 0.018597824 -0.8849854 -1.336622

network.3.bias f4 [64]
00000000: 67dc 32c0 f281 09c0 ba37 f6bf f661 57c0
00000010: bb30 10c0 fc3b 21c0 f051 05c0 c9ff 4ec0
00000020: 9467 c9bf 192e 0dc0 c147 11c0 3caf f0bf
00000030: 6016 3dc0 cbfa 4ec0 29a2 06c0 a9aa 16c0
00000040: 00ae fdbf 4b07 69c0 58b2 b5bf aeeb 14c0
00000050: 82b0 0dc0 333c 26c0 0270 f2bf a0af 1bc0
00000060: d62d 0bc0 ed3f c8bf 6790 1dc0 de4d 5ac0
00000070: 4402 27c0 9bb9 f6bf 1fbf 3dc0 e1bb 21c0
00000080: 5658 8fbf 06df 1ec0 a339 59c0 4d6a 0ec0
00000090: e465 25c0 106f 18c0 1852 343f 2d43 dbbf
000000a0: 5792 1fc0 4e3f 43c0 e86b e1bf 2d06 2ec0
000000b0: 6ed1 31c0 cf98 5bc0 cbd2 5fc0 e737 11c0
000000c0: b801 9bbf d1bd 00c0 c6e2 c0bf 764d 2ec0
000000d0: 9025 68c0 4def 903f 3620 86c0 75ad 5ac0
000000e0: 5e68 8cc0 5afc a4bf 6a90 3cc0 8b24 0dc0
000000f0: 63b5 02c0 686d 28c0 1e75 4c3f 1fb7 fcbf
-2.7947023 -2.1485562 -1.9235756 -3.365354 -2.2529743 -2.5192862 -2.083126 -3.234362
-1.5734735 -2.2059386 -2.2700045 -1.8803477 -2.9544907 -3.2340572 -2.1036475 -2.3541663
-1.9818726 -3.6410701 -1.4195051 -2.3268847 -2.2138982 -2.5974243 -1.8940432 -2.4325943
-2.1746726 -1.5644509 -2.4619386 -3.4110026 -2.6095133 -1.9275392 -2.96479 -2.5270922
-1.1198833 -2.4823623 -3.3941429 -2.225238 -2.584344 -2.3817787 0.70437765 -1.7129875
-2.4933069 -3.0507388 -1.7611055 -2.719127 -2.7784076 -3.4312017 -3.4972408 -2.269037
-1.21099 -2.0115855 -1.5069206 -2.7234778 -3.6272926 1.1323029 -4.191432 -3.416837
-4.38774 -1.2889512 -2.9463143 -2.2053554 -2.042321 -2.6316776 0.79866207 -1.9743384

network.6.weight f4 [5, 64]
00000000: e09d 8ebe 6535 2dbe c29c a7bd 5f36 3dbe
00000010: e498 18be 8420 99be 40e6 463e 3eeb 083e
00000020: 1fc6 19be 3c0b b2bd 9aa0 7dbe a7dd 3abe
00000030: d1c5 b5bd eb20 6d3d 182b 193e eab5 5ebe
00000040: f92c babd 114e 973d 0834 f23d 182e cabd
00000050: 760b 70be bddd 75be b776 6dbe 50a2 f13d
00000060: ed20 063e 50dc d63c 355c 55be b080 82be
00000070: dfcb 5d3e af67 ccbd efdb 813d 70e8 a8bd
00000080: afb7 a13b 741d 8d3e 17ac 39bd bb26 97be
00000090: 9c77 433d c80b 55be 956c 04be 55c2 30be
000000a0: b7d3 93be 3978 223e dc5a 923e c33e 273e
000000b0: 5b0f 9abd b6cc 06be d386 9cbe f546 b9bd
000000c0: ae7d f9bd cd7a 8a3d afc3 303d 154e de3d
000000d0: 0dc0 133e 3f06 66bd 062a 16bd 7e75 25be
000000e0: 5e63 96be 0c92 60be c845 913d 2d1a 05be
000000f0: acca 9c3c ab6c ec3d bae6 f8bd d7e7 3c3d
00000100: 72c4 42bd 71c1 6d3e e22f 533e 077b 803d
00000110: 639e e6be bc77 153e 7db5 05be 27b4 bd3d
00000120: 0cf5 343d 1b0d 813d a868 84be 5915 61be
00000130: efeb 4c3e 4f77 143e d637 05be be5e f2bd
00000140: 762c 86bd 9b32 f73e 2fe7 c1be b1df db3b
00000150: 004a 593e 9396 efbd 8f8c 9fbe 4c0d 563e
00000160: 658e e1bd 3bc2 97be 0584 14bf ca55 dabd
00000170: 4913 31be 0085 083e b16e 4bbe 1db9 77bd
00000180: b929 ecbe 0589 bd3e 009a c03b f8e7 2b3e
00000190: b8df 34be f5a4 6d3e 0165 793d a3b4 11be
000001a0: ec57 d1bd 64b0 7ebe 6074 273e 8c93 9ebe
000001b0: c6b5 12bd 1b02 1b3d ff37 a63e b0c4 b63c
000001c0: 99e5 353c 1b61 5cbe 0f03 81be 9dd2 cd3d
000001d0: 2af0 d43e 13a0 75be 87a8 92be 2d97 eebe
000001e0: 38c9 47bf bb96 553e a7f5 323e c704 86bd
000001f0: 31d0 763e 264e 02be 95fd 27be 5dd7 c5be
00000200: d6d5 873d 0e1e 15be 094d a9be e971 2fbc
00000210: 4017 943c 12a4 41be 04d3 7b3e df3a 5a3e
00000220: 564c 013e bbdb 14bf e59e 4bbe 1314 ae3e
00000230: 5d55 b0bd 2efa 1e3e a879 62be 07d7 63be
00000240: 8db3 1fbc 21db 12be 2399 1dbd 9eb5 d63e
00000250: 4f84 143e 74d3 d8bd c661 9b3d 2950 2dbd
00000260: 1e4f 5b3e 6bc5 66be ebf4 163e f2ec 9e3d
00000270: 17f4 b53c 383f 4dbe df93 7f3e 308f 89bd
00000280: 110c c43d eaa4 8fbc 083f 5bbc d822 a83d
00000290: 4a03 86be 4ed1 08be 26a4 593e 23b6 25be
000002a0: 63f3 52be c548 453e 5ebc 6f3e 3283 bdbe
000002b0: 79ab 863e 794c a5be cd65 7fbd 71b6 9bbe
000002c0: 1b0f 02bd 5153 85bc c3a3 4ebe 590b 9d3e
000002d0: 4110 84be af13 333e 5dfe 0cbe 247d 8dbe
000002e0: f77a 863e 113d 7bbe e399 afbe 34b0 a03e
000002f0: 89fd a5bd a3eb f03e 6143 09bf 1af2 fe3d
00000300: 4877 6cbe ca2e 173e 1b78 53bd 1ff9 debd
00000310: e0a1 913c 5646 533d a585 643e 64ab c8be
00000320: f387 3cbe f870 edbe 07fc bf3d db43 e2bd
00000330: 60ca b33d 3b5c 153d 4139 be3d 0586 043e
00000340: 64d7 35be 48d4 eb3d 97fa 023e a6cd e03e
00000350: 3830 cc3d b2d1 f03d c6f9 37bd ffd6 783d
00000360: 764a 69bd 96f4 1d3d 04af 2abe 4b68 ccbc
00000370: 8014 dbbd 8b60 32bd a0d4 5d3d caf0 02bd
00000380: 0084 dd3c b69c 633e b893 f93d 21e4 22be
00000390: 3cb9 a9be 0e86 2cbe 6e9c b63e afec e6bd
000003a0: f6f4 b53d 31cd da3d 4afe f8bd 4845 aa3e
000003b0: def2 0cbd 18ab f93d d20d 96bd ace0 993d
000003c0: 0fcf ec3d 5df5 003d e849 253d b701 41be
000003d0: 3448 1d3e ce28 4b3e 5e91 dd3d 0d4c b73e
000003e0: 2527 783e e561 d03c 715b 9f3d c007 623d
000003f0: 2462 cdbd c31d 4dbe 48d5 31ba d23c 0e3e
-0.27854824 -0.169149 -0.08184196 -0.18477772 -0.14902073 -0.2990762 0.19423771 0.13370988
-0.15016983 -0.08693549 -0.24768296 -0.18248616 -0.08875621 0.05789272 0.14957845 -0.21749082
-0.09090609 0.07387937 0.118263304 -0.09872073 -0.23441872 -0.24010368 -0.23189817 0.11798537
0.13098498 0.0262281 -0.20835955 -0.25488806 0.21659802 -0.099807136 0.06340777 -0.08247459
0.004935227 0.27561533 -0.045330133 -0.29521737 0.04772149 -0.20805275 -0.12932046 -0.17261632
-0.28872463 0.15866174 0.28584945 0.16332535 -0.0752246 -0.13164029 -0.30571613 -0.09046737
-0.121821746 0.06761704 0.04315537 0.10854737 0.1442873 -0.0561583 -0.03666117 -0.16158101
-0.29372686 -0.21930712 0.07093388 -0.12998267 0.01913961 0.11544164 -0.121533826 0.046119537
-0.047550626 0.23218323 0.20623735 0.062734656 -0.45042714 0.14596456 -0.13057514 0.09262877
0.044179007 0.06301328 -0.25861096 -0.219808 0.20011877 0.14498638 -0.13009581 -0.11834477
-0.06551449 0.48280796 -0.37871692 0.0067100157 0.21219635 -0.11698642 -0.31161925 0.2090351
-0.11013488 -0.29640374 -0.58013946 -0.10660894 -0.17292513 0.13331985 -0.19866444 -0.060479272
-0.46125582 0.370186 0.005877733 0.16787708 -0.17663467 0.23207457 0.06088734 -0.14229064
-0.10221848 -0.24871975 0.16352987 -0.30971944 -0.035817884 0.037843805 0.32464597 0.022310585
0.011102104 -0.21521418 -0.25197646 0.10049937 0.4158948 -0.23986845 -0.286442 -0.46599713
-0.7804141 0.2085828 0.17476521 -0.0654388 0.24102856 -0.12725124 -0.16405328 -0.38640872
0.06632583 -0.14562246 -0.33066586 -0.010708311 0.018077493 -0.18910244 0.24592215 0.2131152
0.12626776 -0.5814778 -0.19884832 0.3399969 -0.08610032 0.15525123 -0.2211672 -0.22249995
-0.009747398 -0.14341404 -0.03847612 0.41935438 0.14503597 -0.105872065 0.07587008 -0.042312775
0.214169 -0.22536246 0.14741866 0.077600375 0.022211118 -0.20043647 0.24958752 -0.06716764
0.09572614 -0.017534692 -0.013381727 0.08209771 -0.26174384 -0.13361093 0.21254024 -0.16182761
-0.20600657 0.1926604 0.234117 -0.37014157 0.26302698 -0.32284907 -0.062352944 -0.3041263
-0.031752687 -0.01627508 -0.20179658 0.3067272 -0.2579365 0.17487977 -0.13768907 -0.27634537
0.2626569 -0.24535014 -0.34297094 0.31384432 -0.081049986 0.47054777 -0.5361844 0.12448521
-0.23092377 0.14763942 -0.051628213 -0.1088736 0.017777383 0.05158075 0.22316606 -0.3919326
-0.18411236 -0.4637525 0.09374242 -0.11048099 0.08778834 0.03646491 0.09288264 0.1294175
-0.17757946 0.11515099 0.12790905 0.43906897 0.099701345 0.11758746 -0.044915937 0.06075191
-0.056955777 0.038563333 -0.16668326 -0.024952075 -0.106972694 -0.0435491 0.054157853 -0.031967916
0.027040482 0.22227749 0.12186378 -0.15907337 -0.33149135 -0.16848013 0.3566622 -0.112756126
0.08884613 0.106836684 -0.12157877 0.33255982 -0.034411304 0.12190837 -0.07326855 0.07513556
0.11562931 0.031483997 0.040353686 -0.1884831 0.15359575 0.19839785 0.10818742 0.3580021
0.24233682 0.025437305 0.07781113 0.055183172 -0.100284845 -0.20030884 -0.00067837955 0.13890389

network.6.bias f4 [5]
00000000: deda 583e e040 16be 5186 9f3c 8285 903e
00000010: fed9 033d
0.21177241 -0.14673185 0.019473227 0.28226858 0.032190315

network.0.weight f4 [128, 43]
00000000: b016 a5bb a65b 55bf b316 233f 1dbe bdbf
00000010: e460 edbf ccf0 23be b8ab 993f 4aba 0c3e
00000020: a51d 283e 7408 26be 01cf 90bc 38ae ecbd
00000030: 2269 943f aa3c a4be 4aec 273e 0b30 24bf
00000040: 0916 c2bf bd46 0240 a07e 793f 03ad a3bd
00000050: f573 0cbe d6be b3bd 3cf8 043e af68 a7ba
00000060: 3316 bbbd 1f9e 2b3e 567f 3cbd 3e24 d5bf
00000070: 36d1 0e40 6cc4 a1bf 35c0 8b3d 06b0 ae3f
00000080: 77c5 3abe 3267 b5bf 9cad 233e 74d5 cd3d
00000090: 1646 6cbf bba8 c13f a438 17c0 1038 45c0
000000a0: 99af 3440 800b 0ac0 049b 1a3d d127 29be
000000b0: b4c0 ee3f 6bcf dbbf 2a81 3cbf 501f 0abf
000000c0: 7005 3dbe 5b31 9dc0 5448 a93d 85bb bb3d
000000d0: 7bbe 1bbd 7f07 2c3d c5ab 343d 3f8f dbbf
000000e0: fdff 43c0 2e29 39be a3c4 8c3f 52f6 08c0
000000f0: b786 a6be af38 8dbe d660 3ebe 318b 7b3d
00000100: 0f0e a83d dcaa a6bd 22c5 ed3d 3ad1 3ebd
00000110: 5857 c5bd 7a87 c63d c04d 343f 5af2 e9bf
00000120: 9eac e03f d897 203e 12f5 96bf 113b 89bd
00000130: 43c6 2e3f 5056 fcbd bd4f 07c0 df9b b53f
00000140: 91b4 18c0 4551 8cbf 6fbf e9be f05a 3e40
00000150: 8046 92bf b63f c63d 39e7 a93d a3d9 bebf
00000160: ddb6 c63f 7543 0040 344f febf 227b a5bd
00000170: e86f f13f 3fcc 313d adb0 263d a9cf bfbd
00000180: 61e6 09bd 7777 9bbb 29fd f4c0 b989 5ec0
00000190: 3003 bebf 21e4 f83d 4b7d ffbf 7032 6540
000001a0: 1cde 3dbf 6d57 1c3d b552 3cbe 2d85 233e
000001b0: b6da c73d 24d8 33be 987e 753d 0ab2 19be
000001c0: d55d 883c 8ca4 e7be af78 57bd b5b6 20c0
000001d0: 46de 2abe 1dd7 2ebf 160a 0d3e 6aa7 f7be
000001e0: f5f9 cabd 64d2 053e 05cd f43f e250 d53f
000001f0: 098f 8ebf c6cd 08bf 2bcb e03f 4b10 3a3f
00000200: 07a0 14bd 0582 373c bed2 b13f 2f77 afbf
00000210: 2e8a 95be b720 20bf 942b 3abe 36a2 42c0
00000220: 33f6 37be 12d2 dcbc 1cac 6f3d 0d77 09be
00000230: f231 4c3c a5f1 e9bf c969 cdc0 0465 e2be
00000240: 5e57 8bbf c0a9 3bc0 35d3 db3f 981c 35bf
00000250: 1ff4 b43d 8fe7 91bd 451c 3c3e d4a2 92bc
00000260: f005 a0bc 75b3 f6bd 8792 af3d 962a 3fbe
00000270: 4ba2 62bf fec8 223f a176 9cbf d018 d3bd
00000280: 4e78 10c0 bfc7 ab3d 0568 50bf a810 02bd
00000290: 6921 99bf aa4d e43f 3ba7 a53f 8716 e8bf
000002a0: 245e fe3f 1150 a33f 0a51 c8bf 7a05 1c3d
000002b0: 343f 15be dabf 833f 5c70 84bf d068 0c40
000002c0: e5bf d5bf 1e5f 093e c208 e03f ae87 b2bd
000002d0: 3a08 3cbd 48f0 0f3e 66df d4bd ab40 2fbe
000002e0: a50e 4dbe adef 4ec0 b188 883c f881 f93e
000002f0: 7452 9e3e e8da bb3d 0cc0 a43f c6b1 abbd
00000300: 531e 313e 30da 32be 4916 0d3d 5715 213e
00000310: 0821 87bc 432c a53d a6dd 0e3e 94b5 72bf
00000320: f753 7040 66e6 cbc0 d01b 25bd b25c c33f
00000330: bc37 38be 9055 a6bf 54f0 da3d 402c e33f
00000340: 5363 713f d1ca ad3f 4f9a 3fc0 8edc 243e
00000350: 154d 943e dddb cabf 090d f03d 3a59 01bd
00000360: 8029 5dbf 75ef 893f f715 773f 6948 f73c
00000370: 12a3 043e a7aa 923f e6f0 b63c c0f2 143d
00000380: 8fa7 21be 86f3 4b3d 5864 38bd 4051 b93e
00000390: b792 08bf 9e19 b13f 3e65 78bd 8ba2 5a3f
000003a0: ec35 10c0 7541 f9bf 58b9 813d 59c8 a63d
000003b0: 3a40 f43d 6c84 cf3d a97f 02be 774b a3bd
000003c0: 5682 02be 2e91 f1bd 5130 17bf 5502 59be
000003d0: 9586 b1bf 27a9 0a3e e89f 33be 0cac 5c3c
000003e0: 5a68 13bf c3fd c43d 08e5 08bf 2db1 9ebe
000003f0: af6c 99bb ca0a e5bf c873 763f 7329 09bf
-0.005038105 -0.8334297 0.6370651 -1.4823643 -1.8545194 -0.16009825 1.2005529 0.13742939
0.16417558 -0.16214162 -0.017676832 -0.11556667 1.1594584 -0.32077533 0.16398731 -0.6413581
-1.5162975 2.0355675 0.9745884 -0.07991984 -0.13716109 -0.087766334 0.12985319 -0.0012772287
-0.091350935 0.16759537 -0.046019875 -1.6651685 2.2315192 -1.2638068 0.0682377 1.3647468
-0.1823939 -1.4172118 0.15984195 0.100504786 -0.9229444 1.5129617 -2.362832 -3.0815468
2.8232176 -2.156952 0.03774549 -0.16519095 1.8652558 -1.7172674 -0.7363459 -0.5395403
-0.18459105 -4.912275 0.082657486 0.09166626 -0.038023453 0.041999336 0.044109125 -1.715309
-3.0624993 -0.18082115 1.0997509 -2.1400342 -0.32524654 -0.2758231 -0.18591627 0.06141204
0.082058065 -0.081380576 0.11609866 -0.046586253 -0.096358 0.09693809 0.7043114 -1.8277085
1.7552679 0.15682924 -1.179354 -0.06700719 0.68271273 -0.1232115 -2.1142418 1.4188193
-2.386021 -1.0962301 -0.45653865 2.9743004 -1.1427765 0.09680121 0.08296055 -1.4910167
1.5524555 2.0041173 -1.9867921 -0.08080126 1.8862276 0.043407675 0.040695835 -0.0936578
-0.033666972 -0.004744466 -7.6559033 -3.477156 -1.4844723 0.12152887 -1.9960111 3.5812035
-0.74167037 0.038169313 -0.18390925 0.15968771 0.09758513 -0.1756292 0.059935182 -0.15009323
0.016646305 -0.45242727 -0.052605327 -2.5111516 -0.16686353 -0.68296987 0.13773379 -0.48369914
-0.09910957 0.13068539 1.9125067 1.6665308 -1.1137401 -0.53438985 1.7562002 0.7268111
-0.036285426 0.011200433 1.3892438 -1.3708247 -0.29206985 -0.6254992 -0.18180686 -3.0411506
-0.17965011 -0.026955638 0.058513746 -0.1342432 0.01246308 -1.8276869 -6.419163 -0.44217694
-1.0886037 -2.9322357 1.717383 -0.70746756 0.08835625 -0.071242444 0.18370159 -0.017899908
-0.019534081 -0.120459475 0.0857287 -0.18668589 -0.8852889 0.6358794 -1.2223703 -0.10307467
-2.2573428 0.08387708 -0.8140872 -0.031754166 -1.1963321 1.7836201 1.294166 -1.8131875
1.987248 1.2758809 -1.5649731 0.03809116 -0.14574891 1.0292923 -1.0346789 2.1938972
-1.6699187 0.1341519 1.7502673 -0.08717285 -0.045906283 0.14056504 -0.10394172 -0.17114513
-0.20025118 -3.2333786 0.016666742 0.4873197 0.30922282 0.091726124 1.2871108 -0.08383517
0.17296724 -0.17466044 0.03444508 0.15730797 -0.016495243 0.08065083 0.1395174 -0.94808316
3.7551248 -6.371875 -0.040309727 1.5262663 -0.17990011 -1.2994862 0.1069037 1.7747879
0.9429218 1.357752 -2.9937932 0.1609976 0.2896506 -1.5848347 0.11721236 -0.031579234
-0.8639145 1.0776201 0.9651789 0.030185895 0.12952831 1.1458329 0.022331666 0.036364317
-0.15786575 0.04979279 -0.04501757 0.361948 -0.5334887 1.3835943 -0.060643427 0.8540427
-2.2532911 -1.9473101 0.0633418 0.08143682 0.11926313 0.10132679 -0.12744011 -0.07973378
-0.12745032 -0.11795269 -0.590581 -0.21192296 -1.3869196 0.13541089 -0.17541468 0.013468754
-0.575811 0.09618714 -0.53474474 -0.3099455 -0.0046821455 -1.7893918 0.9627042 -0.5357887

network.0.bias f4 [128]
00000000: fd6a 48c1 f2c1 32c1 ccd2 cfc0 b60f 23c1
00000010: 6ecf 49c1 84fc 11c1 8364 1ec1 537f 21c1
00000020: d3b3 0dc1 b135 1dc1 d49a 2fc1 f9ed ccc0
00000030: 2995 18c1 c539 46c1 aefa 07c1 4029 2fc1
00000040: 9e1b 26c1 875d 3cc1 d1a8 9ec0 a78c 23c1
00000050: ec2c 20c1 51c1 05c1 218e fac0 34da 2cc1
00000060: 93b1 dec0 6ff2 0dc1 5a6d e2c0 a72b 07c1
00000070: 3dad edc0 cb28 03c1 83b2 31c1 ef0b 21c1
00000080: 5b9f c8c0 2fa0 0cc1 fe75 4dc1 18c5 a0c0
00000090: 3c4f 30c1 ded6 3ac1 40ce 3ac1 8441 0ac1
000000a0: 3a1d 2dc1 0550 f6c0 4890 1cc1 e801 a1c0
000000b0: 5162 34c1 2f33 39c1 9082 15c1 116d 2bc1
000000c0: dead 51c1 1c48 2cc1 c4d1 55c1 0143 1bc1
000000d0: e04e c0c0 ec89 24c1 c687 05c1 41d2 3ec1
000000e0: 721e 0dc1 2bf9 31c1 2524 1ec1 13f2 0dc1
000000f0: d506 32c1 02ca 0cc1 ada2 b2c0 1937 06c1
00000100: 6e5e e4c0 0937 efc0 23e1 f3c0 0916 05c1
00000110: bb31 14c1 307f 21c1 9565 39c1 5277 04c1
00000120: f42f fac0 27f7 05c1 17a0 45c1 e72e 2cc1
00000130: 84a1 d1c0 57e1 b4c0 c30e 20c1 1f8e 18c1
00000140: b141 3ac1 7ad9 0dc1 c036 f8c0 cce6 17c0
00000150: 8a18 07c1 fa89 24c1 dfd8 13c1 f7f6 18c1
00000160: 3a8d 1ac1 b2f4 9fc0 2007 2ec1 1e90 40c1
00000170: 48f3 b8c0 10c5 05c1 db8b 55c0 2413 19c1
00000180: 0758 03c1 2cc1 38c1 2326 2ec1 382d a1c0
00000190: 164d 23c1 27f0 b7c0 9151 21c1 be86 fdc0
000001a0: 70ac 34c1 f9da 1ec1 e703 f9c0 f447 11c1
000001b0: ce9c 0cc1 99bb 1bc1 06e0 02c1 37ed a6c0
000001c0: 2be8 3bc1 cfcc 42c1 20c8 12c1 b71b 1bc1
000001d0: 0a51 3cc1 2660 e1c0 ac73 04c1 e79a 18c1
000001e0: 0b74 b4c0 7cb1 17c1 1799 b3c0 de2b 23c1
000001f0: 2bed 31c1 33d6 10c1 4580 bfc0 4319 24c1
-12.52612 -11.17235 -6.494482 -10.191336 -12.613142 -9.124149 -9.899539 -10.093585
-8.856402 -9.825608 -10.9753 -6.4040494 -9.536416 -12.389104 -8.498701 -10.947571
-10.3817425 -11.772834 -4.9581075 -10.221839 -10.010967 -8.359696 -7.8298497 -10.803272
-6.9591765 -8.871688 -7.0758486 -8.448157 -7.4273973 -8.197459 -11.106082 -10.065413
-6.2694526 -8.789107 -12.841307 -5.0240593 -11.019344 -11.677458 -11.675354 -8.640995
-10.819635 -7.697268 -9.785225 -5.0314827 -11.274003 -11.574996 -9.344376 -10.714128
-13.104948 -10.767605 -13.363712 -9.703858 -6.0096283 -10.283672 -8.345648 -11.9263315
-8.819933 -11.123332 -9.883824 -8.8716 -11.126668 -8.799318 -5.582358 -8.388452
-7.136527 -7.475468 -7.6212325 -8.31788 -9.262141 -10.093552 -11.5873 -8.279131
-7.8183537 -8.37284 -12.351584 -10.761451 -6.5509663 -5.6525073 -10.003604 -9.534698
-11.641038 -8.865595 -7.7566833 -2.3734617 -8.443491 -10.283686 -9.240447 -9.560294
-9.659479 -4.99862 -10.8767395 -12.035185 -5.7796974 -8.360611 -3.336661 -9.567173
-8.208991 -11.547161 -10.884311 -5.03677 -10.20632 -5.7480655 -10.082414 -7.922698
-11.292099 -9.92846 -7.7817264 -9.080067 -8.788282 -9.7333 -8.179693 -5.216457
-11.744182 -12.175002 -9.173859 -9.694266 -11.769785 -7.042987 -8.27824 -9.537818
-5.6391654 -9.480831 -5.6124377 -10.19821 -11.120402 -9.052295 -5.984408 -10.256167

network.3.weight f4 [64, 128]
00000000: 32c2 78bd afe2 83bd 73a1 aebd 780b 19bf
00000010: fd0c 76bd 7a84 e53d 3766 7cbe 6c0b 2abe
00000020: 31c3 a2be f645 163e 1fda 09be df28 8abe
00000030: def2 65be 39c4 b2be d5c6 66be 5268 23bf
00000040: f307 98bd 93b3 9cbe 5042 64be ece3 3bbe
00000050: 2b1e 03bf 5559 13bf e7cd 76bf 7681 abbe
00000060: acf3 2bbd 2012 7fbd 0bc1 c93c 8f78 13bf
00000070: 5bf5 98bf d1ce 29bf 5bfd 583d 81c6 e8be
00000080: 2390 263b 5531 d2be 4b7b 24be c897 21bf
00000090: 4030 fcbe db65 98be 568b 7cbe 3ad4 0dbf
000000a0: 0ec6 c8be 5a59 b4be 4238 ecbd 3217 5ebf
000000b0: 506d 39bf a35c 4bbf 3a21 b7be 68b1 213e
000000c0: 7cb3 ccbe 9b6f a1be ba4a d4be 1923 1bbf
000000d0: 6b09 3dbe dcb0 cc3d d0d0 2bbf ce46 eaba
000000e0: 94a2 acbe 33db bfbe 5cc9 58be 2e3c cdbe
000000f0: 80b9 02be f519 3fbe f59f f8be dbd5 17be
00000100: 2d1f 68bd 70bf 43be d51f cdbd 7bf7 61bd
00000110: 674b b8be 218f f0bd 83d3 563e 18d2 12bf
00000120: e755 6dbf fce9 53be e5ec bfbe b747 4bbe
00000130: 9e89 86be 5c38 ddbe 1037 55be e214 4fbf
00000140: 25a0 debe 582f 38be ff55 c9be 4e53 08bf
00000150: dfae babe 8c36 67be a690 97be b988 dfbe
00000160: d11c 11bf db32 5ebc 85d3 12bf 33ac 4ebe
00000170: afe3 bbbe 6ccb afbe 64e6 01bf d004 88be
00000180: 89f9 acbe 45d2 46be 42d1 0ebf 5c67 8dbe
00000190: 87db 92be fdfb 93be c4a8 20be 574b 8a3e
000001a0: ad27 62bd b411 60bd dc3b 01bf 6a1c 14be
000001b0: 8d6a 81bf e01e 28bd d540 10bf 5373 d5be
000001c0: c152 80bd 28c7 b2bc 474a 8b3c 2ff3 ebbd
000001d0: c54e 9bbe 35ba 1cbe ad55 093e 16d3 29bf
000001e0: 8594 c1bd cdd1 45be d5f4 a3be 3bc1 d9be
000001f0: 94d8 22be 8769 1fbc 885d f7bd 4696 9ebe
00000200: 6639 a5bd 7dd9 f2be d540 a5be 9089 99be
00000210: 5070 adbe 67d0 d8bd 6464 b4be 9eb1 cbbd
00000220: 09a8 9cbe 0d98 f8be f490 55be 41c4 53be
00000230: 3b40 f3be 7dc2 9abe 62d1 76bf 6740 9dbf
00000240: 53cc b8bd 76a4 8ebe 9ef8 18bf 73af c439
00000250: b33d d8bc 1546 d7be a63a dcbe b182 cabe
00000260: cbb1 93be e470 84be d80f 71bd da61 ee3c
00000270: 14fa 12bd dac5 3abf 9fb1 a5be b7a1 92bf
00000280: dd2a 8bbf e93e 87be c2a7 b5bd 496b 01bf
00000290: d474 29be b5c7 9bbe 2d53 f6be b4e7 40bf
000002a0: 326c 84be dffb c0bf 4b86 12bd a9d4 d4be
000002b0: c1b6 91bc 460a 37bf d109 bebf ffa9 aabe
000002c0: 4dea 32bf 0d37 23bd fc98 6fbf 008b 49bd
000002d0: af76 e7be 0b43 70be dfd7 f0bf 3d20 623c
000002e0: 01ce 2abf e409 0ebe 6dd9 c5be 86d6 77bf
000002f0: bd4d 9abe 1575 1dbe 0726 3fbe 0ae2 15bf
00000300: 6f39 1fbf 9896 23bf b24b ee3d 4c49 f3bd
00000310: 06aa bfbe bbb9 45be 807c d33c b847 bfbe
00000320: 6653 f2bd 9101 dcbe 64fb d5be dd16 12be
00000330: f8c9 cabd 11d5 a0be c5ad e7be 6729 f4be
00000340: 609a c13c 2f11 dfbd 88a8 edbe f388 11bf
00000350: 6627 34bf 3028 8dbf c797 2abf 5cc1 35bf
00000360: cbdb 86be 0e20 52be 839b 76be 7398 0abf
00000370: 67d3 13bf 6856 a7be a8af 6ebf 5762 08bf
00000380: e8cb c7be a97a e4be 9574 1abf e36e 0fbf
00000390: 3b32 59bf f771 4abd 0a0b 17bf a02a c8bd
000003a0: e8d1 ba3c 03a5 01be 9ed7 1bbf e8c9 ecbe
000003b0: 74bd f1bd 8f90 1ebd 4dbc b7be cbf2 efbd
000003c0: 4ccf 61bf 748a e3bd 02f1 dfbe 37d8 e1be
000003d0: e4d4 b7be 389f 9abe 0b09 d73d 7346 76be
000003e0: 3f6b a5be f814 19be d5dc 92be 4e2a 87bf
000003f0: 836a 31bf 5b08 9a3c 577a 62bf 1805 abbf
-0.060732074 -0.06439721 -0.08526888 -0.59783125 -0.06007098 0.112069085 -0.24648367 -0.1660592
-0.31789544 0.14675125 -0.13462113 -0.26984307 -0.22455928 -0.3491533 -0.22536786 -0.63831055
-0.07423391 -0.30605754 -0.22290921 -0.18348664 -0.5121791 -0.57558185 -0.9640793 -0.33497208
-0.04198043 -0.062273145 0.024628183 -0.5760583 -1.1949877 -0.663312 0.052975994 -0.45463946
0.0025415502 -0.41053262 -0.16062658 -0.63122225 -0.49255562 -0.2976521 -0.24662527 -0.5540196
-0.39213604 -0.3522442 -0.11534168 -0.86754143 -0.7243242 -0.7943823 -0.35767537 0.15790331
-0.39980686 -0.3153046 -0.41463262 -0.6060043 -0.18460624 0.09994671 -0.671155 -0.0017873885
-0.33717787 -0.37471923 -0.21170563 -0.40084976 -0.12766075 -0.18662246 -0.48559538 -0.14827673
-0.056670357 -0.19115996 -0.10015837 -0.055167656 -0.35995027 -0.1174605 0.20979123 -0.5735183
-0.927092 -0.20694727 -0.37485424 -0.19851576 -0.2627687 -0.4320706 -0.20821786 -0.8089124
-0.43481556 -0.1798681 -0.39323422 -0.5325211 -0.3646154 -0.22579402 -0.29602545 -0.43659
-0.56684595 -0.01356193 -0.57354003 -0.20182876 -0.36697146 -0.34334886 -0.50742173 -0.26566172
-0.3378413 -0.19416149 -0.5578805 -0.2761792 -0.2868311 -0.2890319 -0.15689379 0.27010605
-0.05521362 -0.054704383 -0.50481963 -0.14463964 -1.0110642 -0.04104507 -0.56348926 -0.41689548
-0.06265784 -0.02182348 0.017003192 -0.11520993 -0.30333534 -0.15305407 0.13411589 -0.66337717
-0.09452156 -0.19318314 -0.3202273 -0.42530236 -0.1590293 -0.0097297495 -0.120783865 -0.30974025
-0.080675885 -0.47431555 -0.32276025 -0.29987764 -0.3387475 -0.105866246 -0.35232842 -0.09945987
-0.3059695 -0.48553506 -0.20856076 -0.20680334 -0.4750994 -0.30226508 -0.9641324 -1.2285279
-0.09023347 -0.2785985 -0.5975436 0.00037514753 -0.026396608 -0.42045656 -0.43013495 -0.39552835
-0.28846583 -0.2586738 -0.058853 0.029099394 -0.035883024 -0.7295815 -0.32362077 -1.1455601
-1.0872456 -0.26415184 -0.08869888 -0.5055433 -0.16548473 -0.30425802 -0.48110333 -0.7535355
-0.25863796 -1.5076865 -0.035772603 -0.41568497 -0.01778734 -0.7150005 -1.4846746 -0.33332822
-0.69888765 -0.039847422 -0.9359281 -0.049204826 -0.45207736 -0.23463075 -1.8815879 0.0138016315
-0.66720587 -0.1387096 -0.38642445 -0.9681171 -0.30137435 -0.15376695 -0.1866685 -0.58548033
-0.6219701 -0.6390166 0.116355315 -0.11879215 -0.37434405 -0.19309132 0.025816202 -0.37359405
-0.11832313 -0.42969945 -0.41793358 -0.14266534 -0.09901804 -0.31412557 -0.45249763 -0.47687837
0.023633182 -0.108919494 -0.46417642 -0.5684959 -0.7037262 -1.1027889 -0.66637844 -0.7099817
-0.26339564 -0.2052004 -0.2408276 -0.5413887 -0.5774445 -0.3268311 -0.9323678 -0.53275055
-0.39022756 -0.44624832 -0.6033414 -0.56028575 -0.8484227 -0.04942509 -0.5900122 -0.09773755
0.02280517 -0.12660603 -0.6087588 -0.46247792 -0.118037134 -0.03871208 -0.3588585 -0.11716231
-0.88206935 -0.11110392 -0.43738562 -0.4411027 -0.3590461 -0.301996 0.10499772 -0.24050312
-0.32308385 -0.14949405 -0.28684106 -1.0559785 -0.6930315 0.018802812 -0.88467926 -1.336093

network.3.bias f4 [64]
00000000: 508f 31c0 026a 09c0 06d9 f5bf d2f7 49c0
00000010: 3ffd 0ec0 6169 20c0 733b 05c0 86d1 45c0
00000020: f5db c8bf 6dc9 0ac0 b6d3 10c0 0e88 f0bf
00000030: f158 37c0 9980 4ec0 adec 03c0 bbb4 10c0
00000040: 97f6 f4bf 5991 68c0 9290 b5bf fc88 14c0
00000050: 0985 0dc0 f49c 22c0 dcdd f1bf aefb 17c0
00000060: c772 08c0 e5d8 c5bf 1f2c 1dc0 a927 58c0
00000070: 25a1 26c0 827d f6bf 03f5 3cc0 432e 21c0
00000080: 72c3 8cbf aa57 1dc0 aa0f 58c0 2d4e 04c0
00000090: 39ec 24c0 b442 18c0 b21c 563f dc59 dabf
000000a0: 9577 1dc0 e941 42c0 3013 e1bf 39e0 2dc0
000000b0: 8580 31c0 7171 4fc0 c70e 5fc0 df66 10c0
000000c0: b1ec 9abf 418f 00c0 b1bd c0bf 835b 2dc0
000000d0: ae50 5ec0 fd1f a73f da6d 82c0 3301 5ac0
000000e0: 8ced 84c0 0cb1 a4bf cf61 3cc0 32fa 01c0
000000f0: 5400 ffbf e50b 27c0 796f 543f 2bf0 eebf
-2.774372 -2.1470952 -1.9206855 -3.1557508 -2.234207 -2.5064318 -2.0817535 -3.0909133
-1.5692126 -2.168544 -2.2629218 -1.879152 -2.8648036 -3.226599 -2.0613205 -2.261031
-1.9137753 -3.6338713 -1.4184744 -2.3208609 -2.2112448 -2.5408297 -1.8895831 -2.3747363
-2.1320055 -1.5456816 -2.455818 -3.3774207 -2.6035855 -1.9257052 -2.9524543 -2.5184486
-1.0997145 -2.4584756 -3.375956 -2.0672715 -2.576918 -2.3790712 0.83637536 -1.7058673
-2.4604237 -3.0352728 -1.758398 -2.7168105 -2.7734692 -3.241299 -3.485277 -2.2562788
-1.2103482 -2.0087435 -1.5057889 -2.7087104 -3.4736743 1.3056637 -4.0759096 -3.4063232
-4.1539974 -1.286653 -2.9434698 -2.0308957 -1.9921975 -2.610101 0.82982594 -1.8667043

network.6.weight f4 [5, 64]
00000000: fd82 85be 8dff 2cbe c40f a5bd cdf5 0bbe
00000010: e21d 1cbe 0c7c 94be 658a 463e 5501 ff3c
00000020: 8728 1abe 5b9a 6dbd 6220 78be c875 3abe
00000030: 5cc0 64bd c34d 673d 92b3 f73d e95d 18be
00000040: 72d5 c9bc 515e 913d fe2a f13d aa80 c8bd
00000050: c8f2 6ebe adac 63be f07a 6bbe b6fd ea3d
00000060: 4a8b df3d b0c9 c53c 3de2 53be a50e 7abe
00000070: 54e7 5b3e 63cc ccbd cc5d 833d 5328 a9bd
00000080: fa99 b23b 045a 8c3e 187d f5bc b9cd 0abe
00000090: 1d32 413d b0d6 53be 4b4e 08be 7ab4 2abe
000000a0: 60dd 8cbe c074 173e 6768 913e e8b1 263e
000000b0: 6296 95bd ffe0 dd3b 79d8 97be 70c2 a9bd
000000c0: c654 f9bd 2ec9 873d 0749 313d d2ff d03d
000000d0: cc01 843c 624a bdbd 9173 b93c f1ea 20be
000000e0: 8719 c5bd 5c42 5fbe 40b9 913d 6645 ef3c
000000f0: 410d 243b 9c0b cc3d 8140 05be 4a4d f4bc
00000100: 72c4 42bd a0b2 6d3e 4631 533e 988f 803d
00000110: 1b8e e6be 6a6a 153e 4da9 05be 8eb7 bd3d
00000120: b8cc 343d e30a 813d 0463 84be 270a 61be
00000130: 6be5 4c3e 776f 143e 5638 05be 3766 f2bd
00000140: c837 86bd b51e f73e cdd8 c1be 59c7 da3b
00000150: 8746 593e 2f9d efbd 4884 9fbe 4a09 563e
00000160: 55a1 e1bd 51bc 97be e27d 14bf 1660 dabd
00000170: e116 31be f97d 083e 916e 4bbe aebc 77bd
00000180: f50c ecbe bf7d bd3e ec16 be3b b5d6 2b3e
00000190: 11e4 34be a89e 6d3e a2b2 793d 35ae 11be
000001a0: 8e41 d1bd 7ea8 7ebe 586f 273e de83 9ebe
000001b0: 64c4 12bd 09ba 1a3d 7732 a63e fde3 b53c
000001c0: 005c 353c 7d58 5cbe 29f1 80be 9dd2 cd3d
000001d0: 2eec d43e 337c 75be 5ea0 92be 3987 eebe
000001e0: 72bb 47bf 5d92 553e e4f3 323e 7312 86bd
000001f0: bbc1 763e 8c34 02be 55ef 27be e5d1 c5be
00000200: ddd5 873d 2d2c 15be e840 a9be d634 2fbc
00000210: 01fb 933c aea0 41be bdc5 7b3e b41f 5a3e
00000220: ac51 013e 8dd5 14bf a87e 4bbe 6a0e ae3e
00000230: 084a b0bd d9e6 1e3e 5869 62be 59c3 63be
00000240: 9d64 1fbc 0fce 12be dbba 1dbd 59a9 d63e
00000250: 5182 143e c095 d8bd 074e 9b3d 7183 2dbd
00000260: e43f 5b3e 64c4 66be b5ec 163e 5bea 9e3d
00000270: 9623 b63c af44 4dbe 7991 7f3e 1973 89bd
00000280: a918 c43d 74cd 8fbc 8d20 5abc a447 a83d
00000290: 96f2 85be 14cb 08be 0b9b 593e fcb8 25be
000002a0: 4af7 52be 5e49 453e 00b9 6f3e 9d7f bdbe
000002b0: 79ab 863e 9140 a5be 565b 7fbd 78a7 9bbe
000002c0: c74b 02bd c95a 85bc 2ea5 4ebe 9a00 9d3e
000002d0: 2310 84be 5f12 333e 04ef 0cbe 7678 8dbe
000002e0: c475 863e dc3c 7bbe a495 afbe f4ac a03e
000002f0: 0911 a6bd 62e1 f03e 1933 09bf c9f3 fe3d
00000300: 4877 6cbe de21 173e 0177 53bd 2300 dfbd
00000310: fa97 913c 2a38 533d e460 643e 4e9f c8be
00000320: 528a 3cbe fd55 edbe b4ce bf3d 1c3e e2bd
00000330: 98b4 b33d 4376 153d a220 be3d df6b 043e
00000340: 25bb 35be d1a7 eb3d 8cf4 023e 81af e03e
00000350: 4d16 cc3d 1ed0 f03d 62c6 37bd 31c9 783d
00000360: af89 69bd 51f6 1d3d efaa 2abe 5a19 ccbc
00000370: d10d dbbd 0d69 32bd ea00 5e3d 249f 02bd
00000380: 88fa dd3c cc78 633e 59ad f93d e7e0 22be
00000390: 60a4 a9be 0f8c 2cbe f288 b63e 27ee e6bd
000003a0: 23d5 b53d 0ad5 da3d a913 f9bd 1c36 aa3e
000003b0: a102 0dbd df92 f93d ed1b 96bd 68ff 993d
000003c0: ebd7 ec3d d5e0 003d 6359 253d c907 41be
000003d0: b84f 1d3e 1129 4b3e 808e dd3d 2a3e b73e
000003e0: 400d 783e 0f45 d03c 5271 9f3d 8002 623d
000003f0: 4661 cdbd 81fe 4cbe 7a91 37ba 2141 0e3e
-0.260765 -0.1689436 -0.08059648 -0.13667984 -0.15245774 -0.2900089 0.19388731 0.031128565
-0.15054522 -0.058008533 -0.24231103 -0.18208992 -0.05584751 0.056470644 0.12094797 -0.14879574
-0.024637911 0.070980676 0.11775778 -0.09790166 -0.23334801 -0.2223384 -0.22996116 0.11474173
0.10915239 0.024144024 -0.20691772 -0.24419649 0.21474963 -0.09999921 0.06414375 -0.08259644
0.0054504843 0.27412426 -0.029966876 -0.1355504 0.047166932 -0.20687366 -0.13311116 -0.16670409
-0.27512646 0.1479063 0.28399965 0.16278803 -0.07304074 0.0067712064 -0.29657343 -0.08289039
-0.121743724 0.06630169 0.043282535 0.10205044 0.016114138 -0.09242703 0.022638114 -0.15714623
-0.096240096 -0.21802658 0.07115412 0.029207896 0.0025032314 0.09963152 -0.13012888 -0.02982201
-0.047550626 0.23212671 0.20624265 0.06277388 -0.45030293 0.14591375 -0.13052864 0.09263526
0.044140548 0.063009046 -0.25856793 -0.21976529 0.20009391 0.14495645 -0.13009772 -0.11835902
-0.06553608 0.48265615 -0.37860718 0.006676596 0.2121831 -0.11699902 -0.3115561 0.20901981
-0.110171 -0.29635862 -0.5800458 -0.10662858 -0.17293884 0.13329305 -0.19866396 -0.060482673
-0.46103635 0.3701 0.0058010723 0.16781123 -0.17665125 0.23205054 0.060961373 -0.14226611
-0.10217582 -0.24868962 0.16351068 -0.30959982 -0.035831824 0.037775073 0.32460377 0.02220344
0.011069298 -0.2151813 -0.2518399 0.10049937 0.4158644 -0.2397316 -0.28637975 -0.46587542
-0.78020394 0.20856614 0.1747585 -0.06546488 0.2409734 -0.12715358 -0.16399892 -0.386367
0.06632588 -0.14567633 -0.33057332 -0.010693749 0.018064024 -0.1890895 0.2458715 0.21301156
0.12628812 -0.5813835 -0.19872534 0.33995372 -0.0860787 0.15517749 -0.22110498 -0.22242488
-0.009728578 -0.14336418 -0.038508277 0.41926077 0.14502837 -0.105754375 0.07583242 -0.04236168
0.21411091 -0.22535855 0.14738734 0.077595435 0.022233766 -0.20045732 0.24957837 -0.06711406
0.09575016 -0.017554022 -0.013313425 0.08216789 -0.2616164 -0.13358718 0.2125055 -0.16183847
-0.20602146 0.19266269 0.23410416 -0.37011424 0.26302698 -0.32275823 -0.062342964 -0.30401206
-0.03181055 -0.016278641 -0.20180199 0.3066452 -0.2579356 0.17487477 -0.13763052 -0.27630967
0.26261723 -0.24534935 -0.34293854 0.31381953 -0.08108718 0.47046953 -0.53593594 0.12448842
-0.23092377 0.14759013 -0.051627163 -0.10888698 0.017772663 0.051567234 0.22302586 -0.3918404
-0.1841214 -0.46354666 0.09365597 -0.11047003 0.0877468 0.036489736 0.09283568 0.12931775
-0.17747171 0.11506618 0.127886 0.438839 0.09965191 0.11758445 -0.044866927 0.060738746
-0.05701607 0.038564984 -0.16666768 -0.024914432 -0.10695995 -0.043557215 0.05420009 -0.03189005
0.027097002 0.22214049 0.121912666 -0.15906106 -0.3313322 -0.16850303 0.35651356 -0.11275893
0.08878543 0.10685165 -0.12161953 0.33244407 -0.034426335 0.121862166 -0.07329545 0.07519418
0.115646206 0.031464417 0.04036845 -0.18850626 0.15362442 0.19839884 0.10818195 0.35789615
0.24223804 0.025423555 0.07785286 0.055178165 -0.10028319 -0.2001896 -0.00070025737 0.13892032

network.6.bias f4 [5]
00000000: 8967 5f3e de2f 16be 0c9c 9f3c a97c 903e
00000010: d8f4 033d
0.2181684 -0.14666697 0.019483589 0.28220108 0.032215923
