experiments/checkpoints/20251210_110803/checkpoint_ep59.pt (torch, 246569 bytes, 24 tensors)

network.0.weight f4 [128, 43]
00000000: b016 a5bb 9c77 dcbe 12da 6f3e 9bfe 06bf
00000010: f5fd 6b3e ccf0 23be bc72 69be 4aba 0c3e
00000020: a51d 283e 7408 26be 01cf 90bc 38ae ecbd
00000030: 7f69 66be 94a4 80bd 59cb 2ebf 662a ff3e
00000040: 7d7e acbf 3c9e 8a3f e706 cc3e 03ad a3bd
00000050: f573 0cbe d6be b3bd 3cf8 043e ab68 a7ba
00000060: 3316 bbbd 1f9e 2b3e 567f 3cbd 9481 203f
00000070: c8b2 c8bd fd28 9ebd 32c0 8b3d 06c6 70be
00000080: 77c5 3abe 58fb 5f3f 9cad 233e 717c 443e
00000090: a000 113f cd4a bb3e 4c3c e5be 2813 a5bf
000000a0: db56 7e3f 804c 51bf 049b 1a3d d127 29be
000000b0: 2f5d 873f b4d7 68bf 1792 70be c224 683e
000000c0: 7005 3dbe f026 13c0 5448 a93d 85bb bb3d
000000d0: 7bbe 1bbd 7c07 2c3d c5ab 343d 2543 943e
000000e0: acbc 97be ffbd 8b3f ce99 853f 9227 e4bf
000000f0: 5627 9c3f 6509 fdbe d660 3ebe 318b 7b3d
00000100: 0f0e a83d dcaa a6bd 22c5 ed3d 3ad1 3ebd
00000110: 5857 c5bd 7a87 c63d ecba b03e e6d2 d9be
00000120: bf71 3c3f d897 203e b0f3 a9be 113b 89bd
00000130: aeac a53e 5056 fcbd c688 a93e d1f7 d83e
00000140: 130c cbbf 2925 1e3f bc19 e1be ba1b 883f
00000150: 1b1e 5ebf b63f c63d 39e7 a93d f2f9 1fbd
00000160: 71d0 cd3d 9c42 c63e bc27 48be 227b a5bd
00000170: 03f5 a23e 3fcc 313d adb0 263d a9cf bfbd
00000180: 61e6 09bd 7777 9bbb 0770 f9bf cc27 8dbf
00000190: 0c0b b4bd 795d df3d a684 d3bf 29b9 ff3f
000001a0: 9a6e 7e3f 6d57 1c3d b552 3cbe 2d85 233e
000001b0: b6da c73d 24d8 33be 987e 753d 0ab2 19be
000001c0: d55d 883c fe01 813e bab7 9f3e 42fe 3dbf
000001d0: 46de 2abe 663d a93e 160a 0d3e 4ffe 613e
000001e0: f5f9 cabd 3cb7 1abf 9614 183f 3b91 27bf
000001f0: fd24 2fbe 4bce 53bf 4625 b63c 277e b4be
00000200: 07a0 14bd 0582 373c 92b2 0d3f 77fb 08bf
00000210: 6087 443f 528d 963e 942b 3abe cac1 7ebf
00000220: 33f6 37be 12d2 dcbc 1cac 6f3d 0977 09be
00000230: f231 4c3c ac56 a93e e445 9fbf b515 0c3f
00000240: a2d2 b4bb 0e57 c2bf ebed db3e b603 8fbf
00000250: 1ff4 b43d 8fe7 91bd 451c 3c3e d4a2 92bc
00000260: f005 a0bc 75b3 f6bd 7f92 af3d 962a 3fbe
00000270: 8939 b3be 25c6 73be 72eb 933c d018 d3bd
00000280: 400b 8dbe bfc7 ab3d 5fc5 8ebe a810 02bd
00000290: ae77 0ebf 5c72 ef3d 2ab9 b6bf d1ab a8be
000002a0: f8d4 513e 2005 053f e671 62bf 7a05 1c3d
000002b0: 343f 15be 29b4 003f 1815 02bf 04e8 c93d
000002c0: ce47 8cbf 1e5f 093e 2e2b c13e ae87 b2bd
000002d0: 3a08 3cbd 48f0 0f3e 66df d4bd ab40 2fbe
000002e0: fca6 413e c7b4 66bf 65d9 4c3d e491 2e3f
000002f0: 6d38 34bf 1e8c 843d 8d85 a2bf c6b1 abbd
00000300: 531e 313e 30da 32be 4916 0d3d 5715 213e
00000310: 0821 87bc 432c a53d a6dd 0e3e d624 97bf
00000320: 4d27 cd3f 24a2 ddbf d01b 25bd 5f7a 2f3f
00000330: bc37 38be 8f1f c4bf 54f0 da3d 79d3 f4bf
00000340: 733d ad3f ff1a bfbd 618b aebf 349e dcbe
00000350: 75a9 2d3f 59e6 bcbe 090d f03d 3a59 01bd
00000360: 72d7 103f 2f45 b4be 1a59 b03e 1796 1ebd
00000370: 12a3 043e dbf4 513e e6f0 b63c c0f2 143d
00000380: 8fa7 21be 86f3 4b3d 4d64 38bd b97d 2dbf
00000390: 6b2d 36bf d3c2 5a3f 153a 0bbe aec3 45bf
000003a0: 7db5 e9bd 5198 38bf 58b9 813d 59c8 a63d
000003b0: 3a40 f43d 6c84 cf3d a97f 02be 774b a3bd
000003c0: 5682 02be 2e91 f1bd 800c d8be 46c9 543e
000003d0: 99e6 a83e 27a9 0a3e dc17 f6be 0cac 5c3c
000003e0: 547d d0be c3fd c43d 96c0 a8be 3034 ffbc
000003f0: 4568 8f3f b597 59be 0a16 d23e 6ef1 adbd
-0.005038105 -0.43060005 0.23423031 -0.5273225 0.23046096 -0.16009825 -0.22797674 0.13742939
0.16417558 -0.16214162 -0.017676832 -0.11556667 -0.22501181 -0.06281391 -0.68279034 0.49837035
-1.3476101 1.0829539 0.39849016 -0.07991984 -0.13716109 -0.087766334 0.12985319 -0.0012772282
-0.091350935 0.16759537 -0.046019875 0.6269772 -0.09799725 -0.07722662 0.06823768 -0.2351304
-0.1823939 0.87492895 0.15984195 0.19188096 0.5664158 0.36580506 -0.44772565 -1.2896471
0.9935128 -0.81757355 0.03774549 -0.16519095 1.0575312 -0.90954137 -0.23493229 0.22670272
-0.18459105 -2.2992516 0.082657486 0.09166626 -0.038023453 0.041999325 0.044109125 0.28957477
-0.29636133 1.0917357 1.0437562 -1.7824576 1.2199504 -0.4942123 -0.18591627 0.06141204
0.082058065 -0.081380576 0.11609866 -0.046586253 -0.096358 0.09693809 0.3451761 -0.42543715
0.7361106 0.15682924 -0.3319373 -0.06700719 0.32358307 -0.1232115 0.33112162 0.4237657
-1.586306 0.6177545 -0.43964946 1.0633461 -0.8676469 0.09680121 0.08296055 -0.039056726
0.10049523 0.38722694 -0.19546407 -0.08080126 0.31827554 0.043407675 0.040695835 -0.0936578
-0.033666972 -0.004744466 -1.9487313 -1.102777 -0.087911695 0.109065 -1.6524856 1.9978381
0.99387515 0.038169313 -0.18390925 0.15968771 0.09758513 -0.1756292 0.059935182 -0.15009323
0.016646305 0.25196832 0.3119486 -0.7421609 -0.16686353 0.33054656 0.13773379 0.22069667
-0.09910957 -0.60435843 0.5940641 -0.6545598 -0.17103954 -0.82736653 0.02223457 -0.35252497
-0.036285426 0.011200433 0.553506 -0.53508705 0.76769066 0.29404694 -0.18180686 -0.9951445
-0.17965011 -0.026955638 0.058513746 -0.13424315 0.01246308 0.33073938 -1.2443204 0.5472062
-0.0055182735 -1.5182817 0.42954955 -1.1173007 0.08835625 -0.071242444 0.18370159 -0.017899908
-0.019534081 -0.120459475 0.08572864 -0.18668589 -0.35004833 -0.23806055 0.018056605 -0.10307467
-0.27547646 0.08387708 -0.27884957 -0.031754166 -0.55651367 0.11691734 -1.4275258 -0.32943586
0.20491397 0.51960945 -0.88455045 0.03809116 -0.14574891 0.502749 -0.50813437 0.098587066
-1.0959413 0.1341519 0.37728256 -0.08717285 -0.045906283 0.14056504 -0.10394172 -0.17114513
0.18911356 -0.90119594 0.05001201 0.6819136 -0.703986 0.06472038 -1.2697006 -0.08383517
0.17296724 -0.17466044 0.03444508 0.15730797 -0.016495243 0.08065083 0.1395174 -1.1808116
1.6027619 -1.7315106 -0.040309727 0.685461 -0.17990011 -1.5322131 0.1069037 -1.9127036
1.3534378 -0.09331321 -1.3636285 -0.4308945 0.67836696 -0.3689449 0.11721236 -0.031579234
0.56578743 -0.35209033 0.3444298 -0.038717356 0.12952831 0.20503561 0.022331666 0.036364317
-0.15786575 0.04979279 -0.04501753 -0.6776996 -0.7116305 0.8545353 -0.13596375 -0.7725171
-0.11411569 -0.72107416 0.0633418 0.08143682 0.11926313 0.10132679 -0.12744011 -0.07973378
-0.12745032 -0.11795269 -0.42197037 0.20779905 0.32988432 0.13541089 -0.48065078 0.013468754
-0.40720618 0.09618714 -0.3295943 -0.031152815 1.1203696 -0.21249278 0.4103244 -0.08493315

network.0.bias f4 [128]
00000000: 206d 92c0 1cb7 9bc0 f1e9 e2bf bc65 98c0
00000010: b3ca 89c0 3b21 30c0 3bf6 6fc0 2e7e 7cc0
00000020: d2df 12c0 cfca 2dc0 b5af 86c0 8d9d 71bf
00000030: 19c8 76c0 6dbb 12c0 dcdf 61c0 1049 75c0
00000040: aa85 2dc0 2cde 90c0 20e3 78bf de85 81c0
00000050: d809 9ec0 76ea 51c0 6bef 41bf 31e5 8fc0
00000060: c02b 50c0 6337 2dc0 d692 febf 4154 4dc0
00000070: b80f 71c0 c788 26c0 59be 87c0 c44a 95c0
00000080: 5087 d3bf 42e0 29c0 6aa5 75c0 3f27 3fbf
00000090: 5767 9ec0 13ee 85c0 6edf 67c0 1dc0 ddbf
000000a0: 2550 84c0 5b53 febf c708 8bc0 ef6c 47c0
000000b0: 099c 9ec0 45c6 25c0 dd5b 43c0 2555 6ec0
000000c0: 20a3 18c0 6565 6ec0 5932 97c0 48d9 0cc0
000000d0: 3254 3ec0 500f 6fc0 2dd4 bbbf 54ca 96c0
000000e0: 07e1 d3bf 13b7 8bc0 7ea6 78c0 311a 0dc0
000000f0: cfde 98c0 a0e3 5bc0 834a 1fc0 13b3 81c0
00000100: 4974 2ec0 5a2f 12c0 3a1c 84c0 ba53 a7bf
00000110: 0dc5 45c0 20b9 3dc0 f793 8cc0 4699 b6be
00000120: 55c9 a5bf 3dcc 0cc0 e99d 70c0 b210 04c0
00000130: b82c 85bf 0360 80c0 f106 86c0 24dc bbbf
00000140: 723f 5fc0 068e 28c0 05b1 2ac0 d999 a43d
00000150: dd7d 69c0 2a4c 80c0 f9de 0fc0 8071 41c0
00000160: 78cd 35c0 f524 4ac0 d667 37c0 1a31 88c0
00000170: d03b 86bf ce4e b1bf 1bfd 26c0 4289 7dc0
00000180: 0ec5 2dc0 596c 19c0 ec38 80c0 f266 1ec0
00000190: 16d8 96c0 33bb 9dbf 58e6 74c0 fa3f 44c0
000001a0: 6b39 91c0 6c8a 91c0 740a dcbf d497 f7bf
000001b0: 33df d4bf c136 31c0 71f7 d4bf 9644 23c0
000001c0: 33ac 66c0 34ce 8ac0 d456 89c0 bfef 82c0
000001d0: bb0d a4c0 c023 9dc0 8d9c 8dbf b5fd 2ac0
000001e0: 9459 43c0 9fea 28c0 0168 67c0 ea5e 49c0
000001f0: 5d17 92c0 989d 8ac0 2989 d4bf f5f8 3bc0
-4.575821 -4.866102 -1.7727643 -4.7624187 -4.3059936 -2.7520282 -3.7494037 -3.9452014
-2.294911 -2.7155035 -4.2089486 -0.9438103 -3.855963 -2.2926896 -3.5292883 -3.8325844
-2.7112832 -4.5271206 -0.97221565 -4.047591 -4.9387016 -3.2799354 -0.7575595 -4.4967275
-3.2526703 -2.7065055 -1.9888561 -3.2082675 -3.7665844 -2.6020982 -4.241986 -4.6653767
-1.6525669 -2.6543126 -3.838221 -0.7466926 -4.9501147 -4.185312 -3.623012 -1.7324253
-4.1347833 -1.9869188 -4.3448215 -3.1160238 -4.9565473 -2.5902264 -3.052482 -3.7239468
-2.3849564 -3.7249386 -4.724896 -2.2007618 -2.9738889 -3.7353096 -1.4674126 -4.7121983
-1.6553048 -4.366098 -3.8851619 -2.2047236 -4.7771983 -3.4357681 -2.4889228 -4.0531096
-2.7258475 -2.28414 -4.1284456 -1.3072426 -3.090152 -2.9644241 -4.393062 -0.35663813
-1.2952067 -2.1999657 -3.759638 -2.063519 -1.0404272 -4.01172 -4.1883473 -1.4676557
-3.4882474 -2.6336684 -2.6670544 0.080371566 -3.648307 -4.0092974 -2.2479842 -3.0225525
-2.8406658 -3.1585057 -2.8657126 -4.255994 -1.0487003 -1.3852174 -2.6091983 -3.9615026
-2.7151523 -2.397238 -4.0069485 -2.4750333 -4.7138777 -1.2322754 -3.826559 -3.0664048
-4.538259 -4.548147 -1.719069 -1.9343209 -1.6630615 -2.768967 -1.6638013 -2.5510612
-3.6042602 -4.3376713 -4.291849 -4.091766 -5.126676 -4.910614 -1.10634 -2.671735
-3.0523424 -2.6393201 -3.615723 -3.146418 -4.565352 -4.3317375 -1.6604358 -2.9370701

network.3.weight f4 [64, 128]
00000000: bb0f 79bd 53e3 83bd 42a0 aebd 5f15 19bf
00000010: aa1a 76bd d984 e53d 796a 7cbe 9713 2abe
00000020: e6d0 a2be 3146 163e e9da 09be ce30 8abe
00000030: 8313 66be d3e0 b2be 70ca 66be bc73 23bf
00000040: 2e08 98bd d0b8 9cbe 6447 64be a5fe 3bbe
00000050: 9826 03bf 7b65 13bf 3ae9 76bf 7491 abbe
00000060: dc05 2cbd 4046 823e d504 ca3c f380 13bf
00000070: b8ff 98bf 23df 29bf 69f3 583d f2d4 e8be
00000080: 0017 243b 4848 d2be be8a 24be 6fa0 21bf
00000090: 2a41 fcbe ac72 98be 4ca0 7cbe ebe7 0dbf
000000a0: c6d1 c8be 5b67 b4be 7e3c ecbd 5225 5ebf
000000b0: 0d84 39bf de70 4bbf 9a33 b7be 86b3 213e
000000c0: e7bf ccbe f779 a1be 185a d4be 682b 1bbf
000000d0: 9a16 3dbe 1ab9 cc3d ccdd 2bbf 9a8b ecba
000000e0: 3eb4 acbe 10e9 bfbe 9cd4 58be f152 cdbe
000000f0: 49ba 02be 5131 3fbe 6db1 f8be 00dc 17be
00000100: 28a2 67bd adc4 43be c33b cdbd 530e 62bd
00000110: c755 b8be b5b5 f0bd 53e0 563e bcdc 12bf
00000120: 9e6d 1cbf 36ef 53be c6f4 bfbe 0252 4bbe
00000130: dd91 86be b74a ddbe ee3e 55be 992d 4fbf
00000140: 66be debe 2830 38be 6e5e c9be 396a 08bf
00000150: d3c3 babe 9056 67be 619b 97be fd6e f4bd
00000160: 6228 11bf 43ea 5dbc e0e9 12bf 0fb9 4ebe
00000170: 7fee bbbe 67db afbe 3aef 01bf 760a 88be
00000180: ae03 adbe 1d80 d73d 48dc 0ebf 5e6d 8dbe
00000190: 11fd 92be d63c e83c dcab 20be 08e9 f63e
000001a0: f335 62bd df14 60bd a445 01bf 7820 14be
000001b0: b373 81bf 4e8a 8d3e 3249 10bf ef84 d5be
000001c0: 7a5c 80bd cae6 b2bc aefb 8a3c 1c14 ecbd
000001d0: 4f53 9bbe 13c1 1cbe 7349 093e e5e5 29bf
000001e0: c996 c1bd d4dc 45be 1b02 a4be c1ce d9be
000001f0: 5b96 c33d 946f 1fbc 5f81 f7bd 8ca9 9ebe
00000200: 9f45 a5bd c9e5 f2be f94e a5be b394 99be
00000210: d877 adbe 96d8 d8bd a874 b4be bab9 cbbd
00000220: c1b0 9cbe e2ad f8be bf9f 55be 92d3 53be
00000230: 104b f3be 2dc9 9abe 7de2 76bf 214d 9dbf
00000240: d2b5 b8bd 64a9 8ebe bc01 19bf b19f a23e
00000250: f661 d8bc 6354 d7be 0f4a dcbe f98b cabe
00000260: 7ac0 93be 2a79 84be 90f6 70bd f381 ee3c
00000270: 221a 903e f5d3 3abf 2d5c d3bb b7ab 92bf
00000280: a534 8bbf 6542 87be bfbd b5bd a1f7 41be
00000290: d876 29be d5cd 9bbe fb63 f6be b4f6 40bf
000002a0: a07b 84be e10a c1bf 05b7 12bd 1ce1 d4be
000002b0: 23d5 91bc 9515 37bf 0716 bebf 73ba aabe
000002c0: 8bf9 32bf 734d 23bd c6ab 6fbf 4d8d 49bd
000002d0: 068d e7be 8756 70be e1e9 f0bf 696b a93e
000002e0: 61d9 2abf bf16 0ebe 98eb c5be 4ce6 77bf
000002f0: 535d 9abe 5788 1dbe a925 3fbe 73eb 15bf
00000300: 2d43 1fbf 0ba3 23bf 015a ee3d 696e f3bd
00000310: adb1 bfbe a0d6 45be 8a9e d33c 9652 bfbe
00000320: b956 f2bd bf10 dcbe d706 d6be c216 12be
00000330: c5d0 cabd 4ce6 a0be 3dcb e7be 243b f4be
00000340: 236f c13c b714 dfbd e8bf edbe 7394 11bf
00000350: f53a 34bf 3b32 8dbf 19a0 2abf 51ce 35bf
00000360: 55df 86be 9c27 52be 9db7 76be 1ba2 0abf
00000370: dddf 13bf 0465 a7be cac4 6ebf f768 08bf
00000380: 39d5 c7be 7585 e4be 3f81 1abf f67b 0fbf
00000390: 9c42 59bf 3eb9 4abd 8f15 17bf f67e c8bd
000003a0: 177e ba3c 8cb0 01be bde1 1bbf 7ed6 ecbe
000003b0: 7fd2 f1bd d0fe 1ebd 80c9 b7be 35fe efbd
000003c0: f1df 61bf aab0 e3bd 3cfc dfbe 86df e1be
000003d0: 60de b7be 59ac 9abe d700 d73d 423b 76be
000003e0: 5374 a5be e127 19be 02e3 92be a233 87bf
000003f0: 0f7a 31bf 66f9 ab3e 678e 62bf 6e16 abbf
-0.060806017 -0.06439843 -0.085266605 -0.59798235 -0.060084023 0.11206979 -0.24649991 -0.16609035
-0.31800002 0.14675213 -0.13462414 -0.2699036 -0.2246838 -0.34937152 -0.22538161 -0.6384847
-0.07423435 -0.3060975 -0.22292858 -0.18358858 -0.51230764 -0.5757672 -0.96449625 -0.3350941
-0.041997775 0.25444221 0.024660507 -0.57618636 -1.1953039 -0.66356105 0.05296651 -0.45474964
0.0025038123 -0.4107077 -0.16068551 -0.6313543 -0.49268466 -0.29774988 -0.24670523 -0.55432004
-0.39222544 -0.35235104 -0.115349755 -0.86775696 -0.7246712 -0.79469097 -0.35781556 0.15791139
-0.3999016 -0.31538364 -0.41474986 -0.6061311 -0.18465653 0.09996243 -0.6713531 -0.0018046976
-0.33731264 -0.374825 -0.21174854 -0.40102342 -0.12766375 -0.18671156 -0.48572865 -0.14830017
-0.05655113 -0.19117995 -0.10021164 -0.055189442 -0.36002943 -0.11753408 0.2098401 -0.57368064
-0.6110476 -0.2069672 -0.37491435 -0.19855502 -0.2628316 -0.43221065 -0.20824787 -0.8092895
-0.43504637 -0.1798712 -0.39329857 -0.5328708 -0.36477527 -0.22591615 -0.29610732 -0.11935232
-0.56702244 -0.013544622 -0.57388115 -0.20187782 -0.36705396 -0.34347078 -0.50755656 -0.2657048
-0.3379187 0.105224825 -0.5580487 -0.27622503 -0.287087 0.028349321 -0.15690559 0.48224664
-0.05522723 -0.054707404 -0.5049689 -0.14465511 -1.0113434 0.2764458 -0.5636169 -0.41702983
-0.062676385 -0.021838564 0.016965713 -0.11527273 -0.30336997 -0.15308027 0.13406925 -0.66366416
-0.09452588 -0.1932252 -0.32032856 -0.42540553 0.095501624 -0.009731192 -0.120852225 -0.3098873
-0.0806992 -0.47440937 -0.32286814 -0.2999626 -0.33880496 -0.105881855 -0.35245252 -0.09947534
-0.30603603 -0.48570162 -0.2086172 -0.20686176 -0.47518206 -0.3023161 -0.96439344 -1.2289163
-0.090190545 -0.2786361 -0.5976827 0.3176246 -0.026413899 -0.4205657 -0.43025252 -0.39559916
-0.28857785 -0.2587369 -0.05882889 0.029114699 0.28144938 -0.7297967 -0.006450197 -1.1458653
-1.0875441 -0.26417843 -0.08874082 -0.18942119 -0.16549242 -0.30430475 -0.48123154 -0.7537644
-0.25875568 -1.5081445 -0.035819072 -0.41577995 -0.017801827 -0.71517307 -1.4850472 -0.33345374
-0.6991202 -0.039868783 -0.9362148 -0.04920702 -0.4522478 -0.23470508 -1.8821374 0.3308976
-0.66737944 -0.13875864 -0.38656306 -0.9683578 -0.30149326 -0.15384041 -0.1866671 -0.5856239
-0.6221188 -0.6392066 0.11638261 -0.118862934 -0.37440243 -0.19320154 0.025832433 -0.37367696
-0.11832947 -0.42981526 -0.41802093 -0.14266494 -0.09903101 -0.31425703 -0.45272246 -0.4770137
0.023612564 -0.10892623 -0.46435475 -0.5686714 -0.7040246 -1.1030954 -0.6665054 -0.7101794
-0.26342264 -0.20522922 -0.2409348 -0.54153603 -0.57763463 -0.32694256 -0.93269026 -0.53285164
-0.39029863 -0.4463307 -0.60353464 -0.56048524 -0.8486726 -0.049493067 -0.5901727 -0.09789841
0.022765202 -0.12665004 -0.60891324 -0.46257395 -0.11807727 -0.038817227 -0.3589592 -0.11718408
-0.8823233 -0.1111768 -0.43747127 -0.44115847 -0.35911846 -0.30209616 0.10498207 -0.24046043
-0.3231531 -0.14956619 -0.28688818 -1.0562632 -0.6932687 0.33588713 -0.8849854 -1.336622

network.3.bias f4 [64]
00000000: cf55 e2bf b8ca b4bf e517 7cbf 670f c9bd
00000010: 6d28 cebf 2ef5 9cbf ad0c cbbf 65c6 8cbf
00000020: 2671 45bf cce2 c0bf 01a1 90bf 3ef1 d4bf
00000030: be08 b1bf 4ad2 cebf c17c 64bf 0e57 50bf
00000040: 745d acbf 33f5 07c0 1f12 8dbf e8d8 a33e
00000050: 23c6 cfbf 0aa6 c5bf 70c3 75bf 9d6c 96bf
00000060: 8457 43bf 77a5 333e e842 08c0 a283 98bf
00000070: bd4c b9bf cb89 b6bf b182 9abf caac d7bf
00000080: 7d33 e83f e753 b7bf 7f65 0dc0 7dbe c5bf
00000090: 06d8 84bf 35ca 6ebf 2b0e 87be 0547 96bf
000000a0: c237 35bf dadf f8bf df0d 6fbf 4676 cfbf
000000b0: 6dae 92bf 6b8f a9bf ab37 d5bf 65f9 23bf
000000c0: ba3e 66bf f2d6 b3bf dc2c 8dbf d310 83bf
000000d0: 36b1 98bf 27dd 1640 6702 95bf 4d48 b6bf
000000e0: d2f8 a0bf 2a4e 16bf 7e58 04c0 da17 8cbf
000000f0: f8f7 abbf 35f8 d9bf 24e9 0140 9fbf da3e
-1.7682437 -1.4124365 -0.9847396 -0.09817391 -1.6106087 -1.2262323 -1.5863243 -1.0998045
-0.77125776 -1.5069213 -1.1299134 -1.6636121 -1.3830793 -1.6157925 -0.8925286 -0.81382835
-1.346602 -2.1243408 -1.1021155 0.32001424 -1.6232342 -1.5441296 -0.9600134 -1.1751896
-0.76305413 0.17543589 -2.1290836 -1.1915171 -1.4476544 -1.4260801 -1.2071134 -1.6849606
1.8140713 -1.432248 -2.2093198 -1.5448757 -1.0378425 -0.93277293 -0.26377997 -1.1740423
-0.70788205 -1.9443314 -0.9338054 -1.6207969 -1.145948 -1.3246893 -1.6657614 -0.6405242
-0.89939463 -1.4049971 -1.1029315 -1.0239509 -1.192908 2.357248 -1.1641358 -1.4240814
-1.2575934 -0.5871302 -2.0679011 -1.0944779 -1.3435049 -1.7028872 2.0298548 0.4272432

network.6.weight f4 [5, 64]
00000000: 4614 d73d 42db 163d 5d9e 963d 39ae 0c3d
00000010: 8fc6 9abd f779 8e3c 414f 94be 152f 23bd
00000020: fccb 17be 9896 e23d 735a 1f3e 2e80 e93b
00000030: aceb 3ebd 0dba d9bd cbaa 43bd 2c83 2cbe
00000040: af31 babd 0c4a 80be d6e2 4bbe f7ce 8fbd
00000050: d319 91bd 73a3 41be beba 863e 3528 8dbe
00000060: fb7b 133d a4eb 72bd a335 02be 0a3d b93d
00000070: 8ec6 d63d fad3 b93d 674e 04be 2efa 9fbe
00000080: 87fa 3fbd c52b 983e 01d1 38be d978 13be
00000090: 545c 5e3e 147a 903e 29fc 40be 8243 9fbc
000000a0: bbdf ac3d 5d2e 59bd 7be0 25bb f1c5 68be
000000b0: 7a42 353d 3dd9 0b3c 6ee8 1cbe 240f d83c
000000c0: 702d 33be a457 803d debd 653e 2b91 d8bd
000000d0: c499 41be cfce 8bbd dfea 853e 6606 8c3d
000000e0: 4d16 f23c 3552 5c3a 74c9 113e 1abb e8bd
000000f0: 5d74 79bc 8f7c b4bd 1f9d 02bd 68b1 4ebd
00000100: 72c4 42bd 71c1 6d3e e22f 533e 077b 803d
00000110: 639e e6be bc77 153e 7db5 05be 27b4 bd3d
00000120: 0cf5 343d 1b0d 813d a868 84be 5915 61be
00000130: efeb 4c3e 4f77 143e d637 05be be5e f2bd
00000140: 762c 86bd 9b32 f73e 2fe7 c1be b1df db3b
00000150: 004a 593e 9396 efbd 8f8c 9fbe 4c0d 563e
00000160: 658e e1bd 3bc2 97be 0584 14bf ca55 dabd
00000170: 4913 31be 0085 083e b16e 4bbe 1db9 77bd
00000180: b929 ecbe 0589 bd3e 009a c03b f8e7 2b3e
00000190: b8df 34be f5a4 6d3e 0165 793d a3b4 11be
000001a0: ec57 d1bd 64b0 7ebe 6074 273e 8c93 9ebe
000001b0: c6b5 12bd 1b02 1b3d ff37 a63e b0c4 b63c
000001c0: 99e5 353c 1b61 5cbe 0f03 81be 9dd2 cd3d
000001d0: 2af0 d43e 13a0 75be 87a8 92be 2d97 eebe
000001e0: 38c9 47bf bb96 553e a7f5 323e c704 86bd
000001f0: 31d0 763e 264e 02be 95fd 27be 5dd7 c5be
00000200: d6d5 873d 0e1e 15be 094d a9be e971 2fbc
00000210: 4017 943c 12a4 41be 04d3 7b3e df3a 5a3e
00000220: 564c 013e bbdb 14bf e59e 4bbe 1314 ae3e
00000230: 5d55 b0bd 2efa 1e3e a879 62be 07d7 63be
00000240: 8db3 1fbc 21db 12be 2399 1dbd 9eb5 d63e
00000250: 4f84 143e 74d3 d8bd c661 9b3d 2950 2dbd
00000260: 1e4f 5b3e 6bc5 66be ebf4 163e f2ec 9e3d
00000270: 17f4 b53c 383f 4dbe df93 7f3e 308f 89bd
00000280: 110c c43d eaa4 8fbc 083f 5bbc d822 a83d
00000290: 4a03 86be 4ed1 08be 26a4 593e 23b6 25be
000002a0: 63f3 52be c548 453e 5ebc 6f3e 3283 bdbe
000002b0: 79ab 863e 794c a5be cd65 7fbd 71b6 9bbe
000002c0: 1b0f 02bd 5153 85bc c3a3 4ebe 590b 9d3e
000002d0: 4110 84be af13 333e 5dfe 0cbe 247d 8dbe
000002e0: f77a 863e 113d 7bbe e399 afbe 34b0 a03e
000002f0: 89fd a5bd a3eb f03e 6143 09bf 1af2 fe3d
00000300: 4877 6cbe ca2e 173e 1b78 53bd 1ff9 debd
00000310: e0a1 913c 5646 533d a585 643e 64ab c8be
00000320: f387 3cbe f870 edbe 07fc bf3d db43 e2bd
00000330: 60ca b33d 3b5c 153d 4139 be3d 0586 043e
00000340: 64d7 35be 48d4 eb3d 97fa 023e a6cd e03e
00000350: 3830 cc3d b2d1 f03d c6f9 37bd ffd6 783d
00000360: 764a 69bd 96f4 1d3d 04af 2abe 4b68 ccbc
00000370: 8014 dbbd 8b60 32bd a0d4 5d3d caf0 02bd
00000380: 0084 dd3c b69c 633e b893 f93d 21e4 22be
00000390: 3cb9 a9be 0e86 2cbe 6e9c b63e afec e6bd
000003a0: f6f4 b53d 31cd da3d 4afe f8bd 4845 aa3e
000003b0: def2 0cbd 18ab f93d d20d 96bd ace0 993d
000003c0: 0fcf ec3d 5df5 003d e849 253d b701 41be
000003d0: 3448 1d3e ce28 4b3e 5e91 dd3d 0d4c b73e
000003e0: 2527 783e e561 d03c 715b 9f3d c007 623d
000003f0: 2462 cdbd c31d 4dbe 48d5 31ba d23c 0e3e
0.10501914 0.036830194 0.07354424 0.03434584 -0.07557403 0.017392142 -0.28966716 -0.039839823
-0.14823908 0.1106388 0.15561847 0.007125876 -0.046611473 -0.106311895 -0.047770303 -0.16846913
-0.09091508 -0.25056493 -0.1991075 -0.07021897 -0.07085004 -0.18910007 0.26314348 -0.27569738
0.03600691 -0.059306756 -0.12715773 0.090448454 0.1048709 0.090736344 -0.12920533 -0.3124556
-0.04686978 0.29720894 -0.18048479 -0.14401568 0.21714908 0.28218138 -0.18846191 -0.01944137
0.08441111 -0.05302273 -0.0025310803 -0.22731759 0.04425285 0.00853568 -0.1532304 0.026374407
-0.17497802 0.06266716 0.2243571 -0.105745636 -0.18906313 -0.06826555 0.26155755 0.06837158
0.02955165 0.0008404584 0.14237005 -0.11363812 -0.015225497 -0.0881282 -0.031888124 -0.050462157
-0.047550626 0.23218323 0.20623735 0.062734656 -0.45042714 0.14596456 -0.13057514 0.09262877
0.044179007 0.06301328 -0.25861096 -0.219808 0.20011877 0.14498638 -0.13009581 -0.11834477
-0.06551449 0.48280796 -0.37871692 0.0067100157 0.21219635 -0.11698642 -0.31161925 0.2090351
-0.11013488 -0.29640374 -0.58013946 -0.10660894 -0.17292513 0.13331985 -0.19866444 -0.060479272
-0.46125582 0.370186 0.005877733 0.16787708 -0.17663467 0.23207457 0.06088734 -0.14229064
-0.10221848 -0.24871975 0.16352987 -0.30971944 -0.035817884 0.037843805 0.32464597 0.022310585
0.011102104 -0.21521418 -0.25197646 0.10049937 0.4158948 -0.23986845 -0.286442 -0.46599713
-0.7804141 0.2085828 0.17476521 -0.0654388 0.24102856 -0.12725124 -0.16405328 -0.38640872
0.06632583 -0.14562246 -0.33066586 -0.010708311 0.018077493 -0.18910244 0.24592215 0.2131152
0.12626776 -0.5814778 -0.19884832 0.3399969 -0.08610032 0.15525123 -0.2211672 -0.22249995
-0.009747398 -0.14341404 -0.03847612 0.41935438 0.14503597 -0.105872065 0.07587008 -0.042312775
0.214169 -0.22536246 0.14741866 0.077600375 0.022211118 -0.20043647 0.24958752 -0.06716764
0.09572614 -0.017534692 -0.013381727 0.08209771 -0.26174384 -0.13361093 0.21254024 -0.16182761
-0.20600657 0.1926604 0.234117 -0.37014157 0.26302698 -0.32284907 -0.062352944 -0.3041263
-0.031752687 -0.01627508 -0.20179658 0.3067272 -0.2579365 0.17487977 -0.13768907 -0.27634537
0.2626569 -0.24535014 -0.34297094 0.31384432 -0.081049986 0.47054777 -0.5361844 0.12448521
-0.23092377 0.14763942 -0.051628213 -0.1088736 0.017777383 0.05158075 0.22316606 -0.3919326
-0.18411236 -0.4637525 0.09374242 -0.11048099 0.08778834 0.03646491 0.09288264 0.1294175
-0.17757946 0.11515099 0.12790905 0.43906897 0.099701345 0.11758746 -0.044915937 0.06075191
-0.056955777 0.038563333 -0.16668326 -0.024952075 -0.106972694 -0.0435491 0.054157853 -0.031967916
0.027040482 0.22227749 0.12186378 -0.15907337 -0.33149135 -0.16848013 0.3566622 -0.112756126
0.08884613 0.106836684 -0.12157877 0.33255982 -0.034411304 0.12190837 -0.07326855 0.07513556
0.11562931 0.031483997 0.040353686 -0.1884831 0.15359575 0.19839785 0.10818742 0.3580021
0.24233682 0.025437305 0.07781113 0.055183172 -0.100284845 -0.20030884 -0.00067837955 0.13890389

network.6.bias f4 [5]
00000000: 5394 073d e040 16be 5186 9f3c 8285 903e
00000010: fed9 033d
0.033100437 -0.14673185 0.019473227 0.28226858 0.032190315

network.0.weight f4 [128, 43]
00000000: b016 a5bb 6c84 2bbe ef86 ecbc a2f0 41be
00000010: 6e1a 013c ccf0 23be 0f5d 40be 4aba 0c3e
00000020: a51d 283e 7408 26be 01cf 90bc 38ae ecbd
00000030: 7e35 63be 53ff a03b 8fa6 dabe 28b3 163e
00000040: 71ff 00bf 4c51 a13e 6262 b53d 03ad a3bd
00000050: f573 0cbe d6be b3bd 3cf8 043e af68 a7ba
00000060: 3316 bbbd 1f9e 2b3e 567f 3cbd a37e 843e
00000070: 70fa 04bd f1d5 8e3c 35c0 8b3d 6f21 663d
00000080: 77c5 3abe 33b9 013f 9cad 233e d254 403e
00000090: c35f a03e b3ec 6d3e 91ec b5be 2988 1abf
000000a0: 436e a63e b914 abbe 049b 1a3d d127 29be
000000b0: fff2 093f 3e21 c8be f101 77bd 1093 763d
000000c0: 7005 3dbe b16a 52bf 5448 a93d 85bb bb3d
000000d0: 7bbe 1bbd 7f07 2c3d c5ab 343d 09fb 3f3e
000000e0: aac1 eebd 735b 103f 86ae c93e 1d10 52bf
000000f0: 5f7a ea3e d32d 54be d660 3ebe 318b 7b3d
00000100: 0f0e a83d dcaa a6bd 22c5 ed3d 3ad1 3ebd
00000110: 5857 c5bd 7a87 c63d 598f 973e 36f0 0bbe
00000120: 8a29 513e d897 203e c646 edbd 113b 89bd
00000130: 3281 8c3e 5056 fcbd 7fc6 803e 6bd1 2dbc
00000140: 69aa 32bf cf78 8b3e bb92 bdbe 8e4a 8a3e
00000150: a0a2 e1be b63f c63d 39e7 a93d 2707 ca3d
00000160: ec66 18bd c86b df3b 2d36 e93d 227b a5bd
00000170: 1276 f23d 3fcc 313d adb0 263d a9cf bfbd
00000180: 61e6 09bd 7777 9bbb f4dd 39bf feae fcbe
00000190: 2bf6 08bd 3db7 debd df2d 33bf 10a0 493f
000001a0: e2da 0a3f 6d57 1c3d b552 3cbe 2d85 233e
000001b0: b6da c73d 24d8 33be 987e 753d 0ab2 19be
000001c0: d55d 883c 0432 423e e158 b63d e0e8 8ebe
000001d0: 46de 2abe 8021 9e3c 160a 0d3e 662c 223e
000001e0: f5f9 cabd 57fb d9be 2167 913e 2860 61bc
000001f0: 16d8 0ebe dc1a a9be 8b5f 12bd 494c a3be
00000200: 07a0 14bd 0582 373c a009 b43e 619b aabe
00000210: b9b8 ad3e c17f ed3d 942b 3abe ee2c 97be
00000220: 33f6 37be 12d2 dcbc 1cac 6f3d 0d77 09be
00000230: f231 4c3c df1f 5a3d c17a 0fbf 8c5b a03e
00000240: 0ffb 1f3e ca66 34bf b085 953e 4957 bdbe
00000250: 1ff4 b43d 8fe7 91bd 451c 3c3e d4a2 92bc
00000260: f005 a0bc 75b3 f6bd 8792 af3d 962a 3fbe
00000270: 9c5f 3dbe 7d8d 74be ba5b b13d d018 d3bd
00000280: 5e6d 4c3c bfc7 ab3d 4fee e8bd a810 02bd
00000290: 3a9e abbe 727c af3e 80c9 05bf add0 99bd
000002a0: bf30 ce3d 866f 633e d39a c6be 7a05 1c3d
000002b0: 343f 15be 6413 c93d ed1a d4bd dc7c 4dbc
000002c0: dbdb d8be 1e5f 093e a7e8 913e ae87 b2bd
000002d0: 3a08 3cbd 48f0 0f3e 66df d4bd ab40 2fbe
000002e0: eec6 e33d 47a7 8ebe 56ef c13d 5dfc 353e
000002f0: 98f4 acbe 970a e9bd b752 b9be c6b1 abbd
00000300: 531e 313e 30da 32be 4916 0d3d 5715 213e
00000310: 0821 87bc 432c a53d a6dd 0e3e 145c 8ebe
00000320: a672 463f 04cf 03bf d01b 25bd 6ae3 b23e
00000330: bc37 38be 4123 21bf 54f0 da3d f1d9 19bf
00000340: 19d8 073f e620 ca3d 176b f0be c838 85be
00000350: 3eb1 a93e 4083 d83d 090d f03d 3a59 01bd
00000360: 7e1b d33e d263 4bbe b3b4 413d 5eab 9b3d
00000370: 12a3 043e 4bf1 5c3e e6f0 b63c c0f2 143d
00000380: 8fa7 21be 86f3 4b3d 5864 38bd 146d ebbe
00000390: b604 93be 62a3 b73e 48fd e1bc 8057 2dbf
000003a0: 9463 31be 1637 f9be 58b9 813d 59c8 a63d
000003b0: 3a40 f43d 6c84 cf3d a97f 02be 774b a3bd
000003c0: 5682 02be 2e91 f1bd 55b4 afbd e89f 813e
000003d0: a2cd 803e 27a9 0a3e df7d 53bd 0cac 5c3c
000003e0: 8177 91bd c3fd c43d c102 d2bd 8b85 b43d
000003f0: 2375 bc3e a554 28be b1a9 903c 0efc c9bd
-0.005038105 -0.16749734 -0.028872935 -0.1893945 0.0078798365 -0.16009825 -0.18785499 0.13742939
0.16417558 -0.16214162 -0.017676832 -0.11556667 -0.22188374 0.0049132495 -0.427052 0.1471678
-0.5038977 0.31507337 0.08856656 -0.07991984 -0.13716109 -0.087766334 0.12985319 -0.0012772287
-0.091350935 0.16759537 -0.046019875 0.25877866 -0.0324654 0.017436 0.0682377 0.05618423
-0.1823939 0.50673217 0.15984195 0.18782356 0.3132306 0.23234825 -0.35532048 -0.60364014
0.32505998 -0.33414248 0.03774549 -0.16519095 0.5388641 -0.39087862 -0.060304586 0.060198843
-0.18459105 -0.8219405 0.082657486 0.09166626 -0.038023453 0.041999336 0.044109125 0.18748106
-0.11658032 0.5638954 0.39390963 -0.82055837 0.45796487 -0.20720606 -0.18591627 0.06141204
0.082058065 -0.081380576 0.11609866 -0.046586253 -0.096358 0.09693809 0.29601553 -0.13665852
0.20426002 0.15682924 -0.115857646 -0.06700719 0.27442318 -0.1232115 0.2515144 -0.010609011
-0.69791275 0.27240607 -0.3702601 0.27010006 -0.44069386 0.09680121 0.08296055 0.098646455
-0.03720753 0.0068182684 0.11387286 -0.08080126 0.118389264 0.043407675 0.040695835 -0.0936578
-0.033666972 -0.004744466 -0.726043 -0.49352258 -0.03343789 -0.10874794 -0.6999187 0.7875986
0.5424024 0.038169313 -0.18390925 0.15968771 0.09758513 -0.1756292 0.059935182 -0.15009323
0.016646305 0.18964392 0.08903671 -0.27912045 -0.16686353 0.019303083 0.13773379 0.15837249
-0.09910957 -0.4257457 0.28398994 -0.013755836 -0.13949618 -0.33028305 -0.035735648 -0.31894138
-0.036285426 0.011200433 0.35163593 -0.3332167 0.33929995 0.11596633 -0.18180686 -0.29526466
-0.17965011 -0.026955638 0.058513746 -0.1342432 0.01246308 0.05325305 -0.5604668 0.31319845
0.15623115 -0.70469344 0.29203558 -0.36980656 0.08835625 -0.071242444 0.18370159 -0.017899908
-0.019534081 -0.120459475 0.0857287 -0.18668589 -0.18493503 -0.23882098 0.086600736 -0.10307467
0.012477247 0.08387708 -0.11373579 -0.031754166 -0.33519155 0.34274632 -0.5226059 -0.07510505
0.10067891 0.22210512 -0.38789997 0.03809116 -0.14574891 0.098181516 -0.10356698 -0.012541976
-0.42355236 0.1341519 0.28497812 -0.08717285 -0.045906283 0.14056504 -0.10394172 -0.17114513
0.11121927 -0.27861997 0.09469478 0.1777205 -0.3378036 -0.11378973 -0.3619592 -0.08383517
0.17296724 -0.17466044 0.03444508 0.15730797 -0.016495243 0.08065083 0.1395174 -0.27804625
0.7751869 -0.51487756 -0.040309727 0.34939128 -0.17990011 -0.6294442 0.1069037 -0.6009818
0.53064114 0.09869556 -0.46956703 -0.26019883 0.33143038 0.10571909 0.11721236 -0.031579234
0.41231912 -0.19862297 0.04729147 0.07601045 0.12952831 0.21576421 0.022331666 0.036364317
-0.15786575 0.04979279 -0.04501757 -0.45981658 -0.28714532 0.3586684 -0.027586594 -0.6771164
-0.17323142 -0.4867484 0.0633418 0.08143682 0.11926313 0.10132679 -0.12744011 -0.07973378
-0.12745032 -0.11795269 -0.085793175 0.2531731 0.25156885 0.13541089 -0.051633712 0.013468754
-0.07102872 0.09618714 -0.102544315 0.08814534 0.36808118 -0.1643854 0.01765904 -0.09862529

network.0.bias f4 [128]
00000000: 08c6 e5bf 5911 02c0 aa2f 4bbf 1642 03c0
00000010: 6c94 dfbf 8a8a 71bf 759a c9bf e302 b7bf
00000020: 0f5e 89bf 4dda 6dbf a0e0 dfbf 0110 02bf
00000030: 1b6c b6bf eaaf 85bf f350 c7bf 0ead d7bf
00000040: a7fc a3bf 676d f4bf cee3 bdbe 7927 b9bf
00000050: 6f19 04c0 9c5e b9bf 92be eabd c4a2 06c0
00000060: 10d6 c1bf 30ec 93bf 3d39 62bf 8487 a9bf
00000070: 5259 d3bf 9172 71bf aa6c c0bf 8378 e9bf
00000080: 022c 62bf 0e04 9fbf e924 d0bf 5328 8dbe
00000090: 967b f4bf 5209 e7bf c114 bbbf 941a 1ebf
000000a0: 4d60 babf 6385 b7be 7054 dcbf 84b1 86bf
000000b0: 68ee 0fc0 eb8f 64bf cbff 97bf 0d2f ccbf
000000c0: 81a9 86bf 9b32 c5bf 803b 0bc0 8ad7 8ebf
000000d0: adcd b2bf 783e 97bf e626 1dbf e1b6 04c0
000000e0: 2db2 0ebf 0613 c4bf 5e8e dbbf afde 65bf
000000f0: 39c3 fbbf c7fa b8bf c1fe 99bf 9f20 cfbf
00000100: 9952 b4bf c255 45bf b0dc f6bf 1921 33bf
00000110: ae12 abbf decb 95bf ce57 f3bf 7182 91be
00000120: f5f5 22bf 802e 8ebf de82 a2bf 1796 43bf
00000130: 281f 08bf 668c b6bf 7688 00c0 55f1 26bf
00000140: 3fc7 b7bf 872a b5bf 6c88 b6bf 9da0 64bc
00000150: 4a24 d7bf 4086 edbf d750 24bf 9803 6abf
00000160: c650 8fbf 71ba 9bbf fc2f a6bf 0023 efbf
00000170: daff bebe ff8d 28bf c865 52bf 966c bebf
00000180: b485 73bf 8f2c 6fbf c44d d0bf 8e01 5fbf
00000190: 3001 07c0 b128 d7be 800c e4bf f65b a6bf
000001a0: ff56 e9bf d078 f4bf e9c9 67bf 94fd 44bf
000001b0: 5c8e 1abf eae2 a5bf ac5d 23bf 3e07 85bf
000001c0: 86ee cebf 3976 dcbf 2d05 dfbf 798b c8bf
000001d0: 8e9d 0ac0 5b82 02c0 97fc f5be c51b 46bf
000001e0: 23eb a4bf 7cf9 7fbf b1b0 bfbf 5bd2 a6bf
000001f0: 6809 f8bf c6ac d6bf cee1 65bf e7b8 72bf
-1.7951059 -2.0323088 -0.79369605 -2.0509086 -1.746717 -0.9435202 -1.5750262 -1.4297756
-1.073183 -0.92911226 -1.7490425 -0.5080567 -1.4251741 -1.044431 -1.5571579 -1.6849687
-1.2811478 -1.9095887 -0.37087864 -1.4465171 -2.0640523 -1.4481997 -0.1146213 -2.1036844
-1.5143452 -1.1556454 -0.8836859 -1.3244481 -1.6511633 -0.9431544 -1.5033162 -1.8239902
-0.883484 -1.2423112 -1.6261264 -0.27569827 -1.9100215 -1.8049719 -1.4615709 -0.61759305
-1.4560639 -0.35843953 -1.7213268 -1.0522923 -2.2489262 -0.892821 -1.1874937 -1.5951859
-1.0520478 -1.5406069 -2.1755066 -1.1159527 -1.3969017 -1.1815939 -0.6138748 -2.073662
-0.55740625 -1.5318305 -1.7152822 -0.89792913 -1.9668952 -1.4451531 -1.203087 -1.618183
-1.4087707 -0.7708398 -1.9286098 -0.6997238 -1.3365076 -1.170284 -1.9011171 -0.2841983
-0.6365655 -1.1107941 -1.2696187 -0.76400894 -0.5317254 -1.4261596 -2.008329 -0.65211993
-1.435768 -1.4153603 -1.4260383 -0.013954309 -1.680795 -1.8556595 -0.6418585 -0.91411734
-1.1196525 -1.2166272 -1.2983394 -1.8682556 -0.37304574 -0.6584167 -0.82186556 -1.4876888
-0.9512589 -0.93427366 -1.6273732 -0.8711175 -2.1094475 -0.42023233 -1.7816315 -1.2996814
-1.8229674 -1.9099369 -0.90542465 -0.7694943 -0.60373473 -1.2959874 -0.63814807 -1.0392835
-1.6166542 -1.7223579 -1.7423455 -1.5667564 -2.1658664 -2.0392063 -0.48044273 -0.7738612
-1.2884258 -0.9999006 -1.4975797 -1.3032945 -1.937787 -1.6771476 -0.89797676 -0.9481339

network.3.weight f4 [64, 128]
00000000: df8a 063d 3fee 80bd a3f1 b5bd a788 d2be
00000010: 3573 33bd 82a0 e23d 19a7 65be 3515 00be
00000020: 42a5 39be 48a0 143e 6d3a 07be 2cb9 47be
00000030: 4f51 8abd 3063 8fbd cec9 52be 8003 d5be
00000040: 31d4 95bd 6e23 81be d56b 4cbe 6ba8 5dbd
00000050: f003 b6be 5cb1 acbe d040 dcbe 106c 3bbe
00000060: 126e a6bc 12a9 5c3e 5fb7 88bc 2474 d3be
00000070: 9639 48bf 9c7e adbe 38e4 853d ed21 a2be
00000080: 97c3 4e3d 9e7a 42be 941a b0bd a999 ebbe
00000090: e205 a7be a65e 32be 017f 12be 90e8 2bbe
000000a0: 4770 8cbe 43e8 5abe e788 d6bd d4ac 16bf
000000b0: a365 8fbe 2f7e c9be 8a2d 3bbe 53f6 173e
000000c0: 7c33 90be 2f75 58be 0ab1 89be 472e e3be
000000d0: a05a fabd c830 a23d feb3 d7be 1279 a53c
000000e0: 42e3 26be 643a 77be 1ac1 20be bac3 34be
000000f0: c6ab fcbd db19 96bd adaa a0be 6f73 f4bd
00000100: b7b3 54be eaca 2abe 2593 03bd 33c2 e0bc
00000110: a440 84be 871a c0bc f5ae 153e 8351 babe
00000120: 5fc4 9ebe 4e71 38be 7760 99be d307 18be
00000130: 41aa 39be 0e96 81be 1a7c 2fbe e14a a9be
00000140: ebc7 0dbe 7425 33be 8a81 9dbe 2048 c1bd
00000150: 95ef 25be e722 8fbd 67de 40be 5e4d ecbd
00000160: e738 b1be 78a6 11bd b15a 09be 4979 0ebe
00000170: 50ac 87be a040 3fbe b83f abbe 0891 56be
00000180: 689b 77be ed97 703c 0a20 acbe cefb 5dbe
00000190: 7479 173d 7bed 7b3d 5f46 10be 3e8f a63d
000001a0: 0cfa 19bd 3644 50bd 371c a0be 81a7 00be
000001b0: 9954 26bf bc26 e43a 832d cabe b0b0 7bbe
000001c0: 53e0 20bd cd2b 3abb c147 843d 362c 12bd
000001d0: 05c0 84be 509b f6bd 0b90 463e faee 99be
000001e0: e916 b7bd f457 0dbe 3675 45be fd2b 97be
000001f0: 8939 9bbd d402 01bc 5cdb 06bd a127 01be
00000200: f31b 53bd ab4e b4be e8fd 3fbe 2312 47be
00000210: d3f7 87be 755c b0bd f6c0 44be b249 a2bd
00000220: 2f0e 65be 0ec4 8cbe 1d28 0dbe 8698 08be
00000230: 6b78 bebe 5172 74be ae55 22bf d9a1 3fbf
00000240: 41d1 13be 491e 6fbe 5f05 d9be e0f7 893e
00000250: 5a33 94bb 4cd7 90be 4dff 90be a956 9abe
00000260: bec9 17be db48 35be 31b8 b6bd 59fb 1e3c
00000270: f0ce 913e 476e e7be 837a 303c 7141 42bf
00000280: 6a18 34bf 10fe 69be ba27 10bd 0436 06be
00000290: af64 1fbe 2556 79be 948f a3be a80c efbe
000002a0: a3a0 debd e6c5 6dbf da4d c23c 7ced 97be
000002b0: 6413 eb39 6ef2 fdbe e6bd 82bf 26af 33be
000002c0: 8f9a d1be d63f 4fbc 1298 13bf 781b 3cbd
000002d0: 5882 6dbe 2111 0fbe 9f76 95bf ca0c 803e
000002e0: 6221 e3be c2c2 99bd 8521 53be ff43 28bf
000002f0: 8cf6 1abe 62de 7abd 00a8 3fbe 1e8f cbbe
00000300: 3420 debe e28f c7be 8522 a73d 0472 e4bc
00000310: 6da9 9abe f554 53bd 7766 af3b c98b 87be
00000320: 94dd dfbd e57e 90be 12f8 9dbe 9eed 12be
00000330: ee2b a7bd bff2 12be d900 2cbe 3e61 9abe
00000340: 1fe4 4c3d 56d8 cdbd e338 71be 9790 adbe
00000350: 39c1 a4be f995 37bf 0e82 febe aacc ebbe
00000360: 972b 6abe ec75 2cbe a5ed d7bd cda6 b7be
00000370: 3fac a7be 9336 3cbe 9c79 04bf 275d cdbe
00000380: d93b 9abe 671a aebe ea0a b8be 1a12 9cbe
00000390: 23e2 06bf e2c2 153d ae7a c7be 3385 dc3d
000003a0: e781 963d 8840 8ebd a878 d5be c136 aebe
000003b0: 754a 8abd c025 c33d 10c5 6ebe 40a7 b6bd
000003c0: 3795 0dbf 4d39 9ebc 7cf0 a7be 06c3 bdbe
000003d0: 17d9 88be 3706 35be 8243 003e 7502 97be
000003e0: 6604 71be cc4c 6dbd 6102 67be 10a0 30bf
000003f0: 74ef c4be 110b 843e 98ee fcbe 3985 29bf
0.03284728 -0.06295442 -0.08883979 -0.41119882 -0.04381104 0.11065771 -0.22427024 -0.1250809
-0.18129447 0.14514267 -0.13205881 -0.19504231 -0.0675379 -0.070013404 -0.20584795 -0.41604233
-0.07315863 -0.25222343 -0.1996301 -0.054115694 -0.3554988 -0.33729064 -0.43018198 -0.18302941
-0.020316157 0.2154887 -0.016689 -0.41299546 -0.7821287 -0.33885658 0.0653767 -0.31666508
0.050479498 -0.18992087 -0.085988194 -0.4601567 -0.32621676 -0.17418918 -0.1430626 -0.16787934
-0.2742941 -0.21377663 -0.10475331 -0.58857465 -0.2800723 -0.39354083 -0.1827909 0.14840059
-0.2816428 -0.21138452 -0.26892883 -0.44371244 -0.122243166 0.079194605 -0.4212951 0.020199332
-0.1629763 -0.24143368 -0.15698662 -0.17652789 -0.12337451 -0.0732915 -0.31380215 -0.1193608
-0.20771681 -0.16678968 -0.03212275 -0.027436351 -0.25830567 -0.02345015 0.14617522 -0.36390314
-0.31009194 -0.18011972 -0.2995641 -0.14846735 -0.18131353 -0.25309795 -0.17137185 -0.3306494
-0.13845794 -0.17494756 -0.30762893 -0.09437585 -0.16204675 -0.06989079 -0.1883484 -0.11538194
-0.34613726 -0.035559148 -0.13413502 -0.13913454 -0.26498652 -0.18676996 -0.3344705 -0.20953763
-0.24180377 0.014684659 -0.33618194 -0.21678087 0.03698106 0.061505776 -0.14089344 0.0813279
-0.03759198 -0.0508463 -0.31271526 -0.12563898 -0.64972836 0.0017406563 -0.39487848 -0.2457912
-0.039276432 -0.0028407455 0.064589985 -0.035686694 -0.2592775 -0.12041342 0.19390886 -0.30065137
-0.08939917 -0.13803083 -0.19282994 -0.29525748 -0.07579333 -0.007874209 -0.03292404 -0.12612773
-0.051540326 -0.3521627 -0.18749201 -0.19440512 -0.26556262 -0.08611385 -0.19214234 -0.079242125
-0.22368692 -0.27493328 -0.13784833 -0.13339433 -0.37201247 -0.23871733 -0.63411987 -0.74856335
-0.14435293 -0.23351397 -0.4238691 0.26946926 -0.004522723 -0.28289258 -0.2831978 -0.3014424
-0.14823052 -0.17703573 -0.089218505 0.009703481 0.28478193 -0.45201322 0.010771397 -0.75881106
-0.7034975 -0.22850823 -0.035194136 -0.13106543 -0.15565751 -0.24349268 -0.3194548 -0.46689343
-0.10870483 -0.92880094 0.023718763 -0.29673374 0.0004483714 -0.49599022 -1.0214202 -0.17547283
-0.4093823 -0.012649497 -0.57653916 -0.045924634 -0.23194253 -0.13971378 -1.1676825 0.25009757
-0.44361407 -0.0750785 -0.20618255 -0.65728754 -0.15133113 -0.061247237 -0.1871643 -0.39757627
-0.43383944 -0.3897696 0.08160881 -0.027886398 -0.30207387 -0.051594693 0.005352791 -0.26473835
-0.109309345 -0.28221813 -0.30853325 -0.14348456 -0.08162676 -0.14350413 -0.16797198 -0.30152315
0.05002224 -0.100510284 -0.23556857 -0.33899376 -0.32178667 -0.71713215 -0.497086 -0.46054584
-0.2286819 -0.16841859 -0.10543374 -0.35869446 -0.327486 -0.18380193 -0.5174806 -0.40110132
-0.30123785 -0.34004518 -0.35945827 -0.3048256 -0.5268881 0.036562808 -0.38960785 0.10767593
0.07348996 -0.06945902 -0.41693616 -0.3402615 -0.06752483 0.095286846 -0.23317361 -0.08918619
-0.5530581 -0.019314433 -0.32800663 -0.37062854 -0.26728126 -0.17678152 0.12525752 -0.29494062
-0.23536834 -0.057934567 -0.22559501 -0.68994236 -0.38463938 0.25789693 -0.49400783 -0.66218907

network.3.bias f4 [64]
00000000: 1383 80bf 11f1 1dbf d540 fcbe 03b3 573c
00000010: ab21 1ebf 0f2a 13bf 1797 21bf 3d41 21bf
00000020: 1ded e9be d146 20bf 00f2 1fbf ebc7 56bf
00000030: 5071 27bf f6a9 65bf 5097 05bf 1f31 01bf
00000040: f878 11bf b599 8dbf 5319 0fbf 7914 ea3e
00000050: d66a 47bf ab20 38bf 6807 fbbe 992d 18bf
00000060: c2fb eebe b9c0 9a3e 74bb 77bf a594 15bf
00000070: 8db8 46bf f363 32bf 79af 10bf b4b6 27bf
00000080: d1de 4c3f 92c8 24bf 07dd 86bf f425 36bf
00000090: f106 e6be d6e6 ffbe c53b bf3e b72c 2bbf
000000a0: 1ad6 d4be d319 1ebf 4c26 05bf c168 fabe
000000b0: 6830 26bf 5d89 2dbf fe16 2dbf 42eb 223e
000000c0: 59f5 d0be 8500 16bf 4841 14bf 78b8 11bf
000000d0: 8cae 11bf 43d6 9c3f f52c 17bf 7c60 1cbf
000000e0: 2385 173d 95ed c5be 227d 4dbf 5ff7 1ebf
000000f0: 75f3 30bf fade 3bbf beff 623f 4ea3 393f
-1.0040001 -0.61695963 -0.49268213 0.013165238 -0.61770123 -0.5748605 -0.6312117 -0.6299017
-0.45688716 -0.6260806 -0.6247864 -0.838988 -0.65407276 -0.89712465 -0.5218401 -0.5046558
-0.5682521 -1.1062533 -0.55898017 0.45718744 -0.77897394 -0.7192485 -0.49029088 -0.59444577
-0.4667645 0.3022516 -0.96770406 -0.5842994 -0.7762535 -0.6968376 -0.5651775 -0.6551316
0.8002749 -0.64368546 -1.0536202 -0.7115166 -0.4492717 -0.499808 0.37350288 -0.66865104
-0.41569597 -0.61758155 -0.5201156 -0.48908046 -0.6491761 -0.67787725 -0.6761321 0.15910056
-0.40812185 -0.5859454 -0.5791211 -0.569221 -0.5690696 1.2252887 -0.59052974 -0.61084723
0.036992203 -0.38657823 -0.8026906 -0.6209621 -0.69121486 -0.7338711 0.8867148 0.7251481

network.6.weight f4 [5, 64]
00000000: 4c5e be3d 527d 68bd b28f 62bd 6ae6 1f3d
00000010: 34c1 bc3b 5e41 c2bd 96e8 793d a2b9 873b
00000020: eae2 30be e6d1 fe3c 1351 263c 496e cbbd
00000030: 75e9 3c3c 6a60 bcbc 0181 f1bd 0a63 60bd
00000040: 6519 6b3d 7ec5 f9bd 0d0e abbd 814b ccbd
00000050: b0d1 9dbd 1eaa 6f3d 00ce e23d c013 0cbd
00000060: aebc 383d 6c49 3bbd 3920 3e3d a379 15bc
00000070: 350c 0ebe 4a56 b1bd 2a00 293e 93e0 e53c
00000080: 30a8 203d 6a13 8e3d e4fd 13be b15c 293d
00000090: 44e4 503d 0e56 313e 6caf 3dbb 7728 cebd
000000a0: e515 cc3d 76ea d7bd 7690 cdbd 08a3 70bd
000000b0: 0234 623d 8644 243d f633 143d acb8 83bc
000000c0: 55f4 96bc 6b91 18be 75bb 053e c56a bcbb
000000d0: 0656 df3b 558d 82bd c921 1b3e 8fcd b23d
000000e0: fa64 47bd a5b0 b43d 8f43 57bc 6286 643d
000000f0: 7e2d 593c 678c 703d 45f5 c3bc c713 f6bd
00000100: 72c4 42bd aef3 223e ee03 593e 2913 e53d
00000110: 0bfa 95be a5e5 a23d 3f21 90bd 74d7 ce3d
00000120: 3f77 9abb d291 6f3d d637 4ebe a976 2abe
00000130: 1b2b 2b3e b872 dd3d 1c6a 07be 623f 0bbe
00000140: 3b64 bebd c400 933e 82a9 75be ef78 12bd
00000150: c8ee 483e 458c 08be b8cf 6cbe 741a 403e
00000160: 4d34 20be bbc5 76be 1ecc e8be 19b1 06be
00000170: 8ade 42be cedc c83d b405 4abe f062 84bd
00000180: e110 39be b6f1 843e aba8 bbbd 449d ad3d
00000190: 1540 49be 9e40 4f3e 9a4b 1e3e 24a1 e1bd
000001a0: 617a 41bd 144c 57be 9b6f 0c3e 0664 23be
000001b0: 41f5 5abd dbcd 4abd 40d7 883e 48cc e9bd
000001c0: 27ed fabc 26f2 30be 9323 9bbd 9dd2 cd3d
000001d0: 2635 bf3e 780e 8abd 3dd6 53be 7a78 a0be
000001e0: b9a8 02bf 09d6 3e3e e5f1 2b3e 1fa8 cabd
000001f0: 42c4 2d3e 0c35 91bb b913 c3bd 54f1 a8be
00000200: ddd5 873d 3745 5abe d10c 56be b8c7 003c
00000210: 4b44 923a 979b 31be 01b6 383e 41e0 a23d
00000220: 7243 1d3e c336 ebbe b799 33bd 51de 913e
00000230: 9851 6fbd d732 763d b0ca 12be e43d 00be
00000240: dabb 683c deab a1bd 3603 a2bd 1671 993e
00000250: e36b 0a3e 6852 373d 47cf dd3c f554 d6bd
00000260: 3120 103e fbf1 61be 13d1 df3d 84d1 903d
00000270: bfe4 4f3d 215d 69be b112 723e 2eb5 8139
00000280: 58a8 003e b008 2dbd bfab 963d 350e 2f3e
00000290: 0c84 d0bd 618d d6bd e7e0 2a3e 46de 34be
000002a0: 6951 67be a23e 483e a851 5d3e 2847 adbe
000002b0: 79ab 863e 6ea7 54be bd07 4abd c4aa 21be
000002c0: db1a d7bd aea0 aabc f941 54be 4e20 513e
000002d0: 0896 81be 7c1d 2c3e f001 7fbd 1db6 6cbe
000002e0: 245e 553e 02f4 79be 9c30 9abe c2b9 913e
000002f0: b1c3 02be 99ef bc3e e5ef 66be b5bb 023e
00000300: 4877 6cbe b340 aa3d 0acb 4ebd 6475 00be
00000310: 3904 3f3c 06c1 0a3d 3ab9 383d f1df 8dbe
00000320: e76c 47be a477 4cbe 8026 7cbc 4db1 c3bd
00000330: 14ff 0c3d c8f4 8b3d 6a1a 0b3d 4e8b 663b
00000340: d30a 22bd e0e9 ce3b c8d8 ca3d 6419 123e
00000350: 5ae7 193d 381f e73d f4cc 8d3c 4250 333d
00000360: ef85 08be b591 253d 59bb 14be be1f bb3c
00000370: df29 babd 91eb 5abd e0a0 dd3d 47fd 893d
00000380: 6bb4 ca3d f867 433d 3103 3d3e bd5b 13be
00000390: f4de 03be bf56 48be 7248 2b3e cf2e efbd
000003a0: 0bcf 313c 5988 003e 68b1 31be 3596 3f3e
000003b0: 8a5c 5bbd ff42 823d 09c3 dabd 2e75 183e
000003c0: bf4d 0b3e ee87 d83b 7834 713d 458c 60be
000003d0: 891e 433e ca6e 4d3e ba6a d03d 0e9e 623e
000003e0: c883 ec3d 258e ff3b 8041 063e 4b20 463d
000003f0: 0d31 c9bd ec27 4ebd 4876 e9bc 4b0f 253e
0.092953295 -0.05676014 -0.05531282 0.0390381 0.0057603363 -0.09485124 0.061012827 0.004142002
-0.17274061 0.031105947 0.010151166 -0.099331446 0.01153027 -0.022995193 -0.11792184 -0.05478195
0.057397265 -0.12195872 -0.08352289 -0.09975339 -0.0770601 0.058511846 0.11074448 -0.034198523
0.045101814 -0.045724317 0.04641745 -0.009123239 -0.13871844 -0.086590365 0.16503969 0.028061187
0.039222896 0.06937297 -0.1445232 0.041348163 0.05099894 0.17317984 -0.002894367 -0.10066312
0.099651136 -0.10542767 -0.10037319 -0.05874923 0.05522538 0.04010441 0.036182366 -0.01607927
-0.018427053 -0.14899223 0.1305979 -0.0057500326 0.0068156747 -0.06374613 0.15149607 0.087306134
-0.048680283 0.08822755 -0.013138666 0.05579222 0.013255475 0.058727648 -0.023920665 -0.12015491
-0.047550626 0.15913269 0.21192905 0.11185295 -0.2929233 0.079539575 -0.07037591 0.10099688
-0.0047139223 0.058488674 -0.20138487 -0.16646828 0.16715662 0.108128965 -0.13224071 -0.13598397
-0.09296461 0.28711522 -0.23990443 -0.035759863 0.19622338 -0.13334759 -0.23126113 0.18760091
-0.15644951 -0.24098866 -0.4546823 -0.13153495 -0.19030204 0.0980774 -0.19728738 -0.06464183
-0.18072845 0.2596566 -0.0916303 0.08477262 -0.19653352 0.20239493 0.15458527 -0.11017063
-0.04723585 -0.21025115 0.13714449 -0.15956125 -0.05345655 -0.049512725 0.26726723 -0.11415917
-0.030630661 -0.17279872 -0.075751446 0.10049937 0.37345237 -0.06741041 -0.20687194 -0.31341916
-0.510387 0.18636335 0.16791494 -0.09895348 0.16969398 -0.0044313725 -0.09525246 -0.3299662
0.06632588 -0.21315466 -0.20903327 0.007860117 0.0011159269 -0.17344509 0.18038179 0.07952929
0.1535776 -0.45940217 -0.043847766 0.28489926 -0.058427423 0.06010708 -0.14335132 -0.1252361
0.014204944 -0.07894109 -0.07910769 0.2996909 0.13517718 0.044756323 0.027076377 -0.10465423
0.1407478 -0.22064964 0.109285496 0.07071212 0.05075526 -0.22789432 0.23639943 0.00024739787
0.12564218 -0.042244613 0.07356977 0.17095263 -0.10181436 -0.10476185 0.16687356 -0.17662916
-0.2258965 0.19555143 0.2161318 -0.3384335 0.26302698 -0.20766994 -0.049323786 -0.15787798
-0.10503169 -0.020828571 -0.20728292 0.2042248 -0.25309777 0.16808122 -0.062257707 -0.23116346
0.20836693 -0.24409488 -0.3011521 0.28462034 -0.12769963 0.36901549 -0.2255245 0.12766917
-0.23092377 0.08313122 -0.050486602 -0.12544781 0.011658722 0.033875488 0.04509852 -0.27709916
-0.19475137 -0.19967514 -0.0153900385 -0.09555302 0.03442295 0.06833798 0.033960737 0.0035178247
-0.039561104 0.006314501 0.09904629 0.14267498 0.03757415 0.112852514 0.017309643 0.04377771
-0.13332342 0.04042216 -0.14524592 0.022842284 -0.090900175 -0.05344731 0.108217 0.06737762
0.09897693 0.047706574 0.18458249 -0.14390464 -0.12878019 -0.19564341 0.16726854 -0.1167885
0.010852586 0.12552013 -0.17352831 0.18709643 -0.05355505 0.06360435 -0.10681731 0.1488845
0.13603877 0.006608001 0.05888793 -0.21928509 0.19054617 0.20061794 0.101766065 0.22130606
0.11548573 0.0077989274 0.13110924 0.04837064 -0.09823809 -0.05033104 -0.028498784 0.16119115

network.6.bias f4 [5]
00000000: cb29 11bc bd77 83bd a9bd 053d 2c35 473e
00000010: 66bb 843d
-0.008860062 -0.06419323 0.032651577 0.19453877 0.06481056
