experiments/checkpoints/20251210_110803/checkpoint_ep169.pt (torch, 246605 bytes, 24 tensors)

network.0.weight f4 [128, 43]
00000000: b016 a5bb be64 50bf 501f 1e3f cf1e c8bf
00000010: 59bc f4bf ccf0 23be d536 b13f 4aba 0c3e
00000020: a51d 283e 7408 26be 01cf 90bc 38ae ecbd
00000030: 4b9e 8f3f 2e8e e8be d90e 063e b79b 18bf
00000040: 31c5 d1bf 75bf f23f 2125 593f 03ad a3bd
00000050: f573 0cbe d6be b3bd 3cf8 043e ab68 a7ba
00000060: 3316 bbbd 1f9e 2b3e 567f 3cbd 9639 cebf
00000070: 811a 1c40 f740 94bf 32c0 8b3d 984a cc3f
00000080: 77c5 3abe 687c aebf 9cad 233e f7ca 433e
00000090: f4be 54bf 7ecf ce3f e154 18c0 644d 41c0
000000a0: fe30 3c40 e161 11c0 049b 1a3d d127 29be
000000b0: 17aa be3f c1b8 abbf cc0c 78bf 7392 acbe
000000c0: 7005 3dbe 2fe0 91c0 5448 a93d 85bb bb3d
000000d0: 7bbe 1bbd 7c07 2c3d c5ab 343d 2740 06c0
000000e0: 2036 61c0 9b25 10bf 53a1 2a3f 45cd ffbf
000000f0: 637c abbc 4c58 8a3e d660 3ebe 318b 7b3d
00000100: 0f0e a83d dcaa a6bd 22c5 ed3d 3ad1 3ebd
00000110: 5857 c5bd 7a87 c63d 626e 873f e7f4 c7bf
00000120: 6f86 c03f d897 203e 1264 17bf 113b 89bd
00000130: bdaa 843f 5056 fcbd 46f7 07c0 a835 d93f
00000140: b210 d2bf fb1f a8bf 0607 39be 5b46 4940
00000150: 3741 bcbf b63f c63d 39e7 a93d e971 a3bf
00000160: 1b4f ab3f 6e8b 7f40 5f29 79c0 227b a5bd
00000170: d446 8e40 3fcc 313d adb0 263d a9cf bfbd
00000180: 61e6 09bd 7777 9bbb c4cc 0fc1 d046 36c0
00000190: 5b61 0bc0 fd10 103f 0cdb 27c0 000d 6040
000001a0: 9275 a7bf 6d57 1c3d b552 3cbe 2d85 233e
000001b0: b6da c73d 24d8 33be 987e 753d 0ab2 19be
000001c0: d55d 883c 24c5 163e 065c d7bb 4108 cbc0
000001d0: 46de 2abe f215 27be 160a 0d3e f77d ed3d
000001e0: f5f9 cabd 4ea7 ecbe 64a2 b33f 514c 013f
000001f0: a998 24c0 025d 6ec0 ac79 0540 8d57 6c3f
00000200: 07a0 14bd 0582 373c 2b44 c83f a5e8 c5bf
00000210: 1ab6 5ebc 693e afbf 942b 3abe 044a 9ac0
00000220: 33f6 37be 12d2 dcbc 1cac 6f3d 0977 09be
00000230: f231 4c3c f3b1 8fbf 74ce bec0 b417 52be
00000240: 0087 f03f fadb 15c0 bc67 7740 5440 3b3f
00000250: 1ff4 b43d 8fe7 91bd 451c 3c3e d4a2 92bc
00000260: f005 a0bc 75b3 f6bd 7f92 af3d 962a 3fbe
00000270: 518b 67bf fd35 af3f 6f40 eebf d018 d3bd
00000280: 82d6 92bf bfc7 ab3d 0151 55bf a810 02bd
00000290: adb1 02c0 c509 f73e 2816 f9be 939d 36bf
000002a0: c1ef 4540 276a 6dbf 65b0 12c0 7a05 1c3d
000002b0: 343f 15be 8469 703f 83ca 71bf 3788 1140
000002c0: e2c4 c1bf 1e5f 093e 90a7 e43f ae87 b2bd
000002d0: 3a08 3cbd 48f0 0f3e 66df d4bd ab40 2fbe
000002e0: 155e 8bbe e39b 64c0 0f22 b03e b922 e63e
000002f0: 480c 293e a74a 6d3d 6636 a93f c6b1 abbd
00000300: 531e 313e 30da 32be 4916 0d3d 5715 213e
00000310: 0821 87bc 432c a53d a6dd 0e3e 6ec4 4cbf
00000320: 506a 7b40 6a94 c7c0 d01b 25bd a82c dc3f
00000330: bc37 38be f15c 93bf 54f0 da3d e86d e43f
00000340: b18b 343f 6611 af3f 9ca1 5ec0 63ea 713d
00000350: fcfd 1d3e ef64 b4bf 090d f03d 3a59 01bd
00000360: 5f35 5ebf 1475 8a3f 508d 753f 560f 2b3d
00000370: 12a3 043e cb49 943f e6f0 b63c c0f2 143d
00000380: 8fa7 21be 86f3 4b3d 4d64 38bd e455 bc3e
00000390: e85d 08bf 351a b03f fbdd 88bd 8f57 5c3f
000003a0: b667 10c0 2156 f9bf 58b9 813d 59c8 a63d
000003b0: 3a40 f43d 6c84 cf3d a97f 02be 774b a3bd
000003c0: 5682 02be 2e91 f1bd e34a 16bf d2e8 58be
000003d0: 07fa b2bf 27a9 0a3e c157 24be 0cac 5c3c
000003e0: 6183 12bf c3fd c43d 428f 0abf 85d1 9ebe
000003f0: 9d41 03bc a14f e6bf 67bd 773f 2082 07bf
-0.005038105 -0.8140372 0.6176653 -1.5634402 -1.9119979 -0.16009825 1.3844858 0.13742939
0.16417558 -0.16214162 -0.017676832 -0.11556667 1.1220182 -0.45420974 0.13091601 -0.596126
-1.6388303 1.8964678 0.8482228 -0.07991984 -0.13716109 -0.087766334 0.12985319 -0.0012772282
-0.091350935 0.16759537 -0.046019875 -1.6111324 2.4391177 -1.1582326 0.06823768 1.5960264
-0.1823939 -1.3631716 0.15984195 0.19120394 -0.8310387 1.6157072 -2.3801806 -3.0203485
2.9404902 -2.271599 0.03774549 -0.16519095 1.4895657 -1.3415757 -0.96894526 -0.33705482
-0.18459105 -4.558616 0.082657486 0.09166626 -0.038023453 0.041999325 0.044109125 -2.0976655
-3.5189285 -0.5630738 0.6665241 -1.9984518 -0.020933336 0.2702049 -0.18591627 0.06141204
0.082058065 -0.081380576 0.11609866 -0.046586253 -0.096358 0.09693809 1.0580561 -1.5621613
1.5041026 0.15682924 -0.5913707 -0.06700719 1.0364605 -0.1232115 -2.1244674 1.69695
-1.6411345 -1.313476 -0.18069085 3.1449192 -1.4707402 0.09680121 0.08296055 -1.2769138
1.3383516 3.992885 -3.89315 -0.08080126 4.446146 0.043407675 0.040695835 -0.0936578
-0.033666972 -0.004744466 -8.987492 -2.848072 -2.177817 0.5627592 -2.6227446 3.5007935
-1.3082755 0.038169313 -0.18390925 0.15968771 0.09758513 -0.1756292 0.059935182 -0.15009323
0.016646305 0.1472364 -0.0065722493 -6.3447576 -0.16686353 -0.16316965 0.13773379 0.115962915
-0.09910957 -0.46221393 1.4033933 0.50507075 -2.5718176 -3.7244267 2.0855513 0.9232109
-0.036285426 0.011200433 1.5645803 -1.5461622 -0.013593221 -1.3690921 -0.18180686 -4.821535
-0.17965011 -0.026955638 0.058513746 -0.13424315 0.01246308 -1.1226181 -5.962702 -0.20516855
1.8791199 -2.3415513 3.8657064 0.7314503 0.08835625 -0.071242444 0.18370159 -0.017899908
-0.019534081 -0.120459475 0.08572864 -0.18668589 -0.90446955 1.3688351 -1.8613414 -0.10307467
-1.1471713 0.08387708 -0.8332673 -0.031754166 -2.0420945 0.4824964 -0.48649716 -0.7133419
3.0927584 -0.927401 -2.2920163 0.03809116 -0.14574891 0.93911004 -0.94449633 2.273939
-1.5138209 0.1341519 1.7863636 -0.08717285 -0.045906283 0.14056504 -0.10394172 -0.17114513
-0.27220216 -3.5720146 0.34400985 0.44948366 0.16508591 0.057932522 1.3219726 -0.08383517
0.17296724 -0.17466044 0.03444508 0.15730797 -0.016495243 0.08065083 0.1395174 -0.7998723
3.9283638 -6.236867 -0.040309727 1.7201128 -0.17990011 -1.1512738 0.1069037 1.7846041
0.7052565 1.3677185 -3.4786139 0.05906142 0.15428919 -1.4093302 0.11721236 -0.031579234
-0.8680019 1.081698 0.9591875 0.041762672 0.12952831 1.158502 0.022331666 0.036364317
-0.15786575 0.04979279 -0.04501753 0.3678428 -0.5326829 1.3757998 -0.066829644 0.86071104
-2.25633 -1.947941 0.0633418 0.08143682 0.11926313 0.10132679 -0.12744011 -0.07973378
-0.12745032 -0.11795269 -0.5870802 -0.21182564 -1.3982552 0.13541089 -0.160491 0.013468754
-0.5723172 0.09618714 -0.54124844 -0.31019226 -0.008011249 -1.7993051 0.9677338 -0.5293293

network.0.bias f4 [128]
00000000: 19ae 4dc1 4f68 3ec1 528e efc0 ed23 29c1
00000010: bc20 53c1 db81 12c1 ec40 20c1 e76f 32c1
00000020: 7cc9 24c1 5635 3bc1 ea36 33c1 b3f9 ecc0
00000030: 1dd2 16c1 3f02 79c1 78d7 0ec1 591a 39c1
00000040: b7ad 56c1 6757 44c1 6411 a6c0 ca75 24c1
00000050: fd85 20c1 bafd 05c1 3742 fbc0 44b1 46c1
00000060: 913c dfc0 5e70 1ec1 e6cd e6c0 7820 2ec1
00000070: 9c37 eec0 737b 03c1 a2f2 34c1 e0b1 30c1
00000080: 02a0 d7c0 c123 13c1 3347 5bc1 1930 dac0
00000090: edd7 30c1 2d78 62c1 e9ee 49c1 abd2 0ac1
000000a0: de60 30c1 01c9 f6c0 cb49 1dc1 7621 a1c0
000000b0: 2b59 79c1 f342 65c1 3be8 3dc1 aa5e 38c1
000000c0: 9591 81c1 83a2 45c1 3a4e 7ec1 9cf5 22c1
000000d0: 017e c0c0 2310 25c1 c03a 07c1 26d2 73c1
000000e0: 9149 28c1 abf1 34c1 7f50 41c1 ba5f 0ec1
000000f0: 9a3b 33c1 5218 0dc1 2ffd f8c0 cdef 1bc1
00000100: dead 19c1 f617 28c1 7fbf f5c0 7b79 0dc1
00000110: 30c7 17c1 4fe2 34c1 dbcf 3ac1 0695 11c1
00000120: fd52 02c1 bbb0 1ec1 ed67 51c1 c5a2 39c1
00000130: 6ccd dac0 0001 b5c0 4040 3dc1 6bd7 1ec1
00000140: 7830 4bc1 8bb2 38c1 d1c0 f8c0 39c2 75c0
00000150: 9458 07c1 afff 3fc1 c65b 29c1 a67e 26c1
00000160: f959 20c1 6915 a0c0 5753 59c1 c4f7 59c1
00000170: 0271 1ec1 3a28 07c1 c0ad 55c0 6755 0dc1
00000180: 1120 04c1 2738 58c1 2c15 2fc1 b052 a1c0
00000190: 7db9 23c1 24f3 edc0 d0ce 21c1 46fc fdc0
000001a0: e557 31c1 7bf8 18c1 f028 0cc1 9ba1 12c1
000001b0: adb0 12c1 0fef 3ec1 3497 03c1 70ef 86c0
000001c0: bf64 54c1 60ca 4cc1 2202 13c1 f5d8 1fc1
000001d0: 343a 3fc1 d987 e1c0 68c9 28c1 3a81 43c1
000001e0: e009 e6c0 15a6 43c1 5545 fec0 b483 26c1
000001f0: 059e 32c1 3d1c 11c1 ff69 08c1 6e04 27c1
-12.855004 -11.900466 -7.486123 -10.571271 -13.195492 -9.156703 -10.01585 -11.15232
-10.2991905 -11.700521 -11.200907 -7.405481 -9.426297 -15.563048 -8.927605 -11.568933
-13.417411 -12.271338 -5.189623 -10.278757 -10.032712 -8.374445 -7.851833 -12.418278
-6.9761434 -9.902433 -7.212634 -10.882927 -7.4442883 -8.217639 -11.309237 -11.0434265
-6.738282 -9.196229 -13.704883 -6.8183713 -11.052716 -14.15434 -12.620828 -8.676433
-11.023649 -7.7120366 -9.830516 -5.0353346 -15.58427 -14.328845 -11.869197 -11.523111
-16.196085 -12.352176 -15.894098 -10.184963 -6.0153813 -10.31644 -8.451843 -15.238806
-10.517961 -11.309001 -12.082152 -8.898371 -11.202051 -8.818438 -7.780906 -9.746045
-9.604948 -10.50585 -7.679626 -8.842158 -9.48613 -11.305251 -11.675746 -9.098883
-8.145261 -9.918147 -13.0878725 -11.602239 -6.837576 -5.656372 -11.828186 -9.927592
-12.699333 -11.54359 -7.773537 -3.8399794 -8.4591255 -11.999923 -10.584906 -10.40592
-10.021966 -5.0026135 -13.582847 -13.62299 -9.90259 -8.447321 -3.3387299 -8.83335
-8.257829 -13.513709 -10.942669 -5.0413437 -10.232785 -7.4359303 -10.112991 -7.937045
-11.083959 -9.560664 -8.7599945 -9.164454 -9.168134 -11.933364 -8.224415 -4.216728
-13.274596 -12.799408 -9.188021 -9.990468 -11.95171 -7.047833 -10.549171 -12.219049
-7.1887054 -12.228047 -7.9459634 -10.407154 -11.163579 -9.069394 -8.525878 -10.438581

network.3.weight f4 [64, 128]
00000000: bb0f 79bd 53e3 83bd 42a0 aebd 5f15 19bf
00000010: aa1a 76bd d984 e53d 796a 7cbe 9713 2abe
00000020: e6d0 a2be 3146 163e e9da 09be ce30 8abe
00000030: 8313 66be d3e0 b2be 70ca 66be bc73 23bf
00000040: 2e08 98bd d0b8 9cbe 6447 64be a5fe 3bbe
00000050: 9826 03bf 7b65 13bf 3ae9 76bf 7491 abbe
00000060: dc05 2cbd be74 81bd d504 ca3c f380 13bf
00000070: b8ff 98bf 23df 29bf 69f3 583d f2d4 e8be
00000080: 0017 243b 4848 d2be be8a 24be 6fa0 21bf
00000090: 2a41 fcbe ac72 98be 4ca0 7cbe ebe7 0dbf
000000a0: c6d1 c8be 5b67 b4be 7e3c ecbd 5225 5ebf
000000b0: 0d84 39bf de70 4bbf 9a33 b7be 86b3 213e
000000c0: e7bf ccbe f779 a1be 185a d4be 682b 1bbf
000000d0: 9a16 3dbe 1ab9 cc3d ccdd 2bbf 9a8b ecba
000000e0: 3eb4 acbe 10e9 bfbe 9cd4 58be f152 cdbe
000000f0: 49ba 02be 5131 3fbe 6db1 f8be 00dc 17be
00000100: 28a2 67bd adc4 43be c33b cdbd 530e 62bd
00000110: c755 b8be b5b5 f0bd 53e0 563e bcdc 12bf
00000120: 13a5 6dbf 36ef 53be c6f4 bfbe 0252 4bbe
00000130: dd91 86be b74a ddbe ee3e 55be 992d 4fbf
00000140: 66be debe 2830 38be 6e5e c9be 396a 08bf
00000150: d3c3 babe 9056 67be 619b 97be 41ba dfbe
00000160: 6228 11bf 43ea 5dbc e0e9 12bf 0fb9 4ebe
00000170: 7fee bbbe 67db afbe 3aef 01bf 760a 88be
00000180: ae03 adbe a986 59be 48dc 0ebf 5e6d 8dbe
00000190: 11fd 92be f71f 94be dcab 20be cc5e 8a3e
000001a0: f335 62bd df14 60bd a445 01bf 7820 14be
000001b0: b373 81bf 86c5 28bd 3249 10bf ef84 d5be
000001c0: 7a5c 80bd cae6 b2bc aefb 8a3c 1c14 ecbd
000001d0: 4f53 9bbe 13c1 1cbe 7349 093e e5e5 29bf
000001e0: c996 c1bd d4dc 45be 1b02 a4be c1ce d9be
000001f0: 0d04 23be 946f 1fbc 5f81 f7bd 8ca9 9ebe
00000200: 9f45 a5bd c9e5 f2be f94e a5be b394 99be
00000210: d877 adbe 96d8 d8bd a874 b4be bab9 cbbd
00000220: c1b0 9cbe e2ad f8be bf9f 55be 92d3 53be
00000230: 104b f3be 2dc9 9abe 7de2 76bf 214d 9dbf
00000240: d2b5 b8bd 64a9 8ebe bc01 19bf b138 bdb6
00000250: f661 d8bc 6354 d7be 0f4a dcbe f98b cabe
00000260: 7ac0 93be 2a79 84be 90f6 70bd f381 ee3c
00000270: 4f45 14bd f5d3 3abf 5dea a5be b7ab 92bf
00000280: a534 8bbf 6542 87be bfbd b5bd d582 01bf
00000290: d876 29be d5cd 9bbe fb63 f6be b4f6 40bf
000002a0: a07b 84be e10a c1bf 05b7 12bd 1ce1 d4be
000002b0: 23d5 91bc 9515 37bf 0716 bebf 73ba aabe
000002c0: 8bf9 32bf 734d 23bd c6ab 6fbf 4d8d 49bd
000002d0: 068d e7be 8756 70be e1e9 f0bf 98cd 5e3c
000002e0: 61d9 2abf bf16 0ebe 98eb c5be 4ce6 77bf
000002f0: 535d 9abe 5788 1dbe a925 3fbe 73eb 15bf
00000300: 2d43 1fbf 0ba3 23bf 015a ee3d 696e f3bd
00000310: adb1 bfbe a0d6 45be 8a9e d33c 9652 bfbe
00000320: b956 f2bd bf10 dcbe d706 d6be c216 12be
00000330: c5d0 cabd 4ce6 a0be 3dcb e7be 243b f4be
00000340: 236f c13c b714 dfbd e8bf edbe 7394 11bf
00000350: f53a 34bf 3b32 8dbf 19a0 2abf 51ce 35bf
00000360: 55df 86be 9c27 52be 9db7 76be 1ba2 0abf
00000370: dddf 13bf 0465 a7be cac4 6ebf f768 08bf
00000380: 39d5 c7be 7585 e4be 3f81 1abf f67b 0fbf
00000390: 9c42 59bf 3eb9 4abd 8f15 17bf f67e c8bd
000003a0: 177e ba3c 8cb0 01be bde1 1bbf 7ed6 ecbe
000003b0: 7fd2 f1bd d0fe 1ebd 80c9 b7be 35fe efbd
000003c0: f1df 61bf aab0 e3bd 3cfc dfbe 86df e1be
000003d0: 60de b7be 59ac 9abe d700 d73d 423b 76be
000003e0: 5374 a5be e127 19be 02e3 92be a233 87bf
000003f0: 0f7a 31bf 775a 983c 678e 62bf 6e16 abbf
-0.060806017 -0.06439843 -0.085266605 -0.59798235 -0.060084023 0.11206979 -0.24649991 -0.16609035
-0.31800002 0.14675213 -0.13462414 -0.2699036 -0.2246838 -0.34937152 -0.22538161 -0.6384847
-0.07423435 -0.3060975 -0.22292858 -0.18358858 -0.51230764 -0.5757672 -0.96449625 -0.3350941
-0.041997775 -0.06321095 0.024660507 -0.57618636 -1.1953039 -0.66356105 0.05296651 -0.45474964
0.0025038123 -0.4107077 -0.16068551 -0.6313543 -0.49268466 -0.29774988 -0.24670523 -0.55432004
-0.39222544 -0.35235104 -0.115349755 -0.86775696 -0.7246712 -0.79469097 -0.35781556 0.15791139
-0.3999016 -0.31538364 -0.41474986 -0.6061311 -0.18465653 0.09996243 -0.6713531 -0.0018046976
-0.33731264 -0.374825 -0.21174854 -0.40102342 -0.12766375 -0.18671156 -0.48572865 -0.14830017
-0.05655113 -0.19117995 -0.10021164 -0.055189442 -0.36002943 -0.11753408 0.2098401 -0.57368064
-0.9283001 -0.2069672 -0.37491435 -0.19855502 -0.2628316 -0.43221065 -0.20824787 -0.8092895
-0.43504637 -0.1798712 -0.39329857 -0.5328708 -0.36477527 -0.22591615 -0.29610732 -0.43696788
-0.56702244 -0.013544622 -0.57388115 -0.20187782 -0.36705396 -0.34347078 -0.50755656 -0.2657048
-0.3379187 -0.21242775 -0.5580487 -0.27622503 -0.287087 -0.28930637 -0.15690559 0.2702545
-0.05522723 -0.054707404 -0.5049689 -0.14465511 -1.0113434 -0.041203998 -0.5636169 -0.41702983
-0.062676385 -0.021838564 0.016965713 -0.11527273 -0.30336997 -0.15308027 0.13406925 -0.66366416
-0.09452588 -0.1932252 -0.32032856 -0.42540553 -0.15919514 -0.009731192 -0.120852225 -0.3098873
-0.0806992 -0.47440937 -0.32286814 -0.2999626 -0.33880496 -0.105881855 -0.35245252 -0.09947534
-0.30603603 -0.48570162 -0.2086172 -0.20686176 -0.47518206 -0.3023161 -0.96439344 -1.2289163
-0.090190545 -0.2786361 -0.5976827 -5.6392387e-06 -0.026413899 -0.4205657 -0.43025252 -0.39559916
-0.28857785 -0.2587369 -0.05882889 0.029114699 -0.03619891 -0.7297967 -0.32405367 -1.1458653
-1.0875441 -0.26417843 -0.08874082 -0.5059026 -0.16549242 -0.30430475 -0.48123154 -0.7537644
-0.25875568 -1.5081445 -0.035819072 -0.41577995 -0.017801827 -0.71517307 -1.4850472 -0.33345374
-0.6991202 -0.039868783 -0.9362148 -0.04920702 -0.4522478 -0.23470508 -1.8821374 0.013598822
-0.66737944 -0.13875864 -0.38656306 -0.9683578 -0.30149326 -0.15384041 -0.1866671 -0.5856239
-0.6221188 -0.6392066 0.11638261 -0.118862934 -0.37440243 -0.19320154 0.025832433 -0.37367696
-0.11832947 -0.42981526 -0.41802093 -0.14266494 -0.09903101 -0.31425703 -0.45272246 -0.4770137
0.023612564 -0.10892623 -0.46435475 -0.5686714 -0.7040246 -1.1030954 -0.6665054 -0.7101794
-0.26342264 -0.20522922 -0.2409348 -0.54153603 -0.57763463 -0.32694256 -0.93269026 -0.53285164
-0.39029863 -0.4463307 -0.60353464 -0.56048524 -0.8486726 -0.049493067 -0.5901727 -0.09789841
0.022765202 -0.12665004 -0.60891324 -0.46257395 -0.11807727 -0.038817227 -0.3589592 -0.11718408
-0.8823233 -0.1111768 -0.43747127 -0.44115847 -0.35911846 -0.30209616 0.10498207 -0.24046043
-0.3231531 -0.14956619 -0.28688818 -1.0562632 -0.6932687 0.018597824 -0.8849854 -1.336622

network.3.bias f4 [64]
00000000: 67dc 32c0 f281 09c0 e56f 0fc0 f661 57c0
00000010: bb30 10c0 fc3b 21c0 4859 21c0 c9ff 4ec0
00000020: 9467 c9bf 192e 0dc0 4a18 1cc0 3caf f0bf
00000030: 6016 3dc0 cbfa 4ec0 f86b 0cc0 a9aa 16c0
00000040: 00ae fdbf 4b07 69c0 58b2 b5bf aeeb 14c0
00000050: 0302 22c0 a98f 3ac0 0270 f2bf a0af 1bc0
00000060: d62d 0bc0 ed3f c8bf 8ce6 22c0 de4d 5ac0
00000070: ab52 3bc0 9bb9 f6bf 1fbf 3dc0 da0c 36c0
00000080: 5658 8fbf 4233 33c0 5674 6dc0 4d6a 0ec0
00000090: e465 25c0 106f 18c0 e9eb 293f 2d43 dbbf
000000a0: 5792 1fc0 e692 57c0 5a01 05c0 5f5a 42c0
000000b0: 6ed1 31c0 cf98 5bc0 d326 74c0 fb0c 1fc0
000000c0: b801 9bbf d1bd 00c0 7c89 e9bf 764d 2ec0
000000d0: 9879 7cc0 0783 8c3f 5048 90c0 4100 6fc0
000000e0: 5e68 8cc0 5afc a4bf 7b2e 3fc0 8b24 0dc0
000000f0: c403 17c0 686d 28c0 5e59 3d3f ffc1 07c0
-2.7947023 -2.1485562 -2.2412045 -3.365354 -2.2529743 -2.5192862 -2.5210743 -3.234362
-1.5734735 -2.2059386 -2.4389825 -1.8803477 -2.9544907 -3.2340572 -2.19409 -2.3541663
-1.9818726 -3.6410701 -1.4195051 -2.3268847 -2.5313728 -2.9150183 -1.8940432 -2.4325943
-2.1746726 -1.5644509 -2.5453215 -3.4110026 -2.9269207 -1.9275392 -2.96479 -2.8445344
-1.1198833 -2.8000035 -3.7102256 -2.225238 -2.584344 -2.3817787 0.66375595 -1.7129875
-2.4933069 -3.368341 -2.0782075 -3.0367658 -2.7784076 -3.4312017 -3.8148696 -2.4851673
-1.21099 -2.0115855 -1.8245082 -2.7234778 -3.9449215 1.0977486 -4.508827 -3.7343905
-4.38774 -1.2889512 -2.987212 -2.2053554 -2.3596048 -2.6316776 0.7396449 -2.1212156

network.6.weight f4 [5, 64]
00000000: e09d 8ebe 6535 2dbe 6961 713e 5f36 3dbe
00000010: e498 18be 8420 99be 3567 513e 3eeb 083e
00000020: 1fc6 19be 3c0b b2bd f81e 7cbd a7dd 3abe
00000030: d1c5 b5bd eb20 6d3d 1818 6b3d eab5 5ebe
00000040: f92c babd 114e 973d 0834 f23d 182e cabd
00000050: 3b0c aa3d e36b 9e3d b776 6dbe 50a2 f13d
00000060: ed20 063e 50dc d63c 5e01 4bbd b080 82be
00000070: d4ab cebd af67 ccbd efdb 813d aac1 703e
00000080: afb7 a13b 2b1b 2cbd 995e 8b3e bb26 97be
00000090: 9c77 433d c80b 55be c2fb 3bbe 55c2 30be
000000a0: b7d3 93be 9dcd 22be c565 b2bc 6507 1ebe
000000b0: 5b0f 9abd b6cc 06be 67dc 423c a375 0f3e
000000c0: ae7d f9bd cd7a 8a3d 508b 8cbe 154e de3d
000000d0: 7387 31be 546f acbd 46d4 8f3e b67d 1f3e
000000e0: 5e63 96be 0c92 60be 0396 3bbe 2d1a 05be
000000f0: a4c1 98be ab6c ec3d 4c57 25bd 485b c63c
00000100: 72c4 42bd 71c1 6d3e e22f 533e 077b 803d
00000110: 639e e6be bc77 153e 7db5 05be 27b4 bd3d
00000120: 0cf5 343d 1b0d 813d a868 84be 5915 61be
00000130: efeb 4c3e 4f77 143e d637 05be be5e f2bd
00000140: 762c 86bd 9b32 f73e 2fe7 c1be b1df db3b
00000150: 004a 593e 9396 efbd 8f8c 9fbe 4c0d 563e
00000160: 658e e1bd 3bc2 97be 0584 14bf ca55 dabd
00000170: 4913 31be 0085 083e b16e 4bbe 1db9 77bd
00000180: b929 ecbe 0589 bd3e 009a c03b f8e7 2b3e
00000190: b8df 34be f5a4 6d3e 0165 793d a3b4 11be
000001a0: ec57 d1bd 64b0 7ebe 6074 273e 8c93 9ebe
000001b0: c6b5 12bd 1b02 1b3d ff37 a63e b0c4 b63c
000001c0: 99e5 353c 1b61 5cbe 0f03 81be 9dd2 cd3d
000001d0: 2af0 d43e 13a0 75be 87a8 92be 2d97 eebe
000001e0: 38c9 47bf bb96 553e a7f5 323e c704 86bd
000001f0: 31d0 763e 264e 02be 95fd 27be 5dd7 c5be
00000200: d6d5 873d 0e1e 15be 094d a9be e971 2fbc
00000210: 4017 943c 12a4 41be 04d3 7b3e df3a 5a3e
00000220: 564c 013e bbdb 14bf e59e 4bbe 1314 ae3e
00000230: 5d55 b0bd 2efa 1e3e a879 62be 07d7 63be
00000240: 8db3 1fbc 21db 12be 2399 1dbd 9eb5 d63e
00000250: 4f84 143e 74d3 d8bd c661 9b3d 2950 2dbd
00000260: 1e4f 5b3e 6bc5 66be ebf4 163e f2ec 9e3d
00000270: 17f4 b53c 383f 4dbe df93 7f3e 308f 89bd
00000280: 110c c43d eaa4 8fbc 083f 5bbc d822 a83d
00000290: 4a03 86be 4ed1 08be 26a4 593e 23b6 25be
000002a0: 63f3 52be c548 453e 5ebc 6f3e 3283 bdbe
000002b0: 79ab 863e 794c a5be cd65 7fbd 71b6 9bbe
000002c0: 1b0f 02bd 5153 85bc c3a3 4ebe 590b 9d3e
000002d0: 4110 84be af13 333e 5dfe 0cbe 247d 8dbe
000002e0: f77a 863e 113d 7bbe e399 afbe 34b0 a03e
000002f0: 89fd a5bd a3eb f03e 6143 09bf 1af2 fe3d
00000300: 4877 6cbe ca2e 173e 1b78 53bd 1ff9 debd
00000310: e0a1 913c 5646 533d a585 643e 64ab c8be
00000320: f387 3cbe f870 edbe 07fc bf3d db43 e2bd
00000330: 60ca b33d 3b5c 153d 4139 be3d 0586 043e
00000340: 64d7 35be 48d4 eb3d 97fa 023e a6cd e03e
00000350: 3830 cc3d b2d1 f03d c6f9 37bd ffd6 783d
00000360: 764a 69bd 96f4 1d3d 04af 2abe 4b68 ccbc
00000370: 8014 dbbd 8b60 32bd a0d4 5d3d caf0 02bd
00000380: 0084 dd3c b69c 633e b893 f93d 21e4 22be
00000390: 3cb9 a9be 0e86 2cbe 6e9c b63e afec e6bd
000003a0: f6f4 b53d 31cd da3d 4afe f8bd 4845 aa3e
000003b0: def2 0cbd 18ab f93d d20d 96bd ace0 993d
000003c0: 0fcf ec3d 5df5 003d e849 253d b701 41be
000003d0: 3448 1d3e ce28 4b3e 5e91 dd3d 0d4c b73e
000003e0: 2527 783e e561 d03c 715b 9f3d c007 623d
000003f0: 2462 cdbd c31d 4dbe 48d5 31ba d23c 0e3e
-0.27854824 -0.169149 0.23572315 -0.18477772 -0.14902073 -0.2990762 0.20449527 0.13370988
-0.15016983 -0.08693549 -0.06155297 -0.18248616 -0.08875621 0.05789272 0.057396024 -0.21749082
-0.09090609 0.07387937 0.118263304 -0.09872073 0.08303114 0.077354215 -0.23189817 0.11798537
0.13098498 0.0262281 -0.04956185 -0.25488806 -0.10091367 -0.099807136 0.06340777 0.23511377
0.004935227 -0.042018097 0.2722061 -0.29521737 0.04772149 -0.20805275 -0.18357757 -0.17261632
-0.28872463 -0.15898748 -0.021777043 -0.15432508 -0.0752246 -0.13164029 0.011893368 0.14009719
-0.121821746 0.06761704 -0.27450037 0.10854737 -0.17336826 -0.08419672 0.2809164 0.15575299
-0.29372686 -0.21930712 -0.18318944 -0.12998267 -0.29835236 0.11544164 -0.040366456 0.024213448
-0.047550626 0.23218323 0.20623735 0.062734656 -0.45042714 0.14596456 -0.13057514 0.09262877
0.044179007 0.06301328 -0.25861096 -0.219808 0.20011877 0.14498638 -0.13009581 -0.11834477
-0.06551449 0.48280796 -0.37871692 0.0067100157 0.21219635 -0.11698642 -0.31161925 0.2090351
-0.11013488 -0.29640374 -0.58013946 -0.10660894 -0.17292513 0.13331985 -0.19866444 -0.060479272
-0.46125582 0.370186 0.005877733 0.16787708 -0.17663467 0.23207457 0.06088734 -0.14229064
-0.10221848 -0.24871975 0.16352987 -0.30971944 -0.035817884 0.037843805 0.32464597 0.022310585
0.011102104 -0.21521418 -0.25197646 0.10049937 0.4158948 -0.23986845 -0.286442 -0.46599713
-0.7804141 0.2085828 0.17476521 -0.0654388 0.24102856 -0.12725124 -0.16405328 -0.38640872
0.06632583 -0.14562246 -0.33066586 -0.010708311 0.018077493 -0.18910244 0.24592215 0.2131152
0.12626776 -0.5814778 -0.19884832 0.3399969 -0.08610032 0.15525123 -0.2211672 -0.22249995
-0.009747398 -0.14341404 -0.03847612 0.41935438 0.14503597 -0.105872065 0.07587008 -0.042312775
0.214169 -0.22536246 0.14741866 0.077600375 0.022211118 -0.20043647 0.24958752 -0.06716764
0.09572614 -0.017534692 -0.013381727 0.08209771 -0.26174384 -0.13361093 0.21254024 -0.16182761
-0.20600657 0.1926604 0.234117 -0.37014157 0.26302698 -0.32284907 -0.062352944 -0.3041263
-0.031752687 -0.01627508 -0.20179658 0.3067272 -0.2579365 0.17487977 -0.13768907 -0.27634537
0.2626569 -0.24535014 -0.34297094 0.31384432 -0.081049986 0.47054777 -0.5361844 0.12448521
-0.23092377 0.14763942 -0.051628213 -0.1088736 0.017777383 0.05158075 0.22316606 -0.3919326
-0.18411236 -0.4637525 0.09374242 -0.11048099 0.08778834 0.03646491 0.09288264 0.1294175
-0.17757946 0.11515099 0.12790905 0.43906897 0.099701345 0.11758746 -0.044915937 0.06075191
-0.056955777 0.038563333 -0.16668326 -0.024952075 -0.106972694 -0.0435491 0.054157853 -0.031967916
0.027040482 0.22227749 0.12186378 -0.15907337 -0.33149135 -0.16848013 0.3566622 -0.112756126
0.08884613 0.106836684 -0.12157877 0.33255982 -0.034411304 0.12190837 -0.07326855 0.07513556
0.11562931 0.031483997 0.040353686 -0.1884831 0.15359575 0.19839785 0.10818742 0.3580021
0.24233682 0.025437305 0.07781113 0.055183172 -0.100284845 -0.20030884 -0.00067837955 0.13890389

network.6.bias f4 [5]
00000000: b04b 523e e040 16be 5186 9f3c 8285 903e
00000010: fed9 033d
0.20536685 -0.14673185 0.019473227 0.28226858 0.032190315

network.0.weight f4 [128, 43]
00000000: b016 a5bb 38a8 50bf 7263 1e3f 0091 c7bf
00000010: 1658 f4bf ccf0 23be 24f6 af3f 4aba 0c3e
00000020: a51d 283e 7408 26be 01cf 90bc 38ae ecbd
00000030: cddf 8f3f b5ea e4be 9ddc 073e e939 19bf
00000040: b3ef d0bf 9fb2 f33f 48de 5a3f 03ad a3bd
00000050: f573 0cbe d6be b3bd 3cf8 043e af68 a7ba
00000060: 3316 bbbd 1f9e 2b3e 567f 3cbd 2198 cebf
00000070: 5a65 1b40 75f9 94bf 35c0 8b3d cbb6 ca3f
00000080: 77c5 3abe 1edb aebf 9cad 233e 19d8 3e3e
00000090: 3000 56bf 701c ce3f c645 18c0 a082 41c0
000000a0: 09cb 3b40 ecfd 10c0 049b 1a3d d127 29be
000000b0: a53b c13f 6a4a aebf 10a9 74bf 1d75 b2be
000000c0: 7005 3dbe 787f 92c0 5448 a93d 85bb bb3d
000000d0: 7bbe 1bbd 7f07 2c3d c5ab 343d f5f4 04c0
000000e0: e2ae 5fc0 4ae9 0abf 06bc 303f 1862 00c0
000000f0: 550d 17bd 2da8 763e d660 3ebe 318b 7b3d
00000100: 0f0e a83d dcaa a6bd 22c5 ed3d 3ad1 3ebd
00000110: 5857 c5bd 7a87 c63d c700 853f c9c6 c9bf
00000120: 043e c23f d897 203e cd74 1fbf 113b 89bd
00000130: 303d 823f 5056 fcbd d5f3 07c0 2f43 d73f
00000140: 8c2f d7bf 278d a6bf 1c47 48be 1fab 4840
00000150: 1608 babf b63f c63d 39e7 a93d f490 8fbf
00000160: 296e 973f a815 4640 46d5 4bc0 227b a5bd
00000170: 7858 7740 3fcc 313d adb0 263d a9cf bfbd
00000180: 61e6 09bd 7777 9bbb f583 0bc1 0d36 46c0
00000190: 58d0 12c0 298b 853f b391 febf f8ac 8140
000001a0: 4b84 f1bf 6d57 1c3d b552 3cbe 2d85 233e
000001b0: b6da c73d 24d8 33be 987e 753d 0ab2 19be
000001c0: d55d 883c e26a c5bd 40ae 7ebd 3ee9 b1c0
000001d0: 46de 2abe 9a67 68bf 160a 0d3e aabb 02be
000001e0: f5f9 cabd a864 42bf fad9 943f 8b01 2f3f
000001f0: 795a 04c0 c78c 51c0 9935 f33f 9387 763f
00000200: 07a0 14bd 0582 373c de63 dd3f 4908 dbbf
00000210: 9225 09bf 6fcb 1abf 942b 3abe 3e76 80c0
00000220: 33f6 37be 12d2 dcbc 1cac 6f3d 0d77 09be
00000230: f231 4c3c eb38 05c0 1f92 d5c0 09cb 75bc
00000240: c2ed bebe fda2 2fc0 e8ac 1f40 cc34 a53e
00000250: 1ff4 b43d 8fe7 91bd 451c 3c3e d4a2 92bc
00000260: f005 a0bc 75b3 f6bd 8792 af3d 962a 3fbe
00000270: 650c 9fbf d42e 3a3f fb41 dabf d018 d3bd
00000280: d51c 01c0 bfc7 ab3d 57ef 95bf a810 02bd
00000290: 97ac e5bf 908a 833f 2189 3f3f d233 d8bf
000002a0: 7d18 0c40 d767 463e 6ad0 f3bf 7a05 1c3d
000002b0: 343f 15be 3ca4 713f 5b05 73bf 6a42 1140
000002c0: 3dd5 c2bf 1e5f 093e f768 e43f ae87 b2bd
000002d0: 3a08 3cbd 48f0 0f3e 66df d4bd ab40 2fbe
000002e0: c367 89be af74 63c0 4034 a73e 182b e73e
000002f0: 79e9 303e a1aa 743d eaf9 a83f c6b1 abbd
00000300: 531e 313e 30da 32be 4916 0d3d 5715 213e
00000310: 0821 87bc 432c a53d a6dd 0e3e d3c9 4ebf
00000320: 56d3 7a40 29cf c7c0 d01b 25bd 7eda da3f
00000330: bc37 38be c15f 94bf 54f0 da3d 075d e43f
00000340: 58c9 373f d4ff ae3f a1fa 5cc0 0214 843d
00000350: 6e60 253e aa97 b5bf 090d f03d 3a59 01bd
00000360: f326 5ebf 356e 8a3f f2a1 753f c288 283d
00000370: 12a3 043e a233 943f e6f0 b63c c0f2 143d
00000380: 8fa7 21be 86f3 4b3d 5864 38bd ef2c bc3e
00000390: fb60 08bf b027 b03f 8231 88bd 9140 5c3f
000003a0: 5665 10c0 6855 f9bf 58b9 813d 59c8 a63d
000003b0: 3a40 f43d 6c84 cf3d a97f 02be 774b a3bd
000003c0: 5682 02be 2e91 f1bd 3e57 16bf 53ea 58be
000003d0: 3be6 b2bf 27a9 0a3e 5328 25be 0cac 5c3c
000003e0: 468f 12bf c3fd c43d 6a78 0abf 16d0 9ebe
000003f0: bd59 00bc 223e e6bf 9cab 773f 7398 07bf
-0.005038105 -0.8150668 0.6187049 -1.5591125 -1.9089382 -0.16009825 1.3746991 0.13742939
0.16417558 -0.16214162 -0.017676832 -0.11556667 1.1240174 -0.44710317 0.13267751 -0.5985399
-1.632315 1.9038886 0.85495424 -0.07991984 -0.13716109 -0.087766334 0.12985319 -0.0012772287
-0.091350935 0.16759537 -0.046019875 -1.6140176 2.428061 -1.1638628 0.0682377 1.5837034
-0.1823939 -1.3660619 0.15984195 0.18637122 -0.83594036 1.6102428 -2.3792586 -3.0235977
2.9342673 -2.2654982 0.03774549 -0.16519095 1.5096327 -1.3616459 -0.9557047 -0.34854975
-0.18459105 -4.57806 0.082657486 0.09166626 -0.038023453 0.041999336 0.044109125 -2.077451
-3.495049 -0.5426222 0.690369 -2.0059872 -0.03687795 0.24087591 -0.18591627 0.06141204
0.082058065 -0.081380576 0.11609866 -0.046586253 -0.096358 0.09693809 1.0390862 -1.576379
1.5175176 0.15682924 -0.622876 -0.06700719 1.0174923 -0.1232115 -2.1242573 1.6817378
-1.6811385 -1.3011826 -0.19558376 3.1354444 -1.4533718 0.09680121 0.08296055 -1.1216111
1.1830493 3.0950718 -3.1848922 -0.08080126 3.8647747 0.043407675 0.040695835 -0.0936578
-0.033666972 -0.004744466 -8.719716 -3.097049 -2.2939663 1.0433093 -1.9888214 4.0523643
-1.8868498 0.038169313 -0.18390925 0.15968771 0.09758513 -0.1756292 0.059935182 -0.15009323
0.016646305 -0.09639527 -0.062177896 -5.559722 -0.16686353 -0.90783083 0.13773379 -0.127669
-0.09910957 -0.7593484 1.1629021 0.6836173 -2.068022 -3.2742174 1.9000732 0.9630062
-0.036285426 0.011200433 1.7296102 -1.7111903 -0.5357295 -0.60466665 -0.18180686 -4.014434
-0.17965011 -0.026955638 0.058513746 -0.1342432 0.01246308 -2.081599 -6.674087 -0.015002021
-0.3729077 -2.744323 2.4949284 0.32266843 0.08835625 -0.071242444 0.18370159 -0.017899908
-0.019534081 -0.120459475 0.0857287 -0.18668589 -1.2425658 0.72727704 -1.7051386 -0.10307467
-2.0173848 0.08387708 -1.1713666 -0.031754166 -1.7943295 1.0276661 0.7481862 -1.6890814
2.1889946 0.1937555 -1.9047978 0.03809116 -0.14574891 0.94391227 -0.94930047 2.2696786
-1.5221325 0.1341519 1.7844533 -0.08717285 -0.045906283 0.14056504 -0.10394172 -0.17114513
-0.26836976 -3.5539968 0.3265705 0.45150065 0.17276563 0.059733037 1.3201268 -0.08383517
0.17296724 -0.17466044 0.03444508 0.15730797 -0.016495243 0.08065083 0.1395174 -0.8077671
3.919149 -6.244038 -0.040309727 1.7097929 -0.17990011 -1.1591722 0.1069037 1.784089
0.717916 1.3671823 -3.4527972 0.06449129 0.16150066 -1.4186909 0.11721236 -0.031579234
-0.8677818 1.0814883 0.95950234 0.041146047 0.12952831 1.1578257 0.022331666 0.036364317
-0.15786575 0.04979279 -0.04501757 0.36753032 -0.5327298 1.3762112 -0.06650068 0.8603602
-2.256185 -1.9479189 0.0633418 0.08143682 0.11926313 0.10132679 -0.12744011 -0.07973378
-0.12745032 -0.11795269 -0.5872687 -0.21183138 -1.3976511 0.13541089 -0.16128664 0.013468754
-0.5724987 0.09618714 -0.5408999 -0.31018132 -0.007833895 -1.7987711 0.9674623 -0.52966994

network.0.bias f4 [128]
00000000: 3666 4dc1 f2c8 3dc1 b5c5 d7c0 5ec3 23c1
00000010: 70a1 52c1 6a7a 12c1 9504 1bc1 8297 2ec1
00000020: 95a4 24c1 7665 31c1 d2b9 31c1 637f e3c0
00000030: bf7e 14c1 c0ee 6cc1 a618 0fc1 2772 35c1
00000040: e36c 49c1 1525 43c1 4980 b4c0 3269 24c1
00000050: 0e81 20c1 5efa 05c1 5a38 fbc0 5856 41c1
00000060: 1935 dfc0 cf03 1ac1 2325 edc0 467c 25c1
00000070: 4730 eec0 0177 03c1 141e 34c1 d5b7 2ec1
00000080: 17bb d3c0 3bd4 12c1 001e 5ac1 2dbb ccc0
00000090: a4d0 30c1 8660 55c1 4b20 49c1 98ca 0ac1
000000a0: a534 30c1 f0c2 f6c0 c93f 1dc1 901f a1c0
000000b0: ae18 69c1 35a2 53c1 d387 2ac1 c23c 32c1
000000c0: 57ee 77c1 c0e1 3ec1 4d05 77c1 fa8b 22c1
000000d0: a47b c0c0 2009 25c1 9b23 07c1 aae0 65c1
000000e0: ec2a 1fc1 64c9 34c1 ae83 3ec1 dc59 0ec1
000000f0: 2e2b 33c1 2c14 0dc1 e003 e3c0 2f43 1cc1
00000100: 1ec3 16c1 1265 19c1 4c80 f5c0 d406 0dc1
00000110: 9b96 17c1 8b8c 32c1 eebc 3ac1 ede1 10c1
00000120: 8015 07c1 3e42 16c1 0428 50c1 ce28 2ec1
00000130: 9a9e d9c0 10ff b4c0 0241 38c1 f48d 1cc1
00000140: 8549 4ac1 40bf 27c1 30b9 f8c0 b6c5 58c0
00000150: d4b4 07c1 f5bc 3cc1 a52a 29c1 1c65 25c1
00000160: 4b4f 1fc1 8913 a0c0 7eb8 4cc1 f33f 56c1
00000170: 8e58 10c1 2115 07c1 ceab 55c0 0f51 18c1
00000180: 9715 04c1 df23 51c1 6608 2fc1 8050 a1c0
00000190: 8eb3 23c1 0b2b e0c0 0ac8 21c1 1bf6 fdc0
000001a0: af04 32c1 28e6 16c1 7118 09c1 228f 12c1
000001b0: 845d 12c1 315c 30c1 c28d 03c1 ef3f 8ac0
000001c0: 0a62 4ec1 c9e1 4ac1 4bff 12c1 94fa 1fc1
000001d0: d134 3ec1 dd85 e1c0 2a2e 1fc1 2919 37c1
000001e0: 010e dec0 1210 39c1 2243 e9c0 cd55 26c1
000001f0: 3197 32c1 ba18 11c1 05c7 03c1 7bdc 26c1
-12.837454 -11.861559 -6.742884 -10.235197 -13.164413 -9.154886 -9.688619 -10.911989
-10.290181 -11.087271 -11.107866 -7.1093 -9.280944 -14.808289 -8.943518 -11.340369
-12.589084 -12.196553 -5.64066 -10.275682 -10.0315075 -8.373625 -7.850629 -12.08358
-6.9752316 -9.62593 -7.4107833 -10.34284 -7.443393 -8.216554 -11.257343 -10.919881
-6.616588 -9.176814 -13.632324 -6.3978486 -11.050938 -13.336065 -12.570384 -8.674461
-11.012853 -7.711296 -9.828073 -5.035103 -14.568525 -13.227101 -10.65816 -11.139833
-15.495688 -11.930115 -15.438794 -10.159174 -6.015093 -10.314728 -8.446193 -14.36735
-9.947979 -11.299168 -11.907148 -8.896938 -11.198042 -8.817425 -7.094223 -9.766402
-9.422636 -9.587175 -7.6719112 -8.814167 -9.474269 -11.159312 -11.671125 -9.055158
-8.442749 -9.391172 -13.009769 -10.884962 -6.8006105 -5.6561356 -11.515871 -9.784657
-12.642949 -10.484192 -7.772606 -3.3870673 -8.4816475 -11.796132 -10.572911 -10.337185
-9.956859 -5.0023847 -12.795042 -13.390613 -9.02162 -8.442658 -3.3386111 -9.51979
-8.255271 -13.071258 -10.93955 -5.0410767 -10.231337 -7.0052543 -10.111338 -7.936292
-11.126143 -9.4311905 -8.568467 -9.159945 -9.147831 -11.022508 -8.222109 -4.3203044
-12.898935 -12.680123 -9.187327 -9.998676 -11.887895 -7.0475907 -9.9487705 -11.443643
-6.9392095 -11.566423 -7.289445 -10.395947 -11.161912 -9.068537 -8.236089 -10.428828

network.3.weight f4 [64, 128]
00000000: 520b 79bd ede2 83bd 56a0 aebd 9614 19bf
00000010: a219 76bd b384 e53d 6c6a 7cbe 7913 2abe
00000020: 7bd0 a2be f645 163e 45da 09be 3530 8abe
00000030: 8711 66be 73df b2be 7bca 66be 2473 23bf
00000040: f607 98bd beb8 9cbe bb46 64be 2afd 3bbe
00000050: dd25 03bf ed64 13bf f1e7 76bf 3e90 abbe
00000060: 8c04 2cbd 7d5a 81bd 9b01 ca3c 9180 13bf
00000070: 6aff 98bf 99de 29bf adf3 583d edd3 e8be
00000080: cf38 243b e346 d2be d189 24be 29a0 21bf
00000090: 7140 fcbe de71 98be 959f 7cbe 14e7 0dbf
000000a0: 83d1 c8be d166 b4be 3b3c ecbd c224 5ebf
000000b0: 0683 39bf 3170 4bbf 4332 b7be f7b2 213e
000000c0: fabe ccbe ba79 a1be e958 d4be 122b 1bbf
000000d0: 8e15 3dbe 01b9 cc3d f5dc 2bbf 956c ecba
000000e0: 8bb3 acbe 29e8 bfbe 02d4 58be 1b52 cdbe
000000f0: 0dba 02be 1e30 3fbe b2b0 f8be 6edb 17be
00000100: 24a9 67bd 11c4 43be 5f3a cdbd 290d 62bd
00000110: 4f55 b8be ddb3 f0bd e4df 563e 4fdc 12bf
00000120: 93a0 6dbf 22ef 53be 48f4 bfbe 7b51 4bbe
00000130: a091 86be d049 ddbe 4a3e 55be 392c 4fbf
00000140: 0dbd debe 0030 38be 625e c9be b968 08bf
00000150: a6c2 babe fa54 67be 229b 97be a0b7 dfbe
00000160: 8d27 11bf 17ee 5dbc 00e9 12bf 66b8 4ebe
00000170: 9fed bbbe a8da afbe dcee 01bf 350a 88be
00000180: e902 adbe ae87 58be 0bdc 0ebf 1d6d 8dbe
00000190: 26fb 92be 6c1e 94be afab 20be a25d 8a3e
000001a0: 6135 62bd 8314 60bd 3f45 01bf f61f 14be
000001b0: 6473 81bf a2bc 28bd 1a49 10bf 0184 d5be
000001c0: df5b 80bd cae4 b2bc e9ff 8a3c 3a12 ecbd
000001d0: ee52 9bbe 8ec0 1cbe 0d4a 093e c3e4 29bf
000001e0: 4196 c1bd 88dc 45be 3901 a4be e0cd d9be
000001f0: bb01 23be 466f 1fbc db7f f7bd 2fa8 9ebe
00000200: bb44 a5bd 5fe5 f2be fd4d a5be d693 99be
00000210: 7777 adbe 2ad8 d8bd fc73 b4be 8eb9 cbbd
00000220: 1fb0 9cbe a2ac f8be b79e 55be 88d2 53be
00000230: 484a f3be a6c8 9abe 73e1 76bf 144c 9dbf
00000240: 27b7 b8bd bda8 8ebe 1d01 19bf 81b8 7537
00000250: e35f d8bc 7553 d7be f048 dcbe e08b cabe
00000260: 6dbf 93be e878 84be 21f8 70bd 2380 ee3c
00000270: 7033 14bd 59d3 3abf 3be7 a5be 27ab 92bf
00000280: 3834 8bbf 3542 87be abbc b5bd 7a81 01bf
00000290: 7776 29be 96cd 9bbe e762 f6be a4f5 40bf
000002a0: c77a 84be f209 c1bf cab4 12bd 3ae0 d4be
000002b0: 38d3 91bc f014 37bf 1515 bebf 5eb9 aabe
000002c0: 61f8 32bf 554c 23bd 80aa 6fbf 518d 49bd
000002d0: 358c e7be 8f55 70be 43e9 f0bf e1fa 5e3c
000002e0: e3d8 2abf 4716 0ebe feea c5be a6e5 77bf
000002f0: 575c 9abe 1e87 1dbe 0726 3fbe 35eb 15bf
00000300: 9d42 1fbf b6a2 23bf 3459 ee3d d26c f3bd
00000310: 18b1 bfbe 57d5 45be 769c d33c 5152 bfbe
00000320: bc56 f2bd e70f dcbe 0a06 d6be dd16 12be
00000330: c1d0 cabd afe5 a0be 87c9 e7be 7e3a f4be
00000340: 2471 c13c 4214 dfbd ddbe edbe 1d94 11bf
00000350: 093a 34bf 9731 8dbf 13a0 2abf 7ecd 35bf
00000360: fdde 86be e226 52be ebb5 76be 62a1 0abf
00000370: 8cdf 13bf 5264 a7be ecc3 6ebf bd68 08bf
00000380: 9bd4 c7be 0185 e4be 7180 1abf 4f7b 0fbf
00000390: de41 59bf 24b5 4abd d014 17bf de7a c8bd
000003a0: b082 ba3c 25b0 01be f9e0 1bbf cdd5 ecbe
000003b0: 32d1 f1bd 45f9 1ebd 85c8 b7be affd efbd
000003c0: 52df 61bf 53ae e3bd 82fb dfbe 1bdf e1be
000003d0: dcdd b7be 64ab 9abe 1501 d73d da3b 76be
000003e0: d473 a5be d026 19be c6e2 92be 4133 87bf
000003f0: 8479 31bf 4b71 983c 688d 62bf 8115 abbf
-0.06080181 -0.06439767 -0.085266754 -0.59797037 -0.06008304 0.11206951 -0.24649972 -0.1660899
-0.31799683 0.14675125 -0.1346217 -0.26989904 -0.22467624 -0.34936103 -0.22538178 -0.63847566
-0.074233934 -0.30609697 -0.22292607 -0.18358293 -0.5122965 -0.57575876 -0.96447664 -0.33508486
-0.041996524 -0.063160874 0.024658969 -0.5761805 -1.1952946 -0.6635528 0.052966762 -0.45474187
0.0025058275 -0.41069707 -0.16068198 -0.6313501 -0.49267915 -0.29774374 -0.2467025 -0.5543072
-0.39222345 -0.35234693 -0.115349256 -0.8677484 -0.7246555 -0.79468066 -0.35780534 0.15790926
-0.39989454 -0.31538182 -0.41474083 -0.60612595 -0.18465254 0.09996224 -0.6713403 -0.0018037731
-0.3373073 -0.37481812 -0.21174625 -0.40101704 -0.12766285 -0.18670699 -0.48572308 -0.148298
-0.05655779 -0.19117762 -0.10020899 -0.05518833 -0.36002585 -0.11753056 0.20983845 -0.57367414
-0.9282314 -0.2069669 -0.3749106 -0.19855301 -0.26282978 -0.43220377 -0.20824543 -0.80926853
-0.4350361 -0.1798706 -0.3932982 -0.53284794 -0.3647663 -0.2259101 -0.29610544 -0.43694782
-0.56700975 -0.013545535 -0.5738678 -0.2018753 -0.36704728 -0.3434651 -0.50755095 -0.26570287
-0.33791283 -0.21145508 -0.5580451 -0.2762231 -0.28707236 -0.2892946 -0.15690492 0.2702456
-0.055226687 -0.05470706 -0.50496286 -0.14465317 -1.011334 -0.04119552 -0.56361544 -0.41702273
-0.06267523 -0.02183761 0.01696773 -0.11526914 -0.30336708 -0.15307829 0.13407154 -0.6636469
-0.09452487 -0.19322407 -0.32032183 -0.42539883 -0.15918629 -0.0097311195 -0.12084933 -0.3098769
-0.0806975 -0.4744062 -0.32286063 -0.29995602 -0.33880207 -0.10588105 -0.3524474 -0.09947501
-0.3060312 -0.48569208 -0.20861326 -0.2068578 -0.4751761 -0.30231208 -0.9643776 -1.2288842
-0.090193085 -0.27863112 -0.59767324 1.4646096e-05 -0.02641291 -0.4205586 -0.43024397 -0.3955984
-0.28856984 -0.25873494 -0.058830384 0.029113835 -0.036181867 -0.7297874 -0.32402977 -1.1458482
-1.0875311 -0.264177 -0.08873876 -0.5058819 -0.16549097 -0.30430287 -0.48122332 -0.7537482
-0.25874922 -1.508116 -0.035816945 -0.4157732 -0.017800912 -0.71516323 -1.4850184 -0.3334455
-0.69910246 -0.039867718 -0.9361954 -0.049207035 -0.45224157 -0.23470138 -1.8821186 0.013609619
-0.6673719 -0.13875686 -0.38655847 -0.9683479 -0.30148575 -0.15383574 -0.1866685 -0.5856202
-0.6221102 -0.6392015 0.11638108 -0.1188599 -0.374398 -0.19319664 0.025831442 -0.3736749
-0.118329495 -0.42980883 -0.41801482 -0.14266534 -0.09903098 -0.31425235 -0.4527094 -0.47700876
0.02361352 -0.10892536 -0.4643468 -0.5686663 -0.70401055 -1.1030759 -0.66650504 -0.7101668
-0.26342002 -0.20522645 -0.24092834 -0.541525 -0.5776298 -0.32693726 -0.93267703 -0.5328482
-0.39029393 -0.44632724 -0.60352236 -0.5604753 -0.8486613 -0.049489155 -0.5901613 -0.0978906
0.022767395 -0.1266485 -0.60890156 -0.46256867 -0.11807479 -0.03881194 -0.35895172 -0.11718308
-0.88231385 -0.11117234 -0.43746573 -0.44115528 -0.35911453 -0.30208886 0.10498253 -0.24046269
-0.32314932 -0.14956212 -0.2868864 -1.0562516 -0.69326043 0.01860871 -0.8849702 -1.3365937

network.3.bias f4 [64]
00000000: 93ca 32c0 5780 09c0 2385 f9bf 5bab 56c0
00000010: 2720 10c0 9e30 21c0 b313 0ec0 4482 4ec0
00000020: 0060 c9bf 950d 0dc0 29ff 16c0 28ad f0bf
00000030: 01c8 3cc0 41f4 4ec0 bfcd 0bc0 1759 16c0
00000040: 5d37 fdbf 3a01 69c0 4eb0 b5bf 38e6 14c0
00000050: adfa 18c0 60ff 31c0 5368 f2bf 077d 1bc0
00000060: 7c08 0bc0 571f c8bf b342 20c0 a830 5ac0
00000070: 5f0c 38c0 8db6 f6bf 48b4 3dc0 6839 2dc0
00000080: f134 8fbf bdf1 2dc0 4c6e 60c0 bbe0 0dc0
00000090: bb5f 25c0 126d 18c0 6fe1 1d3f dd36 dbbf
000000a0: 5b75 1fc0 6054 56c0 9679 f8bf f4d8 39c0
000000b0: d9cc 31c0 75f3 5ac0 0a53 72c0 b458 1ac0
000000c0: ef00 9bbf 5abb 00c0 6754 e7bf 4240 2ec0
000000d0: 5f24 71c0 93ef 993f ba98 8bc0 dd5c 6cc0
000000e0: 8b02 8cc0 b9f8 a4bf 0f8e 3cc0 8b8c 0cc0
000000f0: 5800 10c0 675a 28c0 289d 4b3f 6eb9 06c0
-2.7936141 -2.1484582 -1.9493755 -3.3542087 -2.2519624 -2.5185924 -2.2199523 -3.2267008
-1.5732422 -2.203954 -2.3593237 -1.8802843 -2.9497073 -3.233658 -2.1844327 -2.3491876
-1.978252 -3.6406999 -1.4194429 -2.3265514 -2.3903 -2.7812119 -1.8938087 -2.429506
-2.1723928 -1.5634564 -2.504071 -3.4092197 -2.875755 -1.927446 -2.9641285 -2.7066288
-1.1188031 -2.7178795 -3.506732 -2.2168415 -2.583968 -2.3816571 0.6167211 -1.7126118
-2.4915378 -3.3488998 -1.9412105 -2.9038668 -2.778128 -3.4211094 -3.7863183 -2.411664
-1.210966 -2.011435 -1.8072633 -2.722672 -3.767845 1.2026237 -4.3623934 -3.693168
-4.3753104 -1.2888404 -2.9461706 -2.196078 -2.250021 -2.6305177 0.79536676 -2.1050677

network.6.weight f4 [5, 64]
00000000: fd21 8ebe 9332 2dbe 7db4 64bd a096 3abe
00000010: ddc8 18be 80e1 98be bf4f a73d c852 033e
00000020: accb 19be 06e3 aebd d826 18be 04d8 3abe
00000030: 802e b2bd 52d1 6c3d edd6 813d c7f6 5abe
00000040: 18f2 b2bd 6dfd 963d db25 f23d 0217 cabd
00000050: 5cef 6cbd 66be 56bd 9f5b 6dbe 0848 f13d
00000060: e8ef 043e e2f3 d53c 327c 02be fd35 82be
00000070: 9264 4dbd c96c ccbd 58f0 813d cce2 c73d
00000080: 4a9e a23b bfb1 1e3d c77d 8e3d bccb 92be
00000090: e558 433d 6cfb 54be 80ce 2cbe 7f6f 30be
000000a0: d974 93be 2f54 10be b617 e33d a1a4 b0bc
000000b0: 1ad2 99bd 6c7f febd acc8 7ebc 5f9f 803d
000000c0: 677b f9bd 1056 8a3d b8be 83be ba98 dd3d
000000d0: 12d6 38bc 0b13 c9bd f533 133e a13a ec3d
000000e0: 5100 91be 0880 60be b24c 913d 48d6 f8bd
000000f0: cedc 44be 72b3 ea3d 05f1 09be 99ef b13c
00000100: 72c4 42bd d2c0 6d3e 8130 533e 577c 803d
00000110: 6b9d e6be 5077 153e 02b5 05be 7fb4 bd3d
00000120: e2f2 343d 5d0c 813d 8568 84be 8914 61be
00000130: d1eb 4c3e ae76 143e 5438 05be 535f f2bd
00000140: 1c2d 86bd c931 f73e 4ae6 c1be a2d0 db3b
00000150: 7249 593e d296 efbd 2c8c 9fbe 520d 563e
00000160: 4a8f e1bd a6c1 97be f683 14bf 5e56 dabd
00000170: af13 31be dd84 083e 916e 4bbe a3b9 77bd
00000180: 4d28 ecbe 7f88 bd3e 0778 c03b e4e6 2b3e
00000190: 57e0 34be 63a4 6d3e 7d69 793d 6eb4 11be
000001a0: 0c57 d1bd acaf 7ebe 6774 273e 7792 9ebe
000001b0: afb6 12bd 3afe 1a3d ff37 a63e 1eb9 b63c
000001c0: 56de 353c cd60 5cbe 5e02 81be 9dd2 cd3d
000001d0: 2af0 d43e db9d 75be 2ea8 92be 1196 eebe
000001e0: 90c8 47bf 9296 553e f0f4 323e 6c05 86bd
000001f0: 98cf 763e 7b4c 02be b2fc 27be 51d7 c5be
00000200: ddd5 873d 0e1f 15be bb4c a9be d46e 2fbc
00000210: 7415 943c 89a3 41be 79d2 7b3e bf39 5a3e
00000220: 6c4c 013e 76db 14bf e39c 4bbe b713 ae3e
00000230: ce54 b0bd 68f9 1e3e 7d78 62be 51d6 63be
00000240: 6baf 1fbc 96da 12be 279b 1dbd f9b4 d63e
00000250: f683 143e 8bd0 d8bd 1361 9b3d bd52 2dbd
00000260: 284e 5b3e 03c5 66be 2ef4 163e ceec 9e3d
00000270: 09f7 b53c 683f 4dbe cc93 7f3e 5f8d 89bd
00000280: 090d c43d e1a6 8fbc 1d30 5bbc f324 a83d
00000290: 2202 86be a5d0 08be f7a3 593e 4eb6 25be
000002a0: 91f3 52be 2049 453e 53bc 6f3e 8082 bdbe
000002b0: 79ab 863e c54b a5be 7e65 7fbd adb5 9bbe
000002c0: 9312 02bd ac53 85bc 70a4 4ebe 940a 9d3e
000002d0: 3d10 84be 6813 333e aefd 0cbe bd7c 8dbe
000002e0: fd7a 863e dc3c 7bbe 8f99 afbe 97af a03e
000002f0: d8fe a5bd 44eb f03e 3042 09bf dbf2 fe3d
00000300: 4877 6cbe 662e 173e 9a77 53bd b1f9 debd
00000310: 85a1 913c ef45 533d ad83 643e 78aa c8be
00000320: 7f88 3cbe bd6f edbe 49f9 bf3d e343 e2bd
00000330: 73c9 b33d 655d 153d 9f37 be3d 6984 043e
00000340: 10d6 35be 4dd2 eb3d 1dfa 023e 67cc e03e
00000350: 8b2e cc3d acd1 f03d f9f6 37bd 62d6 783d
00000360: 124e 69bd 25f5 1d3d f7ae 2abe fb63 ccbc
00000370: 0a14 dbbd 4761 32bd bbd6 5d3d c4ec 02bd
00000380: 328a dd3c e59a 633e dd94 f93d a7e3 22be
00000390: 25b8 a9be d686 2cbe 6b9b b63e daec e6bd
000003a0: 8ff3 b53d b9cd da3d 62ff f8bd 3f44 aa3e
000003b0: bef3 0cbd 9fa9 f93d e50e 96bd a7e2 993d
000003c0: e7cf ec3d 37f4 003d fa4a 253d d001 41be
000003d0: 7d48 1d3e 0829 4b3e c290 dd3d 744b b73e
000003e0: fe25 783e 9160 d03c 815c 9f3d bb07 623d
000003f0: c961 cdbd bf1b 4dbe 4523 32ba ec3c 0e3e
-0.27760306 -0.16913824 -0.05583619 -0.18221521 -0.14920373 -0.29859543 0.08169507 0.12824547
-0.15019101 -0.08539395 -0.14858568 -0.18246466 -0.087002754 0.05781681 0.06339822 -0.213832
-0.08737582 0.07372556 0.118236266 -0.0986767 -0.05784546 -0.05242767 -0.23179482 0.11781317
0.12982142 0.026117269 -0.12742689 -0.25431815 -0.05014474 -0.099816866 0.0634467 0.09760055
0.004962717 0.03874373 0.06957584 -0.28671062 0.0476922 -0.20799035 -0.16875648 -0.17230032
-0.28800085 -0.14094613 0.11088507 -0.021562876 -0.07510777 -0.124266475 -0.015550774 0.062803976
-0.1218174 0.06754696 -0.25731444 0.10820146 -0.011281507 -0.09818085 0.14375289 0.1153462
-0.28320554 -0.2192384 0.070947066 -0.12150246 -0.19224855 0.11460008 -0.13470848 0.021720694
-0.047550626 0.23218086 0.20623972 0.06273716 -0.45041975 0.14596295 -0.1305733 0.092629425
0.044176944 0.06301186 -0.25860992 -0.2198049 0.20011832 0.14498398 -0.13009769 -0.11834588
-0.06551573 0.4828017 -0.3787101 0.0067082206 0.21219423 -0.116986886 -0.3116163 0.20903519
-0.11013658 -0.2963993 -0.58013856 -0.106610045 -0.17292665 0.13331933 -0.19866396 -0.06047977
-0.46124497 0.370182 0.0058736834 0.16787297 -0.17663704 0.2320724 0.060891617 -0.14228985
-0.10221681 -0.24871701 0.16352998 -0.3097112 -0.035818752 0.037840106 0.32464597 0.022305068
0.011100372 -0.21521302 -0.2519712 0.10049937 0.4158948 -0.23985998 -0.28643936 -0.46598867
-0.7804041 0.2085822 0.17476249 -0.06544003 0.24102628 -0.12724487 -0.1640499 -0.38640836
0.06632588 -0.14562628 -0.33066353 -0.010707576 0.018076636 -0.1891004 0.24592008 0.21311091
0.12626809 -0.5814737 -0.19884066 0.33999416 -0.08609925 0.15524828 -0.22116275 -0.22249724
-0.009746413 -0.14341196 -0.038478043 0.41934946 0.14503464 -0.105866514 0.07586875 -0.042315233
0.21416533 -0.22536092 0.14741585 0.07760011 0.022212522 -0.20043719 0.24958724 -0.067164175
0.09572799 -0.017535629 -0.01337817 0.082101725 -0.26173502 -0.13360842 0.21253954 -0.16182825
-0.20600726 0.19266176 0.23411684 -0.37013626 0.26302698 -0.3228437 -0.06235265 -0.30412045
-0.031755995 -0.01627525 -0.20179915 0.30672133 -0.2579364 0.17487872 -0.13768646 -0.2763423
0.26265708 -0.24534935 -0.34296843 0.31383964 -0.08105248 0.47054493 -0.5361662 0.12448665
-0.23092377 0.14763793 -0.051627733 -0.108874686 0.017777214 0.051580366 0.22315855 -0.39192557
-0.18411444 -0.46374312 0.09373719 -0.110481046 0.08778658 0.03646602 0.09287953 0.12941135
-0.1775744 0.11514721 0.12790723 0.43905947 0.09969815 0.11758742 -0.044913266 0.060751326
-0.05695922 0.038563866 -0.16668306 -0.024950018 -0.106971815 -0.043549802 0.05415986 -0.03196408
0.027043436 0.22227056 0.121865965 -0.15907155 -0.33148304 -0.16848311 0.3566545 -0.112756446
0.08884346 0.1068377 -0.121580854 0.33255193 -0.03441214 0.12190556 -0.0732706 0.07513934
0.11563092 0.0314829 0.040354706 -0.18848348 0.15359683 0.19839871 0.10818626 0.35799754
0.24233243 0.025436671 0.077813156 0.055183154 -0.10028417 -0.20030116 -0.00067954167 0.13890427

network.6.bias f4 [5]
00000000: fdcb 563e ed3f 16be 7787 9f3c 3b85 903e
00000010: 66db 033d
0.20976253 -0.14672823 0.019473774 0.28226647 0.032191657
