experiments/checkpoints/20251210_110803/checkpoint_ep149.pt (torch, 246605 bytes, 24 tensors)

network.0.weight f4 [128, 43]
-0.005038105 -0.8140372 0.6176653 -1.5634402 -1.9119979 -0.16009825 1.3844858 0.13742939
0.16417558 -0.16214162 -0.017676832 -0.11556667 1.1220182 -0.45420974 0.13091601 -0.596126
-1.6388303 1.8964678 0.8482228 -0.07991984 -0.13716109 -0.087766334 0.12985319 -0.0012772282
-0.091350935 0.16759537 -0.046019875 -1.6111324 2.4391177 -1.1582326 0.06823768 1.5960264
-0.1823939 -1.3631716 0.15984195 0.19120394 -0.8310387 1.6157072 -2.3801806 -3.0203485
2.9404902 -2.271599 0.03774549 -0.16519095 1.4895657 -1.3415757 -0.96894526 -0.33705482
-0.18459105 -4.558616 0.082657486 0.09166626 -0.038023453 0.041999325 0.044109125 -2.0976655
-3.5189285 -0.5630738 0.6665241 -1.9984518 -0.020933336 0.2702049 -0.18591627 0.06141204
0.082058065 -0.081380576 0.11609866 -0.046586253 -0.096358 0.09693809 1.0580561 -1.5621613
1.5041026 0.15682924 -0.5913707 -0.06700719 1.0364605 -0.1232115 -2.1244674 1.69695
-1.6411345 -1.313476 -0.18069085 3.1449192 -1.4707402 0.09680121 0.08296055 -1.7615572
1.8229946 3.0070791 -2.90358 -0.08080126 3.6045477 0.043407675 0.040695835 -0.0936578
-0.033666972 -0.004744466 -8.281128 -3.2917087 -2.4653614 0.6098341 -1.8779643 3.7458994
-1.68787 0.038169313 -0.18390925 0.15968771 0.09758513 -0.1756292 0.059935182 -0.15009323
0.016646305 -0.95517635 -0.55126697 -4.270276 -0.16686353 -1.3801193 0.13773379 -0.986451
-0.09910957 -1.6759654 0.44580165 1.376238 -1.0103207 -2.2872856 2.5903795 0.8825968
-0.036285426 0.011200433 1.2030431 -1.1846241 -0.8311774 -0.10624346 -0.18180686 -3.1603415
-0.17965011 -0.026955638 0.058513746 -0.13424315 0.01246308 -2.2939265 -6.7679763 -0.48172536
-1.325912 -2.8242023 1.7504042 -0.34304017 0.08835625 -0.071242444 0.18370159 -0.017899908
-0.019534081 -0.120459475 0.08572864 -0.18668589 -1.4292576 0.43826365 -1.2136613 -0.10307467
-1.9231204 0.08387708 -1.358056 -0.031754166 -1.2619076 1.7349164 1.4950327 -2.1390488
1.8698132 1.2400153 -1.3265728 0.03809116 -0.14574891 0.93911004 -0.94449633 2.273939
-1.5138209 0.1341519 1.7863636 -0.08717285 -0.045906283 0.14056504 -0.10394172 -0.17114513
-0.27220216 -3.5720146 0.34400985 0.44948366 0.16508591 0.057932522 1.3219726 -0.08383517
0.17296724 -0.17466044 0.03444508 0.15730797 -0.016495243 0.08065083 0.1395174 -0.7998723
3.9283638 -6.236867 -0.040309727 1.7201128 -0.17990011 -1.1512738 0.1069037 1.7846041
0.7052565 1.3677185 -3.4786139 0.05906142 0.15428919 -1.4093302 0.11721236 -0.031579234
-0.8680019 1.081698 0.9591875 0.041762672 0.12952831 1.158502 0.022331666 0.036364317
-0.15786575 0.04979279 -0.04501753 0.3678428 -0.5326829 1.3757998 -0.066829644 0.86071104
-2.25633 -1.947941 0.0633418 0.08143682 0.11926313 0.10132679 -0.12744011 -0.07973378
-0.12745032 -0.11795269 -0.5870802 -0.21182564 -1.3982552 0.13541089 -0.160491 0.013468754
-0.5723172 0.09618714 -0.54124844 -0.31019226 -0.008011249 -1.7993051 0.9677338 -0.5293293
00000000: b016 a5bb be64 50bf 501f 1e3f cf1e c8bf
00000010: 59bc f4bf ccf0 23be d536 b13f 4aba 0c3e
00000020: a51d 283e 7408 26be 01cf 90bc 38ae ecbd
00000030: 4b9e 8f3f 2e8e e8be d90e 063e b79b 18bf
00000040: 31c5 d1bf 75bf f23f 2125 593f 03ad a3bd
00000050: f573 0cbe d6be b3bd 3cf8 043e ab68 a7ba
00000060: 3316 bbbd 1f9e 2b3e 567f 3cbd 9639 cebf
00000070: 811a 1c40 f740 94bf 32c0 8b3d 984a cc3f
00000080: 77c5 3abe 687c aebf 9cad 233e f7ca 433e
00000090: f4be 54bf 7ecf ce3f e154 18c0 644d 41c0
000000a0: fe30 3c40 e161 11c0 049b 1a3d d127 29be
000000b0: 17aa be3f c1b8 abbf cc0c 78bf 7392 acbe
000000c0: 7005 3dbe 2fe0 91c0 5448 a93d 85bb bb3d
000000d0: 7bbe 1bbd 7c07 2c3d c5ab 343d 2740 06c0
000000e0: 2036 61c0 9b25 10bf 53a1 2a3f 45cd ffbf
000000f0: 637c abbc 4c58 8a3e d660 3ebe 318b 7b3d
00000100: 0f0e a83d dcaa a6bd 22c5 ed3d 3ad1 3ebd
00000110: 5857 c5bd 7a87 c63d 626e 873f e7f4 c7bf
00000120: 6f86 c03f d897 203e 1264 17bf 113b 89bd
00000130: bdaa 843f 5056 fcbd 46f7 07c0 a835 d93f
00000140: b210 d2bf fb1f a8bf 0607 39be 5b46 4940
00000150: 3741 bcbf b63f c63d 39e7 a93d b57a e1bf
00000160: e357 e93f fc73 4040 41d4 39c0 227b a5bd
00000170: e9b0 6640 3fcc 313d adb0 263d a9cf bfbd
00000180: 61e6 09bd 7777 9bbb 807f 04c1 5bab 52c0
00000190: 7bc8 1dc0 161e 1c3f 2261 f0bf d1bc 6f40
000001a0: 200c d8bf 6d57 1c3d b552 3cbe 2d85 233e
000001b0: b6da c73d 24d8 33be 987e 753d 0ab2 19be
000001c0: d55d 883c 7086 74bf d51f 0dbf 1aa6 88c0
000001d0: 46de 2abe c0a7 b0bf 160a 0d3e 0e88 7cbf
000001e0: f5f9 cabd 0986 d6bf 1d40 e43e 9128 b03f
000001f0: 3052 81bf e362 12c0 c7c8 2540 ddf1 613f
00000200: 07a0 14bd 0582 373c 51fd 993f c3a1 97bf
00000210: 0bc8 54bf 2c96 d9bd 942b 3abe 0943 4ac0
00000220: 33f6 37be 12d2 dcbc 1cac 6f3d 0977 09be
00000230: f231 4c3c b1cf 12c0 4393 d8c0 b5a4 f6be
00000240: 7cb7 a9bf bbbf 34c0 3f0d e03f f6a2 afbe
00000250: 1ff4 b43d 8fe7 91bd 451c 3c3e d4a2 92bc
00000260: f005 a0bc 75b3 f6bd 7f92 af3d 962a 3fbe
00000270: eaf1 b6bf 1864 e03e 4159 9bbf d018 d3bd
00000280: cf28 f6bf bfc7 ab3d c7d4 adbf a810 02bd
00000290: 3086 a1bf be11 de3f 3b5d bf3f 2de6 08c0
000002a0: 0a56 ef3f d2b8 9e3f 23cd a9bf 7a05 1c3d
000002b0: 343f 15be 8469 703f 83ca 71bf 3788 1140
000002c0: e2c4 c1bf 1e5f 093e 90a7 e43f ae87 b2bd
000002d0: 3a08 3cbd 48f0 0f3e 66df d4bd ab40 2fbe
000002e0: 155e 8bbe e39b 64c0 0f22 b03e b922 e63e
000002f0: 480c 293e a74a 6d3d 6636 a93f c6b1 abbd
00000300: 531e 313e 30da 32be 4916 0d3d 5715 213e
00000310: 0821 87bc 432c a53d a6dd 0e3e 6ec4 4cbf
00000320: 506a 7b40 6a94 c7c0 d01b 25bd a82c dc3f
00000330: bc37 38be f15c 93bf 54f0 da3d e86d e43f
00000340: b18b 343f 6611 af3f 9ca1 5ec0 63ea 713d
00000350: fcfd 1d3e ef64 b4bf 090d f03d 3a59 01bd
00000360: 5f35 5ebf 1475 8a3f 508d 753f 560f 2b3d
00000370: 12a3 043e cb49 943f e6f0 b63c c0f2 143d
00000380: 8fa7 21be 86f3 4b3d 4d64 38bd e455 bc3e
00000390: e85d 08bf 351a b03f fbdd 88bd 8f57 5c3f
000003a0: b667 10c0 2156 f9bf 58b9 813d 59c8 a63d
000003b0: 3a40 f43d 6c84 cf3d a97f 02be 774b a3bd
000003c0: 5682 02be 2e91 f1bd e34a 16bf d2e8 58be
000003d0: 07fa b2bf 27a9 0a3e c157 24be 0cac 5c3c
000003e0: 6183 12bf c3fd c43d 428f 0abf 85d1 9ebe
000003f0: 9d41 03bc a14f e6bf 67bd 773f 2082 07bf

network.0.bias f4 [128]
-12.855004 -11.900466 -6.4413676 -10.566392 -13.195492 -9.156703 -9.22294 -11.146163
-10.337783 -10.713678 -10.883278 -6.806093 -8.815621 -14.159244 -9.071726 -10.673127
-12.174064 -11.964424 -5.793565 -10.278757 -10.032712 -8.374445 -7.851833 -11.76863
-6.9761434 -9.705618 -7.7999053 -9.766521 -7.4442883 -8.217639 -11.809647 -10.727829
-6.42081 -9.197686 -13.704883 -5.873755 -11.052716 -12.803068 -12.620828 -8.676433
-11.023649 -7.7120366 -9.830516 -5.0353346 -13.300491 -12.519864 -9.303856 -10.543724
-14.801448 -11.420795 -15.228444 -10.184963 -6.0153813 -10.31644 -8.451843 -13.690748
-8.201436 -11.309001 -11.852013 -8.898371 -11.202051 -8.818438 -5.5238085 -9.352005
-9.287503 -8.553921 -7.607522 -8.842158 -9.48613 -10.960738 -11.675746 -9.098883
-9.198177 -9.068799 -12.770292 -10.887231 -6.722072 -5.656372 -11.106836 -9.739671
-12.699333 -9.885026 -7.773537 -2.9859667 -8.578716 -11.632424 -10.203059 -10.40592
-9.730393 -5.0026135 -12.507734 -12.87349 -7.9530444 -8.447321 -3.3387299 -9.889954
-8.257829 -12.675108 -10.942669 -5.0413437 -10.232785 -6.7466645 -10.112991 -7.937045
-11.383564 -9.374433 -8.32988 -9.164454 -9.168134 -10.034692 -8.224415 -4.9634795
-12.316533 -12.409064 -9.188021 -10.022717 -11.663434 -7.047833 -9.285727 -10.877741
-6.7401605 -10.945645 -6.3083854 -10.407154 -11.163579 -9.069394 -8.307497 -10.438581
00000000: 19ae 4dc1 4f68 3ec1 af1f cec0 f10f 29c1
00000010: bc20 53c1 db81 12c1 2a91 13c1 af56 32c1
00000020: 8f67 25c1 3a6b 2bc1 e821 2ec1 84cb d9c0
00000030: c90c 0dc1 438c 62c1 ca25 11c1 21c5 2ac1
00000040: f7c8 42c1 486e 3fc1 e264 b9c0 ca75 24c1
00000050: fd85 20c1 bafd 05c1 3742 fbc0 4f4c 3cc1
00000060: 913c dfc0 364a 1bc1 d398 f9c0 ac43 1cc1
00000070: 9c37 eec0 737b 03c1 50f4 3cc1 30a5 2bc1
00000080: 4777 cdc0 b929 13c1 3347 5bc1 cdf5 bbc0
00000090: edd7 30c1 5ed9 4cc1 e9ee 49c1 abd2 0ac1
000000a0: de60 30c1 01c9 f6c0 cb49 1dc1 7621 a1c0
000000b0: d0ce 54c1 5d51 48c1 98dc 14c1 18b3 28c1
000000c0: bbd2 6cc1 94bb 36c1 b5a7 73c1 9cf5 22c1
000000d0: 017e c0c0 2310 25c1 c03a 07c1 4e0d 5bc1
000000e0: 1539 03c1 abf1 34c1 d8a1 3dc1 ba5f 0ec1
000000f0: 9a3b 33c1 5218 0dc1 0ac3 b0c0 d0a1 15c1
00000100: 9d99 14c1 dcdc 08c1 d270 f3c0 7b79 0dc1
00000110: 30c7 17c1 2f5f 2fc1 dbcf 3ac1 0695 11c1
00000120: bc2b 13c1 cd19 11c1 1e53 4cc1 1932 2ec1
00000130: 371b d7c0 0001 b5c0 9ab5 31c1 b1d5 1bc1
00000140: 7830 4bc1 1129 1ec1 d1c0 f8c0 141a 3fc0
00000150: 6c42 09c1 691e 3ac1 bb3f 23c1 a67e 26c1
00000160: b1af 1bc1 6915 a0c0 ae1f 48c1 d1f9 4dc1
00000170: 577f fec0 3a28 07c1 c0ad 55c0 403d 1ec1
00000180: 1120 04c1 3ecd 4ac1 2c15 2fc1 b052 a1c0
00000190: 7db9 23c1 ade4 d7c0 d0ce 21c1 46fc fdc0
000001a0: 1423 36c1 adfd 15c1 3047 05c1 9ba1 12c1
000001b0: adb0 12c1 198e 20c1 3497 03c1 d3d4 9ec0
000001c0: 8510 45c1 878b 46c1 2202 13c1 0d5d 20c1
000001d0: 6d9d 3ac1 d987 e1c0 5692 14c1 3a0b 2ec1
000001e0: 65af d7c0 5d21 2fc1 4bde c9c0 b483 26c1
000001f0: 059e 32c1 3d1c 11c1 82eb 04c1 6e04 27c1

network.3.weight f4 [64, 128]
-0.060806017 -0.06439843 -0.085266605 -0.59798235 -0.060084023 0.11206979 -0.24649991 -0.16609035
-0.31800002 0.14675213 -0.13462414 -0.2699036 -0.2246838 -0.34937152 -0.22538161 -0.6384847
-0.07423435 -0.3060975 -0.22292858 -0.18358858 -0.51230764 -0.5757672 -0.96449625 -0.3350941
-0.041997775 -0.06321095 0.024660507 -0.57618636 -1.1953039 -0.66356105 0.05296651 -0.45474964
0.0025038123 -0.4107077 -0.16068551 -0.6313543 -0.49268466 -0.29774988 -0.24670523 -0.55432004
-0.39222544 -0.35235104 -0.115349755 -0.86775696 -0.7246712 -0.79469097 -0.35781556 0.15791139
-0.3999016 -0.31538364 -0.41474986 -0.6061311 -0.18465653 0.09996243 -0.6713531 -0.0018046976
-0.33731264 -0.374825 -0.21174854 -0.40102342 -0.12766375 -0.18671156 -0.48572865 -0.14830017
-0.05655113 -0.19117995 -0.10021164 -0.055189442 -0.36002943 -0.11753408 0.2098401 -0.57368064
-0.9283001 -0.2069672 -0.37491435 -0.19855502 -0.2628316 -0.43221065 -0.20824787 -0.8092895
-0.43504637 -0.1798712 -0.39329857 -0.5328708 -0.36477527 -0.22591615 -0.29610732 -0.43696788
-0.56702244 -0.013544622 -0.57388115 -0.20187782 -0.36705396 -0.34347078 -0.50755656 -0.2657048
-0.3379187 -0.21242775 -0.5580487 -0.27622503 -0.287087 -0.28930637 -0.15690559 0.2702545
-0.05522723 -0.054707404 -0.5049689 -0.14465511 -1.0113434 -0.041203998 -0.5636169 -0.41702983
-0.062676385 -0.021838564 0.016965713 -0.11527273 -0.30336997 -0.15308027 0.13406925 -0.66366416
-0.09452588 -0.1932252 -0.32032856 -0.42540553 -0.15919514 -0.009731192 -0.120852225 -0.3098873
-0.0806992 -0.47440937 -0.32286814 -0.2999626 -0.33880496 -0.105881855 -0.35245252 -0.09947534
-0.30603603 -0.48570162 -0.2086172 -0.20686176 -0.47518206 -0.3023161 -0.96439344 -1.2289163
-0.090190545 -0.2786361 -0.5976827 -5.6392387e-06 -0.026413899 -0.4205657 -0.43025252 -0.39559916
-0.28857785 -0.2587369 -0.05882889 0.029114699 -0.03619891 -0.7297967 -0.32405367 -1.1458653
-1.0875441 -0.26417843 -0.08874082 -0.5059026 -0.16549242 -0.30430475 -0.48123154 -0.7537644
-0.25875568 -1.5081445 -0.035819072 -0.41577995 -0.017801827 -0.71517307 -1.4850472 -0.33345374
-0.6991202 -0.039868783 -0.9362148 -0.04920702 -0.4522478 -0.23470508 -1.8821374 0.013598822
-0.66737944 -0.13875864 -0.38656306 -0.9683578 -0.30149326 -0.15384041 -0.1866671 -0.5856239
-0.6221188 -0.6392066 0.11638261 -0.118862934 -0.37440243 -0.19320154 0.025832433 -0.37367696
-0.11832947 -0.42981526 -0.41802093 -0.14266494 -0.09903101 -0.31425703 -0.45272246 -0.4770137
0.023612564 -0.10892623 -0.46435475 -0.5686714 -0.7040246 -1.1030954 -0.6665054 -0.7101794
-0.26342264 -0.20522922 -0.2409348 -0.54153603 -0.57763463 -0.32694256 -0.93269026 -0.53285164
-0.39029863 -0.4463307 -0.60353464 -0.56048524 -0.8486726 -0.049493067 -0.5901727 -0.09789841
0.022765202 -0.12665004 -0.60891324 -0.46257395 -0.11807727 -0.038817227 -0.3589592 -0.11718408
-0.8823233 -0.1111768 -0.43747127 -0.44115847 -0.35911846 -0.30209616 0.10498207 -0.24046043
-0.3231531 -0.14956619 -0.28688818 -1.0562632 -0.6932687 0.018597824 -0.8849854 -1.336622
00000000: bb0f 79bd 53e3 83bd 42a0 aebd 5f15 19bf
00000010: aa1a 76bd d984 e53d 796a 7cbe 9713 2abe
00000020: e6d0 a2be 3146 163e e9da 09be ce30 8abe
00000030: 8313 66be d3e0 b2be 70ca 66be bc73 23bf
00000040: 2e08 98bd d0b8 9cbe 6447 64be a5fe 3bbe
00000050: 9826 03bf 7b65 13bf 3ae9 76bf 7491 abbe
00000060: dc05 2cbd be74 81bd d504 ca3c f380 13bf
00000070: b8ff 98bf 23df 29bf 69f3 583d f2d4 e8be
00000080: 0017 243b 4848 d2be be8a 24be 6fa0 21bf
00000090: 2a41 fcbe ac72 98be 4ca0 7cbe ebe7 0dbf
000000a0: c6d1 c8be 5b67 b4be 7e3c ecbd 5225 5ebf
000000b0: 0d84 39bf de70 4bbf 9a33 b7be 86b3 213e
000000c0: e7bf ccbe f779 a1be 185a d4be 682b 1bbf
000000d0: 9a16 3dbe 1ab9 cc3d ccdd 2bbf 9a8b ecba
000000e0: 3eb4 acbe 10e9 bfbe 9cd4 58be f152 cdbe
000000f0: 49ba 02be 5131 3fbe 6db1 f8be 00dc 17be
00000100: 28a2 67bd adc4 43be c33b cdbd 530e 62bd
00000110: c755 b8be b5b5 f0bd 53e0 563e bcdc 12bf
00000120: 13a5 6dbf 36ef 53be c6f4 bfbe 0252 4bbe
00000130: dd91 86be b74a ddbe ee3e 55be 992d 4fbf
00000140: 66be debe 2830 38be 6e5e c9be 396a 08bf
00000150: d3c3 babe 9056 67be 619b 97be 41ba dfbe
00000160: 6228 11bf 43ea 5dbc e0e9 12bf 0fb9 4ebe
00000170: 7fee bbbe 67db afbe 3aef 01bf 760a 88be
00000180: ae03 adbe a986 59be 48dc 0ebf 5e6d 8dbe
00000190: 11fd 92be f71f 94be dcab 20be cc5e 8a3e
000001a0: f335 62bd df14 60bd a445 01bf 7820 14be
000001b0: b373 81bf 86c5 28bd 3249 10bf ef84 d5be
000001c0: 7a5c 80bd cae6 b2bc aefb 8a3c 1c14 ecbd
000001d0: 4f53 9bbe 13c1 1cbe 7349 093e e5e5 29bf
000001e0: c996 c1bd d4dc 45be 1b02 a4be c1ce d9be
000001f0: 0d04 23be 946f 1fbc 5f81 f7bd 8ca9 9ebe
00000200: 9f45 a5bd c9e5 f2be f94e a5be b394 99be
00000210: d877 adbe 96d8 d8bd a874 b4be bab9 cbbd
00000220: c1b0 9cbe e2ad f8be bf9f 55be 92d3 53be
00000230: 104b f3be 2dc9 9abe 7de2 76bf 214d 9dbf
00000240: d2b5 b8bd 64a9 8ebe bc01 19bf b138 bdb6
00000250: f661 d8bc 6354 d7be 0f4a dcbe f98b cabe
00000260: 7ac0 93be 2a79 84be 90f6 70bd f381 ee3c
00000270: 4f45 14bd f5d3 3abf 5dea a5be b7ab 92bf
00000280: a534 8bbf 6542 87be bfbd b5bd d582 01bf
00000290: d876 29be d5cd 9bbe fb63 f6be b4f6 40bf
000002a0: a07b 84be e10a c1bf 05b7 12bd 1ce1 d4be
000002b0: 23d5 91bc 9515 37bf 0716 bebf 73ba aabe
000002c0: 8bf9 32bf 734d 23bd c6ab 6fbf 4d8d 49bd
000002d0: 068d e7be 8756 70be e1e9 f0bf 98cd 5e3c
000002e0: 61d9 2abf bf16 0ebe 98eb c5be 4ce6 77bf
000002f0: 535d 9abe 5788 1dbe a925 3fbe 73eb 15bf
00000300: 2d43 1fbf 0ba3 23bf 015a ee3d 696e f3bd
00000310: adb1 bfbe a0d6 45be 8a9e d33c 9652 bfbe
00000320: b956 f2bd bf10 dcbe d706 d6be c216 12be
00000330: c5d0 cabd 4ce6 a0be 3dcb e7be 243b f4be
00000340: 236f c13c b714 dfbd e8bf edbe 7394 11bf
00000350: f53a 34bf 3b32 8dbf 19a0 2abf 51ce 35bf
00000360: 55df 86be 9c27 52be 9db7 76be 1ba2 0abf
00000370: dddf 13bf 0465 a7be cac4 6ebf f768 08bf
00000380: 39d5 c7be 7585 e4be 3f81 1abf f67b 0fbf
00000390: 9c42 59bf 3eb9 4abd 8f15 17bf f67e c8bd
000003a0: 177e ba3c 8cb0 01be bde1 1bbf 7ed6 ecbe
000003b0: 7fd2 f1bd d0fe 1ebd 80c9 b7be 35fe efbd
000003c0: f1df 61bf aab0 e3bd 3cfc dfbe 86df e1be
000003d0: 60de b7be 59ac 9abe d700 d73d 423b 76be
000003e0: 5374 a5be e127 19be 02e3 92be a233 87bf
000003f0: 0f7a 31bf 775a 983c 678e 62bf 6e16 abbf

network.3.bias f4 [64]
-2.7947023 -2.1485562 -1.9235756 -3.365354 -2.2529743 -2.5192862 -2.083126 -3.234362
-1.5734735 -2.2059386 -2.2700045 -1.8803477 -2.9544907 -3.2340572 -2.19409 -2.3541663
-1.9818726 -3.6410701 -1.4195051 -2.3268847 -2.2138982 -2.5974243 -1.8940432 -2.4325943
-2.1746726 -1.5644509 -2.4619386 -3.4110026 -2.6095133 -1.9275392 -2.96479 -2.5270922
-1.1198833 -2.4823623 -3.3941429 -2.225238 -2.584344 -2.3817787 0.6594319 -1.7129875
-2.4933069 -3.368341 -1.7611055 -2.719127 -2.7784076 -3.4312017 -3.8148696 -2.269037
-1.21099 -2.0115855 -1.8245082 -2.7234778 -3.6272926 1.1550504 -4.191432 -3.7343905
-4.38774 -1.2889512 -2.9463143 -2.2053554 -2.042321 -2.6316776 0.64257544 -2.1212156
00000000: 67dc 32c0 f281 09c0 ba37 f6bf f661 57c0
00000010: bb30 10c0 fc3b 21c0 f051 05c0 c9ff 4ec0
00000020: 9467 c9bf 192e 0dc0 c147 11c0 3caf f0bf
00000030: 6016 3dc0 cbfa 4ec0 f86b 0cc0 a9aa 16c0
00000040: 00ae fdbf 4b07 69c0 58b2 b5bf aeeb 14c0
00000050: 82b0 0dc0 333c 26c0 0270 f2bf a0af 1bc0
00000060: d62d 0bc0 ed3f c8bf 6790 1dc0 de4d 5ac0
00000070: 4402 27c0 9bb9 f6bf 1fbf 3dc0 e1bb 21c0
00000080: 5658 8fbf 06df 1ec0 a339 59c0 4d6a 0ec0
00000090: e465 25c0 106f 18c0 87d0 283f 2d43 dbbf
000000a0: 5792 1fc0 e692 57c0 e86b e1bf 2d06 2ec0
000000b0: 6ed1 31c0 cf98 5bc0 d326 74c0 e737 11c0
000000c0: b801 9bbf d1bd 00c0 7c89 e9bf 764d 2ec0
000000d0: 9025 68c0 b1d8 933f 3620 86c0 4100 6fc0
000000e0: 5e68 8cc0 5afc a4bf 6a90 3cc0 8b24 0dc0
000000f0: 63b5 02c0 686d 28c0 d37f 243f ffc1 07c0

network.6.weight f4 [5, 64]
-0.27854824 -0.169149 -0.08184196 -0.18477772 -0.14902073 -0.2990762 0.19423771 0.13370988
-0.15016983 -0.08693549 -0.24768296 -0.18248616 -0.08875621 0.05789272 0.057396024 -0.21749082
-0.09090609 0.07387937 0.118263304 -0.09872073 -0.23441872 -0.24010368 -0.23189817 0.11798537
0.13098498 0.0262281 -0.20835955 -0.25488806 0.21659802 -0.099807136 0.06340777 -0.08247459
0.004935227 0.27561533 -0.045330133 -0.29521737 0.04772149 -0.20805275 -0.16628824 -0.17261632
-0.28872463 -0.15898748 0.28584945 0.16332535 -0.0752246 -0.13164029 0.011893368 -0.09046737
-0.121821746 0.06761704 -0.27450037 0.10854737 0.1442873 -0.07456038 -0.03666117 0.15575299
-0.29372686 -0.21930712 0.07093388 -0.12998267 0.01913961 0.11544164 -0.08847615 0.024213448
-0.047550626 0.23218323 0.20623735 0.062734656 -0.45042714 0.14596456 -0.13057514 0.09262877
0.044179007 0.06301328 -0.25861096 -0.219808 0.20011877 0.14498638 -0.13009581 -0.11834477
-0.06551449 0.48280796 -0.37871692 0.0067100157 0.21219635 -0.11698642 -0.31161925 0.2090351
-0.11013488 -0.29640374 -0.58013946 -0.10660894 -0.17292513 0.13331985 -0.19866444 -0.060479272
-0.46125582 0.370186 0.005877733 0.16787708 -0.17663467 0.23207457 0.06088734 -0.14229064
-0.10221848 -0.24871975 0.16352987 -0.30971944 -0.035817884 0.037843805 0.32464597 0.022310585
0.011102104 -0.21521418 -0.25197646 0.10049937 0.4158948 -0.23986845 -0.286442 -0.46599713
-0.7804141 0.2085828 0.17476521 -0.0654388 0.24102856 -0.12725124 -0.16405328 -0.38640872
0.06632583 -0.14562246 -0.33066586 -0.010708311 0.018077493 -0.18910244 0.24592215 0.2131152
0.12626776 -0.5814778 -0.19884832 0.3399969 -0.08610032 0.15525123 -0.2211672 -0.22249995
-0.009747398 -0.14341404 -0.03847612 0.41935438 0.14503597 -0.105872065 0.07587008 -0.042312775
0.214169 -0.22536246 0.14741866 0.077600375 0.022211118 -0.20043647 0.24958752 -0.06716764
0.09572614 -0.017534692 -0.013381727 0.08209771 -0.26174384 -0.13361093 0.21254024 -0.16182761
-0.20600657 0.1926604 0.234117 -0.37014157 0.26302698 -0.32284907 -0.062352944 -0.3041263
-0.031752687 -0.01627508 -0.20179658 0.3067272 -0.2579365 0.17487977 -0.13768907 -0.27634537
0.2626569 -0.24535014 -0.34297094 0.31384432 -0.081049986 0.47054777 -0.5361844 0.12448521
-0.23092377 0.14763942 -0.051628213 -0.1088736 0.017777383 0.05158075 0.22316606 -0.3919326
-0.18411236 -0.4637525 0.09374242 -0.11048099 0.08778834 0.03646491 0.09288264 0.1294175
-0.17757946 0.11515099 0.12790905 0.43906897 0.099701345 0.11758746 -0.044915937 0.06075191
-0.056955777 0.038563333 -0.16668326 -0.024952075 -0.106972694 -0.0435491 0.054157853 -0.031967916
0.027040482 0.22227749 0.12186378 -0.15907337 -0.33149135 -0.16848013 0.3566622 -0.112756126
0.08884613 0.106836684 -0.12157877 0.33255982 -0.034411304 0.12190837 -0.07326855 0.07513556
0.11562931 0.031483997 0.040353686 -0.1884831 0.15359575 0.19839785 0.10818742 0.3580021
0.24233682 0.025437305 0.07781113 0.055183172 -0.100284845 -0.20030884 -0.00067837955 0.13890389
00000000: e09d 8ebe 6535 2dbe c29c a7bd 5f36 3dbe
00000010: e498 18be 8420 99be 40e6 463e 3eeb 083e
00000020: 1fc6 19be 3c0b b2bd 9aa0 7dbe a7dd 3abe
00000030: d1c5 b5bd eb20 6d3d 1818 6b3d eab5 5ebe
00000040: f92c babd 114e 973d 0834 f23d 182e cabd
00000050: 760b 70be bddd 75be b776 6dbe 50a2 f13d
00000060: ed20 063e 50dc d63c 355c 55be b080 82be
00000070: dfcb 5d3e af67 ccbd efdb 813d 70e8 a8bd
00000080: afb7 a13b 741d 8d3e 17ac 39bd bb26 97be
00000090: 9c77 433d c80b 55be 7747 2abe 55c2 30be
000000a0: b7d3 93be 9dcd 22be dc5a 923e c33e 273e
000000b0: 5b0f 9abd b6cc 06be 67dc 423c f546 b9bd
000000c0: ae7d f9bd cd7a 8a3d 508b 8cbe 154e de3d
000000d0: 0dc0 133e 1db3 98bd 062a 16bd b67d 1f3e
000000e0: 5e63 96be 0c92 60be c845 913d 2d1a 05be
000000f0: acca 9c3c ab6c ec3d fc32 b5bd 485b c63c
00000100: 72c4 42bd 71c1 6d3e e22f 533e 077b 803d
00000110: 639e e6be bc77 153e 7db5 05be 27b4 bd3d
00000120: 0cf5 343d 1b0d 813d a868 84be 5915 61be
00000130: efeb 4c3e 4f77 143e d637 05be be5e f2bd
00000140: 762c 86bd 9b32 f73e 2fe7 c1be b1df db3b
00000150: 004a 593e 9396 efbd 8f8c 9fbe 4c0d 563e
00000160: 658e e1bd 3bc2 97be 0584 14bf ca55 dabd
00000170: 4913 31be 0085 083e b16e 4bbe 1db9 77bd
00000180: b929 ecbe 0589 bd3e 009a c03b f8e7 2b3e
00000190: b8df 34be f5a4 6d3e 0165 793d a3b4 11be
000001a0: ec57 d1bd 64b0 7ebe 6074 273e 8c93 9ebe
000001b0: c6b5 12bd 1b02 1b3d ff37 a63e b0c4 b63c
000001c0: 99e5 353c 1b61 5cbe 0f03 81be 9dd2 cd3d
000001d0: 2af0 d43e 13a0 75be 87a8 92be 2d97 eebe
000001e0: 38c9 47bf bb96 553e a7f5 323e c704 86bd
000001f0: 31d0 763e 264e 02be 95fd 27be 5dd7 c5be
00000200: d6d5 873d 0e1e 15be 094d a9be e971 2fbc
00000210: 4017 943c 12a4 41be 04d3 7b3e df3a 5a3e
00000220: 564c 013e bbdb 14bf e59e 4bbe 1314 ae3e
00000230: 5d55 b0bd 2efa 1e3e a879 62be 07d7 63be
00000240: 8db3 1fbc 21db 12be 2399 1dbd 9eb5 d63e
00000250: 4f84 143e 74d3 d8bd c661 9b3d 2950 2dbd
00000260: 1e4f 5b3e 6bc5 66be ebf4 163e f2ec 9e3d
00000270: 17f4 b53c 383f 4dbe df93 7f3e 308f 89bd
00000280: 110c c43d eaa4 8fbc 083f 5bbc d822 a83d
00000290: 4a03 86be 4ed1 08be 26a4 593e 23b6 25be
000002a0: 63f3 52be c548 453e 5ebc 6f3e 3283 bdbe
000002b0: 79ab 863e 794c a5be cd65 7fbd 71b6 9bbe
000002c0: 1b0f 02bd 5153 85bc c3a3 4ebe 590b 9d3e
000002d0: 4110 84be af13 333e 5dfe 0cbe 247d 8dbe
000002e0: f77a 863e 113d 7bbe e399 afbe 34b0 a03e
000002f0: 89fd a5bd a3eb f03e 6143 09bf 1af2 fe3d
00000300: 4877 6cbe ca2e 173e 1b78 53bd 1ff9 debd
00000310: e0a1 913c 5646 533d a585 643e 64ab c8be
00000320: f387 3cbe f870 edbe 07fc bf3d db43 e2bd
00000330: 60ca b33d 3b5c 153d 4139 be3d 0586 043e
00000340: 64d7 35be 48d4 eb3d 97fa 023e a6cd e03e
00000350: 3830 cc3d b2d1 f03d c6f9 37bd ffd6 783d
00000360: 764a 69bd 96f4 1d3d 04af 2abe 4b68 ccbc
00000370: 8014 dbbd 8b60 32bd a0d4 5d3d caf0 02bd
00000380: 0084 dd3c b69c 633e b893 f93d 21e4 22be
00000390: 3cb9 a9be 0e86 2cbe 6e9c b63e afec e6bd
000003a0: f6f4 b53d 31cd da3d 4afe f8bd 4845 aa3e
000003b0: def2 0cbd 18ab f93d d20d 96bd ace0 993d
000003c0: 0fcf ec3d 5df5 003d e849 253d b701 41be
000003d0: 3448 1d3e ce28 4b3e 5e91 dd3d 0d4c b73e
000003e0: 2527 783e e561 d03c 715b 9f3d c007 623d
000003f0: 2462 cdbd c31d 4dbe 48d5 31ba d23c 0e3e

network.6.bias f4 [5]
0.21915045 -0.14673185 0.019473227 0.28226858 0.032190315
00000000: fa68 603e e040 16be 5186 9f3c 8285 903e
00000010: fed9 033d

network.0.weight f4 [128, 43]
-0.005038105 -0.8213314 0.6249689 -1.5329276 -1.8903716 -0.16009825 1.3152845 0.13742939
0.16417558 -0.16214162 -0.017676832 -0.11556667 1.136109 -0.40400335 0.14335965 -0.6131484
-1.5927328 1.9488139 0.89577043 -0.07991984 -0.13716109 -0.087766334 0.12985319 -0.0012772287
-0.091350935 0.16759537 -0.046019875 -1.6314682 2.3610065 -1.1979607 0.0682377 1.5090009
-0.1823939 -1.3835124 0.15984195 0.15707606 -0.86562383 1.5770534 -2.3736537 -3.0433698
2.8963788 -2.2284646 0.03774549 -0.16519095 1.6312801 -1.4832922 -0.8754186 -0.41825745
-0.18459105 -4.695669 0.082657486 0.09166626 -0.038023453 0.041999336 0.044109125 -1.9549389
-3.3503184 -0.41862243 0.83494735 -2.051572 -0.13355328 0.06304455 -0.18591627 0.06141204
0.082058065 -0.081380576 0.11609866 -0.046586253 -0.096358 0.09693809 0.92407626 -1.6625425
1.5987955 0.15682924 -0.8138758 -0.06700719 0.90248364 -0.1232115 -2.1230667 1.5895286
-1.9237033 -1.2266655 -0.28587663 3.077899 -1.3481025 0.09680121 0.08296055 -1.6806432
1.7420793 2.769195 -2.7446444 -0.08080126 2.3734004 0.043407675 0.040695835 -0.0936578
-0.033666972 -0.004744466 -8.120988 -3.439288 -1.8022357 0.303397 -2.0054934 3.5663357
-0.9552339 0.038169313 -0.18390925 0.15968771 0.09758513 -0.1756292 0.059935182 -0.15009323
0.016646305 -0.6935026 -0.33083937 -3.3606157 -0.16686353 -0.8584212 0.13773379 -0.72477597
-0.09910957 -0.5975667 1.2563833 1.8621458 -0.960632 -1.3928611 1.8634593 0.7604177
-0.036285426 0.011200433 1.2731018 -1.2546904 -0.6283257 -0.30162483 -0.18180686 -3.1154902
-0.17965011 -0.026955638 0.058513746 -0.1342432 0.01246308 -2.1184921 -6.636709 -0.4668445
-1.2366236 -2.8648593 1.7379766 -0.48016274 0.08835625 -0.071242444 0.18370159 -0.017899908
-0.019534081 -0.120459475 0.0857287 -0.18668589 -1.2245741 0.5126194 -1.2169442 -0.10307467
-2.048887 0.08387708 -1.153377 -0.031754166 -1.2372309 1.7532482 1.4194497 -2.0164351
1.9140068 1.2535115 -1.4162695 0.03809116 -0.14574891 0.9730418 -0.9784294 2.243825
-1.5725534 0.1341519 1.7727892 -0.08717285 -0.045906283 0.14056504 -0.10394172 -0.17114513
-0.2451294 -3.4446108 0.22084081 0.46372116 0.21932127 0.07064823 1.3088627 -0.08383517
0.17296724 -0.17466044 0.03444508 0.15730797 -0.016495243 0.08065083 0.1395174 -0.8556394
3.863188 -6.287653 -0.040309727 1.6471786 -0.17990011 -1.2070433 0.1069037 1.7809156
0.79468226 1.3639649 -3.2961965 0.09741699 0.20522168 -1.4753741 0.11721236 -0.031579234
-0.8664624 1.0801684 0.9614391 0.037406743 0.12952831 1.153734 0.022331666 0.036364317
-0.15786575 0.04979279 -0.04501757 0.36562562 -0.5329886 1.3787307 -0.064502195 0.85820484
-2.255197 -1.9477111 0.0633418 0.08143682 0.11926313 0.10132679 -0.12744011 -0.07973378
-0.12745032 -0.11795269 -0.5883987 -0.21186258 -1.3939898 0.13541089 -0.16610672 0.013468754
-0.57362866 0.09618714 -0.5387999 -0.31010094 -0.006758598 -1.795571 0.9658389 -0.53175753
00000000: b016 a5bb c642 52bf f6fd 1f3f f936 c4bf
00000010: b2f7 f1bf ccf0 23be 3e5b a83f 4aba 0c3e
00000020: a51d 283e 7408 26be 01cf 90bc 38ae ecbd
00000030: 056c 913f 87d9 cebe dfcc 123e 4bf7 1cbf
00000040: abde cbbf bc72 f93f 3651 653f 03ad a3bd
00000050: f573 0cbe d6be b3bd 3cf8 043e af68 a7ba
00000060: 3316 bbbd 1f9e 2b3e 567f 3cbd f3d3 d0bf
00000070: bb1a 1740 c756 99bf 35c0 8b3d f126 c13f
00000080: 77c5 3abe ef16 b1bf 9cad 233e 8cd8 203e
00000090: 8699 5dbf e3dc c93f f1e9 17c0 92c6 42c0
000000a0: 455e 3940 2a9f 0ec0 049b 1a3d d127 29be
000000b0: c9cd d03f 85dc bdbf 6f1b 60bf d725 d6be
000000c0: 7005 3dbe ec42 96c0 5448 a93d 85bb bb3d
000000d0: 7bbe 1bbd 7f07 2c3d c5ab 343d 703b fabf
000000e0: 9e6b 56c0 ae55 d6be 1cbf 553f f54c 03c0
000000f0: 31c2 08be 801d 813d d660 3ebe 318b 7b3d
00000100: 0f0e a83d dcaa a6bd 22c5 ed3d 3ad1 3ebd
00000110: 5857 c5bd 7a87 c63d 4390 6c3f 31ce d4bf
00000120: 55a5 cc3f d897 203e 2a5a 50bf 113b 89bd
00000130: 2b09 673f 5056 fcbd 53e0 07c0 ac75 cb3f
00000140: e93b f6bf 6003 9dbf 6c5e 92be 4cfc 4440
00000150: 9f8e acbf b63f c63d 39e7 a93d 511f d7bf
00000160: 74fc de3f 7e3a 3140 41a8 2fc0 227b a5bd
00000170: cbe5 1740 3fcc 313d adb0 263d a9cf bfbd
00000180: 61e6 09bd 7777 9bbb 91ef 01c1 4b1d 5cc0
00000190: a9af e6bf da56 9b3e 015a 00c0 d83e 6440
000001a0: 358a 74bf 6d57 1c3d b552 3cbe 2d85 233e
000001b0: b6da c73d 24d8 33be 987e 753d 0ab2 19be
000001c0: d55d 883c 6389 31bf c763 a9be 5414 57c0
000001d0: 46de 2abe 7ec1 5bbf 160a 0d3e eb8a 39bf
000001e0: f5f9 cabd 22fa 18bf 2bd1 a03f cb5a ee3f
000001f0: fbeb 75bf 4649 b2bf d685 ee3f bcaa 423f
00000200: 07a0 14bd 0582 373c 00f5 a23f b299 a0bf
00000210: f4d9 20bf 926e 9abe 942b 3abe 3164 47c0
00000220: 33f6 37be 12d2 dcbc 1cac 6f3d 0d77 09be
00000230: f231 4c3c 6095 07c0 ec5f d4c0 3e06 efbe
00000240: af49 9ebf db59 37c0 0476 de3f e4d7 f5be
00000250: 1ff4 b43d 8fe7 91bd 451c 3c3e d4a2 92bc
00000260: f005 a0bc 75b3 f6bd 8792 af3d 962a 3fbe
00000270: d8be 9cbf 063b 033f d4c4 9bbf d018 d3bd
00000280: f720 03c0 bfc7 ab3d dca1 93bf a810 02bd
00000290: 955d 9ebf 706a e03f 87b0 b53f 460d 01c0
000002a0: 2dfe f43f 1173 a03f 5248 b5bf 7a05 1c3d
000002b0: 343f 15be 4419 793f 597a 7abf d49a 0f40
000002c0: 6e49 c9bf 1e5f 093e c2ea e23f ae87 b2bd
000002d0: 3a08 3cbd 48f0 0f3e 66df d4bd ab40 2fbe
000002e0: 3403 7bbe 8174 5cc0 1824 623e dc6c ed3e
000002f0: c195 603e 05b0 903d d088 a73f c6b1 abbd
00000300: 531e 313e 30da 32be 4916 0d3d 5715 213e
00000310: 0821 87bc 432c a53d a6dd 0e3e 2f0b 5bbf
00000320: 793e 7740 7434 c9c0 d01b 25bd c0d6 d23f
00000330: bc37 38be 6580 9abf 54f0 da3d 0bf5 e33f
00000340: 4c70 4b3f 6796 ae3f e2f4 52c0 8f82 c73d
00000350: a225 523e 0fd9 bcbf 090d f03d 3a59 01bd
00000360: 7bd0 5dbf f542 8a3f df20 763f d037 193d
00000370: 12a3 043e 8ead 933f e6f0 b63c c0f2 143d
00000380: 8fa7 21be 86f3 4b3d 5864 38bd 4833 bb3e
00000390: f171 08bf 3f7a b03f ba19 84bd 50b3 5b3f
000003a0: 2655 10c0 994e f9bf 58b9 813d 59c8 a63d
000003b0: 3a40 f43d 6c84 cf3d a97f 02be 774b a3bd
000003c0: 5682 02be 2e91 f1bd 4ca1 16bf 81f2 58be
000003d0: 426e b2bf 27a9 0a3e e117 2abe 0cac 5c3c
000003e0: 54d9 12bf c3fd c43d caee 09bf 8dc5 9ebe
000003f0: 3b77 ddbb 45d5 e5bf 3841 773f 4321 08bf

network.0.bias f4 [128]
-12.731233 -11.625259 -6.3356743 -10.425239 -12.976336 -9.1444025 -9.781697 -10.412529
-9.62009 -10.375331 -10.993522 -6.722931 -9.301369 -13.279311 -8.818531 -10.9786415
-11.1060295 -11.892337 -5.3823137 -10.257315 -10.024501 -8.368873 -7.8435397 -11.286051
-6.969753 -9.275505 -7.5318604 -8.983991 -7.4379363 -8.21004 -11.235362 -10.297079
-6.4068003 -8.933933 -13.192399 -5.4045897 -11.040157 -12.359857 -12.265027 -8.663046
-10.946928 -7.7065105 -9.813451 -5.0338697 -12.054023 -12.095401 -9.403798 -10.6898
-13.7610655 -11.09501 -14.30693 -10.002179 -6.01323 -10.304135 -8.411891 -12.886086
-8.610356 -11.239176 -10.88206 -8.888291 -11.173692 -8.811246 -5.740307 -9.164065
-8.326428 -7.7508593 -7.4762645 -8.644845 -9.401901 -10.356635 -11.642526 -8.7904005
-8.533611 -8.68936 -12.612736 -10.839854 -6.6240706 -5.654899 -10.553916 -9.66536
-12.301122 -9.321858 -7.7671747 -2.6792424 -8.300358 -11.092406 -9.588303 -9.920381
-9.703687 -5.001102 -11.468451 -12.443932 -6.8864303 -8.414667 -3.3379467 -9.794445
-8.23948 -12.093044 -10.920703 -5.0396056 -10.222802 -5.9123483 -10.101468 -7.9316554
-11.349202 -9.71085 -8.106167 -9.1326885 -9.025159 -9.80426 -8.207635 -5.0268903
-12.148567 -12.379903 -9.182734 -9.807804 -11.893683 -7.0460205 -8.8671875 -10.227953
-6.3566604 -10.258499 -5.7586775 -10.3284855 -11.152089 -9.062998 -7.143445 -10.369923
00000000: 21b3 4bc1 1001 3ac1 d8bd cac0 c7cd 26c1
00000010: 129f 4fc1 794f 12c1 d581 1cc1 b899 26c1
00000020: e3eb 19c1 5b01 26c1 77e5 2fc1 4022 d7c0
00000030: 68d2 14c1 0f78 54c1 b418 0dc1 84a8 2fc1
00000040: 4cb2 31c1 0347 3ec1 ea3b acc0 f61d 24c1
00000050: 5b64 20c1 e7e6 05c1 47fe fac0 aa93 34c1
00000060: 3708 dfc0 7868 14c1 0005 f1c0 6dbe 0fc1
00000070: 9303 eec0 535c 03c1 0bc4 33c1 d6c0 24c1
00000080: 8204 cdc0 64f1 0ec1 1114 53c1 66f2 acc0
00000090: 7ca4 30c1 f9c1 45c1 8d3d 44c1 d69b 0ac1
000000a0: 9e26 2fc1 bc9b f6c0 e503 1dc1 7615 a1c0
000000b0: 47dd 40c1 c386 41c1 f575 16c1 6c09 2bc1
000000c0: 532d 5cc1 2985 31c1 2fe9 64c1 ed08 20c1
000000d0: 616c c0c0 bddd 24c1 1b97 06c1 692d 4ec1
000000e0: 05c4 09c1 aad3 33c1 eb1c 2ec1 7136 0ec1
000000f0: 71c7 32c1 ddfa 0cc1 98b0 b7c0 03a0 12c1
00000100: 0d39 05c1 0a07 f8c0 8f3d efc0 4951 0ac1
00000110: 306e 16c1 c7b4 25c1 c947 3ac1 7ba5 0cc1
00000120: ac89 08c1 9e07 0bc1 c4cd 49c1 0b70 2dc1
00000130: 63f8 d3c0 eff4 b4c0 d7dc 28c1 51a5 1ac1
00000140: 65d1 44c1 5526 15c1 b28c f8c0 b578 2bc0
00000150: 44ce 04c1 7f7a 31c1 b069 19c1 e1b9 1ec1
00000160: 4d42 1bc1 0709 a0c0 c67e 37c1 581a 47c1
00000170: a35d dcc0 7aa2 06c1 eba0 55c0 0cb6 1cc1
00000180: e9d4 03c1 1c7d 41c1 33bb 2ec1 7344 a1c0
00000190: 9990 23c1 f531 bdc0 9d9f 21c1 1fd0 fdc0
000001a0: 5596 35c1 a45f 1bc1 dcb2 01c1 7e1f 12c1
000001b0: 0d67 10c1 40de 1cc1 7952 03c1 49dc a0c0
000001c0: 8860 42c1 1514 46c1 7aec 12c1 c4ec 1cc1
000001d0: 874c 3ec1 0079 e1c0 00e0 0dc1 b2a5 23c1
000001e0: c369 cbc0 d022 24c1 1647 b8c0 7a41 25c1
000001f0: f56e 32c1 0a02 11c1 1a97 e4c0 34eb 25c1

network.3.weight f4 [64, 128]
-0.060778026 -0.06439767 -0.085267104 -0.59792286 -0.060078967 0.11206951 -0.24649453 -0.16607928
-0.3179625 0.14675125 -0.1346217 -0.26987976 -0.2246364 -0.3492903 -0.22537737 -0.63841975
-0.074233934 -0.30608395 -0.22292061 -0.18355013 -0.5122558 -0.57569873 -0.9643414 -0.3350467
-0.041991066 -0.062858105 0.024648467 -0.5761382 -1.1951901 -0.6634711 0.05296991 -0.45470718
0.0025180143 -0.41064087 -0.16066322 -0.6313061 -0.49263725 -0.29771265 -0.24667615 -0.5542093
-0.3921938 -0.3523121 -0.11534681 -0.8676783 -0.72454226 -0.7945789 -0.3577612 0.15790771
-0.3998648 -0.31535557 -0.41470417 -0.6060838 -0.18463685 0.09995688 -0.6712775 -0.001798183
-0.33726338 -0.37478468 -0.21173248 -0.40095988 -0.12766285 -0.18667814 -0.48567975 -0.14829084
-0.05659619 -0.1911719 -0.100191765 -0.055181265 -0.36000007 -0.11750666 0.20982246 -0.57362115
-0.9278427 -0.20696042 -0.3748912 -0.1985403 -0.26280862 -0.43215844 -0.20823596 -0.809147
-0.434961 -0.1798706 -0.39327618 -0.5327362 -0.3647148 -0.22587058 -0.29607832 -0.43682572
-0.5669544 -0.013551128 -0.57375574 -0.20185953 -0.3670214 -0.3434257 -0.5075065 -0.2656891
-0.3378884 -0.20555498 -0.5579895 -0.27620828 -0.28699014 -0.28920496 -0.1569017 0.27019814
-0.05522226 -0.05470631 -0.5049139 -0.14464891 -1.011242 -0.041144203 -0.56357193 -0.41697955
-0.06266929 -0.021832798 0.016979827 -0.11524896 -0.30335683 -0.15307006 0.13408656 -0.66355515
-0.09452398 -0.19321023 -0.32028985 -0.42536625 -0.15913276 -0.009730658 -0.120827 -0.30983037
-0.080690175 -0.47437546 -0.32282665 -0.2999294 -0.33878338 -0.10587591 -0.352407 -0.099469766
-0.30600986 -0.48563853 -0.20859547 -0.20683938 -0.47514996 -0.3022961 -0.9642944 -1.2287635
-0.0902069 -0.27862057 -0.5976287 0.00013763923 -0.026407348 -0.4205241 -0.43020707 -0.39557448
-0.2885346 -0.25871378 -0.058838096 0.029108915 -0.03607991 -0.7297177 -0.32389036 -1.1457498
-1.0874337 -0.26416925 -0.088725135 -0.50576633 -0.16548932 -0.3042877 -0.4811826 -0.7536762
-0.2587116 -1.5079706 -0.035801817 -0.41574332 -0.017796293 -0.7151081 -1.4849018 -0.3334057
-0.69902974 -0.039860774 -0.9361044 -0.049206406 -0.45218542 -0.23467736 -1.8819382 0.013675127
-0.6673157 -0.13874087 -0.3865129 -0.96826965 -0.30144805 -0.15381233 -0.1866685 -0.5855725
-0.6220624 -0.6391388 0.11637236 -0.11883678 -0.37437955 -0.19316077 0.025826247 -0.37364748
-0.11832753 -0.4297718 -0.4179873 -0.14266534 -0.09902658 -0.3142094 -0.45263728 -0.47696444
0.023620222 -0.1089236 -0.46428865 -0.5686086 -0.70391375 -1.102978 -0.6664614 -0.71010405
-0.26341256 -0.20521834 -0.24089406 -0.5414785 -0.57756704 -0.32690132 -0.93257153 -0.532815
-0.39027125 -0.44630042 -0.6034611 -0.56041116 -0.8485804 -0.049467314 -0.5901105 -0.09783839
0.02278028 -0.1266341 -0.60885286 -0.46253788 -0.118061945 -0.038777865 -0.3589202 -0.117176056
-0.8822309 -0.111149006 -0.43743914 -0.44113743 -0.3590912 -0.3020574 0.1049878 -0.2404764
-0.32312688 -0.14953898 -0.28687105 -1.0561585 -0.6931829 0.018674932 -0.8848711 -1.3364238
00000000: 61f2 78bd ede2 83bd 85a0 aebd 7911 19bf
00000010: 5d15 76bd b384 e53d 1069 7cbe b010 2abe
00000020: fbcb a2be f645 163e 45da 09be ae2d 8abe
00000030: 1607 66be 2ed6 b2be 53c9 66be 7a6f 23bf
00000040: f607 98bd 09b7 9cbe 4d45 64be 91f4 3bbe
00000050: 3223 03bf fe60 13bf 14df 76bf 3e8b abbe
00000060: d3fe 2bbd c0bb 80bd 95eb c93c cb7d 13bf
00000070: fdfb 98bf 3ed9 29bf faf6 583d 61cf e8be
00000080: 4505 253b 853f d2be e684 24be 479d 21bf
00000090: f33a fcbe cb6d 98be ac98 7cbe a9e0 0dbf
000000a0: a0cd c8be 4062 b4be f33a ecbd 2a20 5ebf
000000b0: 9a7b 39bf 8669 4bbf 7a2c b7be 8fb2 213e
000000c0: 14bb ccbe 4976 a1be 1b54 d4be 4f28 1bbf
000000d0: 7111 3dbe 31b6 cc3d d8d8 2bbf 02b1 ebba
000000e0: c9ad acbe c7e3 bfbe 66d0 58be 9d4a cdbe
000000f0: 0dba 02be 8e28 3fbe 04ab f8be 8ed9 17be
00000100: 68d1 67bd 91c2 43be 5731 cdbd c005 62bd
00000110: ee51 b8be 55a7 f0bd b3db 563e d6d8 12bf
00000120: 1987 6dbf 6fed 53be bdf1 bfbe 264e 4bbe
00000130: da8e 86be df43 ddbe cf3b 55be 4224 4fbf
00000140: 35b3 debe 0030 38be 7f5b c9be 6661 08bf
00000150: e6bb babe 9e4a 67be 9497 97be 9fa7 dfbe
00000160: ec23 11bf 8d05 5ebc a8e1 12bf 44b4 4ebe
00000170: 3bea bbbe 7ed5 afbe f2eb 01bf 6708 88be
00000180: b5ff acbe 017d 52be 66d8 0ebf 2c6b 8dbe
00000190: 5ff0 92be ac12 94be d7aa 20be 6957 8a3e
000001a0: bd30 62bd b913 60bd 0a42 01bf d81e 14be
000001b0: 6170 81bf d386 28bd 4046 10bf 587e d5be
000001c0: c258 80bd b2da b2bc 4719 8b3c a607 ecbd
000001d0: 9651 9bbe 66be 1cbe fd4d 093e c0de 29bf
000001e0: ca95 c1bd e7d8 45be 08fd a3be 9bc9 d9be
000001f0: b3f3 22be 566d 1fbc 2574 f7bd 16a2 9ebe
00000200: e440 a5bd 57e1 f2be 8949 a5be 5990 99be
00000210: 0475 adbe 78d5 d8bd b16e b4be ceb6 cbbd
00000220: 53ad 9cbe 9da5 f8be 0d9a 55be b4cd 53be
00000230: db46 f3be 8ec6 9abe ffdb 76bf 1f48 9dbf
00000240: 65be b8bd 5ba7 8ebe 32fe 18bf 4053 1039
00000250: 3954 d8bc ef4e d7be 1a44 dcbe bd88 cabe
00000260: cfba 93be 2276 84be 3700 71bd d275 ee3c
00000270: 87c8 13bd c7ce 3abf f5d4 a5be eea7 92bf
00000280: 0731 8bbf 3141 87be 86b5 b5bd e779 01bf
00000290: 0876 29be 99cb 9bbe 915d f6be ecf0 40bf
000002a0: d975 84be 2e05 c1bf eda4 12bd 4fdc d4be
000002b0: 88c9 91bc 5311 37bf 4311 bebf 27b4 aabe
000002c0: 9df3 32bf 0d45 23bd 8aa4 6fbf a88c 49bd
000002d0: d984 e7be 434f 70be 5ae3 f0bf a40d 603c
000002e0: 34d5 2abf 1612 0ebe 05e5 c5be 85e0 77bf
000002f0: 6657 9abe fb80 1dbe 0726 3fbe 14e8 15bf
00000300: 7b3f 1fbf 9a9e 23bf a254 ee3d b360 f3bd
00000310: adae bfbe f0cb 45be 9191 d33c b94e bfbe
00000320: b455 f2bd 0d0b dcbe 6e02 d6be dd16 12be
00000330: 73ce cabd 0ee0 a0be 13c0 e7be af34 f4be
00000340: 327f c13c 5613 dfbd 3eb7 edbe 5590 11bf
00000350: b133 34bf 622e 8dbf 379d 2abf 61c9 35bf
00000360: 03de 86be c224 52be efac 76be 569e 0abf
00000370: 6fdb 13bf 9c5f a7be 02bd 6ebf 9066 08bf
00000380: a2d1 c7be 7d81 e4be 6d7c 1abf 1b77 0fbf
00000390: 913c 59bf 3d9e 4abd 7b11 17bf 7e5f c8bd
000003a0: b69d ba3c 5fac 01be c8dd 1bbf c4d1 ecbe
000003b0: 76ca f1bd 8ad5 1ebd 63c4 b7be 00fa efbd
000003c0: e2d9 61bf 17a2 e3bd 06f8 dfbe c4dc e1be
000003d0: cdda b7be 44a7 9abe d803 d73d 723f 76be
000003e0: e370 a5be bf20 19be c3e0 92be 3430 87bf
000003f0: 6f74 31bf 2cfc 983c ea86 62bf ef0f abbf

network.3.bias f4 [64]
-2.787049 -2.147993 -1.922495 -3.2864997 -2.2459052 -2.514443 -2.0826013 -3.180373
-1.5718673 -2.1918736 -2.2673273 -1.8798988 -2.92074 -3.23125 -2.1259902 -2.31911
-1.9562535 -3.63837 -1.4191126 -2.3246102 -2.2129068 -2.5761323 -1.8923675 -2.4108198
-2.158613 -1.5573921 -2.4596486 -3.3983705 -2.6072714 -1.9268521 -2.960145 -2.5238423
-1.1122906 -2.473378 -3.387293 -2.1658125 -2.5815625 -2.380776 0.7205231 -1.7103105
-2.4809225 -3.2310646 -1.760086 -2.7182496 -2.776538 -3.3597624 -3.6130776 -2.264233
-1.2107551 -2.0105212 -1.7027577 -2.717909 -3.5694962 1.2502812 -4.147945 -3.4431648
-4.2998033 -1.2880945 -2.9452548 -2.1397228 -2.0234718 -2.6235523 0.78901106 -2.007173
00000000: 035f 32c0 b878 09c0 5114 f6bf 0356 52c0
00000010: e9bc 0fc0 a2ec 20c0 5749 05c0 3b8b 4bc0
00000020: f332 c9bf a847 0cc0 e41b 11c0 86a0 f0bf
00000030: 67ed 3ac0 cdcc 4ec0 3910 08c0 4c6c 14c0
00000040: 8466 fabf 0edb 68c0 7ba5 b5bf 6ac6 14c0
00000050: 44a0 0dc0 5adf 24c0 1939 f2bf df4a 1ac0
00000060: b726 0ac0 a058 c7bf e26a 1dc0 e77e 59c0
00000070: 89dd 26c0 17a3 f6bf 0473 3dc0 a286 21c0
00000080: 8a5f 8ebf d34b 1ec0 69c9 58c0 ac9c 0ac0
00000090: 5238 25c0 a25e 18c0 3474 383f 74eb dabf
000000a0: 6fc7 1ec0 c3c9 4ec0 804a e1bf cdf7 2dc0
000000b0: ccb2 31c0 5906 57c0 aa3c 67c0 32e9 10c0
000000c0: 06fa 9abf 61ac 00c0 f7f3 d9bf 39f2 2dc0
000000d0: a072 64c0 3709 a03f f7bb 84c0 d05c 5cc0
000000e0: fd97 89c0 48e0 a4bf 0e7f 3cc0 38f1 08c0
000000f0: 9080 01c0 48e8 27c0 a1fc 493f 8675 00c0

network.6.weight f4 [5, 64]
-0.27185842 -0.16907185 -0.08137317 -0.16667978 -0.15031397 -0.2956658 0.19410534 0.09511136
-0.1503119 -0.076050825 -0.2456625 -0.18233682 -0.076373465 0.057357535 0.09978827 -0.1916433
-0.06597129 0.07278908 0.11807302 -0.09841228 -0.23401621 -0.2334185 -0.23116928 0.11676529
0.12277051 0.025444042 -0.20781738 -0.25086513 0.2159022 -0.09987906 0.06368454 -0.08252072
0.00512913 0.275056 -0.039549377 -0.23514034 0.047512997 -0.20760933 -0.15152706 -0.17039105
-0.28360838 -0.0315605 0.28515518 0.16312346 -0.07440256 -0.07956004 -0.18194945 -0.0876168
-0.12179229 0.067122124 -0.15310675 0.10610291 0.09605972 -0.09132289 -0.014348567 -0.12964608
-0.2194178 -0.21882494 0.071016856 -0.07008398 0.012879827 0.10949319 -0.13733636 0.006607491
-0.047550626 0.23216254 0.20623975 0.06274968 -0.45038015 0.14594632 -0.13055815 0.09263117
0.044164535 0.06301116 -0.25859582 -0.21979146 0.20011002 0.14497453 -0.13009769 -0.11835034
-0.06552262 0.4827521 -0.37867522 0.0066974326 0.21219102 -0.11699101 -0.3115954 0.20903023
-0.110148296 -0.29638574 -0.5801071 -0.10661637 -0.17293037 0.1333104 -0.19866396 -0.060480636
-0.46117392 0.37015426 0.0058489097 0.16785201 -0.17664157 0.23206502 0.060915403 -0.14228177
-0.10220279 -0.24870837 0.16352364 -0.3096735 -0.035823178 0.037817933 0.32463178 0.022270394
0.011089771 -0.21520208 -0.25192657 0.10049937 0.415885 -0.23981617 -0.28641865 -0.4659503
-0.7803364 0.208577 0.1747619 -0.06544843 0.24100837 -0.12721375 -0.16403264 -0.3863945
0.06632588 -0.1456432 -0.33063293 -0.010702859 0.018072344 -0.1890973 0.24590367 0.21307708
0.12627473 -0.5814432 -0.1988014 0.33998072 -0.0860923 0.15522419 -0.22114316 -0.22247261
-0.009740327 -0.14339583 -0.03848835 0.41931942 0.14503297 -0.105828255 0.07585637 -0.042331085
0.21414691 -0.22536092 0.14740601 0.07759878 0.022219764 -0.20044388 0.2495847 -0.06714712
0.0957355 -0.017541904 -0.013356079 0.082124315 -0.2616948 -0.13360128 0.21252795 -0.16183113
-0.20601179 0.19266176 0.23411292 -0.37012994 0.26302698 -0.3228147 -0.062349353 -0.3040838
-0.031774595 -0.01627641 -0.20179915 0.3066954 -0.2579364 0.17487817 -0.13766755 -0.27633175
0.26264387 -0.24534935 -0.3429588 0.31383398 -0.08106429 0.4705192 -0.5360882 0.12448683
-0.23092377 0.1476218 -0.051627733 -0.108878866 0.017775662 0.051575918 0.22311325 -0.39189672
-0.18411633 -0.4636762 0.09370951 -0.11047733 0.08777298 0.036474098 0.09286457 0.12937948
-0.17753944 0.11511959 0.1279001 0.4389844 0.0996824 0.11758664 -0.04489745 0.06074707
-0.056978606 0.03856407 -0.1666781 -0.024937881 -0.10696778 -0.043552376 0.054173574 -0.03193882
0.027061712 0.2222262 0.121881865 -0.15906861 -0.33143157 -0.16848971 0.35660654 -0.112756975
0.0888237 0.106842496 -0.12159406 0.33251545 -0.034416944 0.12189076 -0.073279 0.07515801
0.11563621 0.0314766 0.040359356 -0.1884912 0.1536063 0.19839871 0.10818504 0.3579632
0.24230029 0.025432205 0.077826716 0.0551815 -0.10028417 -0.20026316 -0.0006866092 0.13890946
00000000: 0731 8bbe 2c21 2dbe faa6 a6bd 1bae 2abe
00000010: e8eb 19be 8261 97be 8dc3 463e bfc9 c23d
00000020: 5deb 19be 89c0 9bbd f38e 7bbe 81b6 3abe
00000030: b169 9cbd bcef 6a3d cb5d cc3d 243e 44be
00000040: f51b 87bd 7112 953d 44d0 f13d 618c c9bd
00000050: f2a1 6fbe 4205 6fbe a4b7 6cbe a422 ef3d
00000060: 1b6f fb3d 0670 d03c 14ce 54be 6571 80be
00000070: 7715 5d3e 658d ccbd 0a6d 823d a000 a9bd
00000080: 4312 a83b 24d4 8c3e 87fe 21bd a1c8 70be
00000090: fd9c 423d 8a97 54be e929 1bbe fe7a 2ebe
000000a0: 1e35 91be 9545 01bd dcff 913e d609 273e
000000b0: 5f60 98bd 60f0 a2bd f550 3abe 7070 b3bd
000000c0: 3c6e f9bd 5377 893d 04c8 1cbe 7c4c d93d
000000d0: f5ba c43d 7f07 bbbd 4116 6bbc f1c1 04be
000000e0: 0faf 60be a513 60be 4971 913d 3188 8fbd
000000f0: e905 533c f73d e03d e7a1 0cbe a783 d83b
00000100: 72c4 42bd 04bc 6d3e 8330 533e e782 803d
00000110: 3a98 e6be f472 153e 09b1 05be 69b5 bd3d
00000120: dfe5 343d ff0b 813d ac66 84be 0311 61be
00000130: a4e9 4c3e 3474 143e 5438 05be aa61 f2bd
00000140: b930 86bd 492b f73e b8e1 c1be 2376 db3b
00000150: 9a48 593e fc98 efbd 6f89 9fbe 050c 563e
00000160: 6e95 e1bd dfbf 97be e681 14bf af59 dabd
00000170: a914 31be 8682 083e 916e 4bbe 8bba 77bd
00000180: fd1e ecbe dc84 bd3e 36a8 bf3b 66e1 2b3e
00000190: 87e1 34be 74a2 6d3e 6e82 793d 50b2 11be
000001a0: b24f d1bd 68ad 7ebe be72 273e 868d 9ebe
000001b0: 53bb 12bd fae6 1a3d 2336 a63e 6770 b63c
000001c0: dfb1 353c ef5d 5cbe 85fc 80be 9dd2 cd3d
000001d0: e1ee d43e 5f92 75be 77a5 92be 0a91 eebe
000001e0: 20c4 47bf 3695 553e c9f4 323e d409 86bd
000001f0: e6ca 763e 5244 02be 2cf8 27be 80d5 c5be
00000200: ddd5 873d 7e23 15be b848 a9be 0b5b 2fbc
00000210: 740c 943c b9a2 41be 2cce 7b3e e130 5a3e
00000220: 2a4e 013e 76d9 14bf 9892 4bbe f411 ae3e
00000230: 2951 b0bd 17f3 1e3e 5a73 62be dccf 63be
00000240: e495 1fbc 5bd6 12be f6a5 1dbd 09b1 d63e
00000250: 8683 143e 7cbc d8bd 965a 9b3d 5c63 2dbd
00000260: 5449 5b3e 03c5 66be 9af1 163e 1cec 9e3d
00000270: 3906 b63c 2941 4dbe 2293 7f3e 6e84 89bd
00000280: f910 c43d 0ab4 8fbc 75d3 5abc cb30 a83d
00000290: dcfc 85be c6ce 08be eda0 593e 0fb7 25be
000002a0: c1f4 52be 2049 453e 4cbb 6f3e ac81 bdbe
000002b0: 79ab 863e f847 a5be 0962 7fbd dfb0 9bbe
000002c0: 1426 02bd 1b56 85bc 70a4 4ebe 2e07 9d3e
000002d0: 3d10 84be 4313 333e b9f8 0cbe 5b7b 8dbe
000002e0: 4279 863e dc3c 7bbe 4c98 afbe d9ae a03e
000002f0: 0905 a6bd e5e7 f03e 143d 09bf f3f2 fe3d
00000300: 4877 6cbe 2b2a 173e 9a77 53bd e2fb debd
00000310: 449e 913c 4541 533d cd77 643e b0a6 c8be
00000320: fe88 3cbe f866 edbe c6ea bf3d f041 e2bd
00000330: 52c2 b33d dd65 153d c82f be3d 0e7c 043e
00000340: e6cc 35be d2c3 eb3d 3ef8 023e 90c2 e03e
00000350: 4926 cc3d 44d1 f03d 63e6 37bd ebd1 783d
00000360: 6662 69bd 5cf5 1d3d aaad 2abe 874a ccbc
00000370: ec11 dbbd fa63 32bd 1ce5 5d3d 48d2 02bd
00000380: 86b0 dd3c 448f 633e 339d f93d e2e2 22be
00000390: 66b1 a9be 9188 2cbe 2295 b63e 21ed e6bd
000003a0: 33e9 b53d 3dd0 da3d 4e06 f9bd 773f aa3e
000003b0: c8f8 0cbd dda1 f93d 4d13 96bd 71ec 993d
000003c0: add2 ec3d 9bed 003d da4f 253d d603 41be
000003d0: f84a 1d3e 0829 4b3e 1e90 dd3d f446 b73e
000003e0: 911d 783e 3357 d03c 9d63 9f3d ff05 623d
000003f0: c961 cdbd c911 4dbe 90fd 33ba 483e 0e3e

network.6.bias f4 [5]
0.21585016 -0.14670745 0.019477122 0.28224406 0.032199927
00000000: d307 5d3e 7a3a 16be 7c8e 9f3c 4b82 903e
00000010: 12e4 033d
