experiments/checkpoints/20251210_110803/checkpoint_ep199.pt (torch, 246605 bytes, 24 tensors)

network.0.weight f4 [128, 43]
-0.005038105 -0.8140372 0.6176653 -1.5634402 -1.9119979 -0.16009825 1.3844858 0.13742939
0.16417558 -0.16214162 -0.017676832 -0.11556667 1.1220182 -0.45420974 0.13091601 -0.596126
-1.6388303 1.8964678 0.8482228 -0.07991984 -0.13716109 -0.087766334 0.12985319 -0.0012772282
-0.091350935 0.16759537 -0.046019875 -1.6111324 2.4391177 -1.1582326 0.06823768 1.5960264
-0.1823939 -1.3631716 0.15984195 0.19120394 -0.8310387 1.6157072 -2.3801806 -3.0203485
2.9404902 -2.271599 0.03774549 -0.16519095 1.4895657 -1.3415757 -0.96894526 -0.33705482
-0.18459105 -4.558616 0.082657486 0.09166626 -0.038023453 0.041999325 0.044109125 -2.0976655
-3.5189285 -0.5630738 0.6665241 -1.9984518 -0.020933336 0.2702049 -0.18591627 0.06141204
0.082058065 -0.081380576 0.11609866 -0.046586253 -0.096358 0.09693809 1.0580561 -1.5621613
1.5041026 0.15682924 -0.5913707 -0.06700719 1.0364605 -0.1232115 -2.1244674 1.69695
-1.6411345 -1.313476 -0.18069085 3.1449192 -1.4707402 0.09680121 0.08296055 -2.3390489
2.400486 4.260616 -5.678608 -0.08080126 5.897182 0.043407675 0.040695835 -0.0936578
-0.033666972 -0.004744466 -9.0124445 -3.7366405 -2.8332229 1.027249 -2.7916696 4.316492
-0.3733807 0.038169313 -0.18390925 0.15968771 0.09758513 -0.1756292 0.059935182 -0.15009323
0.016646305 -0.23611295 -1.2693453 -7.748717 -0.16686353 -0.07018082 0.13773379 -0.2673864
-0.09910957 -1.30384 2.4314237 -0.30832702 -1.7582351 -4.944964 2.277075 -0.37770146
-0.036285426 0.011200433 0.95247996 -0.9340633 -0.73971915 -0.5754459 -0.18180686 -3.2820542
-0.17965011 -0.026955638 0.058513746 -0.13424315 0.01246308 -0.8307656 -6.528805 -1.4500177
1.0164942 -3.2357311 3.420964 0.8999909 0.08835625 -0.071242444 0.18370159 -0.017899908
-0.019534081 -0.120459475 0.08572864 -0.18668589 -0.92447466 1.1953418 -0.99028033 -0.10307467
1.7794648 0.08387708 -0.8532725 -0.031754166 -1.5911372 0.17352591 -0.23925799 -1.5980891
2.5128021 0.0901897 -1.1906534 0.03809116 -0.14574891 0.93911004 -0.94449633 2.273939
-1.5138209 0.1341519 1.7863636 -0.08717285 -0.045906283 0.14056504 -0.10394172 -0.17114513
-0.27220216 -3.5720146 0.34400985 0.44948366 0.16508591 0.057932522 1.3219726 -0.08383517
0.17296724 -0.17466044 0.03444508 0.15730797 -0.016495243 0.08065083 0.1395174 -0.7998723
3.9283638 -6.236867 -0.040309727 1.7201128 -0.17990011 -1.1512738 0.1069037 1.7846041
0.7052565 1.3677185 -3.4786139 0.05906142 0.15428919 -1.4093302 0.11721236 -0.031579234
-0.8680019 1.081698 0.9591875 0.041762672 0.12952831 1.158502 0.022331666 0.036364317
-0.15786575 0.04979279 -0.04501753 0.3678428 -0.5326829 1.3757998 -0.066829644 0.86071104
-2.25633 -1.947941 0.0633418 0.08143682 0.11926313 0.10132679 -0.12744011 -0.07973378
-0.12745032 -0.11795269 -0.5870802 -0.21182564 -1.3982552 0.13541089 -0.160491 0.013468754
-0.5723172 0.09618714 -0.54124844 -0.31019226 -0.008011249 -1.7993051 0.9677338 -0.5293293
00000000: b016 a5bb be64 50bf 501f 1e3f cf1e c8bf
00000010: 59bc f4bf ccf0 23be d536 b13f 4aba 0c3e
00000020: a51d 283e 7408 26be 01cf 90bc 38ae ecbd
00000030: 4b9e 8f3f 2e8e e8be d90e 063e b79b 18bf
00000040: 31c5 d1bf 75bf f23f 2125 593f 03ad a3bd
00000050: f573 0cbe d6be b3bd 3cf8 043e ab68 a7ba
00000060: 3316 bbbd 1f9e 2b3e 567f 3cbd 9639 cebf
00000070: 811a 1c40 f740 94bf 32c0 8b3d 984a cc3f
00000080: 77c5 3abe 687c aebf 9cad 233e f7ca 433e
00000090: f4be 54bf 7ecf ce3f e154 18c0 644d 41c0
000000a0: fe30 3c40 e161 11c0 049b 1a3d d127 29be
000000b0: 17aa be3f c1b8 abbf cc0c 78bf 7392 acbe
000000c0: 7005 3dbe 2fe0 91c0 5448 a93d 85bb bb3d
000000d0: 7bbe 1bbd 7c07 2c3d c5ab 343d 2740 06c0
000000e0: 2036 61c0 9b25 10bf 53a1 2a3f 45cd ffbf
000000f0: 637c abbc 4c58 8a3e d660 3ebe 318b 7b3d
00000100: 0f0e a83d dcaa a6bd 22c5 ed3d 3ad1 3ebd
00000110: 5857 c5bd 7a87 c63d 626e 873f e7f4 c7bf
00000120: 6f86 c03f d897 203e 1264 17bf 113b 89bd
00000130: bdaa 843f 5056 fcbd 46f7 07c0 a835 d93f
00000140: b210 d2bf fb1f a8bf 0607 39be 5b46 4940
00000150: 3741 bcbf b63f c63d 39e7 a93d fab2 15c0
00000160: 90a1 1940 f756 8840 28b7 b5c0 227b a5bd
00000170: b7b5 bc40 3fcc 313d adb0 263d a9cf bfbd
00000180: 61e6 09bd 7777 9bbb f932 10c1 1e25 6fc0
00000190: 8653 35c0 e57c 833f b7aa 32c0 b420 8a40
000001a0: c12b bfbe 6d57 1c3d b552 3cbe 2d85 233e
000001b0: b6da c73d 24d8 33be 987e 753d 0ab2 19be
000001c0: d55d 883c 98c7 71be e879 a2bf 7df5 f7c0
000001d0: 46de 2abe f6ba 8fbd 160a 0d3e dfe6 88be
000001e0: f5f9 cabd 3be4 a6bf 729c 1b40 0add 9dbe
000001f0: d90d e1bf 253d 9ec0 99bb 1140 1662 c1be
00000200: 07a0 14bd 0582 373c bad5 733f c61e 6fbf
00000210: 3c5e 3dbf 6c50 13bf 942b 3abe 2d0d 52c0
00000220: 33f6 37be 12d2 dcbc 1cac 6f3d 0977 09be
00000230: f231 4c3c 0ead 54bf f8eb d0c0 2e9a b9bf
00000240: 7b1c 823f 3816 4fc0 13f1 5a40 ce65 663f
00000250: 1ff4 b43d 8fe7 91bd 451c 3c3e d4a2 92bc
00000260: f005 a0bc 75b3 f6bd 7f92 af3d 962a 3fbe
00000270: 5faa 6cbf f600 993f 0383 7dbf d018 d3bd
00000280: 81c5 e33f bfc7 ab3d 1170 5abf a810 02bd
00000290: 62aa cbbf c7b0 313e 0c00 75be 2f8e ccbf
000002a0: c0d1 2040 61b5 b83d 5567 98bf 7a05 1c3d
000002b0: 343f 15be 8469 703f 83ca 71bf 3788 1140
000002c0: e2c4 c1bf 1e5f 093e 90a7 e43f ae87 b2bd
000002d0: 3a08 3cbd 48f0 0f3e 66df d4bd ab40 2fbe
000002e0: 155e 8bbe e39b 64c0 0f22 b03e b922 e63e
000002f0: 480c 293e a74a 6d3d 6636 a93f c6b1 abbd
00000300: 531e 313e 30da 32be 4916 0d3d 5715 213e
00000310: 0821 87bc 432c a53d a6dd 0e3e 6ec4 4cbf
00000320: 506a 7b40 6a94 c7c0 d01b 25bd a82c dc3f
00000330: bc37 38be f15c 93bf 54f0 da3d e86d e43f
00000340: b18b 343f 6611 af3f 9ca1 5ec0 63ea 713d
00000350: fcfd 1d3e ef64 b4bf 090d f03d 3a59 01bd
00000360: 5f35 5ebf 1475 8a3f 508d 753f 560f 2b3d
00000370: 12a3 043e cb49 943f e6f0 b63c c0f2 143d
00000380: 8fa7 21be 86f3 4b3d 4d64 38bd e455 bc3e
00000390: e85d 08bf 351a b03f fbdd 88bd 8f57 5c3f
000003a0: b667 10c0 2156 f9bf 58b9 813d 59c8 a63d
000003b0: 3a40 f43d 6c84 cf3d a97f 02be 774b a3bd
000003c0: 5682 02be 2e91 f1bd e34a 16bf d2e8 58be
000003d0: 07fa b2bf 27a9 0a3e c157 24be 0cac 5c3c
000003e0: 6183 12bf c3fd c43d 428f 0abf 85d1 9ebe
000003f0: 9d41 03bc a14f e6bf 67bd 773f 2082 07bf

network.0.bias f4 [128]
-12.855004 -11.900466 -8.610413 -13.086953 -13.195492 -9.156703 -12.003463 -12.116191
-12.510375 -12.360254 -11.2072735 -7.0920463 -9.214339 -17.16509 -8.927605 -11.630143
-16.621994 -12.271338 -6.9020214 -10.278757 -10.032712 -8.374445 -7.851833 -14.424288
-6.9761434 -9.475583 -6.253172 -12.194088 -7.4442883 -8.217639 -13.021498 -11.0434265
-6.3029823 -9.945559 -13.704883 -7.1219954 -11.052716 -16.579561 -12.620828 -9.094792
-11.023649 -7.7120366 -9.830516 -5.0353346 -16.773426 -14.328845 -14.081445 -11.523111
-18.201048 -12.408907 -17.081446 -10.184963 -6.0153813 -10.31644 -8.451843 -15.683643
-11.422215 -11.309001 -11.73573 -8.898371 -11.202051 -8.818438 -8.885525 -11.524332
-9.604948 -11.8618965 -7.9569187 -8.842158 -9.48613 -10.196105 -11.675746 -9.098883
-8.697909 -11.487571 -13.394868 -12.386033 -7.4615803 -5.656372 -12.898095 -9.73107
-13.015772 -13.990479 -7.773537 -4.6286426 -10.427674 -13.622008 -12.509556 -10.40592
-10.021966 -5.0026135 -13.97793 -13.940528 -9.265705 -8.468311 -3.3387299 -9.835135
-8.556945 -13.822613 -10.942669 -5.0413437 -10.232785 -7.1175303 -10.112991 -7.937045
-12.3347645 -10.143665 -10.83154 -9.164454 -9.168134 -15.135011 -8.224415 -6.632988
-14.178381 -14.260673 -9.188021 -10.173634 -12.327169 -7.047833 -9.855748 -13.140064
-10.001206 -13.117355 -8.478331 -10.407154 -11.163579 -9.069394 -9.641791 -10.438581
00000000: 19ae 4dc1 4f68 3ec1 40c4 09c1 2964 51c1
00000010: bc20 53c1 db81 12c1 2f0e 40c1 ebdb 41c1
00000020: 7f2a 48c1 9ac3 45c1 fe50 33c1 0bf2 e2c0
00000030: ef6d 13c1 1b52 89c1 78d7 0ec1 1115 3ac1
00000040: d8f9 84c1 6757 44c1 5cdd dcc0 ca75 24c1
00000050: fd85 20c1 bafd 05c1 3742 fbc0 e2c9 66c1
00000060: 913c dfc0 fd9b 17c1 fc19 c8c0 fc1a 43c1
00000070: 9c37 eec0 737b 03c1 0e58 50c1 e0b1 30c1
00000080: 08b2 c9c0 0221 1fc1 3347 5bc1 63e7 e3c0
00000090: edd7 30c1 f1a2 84c1 e9ee 49c1 4584 11c1
000000a0: de60 30c1 01c9 f6c0 cb49 1dc1 7621 a1c0
000000b0: fa2f 86c1 f342 65c1 994d 61c1 aa5e 38c1
000000c0: bf9b 91c1 e28a 46c1 cda6 88c1 9cf5 22c1
000000d0: 017e c0c0 2310 25c1 c03a 07c1 34f0 7ac1
000000e0: 65c1 36c1 abf1 34c1 8dc5 3bc1 ba5f 0ec1
000000f0: 9a3b 33c1 5218 0dc1 1c2b 0ec1 aa63 38c1
00000100: dead 19c1 54ca 3dc1 149f fec0 7b79 0dc1
00000110: 30c7 17c1 3f23 23c1 dbcf 3ac1 0695 11c1
00000120: a32a 0bc1 17cd 37c1 6151 56c1 312d 46c1
00000130: 44c5 eec0 0001 b5c0 995e 4ec1 76b2 1bc1
00000140: 9a40 50c1 01d9 5fc1 d1c0 f8c0 d71d 94c0
00000150: c1d7 26c1 bff3 59c1 2427 48c1 a67e 26c1
00000160: f959 20c1 6915 a0c0 9aa5 5fc1 670c 5fc1
00000170: 5440 14c1 347e 07c1 c0ad 55c0 b75c 1dc1
00000180: 3fe9 08c1 6c29 5dc1 2c15 2fc1 b052 a1c0
00000190: 7db9 23c1 cfc2 e3c0 d0ce 21c1 46fc fdc0
000001a0: 325b 45c1 744c 22c1 fd4d 2dc1 9ba1 12c1
000001b0: adb0 12c1 0129 72c1 3497 03c1 7041 d4c0
000001c0: a6da 62c1 b72b 64c1 2202 13c1 34c7 22c1
000001d0: 163c 45c1 d987 e1c0 25b1 1dc1 b43d 52c1
000001e0: f104 20c1 b0e0 51c1 3ea7 07c1 b483 26c1
000001f0: 059e 32c1 3d1c 11c1 c744 1ac1 6e04 27c1

network.3.weight f4 [64, 128]
-0.060806017 -0.06439843 -0.085266605 -0.59798235 -0.060084023 0.11206979 -0.24649991 -0.16609035
-0.31800002 0.14675213 -0.13462414 -0.2699036 -0.2246838 -0.34937152 -0.22538161 -0.6384847
-0.07423435 -0.3060975 -0.22292858 -0.18358858 -0.51230764 -0.5757672 -0.96449625 -0.3350941
-0.041997775 -0.06321095 0.024660507 -0.57618636 -1.1953039 -0.66356105 0.05296651 -0.45474964
0.0025038123 -0.4107077 -0.16068551 -0.6313543 -0.49268466 -0.29774988 -0.24670523 -0.55432004
-0.39222544 -0.35235104 -0.115349755 -0.86775696 -0.7246712 -0.79469097 -0.35781556 0.15791139
-0.3999016 -0.31538364 -0.41474986 -0.6061311 -0.18465653 0.09996243 -0.6713531 -0.0018046976
-0.33731264 -0.374825 -0.21174854 -0.40102342 -0.12766375 -0.18671156 -0.48572865 -0.14830017
-0.05655113 -0.19117995 -0.10021164 -0.055189442 -0.36002943 -0.11753408 0.2098401 -0.57368064
-0.9283001 -0.2069672 -0.37491435 -0.19855502 -0.2628316 -0.43221065 -0.20824787 -0.8092895
-0.43504637 -0.1798712 -0.39329857 -0.5328708 -0.36477527 -0.22591615 -0.29610732 -0.43696788
-0.56702244 -0.013544622 -0.57388115 -0.20187782 -0.36705396 -0.34347078 -0.50755656 -0.2657048
-0.3379187 -0.21242775 -0.5580487 -0.27622503 -0.287087 -0.28930637 -0.15690559 0.2702545
-0.05522723 -0.054707404 -0.5049689 -0.14465511 -1.0113434 -0.041203998 -0.5636169 -0.41702983
-0.062676385 -0.021838564 0.016965713 -0.11527273 -0.30336997 -0.15308027 -0.18358824 -0.66366416
-0.09452588 -0.1932252 -0.32032856 -0.42540553 -0.15919514 -0.009731192 -0.120852225 -0.3098873
-0.0806992 -0.47440937 -0.32286814 -0.2999626 -0.33880496 -0.105881855 -0.35245252 -0.09947534
-0.30603603 -0.48570162 -0.2086172 -0.20686176 -0.47518206 -0.3023161 -0.96439344 -1.2289163
-0.090190545 -0.2786361 -0.5976827 -5.6392387e-06 -0.026413899 -0.4205657 -0.43025252 -0.39559916
-0.28857785 -0.2587369 -0.05882889 0.029114699 -0.03619891 -0.7297967 -0.32405367 -1.1458653
-1.0875441 -0.26417843 -0.08874082 -0.5059026 -0.16549242 -0.30430475 -0.48123154 -0.7537644
-0.25875568 -1.5081445 -0.035819072 -0.41577995 -0.017801827 -0.71517307 -1.4850472 -0.33345374
-0.6991202 -0.039868783 -0.9362148 -0.04920702 -0.4522478 -0.23470508 -1.8821374 0.013598822
-0.66737944 -0.13875864 -0.38656306 -0.9683578 -0.30149326 -0.15384041 -0.1866671 -0.5856239
-0.6221188 -0.6392066 -0.20126857 -0.118862934 -0.37440243 -0.19320154 0.025832433 -0.37367696
-0.11832947 -0.42981526 -0.41802093 -0.14266494 -0.09903101 -0.31425703 -0.45272246 -0.4770137
0.023612564 -0.10892623 -0.46435475 -0.5686714 -0.7040246 -1.1030954 -0.6665054 -0.7101794
-0.26342264 -0.20522922 -0.2409348 -0.54153603 -0.57763463 -0.32694256 -0.93269026 -0.53285164
-0.39029863 -0.4463307 -0.60353464 -0.56048524 -0.8486726 -0.049493067 -0.5901727 -0.09789841
0.022765202 -0.12665004 -0.60891324 -0.46257395 -0.11807727 -0.038817227 -0.3589592 -0.11718408
-0.8823233 -0.1111768 -0.43747127 -0.44115847 -0.35911846 -0.30209616 -0.2126673 -0.24046043
-0.3231531 -0.14956619 -0.28688818 -1.0562632 -0.6932687 0.018597824 -0.8849854 -1.336622
00000000: bb0f 79bd 53e3 83bd 42a0 aebd 5f15 19bf
00000010: aa1a 76bd d984 e53d 796a 7cbe 9713 2abe
00000020: e6d0 a2be 3146 163e e9da 09be ce30 8abe
00000030: 8313 66be d3e0 b2be 70ca 66be bc73 23bf
00000040: 2e08 98bd d0b8 9cbe 6447 64be a5fe 3bbe
00000050: 9826 03bf 7b65 13bf 3ae9 76bf 7491 abbe
00000060: dc05 2cbd be74 81bd d504 ca3c f380 13bf
00000070: b8ff 98bf 23df 29bf 69f3 583d f2d4 e8be
00000080: 0017 243b 4848 d2be be8a 24be 6fa0 21bf
00000090: 2a41 fcbe ac72 98be 4ca0 7cbe ebe7 0dbf
000000a0: c6d1 c8be 5b67 b4be 7e3c ecbd 5225 5ebf
000000b0: 0d84 39bf de70 4bbf 9a33 b7be 86b3 213e
000000c0: e7bf ccbe f779 a1be 185a d4be 682b 1bbf
000000d0: 9a16 3dbe 1ab9 cc3d ccdd 2bbf 9a8b ecba
000000e0: 3eb4 acbe 10e9 bfbe 9cd4 58be f152 cdbe
000000f0: 49ba 02be 5131 3fbe 6db1 f8be 00dc 17be
00000100: 28a2 67bd adc4 43be c33b cdbd 530e 62bd
00000110: c755 b8be b5b5 f0bd 53e0 563e bcdc 12bf
00000120: 13a5 6dbf 36ef 53be c6f4 bfbe 0252 4bbe
00000130: dd91 86be b74a ddbe ee3e 55be 992d 4fbf
00000140: 66be debe 2830 38be 6e5e c9be 396a 08bf
00000150: d3c3 babe 9056 67be 619b 97be 41ba dfbe
00000160: 6228 11bf 43ea 5dbc e0e9 12bf 0fb9 4ebe
00000170: 7fee bbbe 67db afbe 3aef 01bf 760a 88be
00000180: ae03 adbe a986 59be 48dc 0ebf 5e6d 8dbe
00000190: 11fd 92be f71f 94be dcab 20be cc5e 8a3e
000001a0: f335 62bd df14 60bd a445 01bf 7820 14be
000001b0: b373 81bf 86c5 28bd 3249 10bf ef84 d5be
000001c0: 7a5c 80bd cae6 b2bc aefb 8a3c 1c14 ecbd
000001d0: 4f53 9bbe 13c1 1cbe 8efe 3bbe e5e5 29bf
000001e0: c996 c1bd d4dc 45be 1b02 a4be c1ce d9be
000001f0: 0d04 23be 946f 1fbc 5f81 f7bd 8ca9 9ebe
00000200: 9f45 a5bd c9e5 f2be f94e a5be b394 99be
00000210: d877 adbe 96d8 d8bd a874 b4be bab9 cbbd
00000220: c1b0 9cbe e2ad f8be bf9f 55be 92d3 53be
00000230: 104b f3be 2dc9 9abe 7de2 76bf 214d 9dbf
00000240: d2b5 b8bd 64a9 8ebe bc01 19bf b138 bdb6
00000250: f661 d8bc 6354 d7be 0f4a dcbe f98b cabe
00000260: 7ac0 93be 2a79 84be 90f6 70bd f381 ee3c
00000270: 4f45 14bd f5d3 3abf 5dea a5be b7ab 92bf
00000280: a534 8bbf 6542 87be bfbd b5bd d582 01bf
00000290: d876 29be d5cd 9bbe fb63 f6be b4f6 40bf
000002a0: a07b 84be e10a c1bf 05b7 12bd 1ce1 d4be
000002b0: 23d5 91bc 9515 37bf 0716 bebf 73ba aabe
000002c0: 8bf9 32bf 734d 23bd c6ab 6fbf 4d8d 49bd
000002d0: 068d e7be 8756 70be e1e9 f0bf 98cd 5e3c
000002e0: 61d9 2abf bf16 0ebe 98eb c5be 4ce6 77bf
000002f0: 535d 9abe 5788 1dbe a925 3fbe 73eb 15bf
00000300: 2d43 1fbf 0ba3 23bf 5919 4ebe 696e f3bd
00000310: adb1 bfbe a0d6 45be 8a9e d33c 9652 bfbe
00000320: b956 f2bd bf10 dcbe d706 d6be c216 12be
00000330: c5d0 cabd 4ce6 a0be 3dcb e7be 243b f4be
00000340: 236f c13c b714 dfbd e8bf edbe 7394 11bf
00000350: f53a 34bf 3b32 8dbf 19a0 2abf 51ce 35bf
00000360: 55df 86be 9c27 52be 9db7 76be 1ba2 0abf
00000370: dddf 13bf 0465 a7be cac4 6ebf f768 08bf
00000380: 39d5 c7be 7585 e4be 3f81 1abf f67b 0fbf
00000390: 9c42 59bf 3eb9 4abd 8f15 17bf f67e c8bd
000003a0: 177e ba3c 8cb0 01be bde1 1bbf 7ed6 ecbe
000003b0: 7fd2 f1bd d0fe 1ebd 80c9 b7be 35fe efbd
000003c0: f1df 61bf aab0 e3bd 3cfc dfbe 86df e1be
000003d0: 60de b7be 59ac 9abe 75c5 59be 423b 76be
000003e0: 5374 a5be e127 19be 02e3 92be a233 87bf
000003f0: 0f7a 31bf 775a 983c 678e 62bf 6e16 abbf

network.3.bias f4 [64]
-3.1123455 -2.466138 -2.2412045 -3.365354 -2.2529743 -2.7156882 -2.5210743 -3.55201
-1.5734735 -2.2059386 -2.4389825 -1.8803477 -2.9544907 -3.2340572 -2.19409 -2.3541663
-2.3081224 -3.6410701 -1.4195051 -2.3268847 -2.5313728 -2.9150183 -2.0641134 -2.4325943
-2.1746726 -1.5644509 -2.5453215 -3.4110026 -2.9269207 -1.9275392 -2.96479 -2.8445344
-1.3459728 -3.117251 -3.7102256 -2.225238 -2.584344 -2.3817787 0.6088392 -1.7129875
-2.4933069 -3.368341 -2.0782075 -3.3177133 -2.7784076 -3.4312017 -3.8148696 -2.4851673
-1.7918186 -2.0115855 -1.8245082 -3.0698657 -3.9449215 0.7772736 -4.508827 -3.7343905
-4.38774 -1.2889512 -3.6937416 -2.2053554 -2.3596048 -2.6316776 0.81761074 -2.1212156
00000000: ab30 47c0 34d5 1dc0 e56f 0fc0 f661 57c0
00000010: bb30 10c0 d6cd 2dc0 4859 21c0 2254 63c0
00000020: 9467 c9bf 192e 0dc0 4a18 1cc0 3caf f0bf
00000030: 6016 3dc0 cbfa 4ec0 f86b 0cc0 a9aa 16c0
00000040: 47b8 13c0 4b07 69c0 58b2 b5bf aeeb 14c0
00000050: 0302 22c0 a98f 3ac0 6f1a 04c0 a0af 1bc0
00000060: d62d 0bc0 ed3f c8bf 8ce6 22c0 de4d 5ac0
00000070: ab52 3bc0 9bb9 f6bf 1fbf 3dc0 da0c 36c0
00000080: d648 acbf 0a81 47c0 5674 6dc0 4d6a 0ec0
00000090: e465 25c0 106f 18c0 e3dc 1b3f 2d43 dbbf
000000a0: 5792 1fc0 e692 57c0 5a01 05c0 6a55 54c0
000000b0: 6ed1 31c0 cf98 5bc0 d326 74c0 fb0c 1fc0
000000c0: 505a e5bf d1bd 00c0 7c89 e9bf ae78 44c0
000000d0: 9879 7cc0 67fb 463f 5048 90c0 4100 6fc0
000000e0: 5e68 8cc0 5afc a4bf 4366 6cc0 8b24 0dc0
000000f0: c403 17c0 686d 28c0 f04e 513f ffc1 07c0

network.6.weight f4 [5, 64]
0.038811933 0.14827263 0.23572315 -0.18477772 -0.14902073 -0.09991849 0.20449527 -0.18394484
-0.15016983 -0.08693549 -0.06155297 -0.18248616 -0.08875621 0.05789272 0.057396024 -0.21749082
0.040701713 0.07387937 0.118263304 -0.09872073 0.08303114 0.077354215 0.024245132 0.11798537
0.13098498 0.0262281 -0.04956185 -0.25488806 -0.10091367 -0.099807136 0.06340777 0.23511377
0.018994702 0.274866 0.2722061 -0.29521737 0.04772149 -0.20805275 -0.22432186 -0.17261632
-0.28872463 -0.15898748 -0.021777043 0.35240093 -0.0752246 -0.13164029 0.011893368 0.14009719
-0.10907332 0.06761704 -0.27450037 -0.17007467 -0.17336826 -0.07134841 0.2809164 0.15575299
-0.29372686 -0.21930712 0.0055479314 -0.12998267 -0.29835236 0.11544164 -0.14182949 0.024213448
-0.047550626 0.23218323 0.20623735 0.062734656 -0.45042714 0.14596456 -0.13057514 0.09262877
0.044179007 0.06301328 -0.25861096 -0.219808 0.20011877 0.14498638 -0.13009581 -0.11834477
-0.06551449 0.48280796 -0.37871692 0.0067100157 0.21219635 -0.11698642 -0.31161925 0.2090351
-0.11013488 -0.29640374 -0.58013946 -0.10660894 -0.17292513 0.13331985 -0.19866444 -0.060479272
-0.46125582 0.370186 0.005877733 0.16787708 -0.17663467 0.23207457 0.06088734 -0.14229064
-0.10221848 -0.24871975 0.16352987 -0.30971944 -0.035817884 0.037843805 0.32464597 0.022310585
0.011102104 -0.21521418 -0.25197646 0.10049937 0.4158948 -0.23986845 -0.286442 -0.46599713
-0.7804141 0.2085828 0.17476521 -0.0654388 0.24102856 -0.12725124 -0.16405328 -0.38640872
0.06632583 -0.14562246 -0.33066586 -0.010708311 0.018077493 -0.18910244 0.24592215 0.2131152
0.12626776 -0.5814778 -0.19884832 0.3399969 -0.08610032 0.15525123 -0.2211672 -0.22249995
-0.009747398 -0.14341404 -0.03847612 0.41935438 0.14503597 -0.105872065 0.07587008 -0.042312775
0.214169 -0.22536246 0.14741866 0.077600375 0.022211118 -0.20043647 0.24958752 -0.06716764
0.09572614 -0.017534692 -0.013381727 0.08209771 -0.26174384 -0.13361093 0.21254024 -0.16182761
-0.20600657 0.1926604 0.234117 -0.37014157 0.26302698 -0.32284907 -0.062352944 -0.3041263
-0.031752687 -0.01627508 -0.20179658 0.3067272 -0.2579365 0.17487977 -0.13768907 -0.27634537
0.2626569 -0.24535014 -0.34297094 0.31384432 -0.081049986 0.47054777 -0.5361844 0.12448521
-0.23092377 0.14763942 -0.051628213 -0.1088736 0.017777383 0.05158075 0.22316606 -0.3919326
-0.18411236 -0.4637525 0.09374242 -0.11048099 0.08778834 0.03646491 0.09288264 0.1294175
-0.17757946 0.11515099 0.12790905 0.43906897 0.099701345 0.11758746 -0.044915937 0.06075191
-0.056955777 0.038563333 -0.16668326 -0.024952075 -0.106972694 -0.0435491 0.054157853 -0.031967916
0.027040482 0.22227749 0.12186378 -0.15907337 -0.33149135 -0.16848013 0.3566622 -0.112756126
0.08884613 0.106836684 -0.12157877 0.33255982 -0.034411304 0.12190837 -0.07326855 0.07513556
0.11562931 0.031483997 0.040353686 -0.1884831 0.15359575 0.19839785 0.10818742 0.3580021
0.24233682 0.025437305 0.07781113 0.055183172 -0.100284845 -0.20030884 -0.00067837955 0.13890389
00000000: 43f9 1e3d c8d4 173e 6961 713e 5f36 3dbe
00000010: e498 18be 11a2 ccbd 3567 513e 095c 3cbe
00000020: 1fc6 19be 3c0b b2bd f81e 7cbd a7dd 3abe
00000030: d1c5 b5bd eb20 6d3d 1818 6b3d eab5 5ebe
00000040: d7b6 263d 114e 973d 0834 f23d 182e cabd
00000050: 3b0c aa3d e36b 9e3d ba9d c63c 50a2 f13d
00000060: ed20 063e 50dc d63c 5e01 4bbd b080 82be
00000070: d4ab cebd af67 ccbd efdb 813d aac1 703e
00000080: c79a 9b3c 3dbb 8c3e 995e 8b3e bb26 97be
00000090: 9c77 433d c80b 55be a1b4 65be 55c2 30be
000000a0: b7d3 93be 9dcd 22be c565 b2bc e56d b43e
000000b0: 5b0f 9abd b6cc 06be 67dc 423c a375 0f3e
000000c0: d561 dfbd cd7a 8a3d 508b 8cbe 0e28 2ebe
000000d0: 7387 31be 1d1f 92bd 46d4 8f3e b67d 1f3e
000000e0: 5e63 96be 0c92 60be 6ccb b53b 2d1a 05be
000000f0: a4c1 98be ab6c ec3d c03b 11be 485b c63c
00000100: 72c4 42bd 71c1 6d3e e22f 533e 077b 803d
00000110: 639e e6be bc77 153e 7db5 05be 27b4 bd3d
00000120: 0cf5 343d 1b0d 813d a868 84be 5915 61be
00000130: efeb 4c3e 4f77 143e d637 05be be5e f2bd
00000140: 762c 86bd 9b32 f73e 2fe7 c1be b1df db3b
00000150: 004a 593e 9396 efbd 8f8c 9fbe 4c0d 563e
00000160: 658e e1bd 3bc2 97be 0584 14bf ca55 dabd
00000170: 4913 31be 0085 083e b16e 4bbe 1db9 77bd
00000180: b929 ecbe 0589 bd3e 009a c03b f8e7 2b3e
00000190: b8df 34be f5a4 6d3e 0165 793d a3b4 11be
000001a0: ec57 d1bd 64b0 7ebe 6074 273e 8c93 9ebe
000001b0: c6b5 12bd 1b02 1b3d ff37 a63e b0c4 b63c
000001c0: 99e5 353c 1b61 5cbe 0f03 81be 9dd2 cd3d
000001d0: 2af0 d43e 13a0 75be 87a8 92be 2d97 eebe
000001e0: 38c9 47bf bb96 553e a7f5 323e c704 86bd
000001f0: 31d0 763e 264e 02be 95fd 27be 5dd7 c5be
00000200: d6d5 873d 0e1e 15be 094d a9be e971 2fbc
00000210: 4017 943c 12a4 41be 04d3 7b3e df3a 5a3e
00000220: 564c 013e bbdb 14bf e59e 4bbe 1314 ae3e
00000230: 5d55 b0bd 2efa 1e3e a879 62be 07d7 63be
00000240: 8db3 1fbc 21db 12be 2399 1dbd 9eb5 d63e
00000250: 4f84 143e 74d3 d8bd c661 9b3d 2950 2dbd
00000260: 1e4f 5b3e 6bc5 66be ebf4 163e f2ec 9e3d
00000270: 17f4 b53c 383f 4dbe df93 7f3e 308f 89bd
00000280: 110c c43d eaa4 8fbc 083f 5bbc d822 a83d
00000290: 4a03 86be 4ed1 08be 26a4 593e 23b6 25be
000002a0: 63f3 52be c548 453e 5ebc 6f3e 3283 bdbe
000002b0: 79ab 863e 794c a5be cd65 7fbd 71b6 9bbe
000002c0: 1b0f 02bd 5153 85bc c3a3 4ebe 590b 9d3e
000002d0: 4110 84be af13 333e 5dfe 0cbe 247d 8dbe
000002e0: f77a 863e 113d 7bbe e399 afbe 34b0 a03e
000002f0: 89fd a5bd a3eb f03e 6143 09bf 1af2 fe3d
00000300: 4877 6cbe ca2e 173e 1b78 53bd 1ff9 debd
00000310: e0a1 913c 5646 533d a585 643e 64ab c8be
00000320: f387 3cbe f870 edbe 07fc bf3d db43 e2bd
00000330: 60ca b33d 3b5c 153d 4139 be3d 0586 043e
00000340: 64d7 35be 48d4 eb3d 97fa 023e a6cd e03e
00000350: 3830 cc3d b2d1 f03d c6f9 37bd ffd6 783d
00000360: 764a 69bd 96f4 1d3d 04af 2abe 4b68 ccbc
00000370: 8014 dbbd 8b60 32bd a0d4 5d3d caf0 02bd
00000380: 0084 dd3c b69c 633e b893 f93d 21e4 22be
00000390: 3cb9 a9be 0e86 2cbe 6e9c b63e afec e6bd
000003a0: f6f4 b53d 31cd da3d 4afe f8bd 4845 aa3e
000003b0: def2 0cbd 18ab f93d d20d 96bd ace0 993d
000003c0: 0fcf ec3d 5df5 003d e849 253d b701 41be
000003d0: 3448 1d3e ce28 4b3e 5e91 dd3d 0d4c b73e
000003e0: 2527 783e e561 d03c 715b 9f3d c007 623d
000003f0: 2462 cdbd c31d 4dbe 48d5 31ba d23c 0e3e

network.6.bias f4 [5]
0.20075421 -0.14673185 0.019473227 0.28226858 0.032190315
00000000: 8392 4d3e e040 16be 5186 9f3c 8285 903e
00000010: fed9 033d

network.0.weight f4 [128, 43]
-0.005038105 -0.8140884 0.6177266 -1.5632012 -1.9118365 -0.16009825 1.3839761 0.13742939
0.16417558 -0.16214162 -0.017676832 -0.11556667 1.1221288 -0.4538329 0.13100967 -0.5962589
-1.6384956 1.8968736 0.84858143 -0.07991984 -0.13716109 -0.087766334 0.12985319 -0.0012772287
-0.091350935 0.16759537 -0.046019875 -1.611292 2.4385312 -1.1585385 0.0682377 1.595367
-0.1823939 -1.3633364 0.15984195 0.19094554 -0.83130515 1.6154251 -2.3801298 -3.0205114
2.9401813 -2.271281 0.03774549 -0.16519095 1.4906378 -1.3426512 -0.9682406 -0.3376653
-0.18459105 -4.5596967 0.082657486 0.09166626 -0.038023453 0.041999336 0.044109125 -2.0965798
-3.5176466 -0.5619843 0.667794 -1.9988539 -0.021782592 0.2686435 -0.18591627 0.06141204
0.082058065 -0.081380576 0.11609866 -0.046586253 -0.096358 0.09693809 1.0570447 -1.5629249
1.5048273 0.15682924 -0.59305227 -0.06700719 1.0354443 -0.1232115 -2.124431 1.6961356
-1.6432635 -1.3128183 -0.1814849 3.144429 -1.4698092 0.09680121 0.08296055 -1.9036943
1.965132 4.085707 -5.070142 -0.08080126 5.6259956 0.043407675 0.040695835 -0.0936578
-0.033666972 -0.004744466 -8.721119 -3.047049 -2.3955762 0.85511667 -2.65448 3.9745271
-0.33196533 0.038169313 -0.18390925 0.15968771 0.09758513 -0.1756292 0.059935182 -0.15009323
0.016646305 -0.05509686 -1.0095484 -7.510776 -0.16686353 0.05118865 0.13773379 -0.08637073
-0.09910957 -0.79675794 2.1447582 -0.22526245 -2.2564266 -4.584689 2.213979 0.20567404
-0.036285426 0.011200433 1.3362466 -1.3178257 -0.60898453 -0.7263187 -0.18180686 -3.7780685
-0.17965011 -0.026955638 0.058513746 -0.1342432 0.01246308 -0.9165547 -6.222663 -1.083899
1.0580713 -3.4898968 3.2508008 1.2061914 0.08835625 -0.071242444 0.18370159 -0.017899908
-0.019534081 -0.120459475 0.0857287 -0.18668589 -1.2413144 0.9057679 -1.006705 -0.10307467
1.2970494 0.08387708 -1.1701183 -0.031754166 -1.5153322 0.4587667 -0.48267716 -1.4536822
2.7661319 -0.09065278 -1.0805206 0.03809116 -0.14574891 0.93936384 -0.9447521 2.273716
-1.5142597 0.1341519 1.786274 -0.08717285 -0.045906283 0.14056504 -0.10394172 -0.17114513
-0.2719985 -3.5710769 0.34307945 0.44959244 0.16549622 0.058028698 1.3218851 -0.08383517
0.17296724 -0.17466044 0.03444508 0.15730797 -0.016495243 0.08065083 0.1395174 -0.8002919
3.9278877 -6.23723 -0.040309727 1.7195698 -0.17990011 -1.1516973 0.1069037 1.7845831
0.7059294 1.3676835 -3.4772499 0.05935081 0.15467387 -1.4098392 0.11721236 -0.031579234
-0.8679869 1.0816942 0.9591998 0.041729927 0.12952831 1.1584654 0.022331666 0.036364317
-0.15786575 0.04979279 -0.04501757 0.36782756 -0.53269315 1.3758197 -0.06681272 0.8606969
-2.2563243 -1.9479413 0.0633418 0.08143682 0.11926313 0.10132679 -0.12744011 -0.07973378
-0.12745032 -0.11795269 -0.5870931 -0.21182765 -1.3982221 0.13541089 -0.16053396 0.013468754
-0.5723231 0.09618714 -0.54122823 -0.3101918 -0.008001796 -1.7992694 0.967715 -0.5293436
00000000: b016 a5bb 1968 50bf 5523 1e3f fa16 c8bf
00000010: 0fb7 f4bf ccf0 23be 2126 b13f 4aba 0c3e
00000020: a51d 283e 7408 26be 01cf 90bc 38ae ecbd
00000030: eba1 8f3f c95c e8be 6627 063e 6ca4 18bf
00000040: 39ba d1bf c1cc f23f a23c 593f 03ad a3bd
00000050: f573 0cbe d6be b3bd 3cf8 043e af68 a7ba
00000060: 3316 bbbd 1f9e 2b3e 567f 3cbd d13e cebf
00000070: e510 1c40 fd4a 94bf 35c0 8b3d fc34 cc3f
00000080: 77c5 3abe cf81 aebf 9cad 233e 3a87 433e
00000090: 6ad0 54bf 40c6 ce3f 0c54 18c0 0f50 41c0
000000a0: ee2b 3c40 ab5c 11c0 049b 1a3d d127 29be
000000b0: 38cd be3f ffdb abbf 9ede 77bf 77e2 acbe
000000c0: 7005 3dbe 09e9 91c0 5448 a93d 85bb bb3d
000000d0: 7bbe 1bbd 7f07 2c3d c5ab 343d 5d2e 06c0
000000e0: 1f21 61c0 34de 0fbf 8cf4 2a3f 72da ffbf
000000f0: 6871 b2bc a48b 893e d660 3ebe 318b 7b3d
00000100: 0f0e a83d dcaa a6bd 22c5 ed3d 3ad1 3ebd
00000110: 5857 c5bd 7a87 c63d 3e4d 873f ec0d c8bf
00000120: 2e9e c03f d897 203e 46d2 17bf 113b 89bd
00000130: 7089 843f 5056 fcbd adf6 07c0 f91a d93f
00000140: 7556 d2bf 6e0a a8bf 2dd7 39be 533e 4940
00000150: b522 bcbf b63f c63d 39e7 a93d 41ac f3bf
00000160: 7289 fb3f 1dbe 8240 9a3e a2c0 227b a5bd
00000170: 2808 b440 3fcc 313d adb0 263d a9cf bfbd
00000180: 61e6 09bd 7777 9bbb b489 0bc1 da02 43c0
00000190: 1f51 19c0 ede8 5a3f 00e3 29c0 a75e 7e40
000001a0: 5cf7 a9be 6d57 1c3d b552 3cbe 2d85 233e
000001b0: b6da c73d 24d8 33be 987e 753d 0ab2 19be
000001c0: d55d 883c 3fad 61bd e238 81bf 4758 f0c0
000001d0: 46de 2abe 31ab 513d 160a 0d3e 23e3 b0bd
000001e0: f5f9 cabd 54f8 4bbf b843 0940 33ab 66be
000001f0: 4b69 10c0 c6b5 92c0 d5b1 0d40 379c 523e
00000200: 07a0 14bd 0582 373c 210a ab3f 83ae a8bf
00000210: 69e6 1bbf 06f0 39bf 942b 3abe e0cb 71c0
00000220: 33f6 37be 12d2 dcbc 1cac 6f3d 0d77 09be
00000230: f231 4c3c 54a3 6abf 0e20 c7c0 34bd 8abf
00000240: e16e 873f 785a 5fc0 1f0d 5040 7b64 9a3f
00000250: 1ff4 b43d 8fe7 91bd 451c 3c3e d4a2 92bc
00000260: f005 a0bc 75b3 f6bd 8792 af3d 962a 3fbe
00000270: 64e3 9ebf 68e0 673f b6db 80bf d018 d3bd
00000280: b705 a63f bfc7 ab3d 70c6 95bf a810 02bd
00000290: 68f6 c1bf 78e3 ea3e 7621 f7be 4212 babf
000002a0: 4e08 3140 2aa8 b9bd 804e 8abf 7a05 1c3d
000002b0: 343f 15be 267a 703f 46db 71bf 9084 1140
000002c0: 43d3 c1bf 1e5f 093e a0a4 e43f ae87 b2bd
000002d0: 3a08 3cbd 48f0 0f3e 66df d4bd ab40 2fbe
000002e0: 6343 8bbe 868c 64c0 1ca8 af3e fb30 e63e
000002f0: d777 293e 80af 6d3d 8833 a93f c6b1 abbd
00000300: 531e 313e 30da 32be 4916 0d3d 5715 213e
00000310: 0821 87bc 432c a53d a6dd 0e3e eedf 4cbf
00000320: 8362 7b40 6397 c7c0 d01b 25bd dd1a dc3f
00000330: bc37 38be d16a 93bf 54f0 da3d 386d e43f
00000340: cab7 343f 4110 af3f 438b 5ec0 d619 733d
00000350: d462 1e3e 9c75 b4bf 090d f03d 3a59 01bd
00000360: 6434 5ebf f574 8a3f 1e8e 753f 00ed 2a3d
00000370: 12a3 043e 9848 943f e6f0 b63c c0f2 143d
00000380: 8fa7 21be 86f3 4b3d 5864 38bd e553 bc3e
00000390: 945e 08bf dc1a b03f 1bd5 88bd a256 5c3f
000003a0: 9e67 10c0 2456 f9bf 58b9 813d 59c8 a63d
000003b0: 3a40 f43d 6c84 cf3d a97f 02be 774b a3bd
000003c0: 5682 02be 2e91 f1bd bc4b 16bf 59e9 58be
000003d0: f1f8 b2bf 27a9 0a3e 0463 24be 0cac 5c3c
000003e0: c483 12bf c3fd c43d ef8d 0abf 76d1 9ebe
000003f0: f719 03bc 764e e6bf 2cbc 773f 1083 07bf

network.0.bias f4 [128]
-12.854033 -11.898454 -8.222519 -12.498303 -13.19378 -9.156523 -11.63454 -11.906617
-11.631602 -12.156867 -11.263093 -7.0342383 -9.27369 -16.616604 -8.928393 -11.5461645
-15.375839 -12.267338 -6.466613 -10.278539 -10.032569 -8.374318 -7.8517365 -13.948165
-6.9760866 -9.623355 -6.7367153 -11.791017 -7.444246 -8.217534 -12.298383 -11.036792
-6.5660315 -9.794165 -13.70102 -6.988361 -11.05262 -15.550588 -12.618064 -8.97724
-11.023139 -7.712038 -9.830354 -5.0352626 -16.481638 -14.270089 -13.218126 -11.502649
-17.828505 -12.43969 -16.570248 -10.1836815 -6.0153546 -10.316382 -8.451552 -15.2867365
-11.27517 -11.308532 -11.913356 -8.898267 -11.201833 -8.818349 -8.196921 -11.09691
-9.595315 -11.53664 -7.563503 -8.840605 -9.48557 -10.811366 -11.675588 -9.096497
-8.776614 -10.828076 -13.368208 -11.912005 -7.1546006 -5.656296 -12.557056 -9.8518505
-12.844495 -12.927283 -7.7734547 -4.470328 -9.894188 -12.85864 -11.928363 -10.402271
-10.018515 -5.0025516 -13.91015 -13.899897 -9.267338 -8.463104 -3.338698 -9.643536
-8.5213 -13.706823 -10.942481 -5.0412707 -10.23265 -7.2761555 -10.112868 -7.93701
-11.838943 -9.595692 -10.176643 -9.164189 -9.1669855 -13.997232 -8.224367 -6.017088
-14.130075 -13.910958 -9.187994 -10.414647 -12.279996 -7.0478034 -10.4096985 -12.888788
-9.270792 -12.411921 -8.445981 -10.406479 -11.163437 -9.069357 -9.494778 -10.438027
00000000: 1faa 4dc1 1160 3ec1 708f 03c1 0df9 47c1
00000010: b919 53c1 1e81 12c1 1327 3ac1 8181 3ec1
00000020: 0b1b 3ac1 8782 42c1 a135 34c1 7b18 e1c0
00000030: 0961 14c1 ceee 84c1 b3da 0ec1 17bd 38c1
00000040: 7003 76c1 0447 44c1 7eee cec0 e574 24c1
00000050: 6785 20c1 35fd 05c1 6d41 fbc0 af2b 5fc1
00000060: 1a3c dfc0 43f9 19c1 2c93 d7c0 01a8 3cc1
00000070: 4337 eec0 057b 03c1 2dc6 44c1 b396 30c1
00000080: ee1c d2c0 e6b4 1cc1 6137 5bc1 a7a0 dfc0
00000090: 88d7 30c1 35cf 78c1 97e3 49c1 c6a2 0fc1
000000a0: c75e 30c1 04c9 f6c0 2149 1dc1 df20 a1c0
000000b0: 65da 83c1 4952 64c1 727d 53c1 da0a 38c1
000000c0: c7a0 8ec1 f808 47c1 de8f 84c1 5cf0 22c1
000000d0: c97d c0c0 e70f 25c1 8f39 07c1 7996 74c1
000000e0: 1967 34c1 bfef 34c1 1b9d 3ec1 4d5f 0ec1
000000f0: b53a 33c1 f517 0dc1 9726 03c1 f28c 31c1
00000100: 6986 19c1 1496 38c1 3708 f2c0 1e73 0dc1
00000110: e5c4 17c1 5bfb 2cc1 35cf 3ac1 408b 11c1
00000120: 036d 0cc1 cd3f 2dc1 2ee4 55c1 9397 3ec1
00000130: 7df2 e4c0 6000 b5c0 b4e9 48c1 2ea1 1dc1
00000140: 0d83 4dc1 27d6 4ec1 24c0 f8c0 ed0c 8fc0
00000150: 984e 1ec1 fdbc 4dc1 93da 3ec1 b46f 26c1
00000160: d64b 20c1 e714 a0c0 f98f 5ec1 fa65 5ec1
00000170: 0447 14c1 e068 07c1 3aad 55c0 ec4b 1ac1
00000180: 3f57 08c1 264f 5bc1 6714 2fc1 1752 a1c0
00000190: efb8 23c1 44d6 e8c0 4fce 21c1 fcfb fdc0
000001a0: 4f6c 3dc1 f487 19c1 88d3 22c1 85a0 12c1
000001b0: f9ab 12c1 aaf4 5fc1 0297 03c1 fc8b c0c0
000001c0: ca14 62c1 4993 5ec1 0602 13c1 65a2 26c1
000001d0: dd7a 44c1 9b87 e1c0 208e 26c1 7a38 4ec1
000001e0: 2a55 14c1 3a97 46c1 bd22 07c1 f080 26c1
000001f0: 709d 32c1 161c 11c1 9cea 17c1 2902 27c1

network.3.weight f4 [64, 128]
-0.060805365 -0.06439767 -0.085266754 -0.5979723 -0.060083404 0.11206951 -0.24649972 -0.16609
-0.31800005 0.14675125 -0.1346217 -0.26989904 -0.22468142 -0.34937 -0.22538178 -0.63847965
-0.074233934 -0.30609697 -0.22292607 -0.18358696 -0.5122965 -0.5757636 -0.9644935 -0.3350887
-0.0419971 -0.06320809 0.024660515 -0.5761808 -1.1953008 -0.6635613 0.0529666 -0.45474514
0.0025039245 -0.41070324 -0.16068386 -0.63135093 -0.49268353 -0.29774636 -0.24670535 -0.5543178
-0.39222577 -0.35235023 -0.115349256 -0.86775506 -0.724668 -0.7946916 -0.35781002 0.15790926
-0.3998969 -0.3153834 -0.41474444 -0.6061262 -0.18465388 0.0999623 -0.67134565 -0.0018046453
-0.33731195 -0.3748212 -0.2117472 -0.40102342 -0.12766285 -0.18671024 -0.48572767 -0.148298
-0.05655182 -0.19117762 -0.10021115 -0.055189114 -0.3600273 -0.11753377 0.20983985 -0.5736774
-0.9282896 -0.2069669 -0.3749106 -0.1985537 -0.26282993 -0.4322086 -0.20824543 -0.80928284
-0.43504578 -0.1798706 -0.39329866 -0.5328601 -0.36477184 -0.22591524 -0.29610723 -0.43696505
-0.5670136 -0.013544702 -0.5738801 -0.20187666 -0.36704874 -0.3434691 -0.50755197 -0.26570287
-0.33791396 -0.21237633 -0.558049 -0.2762231 -0.2870831 -0.28930634 -0.15690492 0.2702507
-0.055227112 -0.05470706 -0.5049651 -0.14465317 -1.0113369 -0.041203555 -0.56361616 -0.4170273
-0.06267547 -0.021838233 0.016965918 -0.11527177 -0.30336708 -0.15307829 -0.022123627 -0.66365665
-0.09452487 -0.19322504 -0.32032463 -0.42540175 -0.15919374 -0.0097311195 -0.12085226 -0.30988187
-0.080698065 -0.47440875 -0.3228638 -0.2999577 -0.33880207 -0.10588105 -0.35245156 -0.09947503
-0.3060314 -0.48569787 -0.20861498 -0.20685962 -0.47517765 -0.30231208 -0.9643862 -1.228894
-0.090191595 -0.27863112 -0.59767425 -4.558586e-06 -0.026413638 -0.42056185 -0.4302476 -0.3955994
-0.2885732 -0.2587351 -0.058829468 0.029114475 -0.036197744 -0.729794 -0.32404992 -1.1458528
-1.0875355 -0.264177 -0.08874023 -0.50589496 -0.16549097 -0.30430287 -0.48122752 -0.75375515
-0.25875297 -1.5081302 -0.035819076 -0.4157756 -0.017801505 -0.71516705 -1.4850273 -0.33344957
-0.69910955 -0.03986847 -0.9362051 -0.049207035 -0.4522477 -0.23470396 -1.8821378 0.013599393
-0.667376 -0.13875826 -0.38656333 -0.9683559 -0.30148953 -0.15383825 -0.1866685 -0.5856222
-0.62211215 -0.6392068 -0.17982483 -0.11886296 -0.374398 -0.1932012 0.02583212 -0.37367678
-0.118329495 -0.4298125 -0.41801673 -0.14266534 -0.09903098 -0.31425688 -0.4527186 -0.47701347
0.023612589 -0.10892536 -0.4643534 -0.56867063 -0.704021 -1.1030804 -0.66650575 -0.7101722
-0.26342002 -0.20522645 -0.24093264 -0.5415266 -0.57763517 -0.32694075 -0.9326884 -0.5328482
-0.39029458 -0.44632897 -0.6035274 -0.5604809 -0.84866965 -0.049492393 -0.59016407 -0.09789849
0.022765456 -0.12664957 -0.60890377 -0.46257123 -0.118076175 -0.03881719 -0.35895443 -0.11718359
-0.8823225 -0.11117544 -0.43746573 -0.44115528 -0.35911536 -0.30209154 -0.19122185 -0.24046175
-0.3231499 -0.1495646 -0.2868864 -1.056255 -0.6932683 0.018598361 -0.88498086 -1.3366116
00000000: 0c0f 79bd ede2 83bd 56a0 aebd b614 19bf
00000010: 041a 76bd b384 e53d 6c6a 7cbe 7f13 2abe
00000020: e7d0 a2be f645 163e 45da 09be 3530 8abe
00000030: e312 66be a0e0 b2be 7bca 66be 6773 23bf
00000040: f607 98bd beb8 9cbe bb46 64be 38fe 3bbe
00000050: dd25 03bf 3e65 13bf 0ce9 76bf bf90 abbe
00000060: 2705 2cbd 3e73 81bd d904 ca3c 9680 13bf
00000070: 9eff 98bf 27df 29bf 81f3 583d 5bd4 e8be
00000080: e218 243b b247 d2be 4f8a 24be 37a0 21bf
00000090: 0441 fcbe 3672 98be 54a0 7cbe c5e7 0dbf
000000a0: d1d1 c8be 4067 b4be 3b3c ecbd 3225 5ebf
000000b0: d883 39bf e970 4bbf e032 b7be f7b2 213e
000000c0: 49bf ccbe ef79 a1be 6259 d4be 162b 1bbf
000000d0: e815 3dbe 09b9 cc3d 4fdd 2bbf d989 ecba
000000e0: 27b4 acbe 90e8 bfbe 42d4 58be f152 cdbe
000000f0: 0dba 02be f830 3fbe 4cb1 f8be 6edb 17be
00000100: e2a2 67bd 11c4 43be 813b cdbd fb0d 62bd
00000110: 8055 b8be 8cb5 f0bd 42e0 563e 86dc 12bf
00000120: 63a4 6dbf 22ef 53be 48f4 bfbe a951 4bbe
00000130: a591 86be 724a ddbe 4a3e 55be 292d 4fbf
00000140: 52be debe 0030 38be 715e c9be 8569 08bf
00000150: 60c3 babe 5356 67be 5e9b 97be e2b9 dfbe
00000160: ce27 11bf 99ea 5dbc cee9 12bf c1b8 4ebe
00000170: d0ed bbbe 2fdb afbe edee 01bf 350a 88be
00000180: 0f03 adbe 2e79 59be 4ddc 0ebf 1d6d 8dbe
00000190: 8efc 92be f61f 94be afab 20be 4d5e 8a3e
000001a0: d335 62bd 8314 60bd 6545 01bf f61f 14be
000001b0: 7d73 81bf 0fc5 28bd 2649 10bf 9a84 d5be
000001c0: ff5b 80bd 18e6 b2bc 1cfc 8a3c 9b13 ecbd
000001d0: ee52 9bbe 8ec0 1cbe 9c3c b5bc 67e5 29bf
000001e0: 4196 c1bd c9dc 45be 9701 a4be 42ce d9be
000001f0: af03 23be 466f 1fbc 6481 f7bd d6a8 9ebe
00000200: 0745 a5bd b4e5 f2be 674e a5be 0e94 99be
00000210: 7777 adbe 2ad8 d8bd 8874 b4be 91b9 cbbd
00000220: 26b0 9cbe 64ad f8be 2a9f 55be 02d3 53be
00000230: 7c4a f3be a6c8 9abe 04e2 76bf 664c 9dbf
00000240: 5fb6 b8bd bda8 8ebe 2e01 19bf f5f5 98b6
00000250: 6a61 d8bc e253 d7be 6a49 dcbe 018c cabe
00000260: debf 93be ed78 84be 2bf7 70bd 7b81 ee3c
00000270: 1644 14bd c8d3 3abf dfe9 a5be 4eab 92bf
00000280: 5d34 8bbf 3542 87be 70bd b5bd 5582 01bf
00000290: 7776 29be 96cd 9bbe 7463 f6be 19f6 40bf
000002a0: 457b 84be 690a c1bf 06b7 12bd 8ae0 d4be
000002b0: 76d4 91bc 3015 37bf 6015 bebf e7b9 aabe
000002c0: d8f8 32bf 1f4d 23bd 23ab 6fbf 518d 49bd
000002d0: 038d e7be 3c56 70be e4e9 f0bf fdcf 5e3c
000002e0: 27d9 2abf a516 0ebe a1eb c5be 2ce6 77bf
000002f0: d65c 9abe c687 1dbe 0726 3fbe 56eb 15bf
00000300: be42 1fbf 0fa3 23bf 0024 38be 6c6e f3bd
00000310: 18b1 bfbe 89d6 45be e29d d33c 9052 bfbe
00000320: bc56 f2bd 6210 dcbe 4a06 d6be dd16 12be
00000330: c1d0 cabd 47e6 a0be bbca e7be 1c3b f4be
00000340: 306f c13c 4214 dfbd bbbf edbe 6694 11bf
00000350: b83a 34bf bd31 8dbf 1fa0 2abf d8cd 35bf
00000360: fdde 86be e226 52be 0cb7 76be 7da1 0abf
00000370: e6df 13bf c764 a7be abc4 6ebf bd68 08bf
00000380: b1d4 c7be 3b85 e4be c680 1abf ad7b 0fbf
00000390: 6a42 59bf 89b8 4abd fe14 17bf 017f c8bd
000003a0: 9f7e ba3c 6db0 01be 1ee1 1bbf 23d6 ecbe
000003b0: ecd1 f1bd c6fe 1ebd e0c8 b7be f3fd efbd
000003c0: e3df 61bf f3af e3bd 82fb dfbe 1bdf e1be
000003d0: f8dd b7be beab 9abe a9cf 43be 9b3b 76be
000003e0: e773 a5be 7627 19be c6e2 92be 5d33 87bf
000003f0: 087a 31bf 975b 983c 1b8e 62bf 1716 abbf

network.3.bias f4 [64]
-2.9508386 -2.4447098 -2.2256386 -3.3647826 -2.2529058 -2.664648 -2.5050457 -3.448763
-1.5734569 -2.2058387 -2.4347332 -1.8803258 -2.954231 -3.234032 -2.1935592 -2.3538835
-2.288091 -3.6410606 -1.419486 -2.3268485 -2.5238724 -2.9078758 -2.054839 -2.432423
-2.1745448 -1.5644027 -2.5431137 -3.410913 -2.924198 -1.9275327 -2.9647489 -2.8371804
-1.2742137 -3.0131955 -3.6993861 -2.2248094 -2.5843408 -2.3817801 0.59164304 -1.7129697
-2.4931931 -3.3672972 -2.0709052 -3.2555828 -2.778366 -3.4306889 -3.8133688 -2.4812655
-1.5231067 -2.0115635 -1.8235818 -2.9205916 -3.9354918 1.086253 -4.500988 -3.732204
-4.3870993 -1.2889518 -3.6242926 -2.2048786 -2.3537693 -2.6316035 0.7928117 -2.1203516
00000000: 8ada 3cc0 2076 1cc0 dd70 0ec0 9958 57c0
00000010: 9c2f 10c0 9889 2ac0 ab52 20c0 88b8 5cc0
00000020: 0967 c9bf 762c 0dc0 abd2 1bc0 84ae f0bf
00000030: 1f12 3dc0 61fa 4ec0 4663 0cc0 07a6 16c0
00000040: 1570 12c0 2307 69c0 b8b1 b5bf 16eb 14c0
00000050: 2087 21c0 a31a 3ac0 7b82 03c0 d2ac 1bc0
00000060: be2b 0bc0 593e c8bf 60c2 22c0 664c 5ac0
00000070: 0f26 3bc0 64b9 f6bf 72be 3dc0 5d94 35c0
00000080: 6f19 a3bf 32d8 40c0 bec2 6cc0 4763 0ec0
00000090: d765 25c0 166f 18c0 eb75 173f 9742 dbbf
000000a0: 7a90 1fc0 cc81 57c0 b689 04c0 785b 50c0
000000b0: c0d0 31c0 6890 5bc0 3c0e 74c0 0ecd 1ec0
000000c0: 29f5 c2bf 75bd 00c0 216b e9bf f9ea 3ac0
000000d0: 19df 7bc0 570a 8b3f 1808 90c0 6edc 6ec0
000000e0: 1e63 8cc0 5ffc a4bf 69f4 67c0 bb1c 0dc0
000000f0: 28a4 16c0 316c 28c0 b5f5 4a3f d7b3 07c0

network.6.weight f4 [5, 64]
-0.12245189 0.12684369 0.22019236 -0.18464103 -0.14903048 -0.1516074 0.19795291 -0.08139873
-0.15017255 -0.08685285 -0.06618954 -0.18248427 -0.0886625 0.05788852 0.057716094 -0.21729663
0.033209186 0.0738718 0.118261635 -0.09871799 0.0755262 0.07044085 0.010317173 0.11797681
0.13092239 0.02622239 -0.053709913 -0.2548572 -0.09820913 -0.09980732 0.06340959 0.22778809
0.0149846105 0.1796207 0.26141247 -0.2947631 0.04772016 -0.20804964 -0.15649617 -0.17259845
-0.28868666 -0.15802549 -0.014709841 0.26037398 -0.075217895 -0.13124716 0.010431354 0.13598016
0.045511097 0.067613356 -0.27358773 -0.08323139 -0.1647342 -0.10515573 0.27360985 0.15360048
-0.2931655 -0.21930277 0.00995535 -0.12953122 -0.29269883 0.115397505 -0.12768383 0.024080502
-0.047550626 0.23218267 0.20623972 0.06273581 -0.4504238 0.14596447 -0.13057454 0.092629425
0.044178635 0.06301186 -0.25860992 -0.21980576 0.20011832 0.14498398 -0.13009769 -0.11834588
-0.06551525 0.48280704 -0.3787134 0.0067098974 0.21219423 -0.116986886 -0.31161636 0.20903519
-0.11013533 -0.2963993 -0.58013856 -0.10660971 -0.17292665 0.13331933 -0.19866396 -0.06047977
-0.46125397 0.37018394 0.00587755 0.16787516 -0.17663704 0.2320724 0.060888063 -0.14228985
-0.102218345 -0.24871701 0.16352998 -0.30971497 -0.035818327 0.0378434 0.32464597 0.022310458
0.011102028 -0.21521321 -0.25197592 0.10049937 0.4158948 -0.23986572 -0.28643936 -0.46599254
-0.78041035 0.2085822 0.17476249 -0.065439254 0.24102801 -0.1272486 -0.16405152 -0.38640836
0.06632588 -0.14562471 -0.33066604 -0.010708264 0.018077176 -0.1891004 0.24592155 0.21311513
0.12626809 -0.5814737 -0.19884576 0.33999416 -0.086099744 0.15525088 -0.22116475 -0.22249989
-0.0097473245 -0.1434134 -0.038476694 0.41935188 0.14503464 -0.10587211 0.07587008 -0.042313002
0.21416715 -0.22536092 0.14741585 0.07760011 0.022211505 -0.20043719 0.24958724 -0.067166306
0.095727384 -0.01753477 -0.013381606 0.08209877 -0.26173916 -0.13360842 0.21253994 -0.16182825
-0.20600726 0.19266176 0.23411684 -0.37013626 0.26302698 -0.3228459 -0.06235285 -0.30412406
-0.031753287 -0.01627525 -0.20179915 0.30672282 -0.2579364 0.17487872 -0.13768835 -0.2763423
0.26265708 -0.24534935 -0.34296843 0.31383964 -0.081051216 0.47054636 -0.5361741 0.12448665
-0.23092377 0.14763936 -0.051627733 -0.108874686 0.01777729 0.051580794 0.22316448 -0.39192775
-0.18411444 -0.4637514 0.09374106 -0.110481046 0.087788045 0.036465038 0.09288126 0.12941523
-0.1775788 0.11515107 0.12790723 0.43906912 0.09970004 0.11758742 -0.044915497 0.06075172
-0.056956388 0.038563866 -0.16668306 -0.024951832 -0.106971815 -0.043549802 0.054157946 -0.031967867
0.027040603 0.22227637 0.12186404 -0.15907155 -0.33148858 -0.16848311 0.35665965 -0.112756446
0.08884603 0.1068377 -0.12157943 0.3325555 -0.034411654 0.121907264 -0.07326982 0.07513694
0.11563088 0.03148358 0.040354244 -0.18848348 0.15359683 0.19839871 0.10818626 0.35800076
0.24233633 0.02543724 0.077811696 0.055183154 -0.10028417 -0.20030607 -0.0006784382 0.13890427
00000000: 0ec8 fabd 50e3 013e 1b7a 613e 8a12 3dbe
00000010: 729b 18be f83e 1bbe 2bb4 4a3e 61b4 a6bd
00000020: d5c6 19be e8df b1bd 628e 87bd 28dd 3abe
00000030: af94 b5bd 831c 6d3d b667 6c3d 0283 5ebe
00000040: 5b06 083d 194a 973d 2833 f23d a82c cabd
00000050: 7bad 9a3d 4b43 903d 5c09 293c d39d f13d
00000060: 8510 063e 56d0 d63c edfe 5bbd a57c 82be
00000070: de21 c9bd c867 ccbd e3dc 813d 4841 693e
00000080: 0382 753c 7dee 373e dbd7 853e 30eb 96be
00000090: 3776 433d f70a 55be 8840 20be a6bd 30be
000000a0: bdce 93be 6fd1 21be 8c01 71bc bd4f 853e
000000b0: d70b 9abd a865 06be 45e8 2a3c 623e 0b3e
000000c0: d869 3a3d df78 8a3d b113 8cbe 3875 aabd
000000d0: 15b0 28be e35b d7bd 9716 8c3e 7249 1d3e
000000e0: ca19 96be e890 60be c41b 233c d5a3 04be
000000f0: 9fdc 95be 8755 ec3d 8dbf 02be 7944 c53c
00000100: 72c4 42bd 4bc1 6d3e 8130 533e a27b 803d
00000110: f39d e6be b677 153e 55b5 05be 7fb4 bd3d
00000120: a8f4 343d 5d0c 813d 8568 84be c314 61be
00000130: d1eb 4c3e ae76 143e 5438 05be 535f f2bd
00000140: dc2c 86bd 7c32 f73e b9e6 c1be b3de db3b
00000150: 7249 593e d296 efbd 2e8c 9fbe 520d 563e
00000160: a28e e1bd a6c1 97be f683 14bf 3156 dabd
00000170: af13 31be dd84 083e 916e 4bbe a3b9 77bd
00000180: 7b29 ecbe c088 bd3e 7798 c03b 77e7 2b3e
00000190: 57e0 34be 63a4 6d3e c365 793d 6eb4 11be
000001a0: da57 d1bd acaf 7ebe 6774 273e f692 9ebe
000001b0: 3db6 12bd ae01 1b3d ff37 a63e 6cc4 b63c
000001c0: 48e5 353c da60 5cbe fd02 81be 9dd2 cd3d
000001d0: 2af0 d43e 5c9f 75be 2ea8 92be 9396 eebe
000001e0: f9c8 47bf 9296 553e f0f4 323e 0405 86bd
000001f0: 0cd0 763e 754d 02be 1ffd 27be 51d7 c5be
00000200: ddd5 873d a51e 15be 0f4d a9be b771 2fbc
00000210: 9616 943c 89a3 41be dcd2 7b3e da3a 5a3e
00000220: 6c4c 013e 76db 14bf 399e 4bbe b713 ae3e
00000230: 1055 b0bd 16fa 1e3e 0379 62be 03d7 63be
00000240: 3eb3 1fbc f6da 12be bd99 1dbd 4ab5 d63e
00000250: f683 143e 7ad3 d8bd c661 9b3d 6650 2dbd
00000260: a24e 5b3e 03c5 66be 2ef4 163e ceec 9e3d
00000270: e7f4 b53c 683f 4dbe cc93 7f3e 7d8e 89bd
00000280: b80c c43d 14a5 8fbc 863e 5bbc 6623 a83d
00000290: ad02 86be a5d0 08be 12a4 593e 4eb6 25be
000002a0: 91f3 52be 2049 453e 53bc 6f3e 8082 bdbe
000002b0: 79ab 863e 0f4c a5be b465 7fbd 26b6 9bbe
000002c0: bc0f 02bd ac53 85bc 70a4 4ebe c60a 9d3e
000002d0: 3d10 84be 6813 333e 2dfe 0cbe bd7c 8dbe
000002e0: fd7a 863e dc3c 7bbe 8f99 afbe 97af a03e
000002f0: 2efe a5bd 74eb f03e b542 09bf dbf2 fe3d
00000300: 4877 6cbe c62e 173e 9a77 53bd b1f9 debd
00000310: aea1 913c 6246 533d 3b85 643e c1aa c8be
00000320: 7f88 3cbe d370 edbe 50fb bf3d e343 e2bd
00000330: 38ca b33d 5d5c 153d 8838 be3d 6d85 043e
00000340: 38d7 35be 53d4 eb3d 1dfa 023e abcd e03e
00000350: 892f cc3d acd1 f03d 50f9 37bd ccd6 783d
00000360: 1a4b 69bd 25f5 1d3d f7ae 2abe c967 ccbc
00000370: 0a14 dbbd 4761 32bd b9d4 5d3d bdf0 02bd
00000380: 4184 dd3c 6b9c 633e db93 f93d a7e3 22be
00000390: dfb8 a9be d686 2cbe 189c b63e daec e6bd
000003a0: e8f4 b53d b9cd da3d a3fe f8bd b744 aa3e
000003b0: 3cf3 0cbd 84aa f93d 7d0e 96bd 65e1 993d
000003c0: e2cf ec3d edf4 003d 7e4a 253d d001 41be
000003d0: 7d48 1d3e 0829 4b3e c290 dd3d e04b b73e
000003e0: 0427 783e c261 d03c bd5b 9f3d bb07 623d
000003f0: c961 cdbd 091d 4dbe 38d9 31ba ec3c 0e3e

network.6.bias f4 [5]
0.2041235 -0.1467304 0.019473413 0.28226703 0.032190636
00000000: c005 513e 7e40 16be b586 9f3c 4e85 903e
00000010: 54da 033d
