experiments/checkpoints/20251210_110803/checkpoint_ep129.pt (torch, 246605 bytes, 24 tensors)

network.0.weight f4 [128, 43]
0	0xbba516b0	-0.005038105
1	0xbf5064be	-0.8140372
2	0x3f1e1f50	0.6176653
3	0xbfc81ecf	-1.5634402
4	0xbff4bc59	-1.9119979
5	0xbe23f0cc	-0.16009825
6	0x3fb136d5	1.3844858
7	0x3e0cba4a	0.13742939
8	0x3e281da5	0.16417558
9	0xbe260874	-0.16214162
10	0xbc90cf01	-0.017676832
11	0xbdecae38	-0.11556667
12	0x3f8f9e4b	1.1220182
13	0xbee88e2e	-0.45420974
14	0x3e060ed9	0.13091601
15	0xbf189bb7	-0.596126
16	0xbfd1c531	-1.6388303
17	0x3ff2bf75	1.8964678
18	0x3f592521	0.8482228
19	0xbda3ad03	-0.07991984
20	0xbe0c73f5	-0.13716109
21	0xbdb3bed6	-0.087766334
22	0x3e04f83c	0.12985319
23	0xbaa768ab	-0.0012772282
24	0xbdbb1633	-0.091350935
25	0x3e2b9e1f	0.16759537
26	0xbd3c7f56	-0.046019875
27	0xbfce3996	-1.6111324
28	0x401c1a81	2.4391177
29	0xbf9440f7	-1.1582326
30	0x3d8bc032	0.06823768
31	0x3fcc4a98	1.5960264
32	0xbe3ac577	-0.1823939
33	0xbfae7c68	-1.3631716
34	0x3e23ad9c	0.15984195
35	0x3e43caf7	0.19120394
36	0xbf54bef4	-0.8310387
37	0x3fcecf7e	1.6157072
38	0xc01854e1	-2.3801806
39	0xc0414d64	-3.0203485
40	0x403c30fe	2.9404902
41	0xc01161e1	-2.271599
42	0x3d1a9b04	0.03774549
43	0xbe2927d1	-0.16519095
44	0x40065f91	2.099583
45	0xbff9cde3	-1.9515957
46	0xbf99babb	-1.2010111
47	0xbe76df0f	-0.24108528
48	0xbe3d0570	-0.18459105
49	0xc09af29e	-4.8421164
50	0x3da94854	0.082657486
51	0x3dbbbb85	0.09166626
52	0xbd1bbe7b	-0.038023453
53	0x3d2c077c	0.041999325
54	0x3d34abc5	0.044109125
55	0xbfce4258	-1.6113997
56	0xc03c349f	-2.9407117
57	0xbe59cf63	-0.21270518
58	0x3f3cad7d	0.7370222
59	0xc0332b9a	-2.7995362
60	0xbf3499e2	-0.70547307
61	0xbf162173	-0.5864479
62	0xbe3e60d6	-0.18591627
63	0x3d7b8b31	0.06141204
64	0x3da80e0f	0.082058065
65	0xbda6aadc	-0.081380576
66	0x3dedc522	0.11609866
67	0xbd3ed13a	-0.046586253
68	0xbdc55758	-0.096358
69	0x3dc6877a	0.09693809
70	0x3e73bd18	0.23802602
71	0xc0167c9f	-2.3513563
72	0x4012b237	2.2921274
73	0x3e2097d8	0.15682924
74	0xbfb7c6d0	-1.4357548
75	0xbd893b11	-0.06700719
76	0x3e5d9fc6	0.2164298
77	0xbdfc5650	-0.1232115
78	0xc00840dc	-2.1289587
79	0x3fa8c014	1.3183618
80	0xc0236f6c	-2.5536757
81	0xbfc89929	-1.5671741
82	0xbf303234	-0.68826604
83	0x404b1b47	3.1735399
84	0xbf4c1ed9	-0.7973457
85	0x3dc63fb6	0.09680121
86	0x3da9e739	0.08296055
87	0xbfd56308	-1.6670847
88	0x3fdd403c	1.7285228
89	0x3feb7de0	1.8397789
90	0xbfed00fe	-1.8515928
91	0xbda57b22	-0.08080126
92	0x3fc6b491	1.5523854
93	0x3d31cc3f	0.043407675
94	0x3d26b0ad	0.040695835
95	0xbdbfcfa9	-0.0936578
96	0xbd09e661	-0.033666972
97	0xbb9b7777	-0.004744466
98	0xc0f39701	-7.612183
99	0xc06600fd	-3.5938103
100	0xbfabc00a	-1.3417981
101	0x3efe0a99	0.4961746
102	0xbfe848c2	-1.8147204
103	0x408341fe	4.1018057
104	0xbf1bff8e	-0.6093682
105	0x3d1c576d	0.038169313
106	0xbe3c52b5	-0.18390925
107	0x3e23852d	0.15968771
108	0x3dc7dab6	0.09758513
109	0xbe33d824	-0.1756292
110	0x3d757e98	0.059935182
111	0xbe19b20a	-0.15009323
112	0x3c885dd5	0.016646305
113	0xbedb81ce	-0.4287247
114	0xbd41112a	-0.04713551
115	0xc0162044	-2.3457193
116	0xbe2ade46	-0.16686353
117	0xbec1563c	-0.37761104
118	0x3e0d0a16	0.13773379
119	0xbeeb84d7	-0.45999786
120	0xbdcaf9f5	-0.09910957
121	0x3e1d89bf	0.15384577
122	0x400435ce	2.065784
123	0x3fc5757e	1.5426481
124	0xbf8e7e0d	-1.1132218
125	0xbdafedf7	-0.0859031
126	0x3fcb75e8	1.5895357
127	0x3e9d4d1b	0.3072289
128	0xbd14a007	-0.036285426
129	0x3c378205	0.011200433
130	0x3fd1b344	1.6382833
131	0xbfcf57b6	-1.6198642
132	0xbe0ec84d	-0.13943596
133	0xbf4b5d68	-0.794394
134	0xbe3a2b94	-0.18180686
135	0xc044d2dc	-3.0753698
136	0xbe37f633	-0.17965011
137	0xbcdcd212	-0.026955638
138	0x3d6fac1c	0.058513746
139	0xbe097709	-0.13424315
140	0x3c4c31f2	0.01246308
141	0xc008d003	-2.137696
142	0xc0d8212f	-6.7540507
143	0xbea725fd	-0.3264617
144	0xbf900119	-1.1250335
145	0xc0598003	-3.3984382
146	0x3fdc5cbf	1.7215804
147	0xbf85450e	-1.0411699
148	0x3db4f41f	0.08835625
149	0xbd91e78f	-0.071242444
150	0x3e3c1c45	0.18370159
151	0xbc92a2d4	-0.017899908
152	0xbca005f0	-0.019534081
153	0xbdf6b375	-0.120459475
154	0x3daf927f	0.08572864
155	0xbe3f2a96	-0.18668589
156	0xbf221ae5	-0.6332229
157	0x3f56969d	0.8382357
158	0xbfcd4b0e	-1.603853
159	0xbdd318d0	-0.10307467
160	0xc01ae828	-2.4204197
161	0x3dabc7bf	0.08387708
162	0xbf0fe0a0	-0.56202126
163	0xbd0210a8	-0.031754166
164	0xbfac77e0	-1.3474083
165	0x3fc4749f	1.534809
166	0x3fab1bac	1.336782
167	0xbfd328b7	-1.64968
168	0x4000103e	2.0009913
169	0x3fa38304	1.2774358
170	0xbfe976d5	-1.823939
171	0x3d1c057a	0.03809116
172	0xbe153f34	-0.14574891
173	0x3f974387	1.1817483
174	0xbf97f405	-1.1871344
175	0x401c005d	2.4375222
176	0xbfe532f8	-1.790618
177	0x3e095f1e	0.1341519
178	0x3ff87f04	1.9413762
179	0xbdb287ae	-0.08717285
180	0xbd3c083a	-0.045906283
181	0x3e0ff048	0.14056504
182	0xbdd4df66	-0.10394172
183	0xbe2f40ab	-0.17114513
184	0xbd81469a	-0.06312294
185	0xc04bb6f3	-3.1830413
186	0xbd726eb3	-0.059187602
187	0x3f231d38	0.6371646
188	0x3ec54df0	0.38536024
189	0x3e123153	0.14276628
190	0x3fe67d68	1.8007021
191	0xbdabb1c6	-0.08383517
192	0x3e311e53	0.17296724
193	0xbe32da30	-0.17466044
194	0x3d0d1649	0.03444508
195	0x3e211557	0.15730797
196	0xbc872108	-0.016495243
197	0x3da52c43	0.08065083
198	0x3e0edda6	0.1395174
199	0xbf85b6c3	-1.04464
200	0x406c2c85	3.6902173
201	0xc0d24a20	-6.5715485
202	0xbd251bd0	-0.040309727
203	0x3fba3534	1.4547486
204	0xbe3837bc	-0.17990011
205	0xbfb2b17b	-1.3960413
206	0x3ddaf054	0.1069037
207	0x4008570b	2.1303127
208	0x3f889416	1.0670192
209	0x3fb0d09e	1.3813665
210	0xc044842f	-3.0705678
211	0x3e91fab6	0.2851159
212	0x3ee4667f	0.44609448
213	0xbfdfe5fb	-1.749206
214	0x3df00d09	0.11721236
215	0xbd01593a	-0.031579234
216	0xbf5e355f	-0.8680019
217	0x3f8a7514	1.081698
218	0x3f758d50	0.9591875
219	0x3d2b0f56	0.041762672
220	0x3e04a312	0.12952831
221	0x3f9449cb	1.158502
222	0x3cb6f0e6	0.022331666
223	0x3d14f2c0	0.036364317
224	0xbe21a78f	-0.15786575
225	0x3d4bf386	0.04979279
226	0xbd38644d	-0.04501753
227	0x3ebc55e4	0.3678428
228	0xbf085de8	-0.5326829
229	0x3fb01a35	1.3757998
230	0xbd88ddfb	-0.066829644
231	0x3f5c578f	0.86071104
232	0xc01067b6	-2.25633
233	0xbff95621	-1.947941
234	0x3d81b958	0.0633418
235	0x3da6c859	0.08143682
236	0x3df4403a	0.11926313
237	0x3dcf846c	0.10132679
238	0xbe027fa9	-0.12744011
239	0xbda34b77	-0.07973378
240	0xbe028256	-0.12745032
241	0xbdf1912e	-0.11795269
242	0xbf164ae3	-0.5870802
243	0xbe58e8d2	-0.21182564
244	0xbfb2fa07	-1.3982552
245	0x3e0aa927	0.13541089
246	0xbe2457c1	-0.160491
247	0x3c5cac0c	0.013468754
248	0xbf128361	-0.5723172
249	0x3dc4fdc3	0.09618714
250	0xbf0a8f42	-0.54124844
251	0xbe9ed185	-0.31019226
252	0xbc03419d	-0.008011249
253	0xbfe64fa1	-1.7993051
254	0x3f77bd67	0.9677338
255	0xbf078220	-0.5293293

network.0.bias f4 [128]
0	0xc14dae19	-12.855004
1	0xc130e38f	-11.055556
2	0xc0d4a524	-6.645159
3	0xc1211a9f	-10.068999
4	0xc14cc8f3	-12.79906
5	0xc11281db	-9.156703
6	0xc1200dd3	-10.003375
7	0xc11cfc38	-9.811577
8	0xc10c975a	-8.786951
9	0xc11edb81	-9.92859
10	0xc1333348	-11.20002
11	0xc0c855fe	-6.260497
12	0xc118f1ad	-9.559003
13	0xc14520af	-12.320479
14	0xc10852c8	-8.52021
15	0xc1312bdc	-11.073208
16	0xc126455c	-10.391933
17	0xc13a6732	-11.650194
18	0xc0abb6d8	-5.36607
19	0xc12475ca	-10.278757
20	0xc12085fd	-10.032712
21	0xc105fdba	-8.374445
22	0xc0fb4237	-7.851833
23	0xc12f0f42	-10.941225
24	0xc0df3c91	-6.9761434
25	0xc108344b	-8.512767
26	0xc0e23132	-7.0685053
27	0xc1094fcd	-8.581983
28	0xc0ee379c	-7.4442883
29	0xc1037b73	-8.217639
30	0xc134418c	-11.266003
31	0xc1224526	-10.141882
32	0xc0cd77ca	-6.4208727
33	0xc1103e88	-9.015266
34	0xc15282e1	-13.156953
35	0xc0a028b9	-5.004971
36	0xc130d7ed	-11.052716
37	0xc13926c0	-11.57196
38	0xc138237c	-11.508663
39	0xc10ad2ab	-8.676433
40	0xc12b5bf1	-10.709947
41	0xc0f6c901	-7.7120366
42	0xc11d49cb	-9.830516
43	0xc0a12176	-5.0353346
44	0xc135a12a	-11.351847
45	0xc134f8cd	-11.310742
46	0xc1147ecd	-9.280957
47	0xc128f2fb	-10.559321
48	0xc152dc01	-13.178712
49	0xc12c64b8	-10.77459
50	0xc1583d67	-13.514991
51	0xc11de435	-9.868215
52	0xc0c07e01	-6.0153813
53	0xc1251023	-10.31644
54	0xc1073ac0	-8.451843
55	0xc13bf6e9	-11.747781
56	0xc10f9f85	-8.976445
57	0xc134f1ab	-11.309001
58	0xc11f21e0	-9.94577
59	0xc10e5fba	-8.898371
60	0xc1333b9a	-11.202051
61	0xc10d1852	-8.818438
62	0xc0baee70	-5.841606
63	0xc106fd8c	-8.436901
64	0xc0e2ebe1	-7.091294
65	0xc0f2d54b	-7.5885367
66	0xc0f62482	-7.6919565
67	0xc101d84a	-8.115305
68	0xc112b526	-9.169226
69	0xc11e8767	-9.908057
70	0xc13acfdb	-11.675746
71	0xc102885a	-8.158289
72	0xc0f41e58	-7.628704
73	0xc104bfe6	-8.29685
74	0xc148327e	-12.512327
75	0xc12e3219	-10.887231
76	0xc0d41731	-6.627831
77	0xc0b50100	-5.656372
78	0xc1174969	-9.455422
79	0xc11d4060	-9.828217
80	0xc130d63c	-11.052303
81	0xc11755fe	-9.458494
82	0xc0f8c0d1	-7.773537
83	0xc03a9394	-2.9152575
84	0xc1030ea8	-8.191078
85	0xc124ec70	-10.307724
86	0xc11596be	-9.349302
87	0xc118d157	-9.551108
88	0xc11bafb1	-9.730393
89	0xc0a01569	-5.0026135
90	0xc130ce72	-11.050402
91	0xc1401ab5	-12.00652
92	0xc0a81829	-5.252949
93	0xc107283a	-8.447321
94	0xc055adc0	-3.3387299
95	0xc1163156	-9.387045
96	0xc1042011	-8.257829
97	0xc13b6098	-11.711082
98	0xc12f152c	-10.942669
99	0xc0a152b0	-5.0413437
100	0xc123b97d	-10.232785
101	0xc0acbf49	-5.3983502
102	0xc121ced0	-10.112991
103	0xc0fdfc46	-7.937045
104	0xc1362314	-11.383564
105	0xc120c1ae	-10.047285
106	0xc0ea4e2e	-7.3220434
107	0xc112a19b	-9.164454
108	0xc112b0ad	-9.168134
109	0xc11b4585	-9.704473
110	0xc1039734	-8.224415
111	0xc0b21007	-5.5644565
112	0xc13ab669	-11.669534
113	0xc143faa1	-12.248689
114	0xc1130222	-9.188021
115	0xc119a280	-9.602173
116	0xc13b04be	-11.688658
117	0xc0e187d9	-7.047833
118	0xc1073523	-8.450473
119	0xc11b486d	-9.705182
120	0xc0b30155	-5.5939126
121	0xc119bd3b	-9.608699
122	0xc0a73bbf	-5.226043
123	0xc12683b4	-10.407154
124	0xc132cfcf	-11.1757345
125	0xc1111c3d	-9.069394
126	0xc0c69525	-6.205706
127	0xc127046e	-10.438581

network.3.weight f4 [64, 128]
0	0xbd790fbb	-0.060806017
1	0xbd83e353	-0.06439843
2	0xbdaea042	-0.085266605
3	0xbf19155f	-0.59798235
4	0xbd761aaa	-0.060084023
5	0x3de584d9	0.11206979
6	0xbe7c6a79	-0.24649991
7	0xbe2a1397	-0.16609035
8	0xbea2d0e6	-0.31800002
9	0x3e164631	0.14675213
10	0xbe09dae9	-0.13462414
11	0xbe8a30ce	-0.2699036
12	0xbe661383	-0.2246838
13	0xbeb2e0d3	-0.34937152
14	0xbe66ca70	-0.22538161
15	0xbf2373bc	-0.6384847
16	0xbd98082e	-0.07423435
17	0xbe9cb8d0	-0.3060975
18	0xbe644764	-0.22292858
19	0xbe3bfea5	-0.18358858
20	0xbf032698	-0.51230764
21	0xbf13657b	-0.5757672
22	0xbf76e93a	-0.96449625
23	0xbeab9174	-0.3350941
24	0xbd2c05dc	-0.041997775
25	0xbd8174be	-0.06321095
26	0x3cca04d5	0.024660507
27	0xbf1380f3	-0.57618636
28	0xbf98ffb8	-1.1953039
29	0xbf29df23	-0.66356105
30	0x3d58f369	0.05296651
31	0xbee8d4f2	-0.45474964
32	0x3b241700	0.0025038123
33	0xbed24848	-0.4107077
34	0xbe248abe	-0.16068551
35	0xbf21a06f	-0.6313543
36	0xbefc412a	-0.49268466
37	0xbe9872ac	-0.29774988
38	0xbe7ca04c	-0.24670523
39	0xbf0de7eb	-0.55432004
40	0xbec8d1c6	-0.39222544
41	0xbeb4675b	-0.35235104
42	0xbdec3c7e	-0.115349755
43	0xbf5e2552	-0.86775696
44	0xbf39840d	-0.7246712
45	0xbf4b70de	-0.79469097
46	0xbeb7339a	-0.35781556
47	0x3e21b386	0.15791139
48	0xbeccbfe7	-0.3999016
49	0xbea179f7	-0.31538364
50	0xbed45a18	-0.41474986
51	0xbf1b2b68	-0.6061311
52	0xbe3d169a	-0.18465653
53	0x3dccb91a	0.09996243
54	0xbf2bddcc	-0.6713531
55	0xbaec8b9a	-0.0018046976
56	0xbeacb43e	-0.33731264
57	0xbebfe910	-0.374825
58	0xbe58d49c	-0.21174854
59	0xbecd52f1	-0.40102342
60	0xbe02ba49	-0.12766375
61	0xbe3f3151	-0.18671156
62	0xbef8b16d	-0.48572865
63	0xbe17dc00	-0.14830017
64	0xbd67a228	-0.05655113
65	0xbe43c4ad	-0.19117995
66	0xbdcd3bc3	-0.10021164
67	0xbd620e53	-0.055189442
68	0xbeb855c7	-0.36002943
69	0xbdf0b5b5	-0.11753408
70	0x3e56e053	0.2098401
71	0xbf12dcbc	-0.57368064
72	0xbf6da513	-0.9283001
73	0xbe53ef36	-0.2069672
74	0xbebff4c6	-0.37491435
75	0xbe4b5202	-0.19855502
76	0xbe8691dd	-0.2628316
77	0xbedd4ab7	-0.43221065
78	0xbe553eee	-0.20824787
79	0xbf4f2d99	-0.8092895
80	0xbedebe66	-0.43504637
81	0xbe383028	-0.1798712
82	0xbec95e6e	-0.39329857
83	0xbf086a39	-0.5328708
84	0xbebac3d3	-0.36477527
85	0xbe675690	-0.22591615
86	0xbe979b61	-0.29610732
87	0xbedfba41	-0.43696788
88	0xbf112862	-0.56702244
89	0xbc5dea43	-0.013544622
90	0xbf12e9e0	-0.57388115
91	0xbe4eb90f	-0.20187782
92	0xbebbee7f	-0.36705396
93	0xbeafdb67	-0.34347078
94	0xbf01ef3a	-0.50755656
95	0xbe880a76	-0.2657048
96	0xbead03ae	-0.3379187
97	0xbe5986a9	-0.21242775
98	0xbf0edc48	-0.5580487
99	0xbe8d6d5e	-0.27622503
100	0xbe92fd11	-0.287087
101	0xbe941ff7	-0.28930637
102	0xbe20abdc	-0.15690559
103	0x3e8a5ecc	0.2702545
104	0xbd6235f3	-0.05522723
105	0xbd6014df	-0.054707404
106	0xbf0145a4	-0.5049689
107	0xbe142078	-0.14465511
108	0xbf8173b3	-1.0113434
109	0xbd28c586	-0.041203998
110	0xbf104932	-0.5636169
111	0xbed584ef	-0.41702983
112	0xbd805c7a	-0.062676385
113	0xbcb2e6ca	-0.021838564
114	0x3c8afbae	0.016965713
115	0xbdec141c	-0.11527273
116	0xbe9b534f	-0.30336997
117	0xbe1cc113	-0.15308027
118	0x3e094973	0.13406925
119	0xbf29e5e5	-0.66366416
120	0xbdc196c9	-0.09452588
121	0xbe45dcd4	-0.1932252
122	0xbea4021b	-0.32032856
123	0xbed9cec1	-0.42540553
124	0xbe23040d	-0.15919514
125	0xbc1f6f94	-0.009731192
126	0xbdf7815f	-0.120852225
127	0xbe9ea98c	-0.3098873
128	0xbda5459f	-0.0806992
129	0xbef2e5c9	-0.47440937
130	0xbea54ef9	-0.32286814
131	0xbe9994b3	-0.2999626
132	0xbead77d8	-0.33880496
133	0xbdd8d896	-0.105881855
134	0xbeb474a8	-0.35245252
135	0xbdcbb9ba	-0.09947534
136	0xbe9cb0c1	-0.30603603
137	0xbef8ade2	-0.48570162
138	0xbe559fbf	-0.2086172
139	0xbe53d392	-0.20686176
140	0xbef34b10	-0.47518206
141	0xbe9ac92d	-0.3023161
142	0xbf76e27d	-0.96439344
143	0xbf9d4d21	-1.2289163
144	0xbdb8b5d2	-0.090190545
145	0xbe8ea964	-0.2786361
146	0xbf1901bc	-0.5976827
147	0xb6bd38b1	-5.6392387e-06
148	0xbcd861f6	-0.026413899
149	0xbed75463	-0.4205657
150	0xbedc4a0f	-0.43025252
151	0xbeca8bf9	-0.39559916
152	0xbe93c07a	-0.28857785
153	0xbe84792a	-0.2587369
154	0xbd70f690	-0.05882889
155	0x3cee81f3	0.029114699
156	0xbd14454f	-0.03619891
157	0xbf3ad3f5	-0.7297967
158	0xbea5ea5d	-0.32405367
159	0xbf92abb7	-1.1458653
160	0xbf8b34a5	-1.0875441
161	0xbe874265	-0.26417843
162	0xbdb5bdbf	-0.08874082
163	0xbf0182d5	-0.5059026
164	0xbe2976d8	-0.16549242
165	0xbe9bcdd5	-0.30430475
166	0xbef663fb	-0.48123154
167	0xbf40f6b4	-0.7537644
168	0xbe847ba0	-0.25875568
169	0xbfc10ae1	-1.5081445
170	0xbd12b705	-0.035819072
171	0xbed4e11c	-0.41577995
172	0xbc91d523	-0.017801827
173	0xbf371595	-0.71517307
174	0xbfbe1607	-1.4850472
175	0xbeaaba73	-0.33345374
176	0xbf32f98b	-0.6991202
177	0xbd234d73	-0.039868783
178	0xbf6fabc6	-0.9362148
179	0xbd498d4d	-0.04920702
180	0xbee78d06	-0.4522478
181	0xbe705687	-0.23470508
182	0xbff0e9e1	-1.8821374
183	0x3c5ecd98	0.013598822
184	0xbf2ad961	-0.66737944
185	0xbe0e16bf	-0.13875864
186	0xbec5eb98	-0.38656306
187	0xbf77e64c	-0.9683578
188	0xbe9a5d53	-0.30149326
189	0xbe1d8857	-0.15384041
190	0xbe3f25a9	-0.1866671
191	0xbf15eb73	-0.5856239
192	0xbf1f432d	-0.6221188
193	0xbf23a30b	-0.6392066
194	0x3dee5a01	0.11638261
195	0xbdf36e69	-0.118862934
196	0xbebfb1ad	-0.37440243
197	0xbe45d6a0	-0.19320154
198	0x3cd39e8a	0.025832433
199	0xbebf5296	-0.37367696
200	0xbdf256b9	-0.11832947
201	0xbedc10bf	-0.42981526
202	0xbed606d7	-0.41802093
203	0xbe1216c2	-0.14266494
204	0xbdcad0c5	-0.09903101
205	0xbea0e64c	-0.31425703
206	0xbee7cb3d	-0.45272246
207	0xbef43b24	-0.4770137
208	0x3cc16f23	0.023612564
209	0xbddf14b7	-0.10892623
210	0xbeedbfe8	-0.46435475
211	0xbf119473	-0.5686714
212	0xbf343af5	-0.7040246
213	0xbf8d323b	-1.1030954
214	0xbf2aa019	-0.6665054
215	0xbf35ce51	-0.7101794
216	0xbe86df55	-0.26342264
217	0xbe52279c	-0.20522922
218	0xbe76b79d	-0.2409348
219	0xbf0aa21b	-0.54153603
220	0xbf13dfdd	-0.57763463
221	0xbea76504	-0.32694256
222	0xbf6ec4ca	-0.93269026
223	0xbf0868f7	-0.53285164
224	0xbec7d539	-0.39029863
225	0xbee48575	-0.4463307
226	0xbf1a813f	-0.60353464
227	0xbf0f7bf6	-0.56048524
228	0xbf59429c	-0.8486726
229	0xbd4ab93e	-0.049493067
230	0xbf17158f	-0.5901727
231	0xbdc87ef6	-0.09789841
232	0x3cba7e17	0.022765202
233	0xbe01b08c	-0.12665004
234	0xbf1be1bd	-0.60891324
235	0xbeecd67e	-0.46257395
236	0xbdf1d27f	-0.11807727
237	0xbd1efed0	-0.038817227
238	0xbeb7c980	-0.3589592
239	0xbdeffe35	-0.11718408
240	0xbf61dff1	-0.8823233
241	0xbde3b0aa	-0.1111768
242	0xbedffc3c	-0.43747127
243	0xbee1df86	-0.44115847
244	0xbeb7de60	-0.35911846
245	0xbe9aac59	-0.30209616
246	0x3dd700d7	0.10498207
247	0xbe763b42	-0.24046043
248	0xbea57453	-0.3231531
249	0xbe1927e1	-0.14956619
250	0xbe92e302	-0.28688818
251	0xbf8733a2	-1.0562632
252	0xbf317a0f	-0.6932687
253	0x3c985a77	0.018597824
254	0xbf628e67	-0.8849854
255	0xbfab166e	-1.336622

network.3.bias f4 [64]
0	0xc032dc67	-2.7947023
1	0xc00981f2	-2.1485562
2	0xbff637ba	-1.9235756
3	0xc05761f6	-3.365354
4	0xc01030bb	-2.2529743
5	0xc0213bfc	-2.5192862
6	0xc00551f0	-2.083126
7	0xc04effc9	-3.234362
8	0xbfc96794	-1.5734735
9	0xc00d2e19	-2.2059386
10	0xc01147c1	-2.2700045
11	0xbff0af3c	-1.8803477
12	0xc03d1660	-2.9544907
13	0xc04efacb	-3.2340572
14	0xc0037ba3	-2.0544212
15	0xc016aaa9	-2.3541663
16	0xbffdae00	-1.9818726
17	0xc069074b	-3.6410701
18	0xbfb5b258	-1.4195051
19	0xc014ebae	-2.3268847
20	0xc00db082	-2.2138982
21	0xc0263c33	-2.5974243
22	0xbff27002	-1.8940432
23	0xc01bafa0	-2.4325943
24	0xc00b2dd6	-2.1746726
25	0xbfc83fed	-1.5644509
26	0xc01d9067	-2.4619386
27	0xc05a4dde	-3.4110026
28	0xc0270244	-2.6095133
29	0xbff6b99b	-1.9275392
30	0xc03dbf1f	-2.96479
31	0xc021bbe1	-2.5270922
32	0xbf8f5856	-1.1198833
33	0xc01edf06	-2.4823623
34	0xc05939a3	-3.3941429
35	0xbff51d90	-1.9149647
36	0xc02565e4	-2.584344
37	0xc0186f10	-2.3817787
38	0x3f588c5f	0.8458919
39	0xbfdb432d	-1.7129875
40	0xc01f9257	-2.4933069
41	0xc0433f4e	-3.0507388
42	0xbfe16be8	-1.7611055
43	0xc02e062d	-2.719127
44	0xc031d16e	-2.7784076
45	0xc04744f7	-3.1135843
46	0xc05fd2cb	-3.4972408
47	0xc01137e7	-2.269037
48	0xbf9b01b8	-1.21099
49	0xc000bdd1	-2.0115855
50	0xbfc0e2c6	-1.5069206
51	0xc02e4d76	-2.7234778
52	0xc05eae21	-3.479378
53	0x3f882826	1.0637252
54	0xc08301b0	-4.093956
55	0xc05aad75	-3.416837
56	0xc082418e	-4.0705023
57	0xbfa4fc5a	-1.2889512
58	0xc03c906a	-2.9463143
59	0xbff1a0eb	-1.8877233
60	0xbffd44e6	-1.9786651
61	0xc0286d68	-2.6316776
62	0x3f4782d5	0.7793401
63	0xbfed5515	-1.854159

network.6.weight f4 [5, 64]
0	0xbe8e9de0	-0.27854824
1	0xbe2d3565	-0.169149
2	0xbda79cc2	-0.08184196
3	0xbe3d365f	-0.18477772
4	0xbe1898e4	-0.14902073
5	0xbe992084	-0.2990762
6	0x3e46e640	0.19423771
7	0x3e08eb3e	0.13370988
8	0xbe19c61f	-0.15016983
9	0xbdb20b3c	-0.08693549
10	0xbe7da09a	-0.24768296
11	0xbe3adda7	-0.18248616
12	0xbdb5c5d1	-0.08875621
13	0x3d6d20eb	0.05789272
14	0x3ddfdb69	0.10930521
15	0xbe5eb5ea	-0.21749082
16	0xbdba2cf9	-0.09090609
17	0x3d974e11	0.07387937
18	0x3df23408	0.118263304
19	0xbdca2e18	-0.09872073
20	0xbe700b76	-0.23441872
21	0xbe75ddbd	-0.24010368
22	0xbe6d76b7	-0.23189817
23	0x3df1a250	0.11798537
24	0x3e0620ed	0.13098498
25	0x3cd6dc50	0.0262281
26	0xbe555c35	-0.20835955
27	0xbe8280b0	-0.25488806
28	0x3e5dcbdf	0.21659802
29	0xbdcc67af	-0.099807136
30	0x3d81dbef	0.06340777
31	0xbda8e870	-0.08247459
32	0x3ba1b7af	0.004935227
33	0x3e8d1d74	0.27561533
34	0xbd39ac17	-0.045330133
35	0x3cb3d4eb	0.021952113
36	0x3d43779c	0.04772149
37	0xbe550bc8	-0.20805275
38	0xbdda81c6	-0.106692836
39	0xbe30c255	-0.17261632
40	0xbe93d3b7	-0.28872463
41	0x3e227839	0.15866174
42	0x3e925adc	0.28584945
43	0x3e273ec3	0.16332535
44	0xbd9a0f5b	-0.0752246
45	0x3e3e768f	0.18599914
46	0xbe9c86d3	-0.30571613
47	0xbdb946f5	-0.09046737
48	0xbdf97dae	-0.121821746
49	0x3d8a7acd	0.06761704
50	0x3d30c3af	0.04315537
51	0x3dde4e15	0.10854737
52	0xbcdc2e0c	-0.026877426
53	0xbd5b101a	-0.053482153
54	0x3d815360	0.06314731
55	0xbe25757e	-0.16158101
56	0x3cc3f9f0	0.02392289
57	0xbe60920c	-0.21930712
58	0x3d9145c8	0.07093388
59	0x3e402c66	0.18766937
60	0xbc794eec	-0.01521657
61	0x3dec6cab	0.11544164
62	0xbdc2f78a	-0.095198706
63	0xbd556797	-0.052100744
64	0xbd42c472	-0.047550626
65	0x3e6dc171	0.23218323
66	0x3e532fe2	0.20623735
67	0x3d807b07	0.062734656
68	0xbee69e63	-0.45042714
69	0x3e1577bc	0.14596456
70	0xbe05b57d	-0.13057514
71	0x3dbdb427	0.09262877
72	0x3d34f50c	0.044179007
73	0x3d810d1b	0.06301328
74	0xbe8468a8	-0.25861096
75	0xbe611559	-0.219808
76	0x3e4cebef	0.20011877
77	0x3e14774f	0.14498638
78	0xbe0537d6	-0.13009581
79	0xbdf25ebe	-0.11834477
80	0xbd862c76	-0.06551449
81	0x3ef7329b	0.48280796
82	0xbec1e72f	-0.37871692
83	0x3bdbdfb1	0.0067100157
84	0x3e594a00	0.21219635
85	0xbdef9693	-0.11698642
86	0xbe9f8c8f	-0.31161925
87	0x3e560d4c	0.2090351
88	0xbde18e65	-0.11013488
89	0xbe97c23b	-0.29640374
90	0xbf148405	-0.58013946
91	0xbdda55ca	-0.10660894
92	0xbe311349	-0.17292513
93	0x3e088500	0.13331985
94	0xbe4b6eb1	-0.19866444
95	0xbd77b91d	-0.060479272
96	0xbeec29b9	-0.46125582
97	0x3ebd8905	0.370186
98	0x3bc09a00	0.005877733
99	0x3e2be7f8	0.16787708
100	0xbe34dfb8	-0.17663467
101	0x3e6da4f5	0.23207457
102	0x3d796501	0.06088734
103	0xbe11b4a3	-0.14229064
104	0xbdd157ec	-0.10221848
105	0xbe7eb064	-0.24871975
106	0x3e277460	0.16352987
107	0xbe9e938c	-0.30971944
108	0xbd12b5c6	-0.035817884
109	0x3d1b021b	0.037843805
110	0x3ea637ff	0.32464597
111	0x3cb6c4b0	0.022310585
112	0x3c35e599	0.011102104
113	0xbe5c611b	-0.21521418
114	0xbe81030f	-0.25197646
115	0x3dcdd29d	0.10049937
116	0x3ed4f02a	0.4158948
117	0xbe75a013	-0.23986845
118	0xbe92a887	-0.286442
119	0xbeee972d	-0.46599713
120	0xbf47c938	-0.7804141
121	0x3e5596bb	0.2085828
122	0x3e32f5a7	0.17476521
123	0xbd8604c7	-0.0654388
124	0x3e76d031	0.24102856
125	0xbe024e26	-0.12725124
126	0xbe27fd95	-0.16405328
127	0xbec5d75d	-0.38640872
128	0x3d87d5d6	0.06632583
129	0xbe151e0e	-0.14562246
130	0xbea94d09	-0.33066586
131	0xbc2f71e9	-0.010708311
132	0x3c941740	0.018077493
133	0xbe41a412	-0.18910244
134	0x3e7bd304	0.24592215
135	0x3e5a3adf	0.2131152
136	0x3e014c56	0.12626776
137	0xbf14dbbb	-0.5814778
138	0xbe4b9ee5	-0.19884832
139	0x3eae1413	0.3399969
140	0xbdb0555d	-0.08610032
141	0x3e1efa2e	0.15525123
142	0xbe6279a8	-0.2211672
143	0xbe63d707	-0.22249995
144	0xbc1fb38d	-0.009747398
145	0xbe12db21	-0.14341404
146	0xbd1d9923	-0.03847612
147	0x3ed6b59e	0.41935438
148	0x3e14844f	0.14503597
149	0xbdd8d374	-0.105872065
150	0x3d9b61c6	0.07587008
151	0xbd2d5029	-0.042312775
152	0x3e5b4f1e	0.214169
153	0xbe66c56b	-0.22536246
154	0x3e16f4eb	0.14741866
155	0x3d9eecf2	0.077600375
156	0x3cb5f417	0.022211118
157	0xbe4d3f38	-0.20043647
158	0x3e7f93df	0.24958752
159	0xbd898f30	-0.06716764
160	0x3dc40c11	0.09572614
161	0xbc8fa4ea	-0.017534692
162	0xbc5b3f08	-0.013381727
163	0x3da822d8	0.08209771
164	0xbe86034a	-0.26174384
165	0xbe08d14e	-0.13361093
166	0x3e59a426	0.21254024
167	0xbe25b623	-0.16182761
168	0xbe52f363	-0.20600657
169	0x3e4548c5	0.1926604
170	0x3e6fbc5e	0.234117
171	0xbebd8332	-0.37014157
172	0x3e86ab79	0.26302698
173	0xbea54c79	-0.32284907
174	0xbd7f65cd	-0.062352944
175	0xbe9bb671	-0.3041263
176	0xbd020f1b	-0.031752687
177	0xbc855351	-0.01627508
178	0xbe4ea3c3	-0.20179658
179	0x3e9d0b59	0.3067272
180	0xbe841041	-0.2579365
181	0x3e3313af	0.17487977
182	0xbe0cfe5d	-0.13768907
183	0xbe8d7d24	-0.27634537
184	0x3e867af7	0.2626569
185	0xbe7b3d11	-0.24535014
186	0xbeaf99e3	-0.34297094
187	0x3ea0b034	0.31384432
188	0xbda5fd89	-0.081049986
189	0x3ef0eba3	0.47054777
190	0xbf094361	-0.5361844
191	0x3dfef21a	0.12448521
192	0xbe6c7748	-0.23092377
193	0x3e172eca	0.14763942
194	0xbd53781b	-0.051628213
195	0xbddef91f	-0.1088736
196	0x3c91a1e0	0.017777383
197	0x3d534656	0.05158075
198	0x3e6485a5	0.22316606
199	0xbec8ab64	-0.3919326
200	0xbe3c87f3	-0.18411236
201	0xbeed70f8	-0.4637525
202	0x3dbffc07	0.09374242
203	0xbde243db	-0.11048099
204	0x3db3ca60	0.08778834
205	0x3d155c3b	0.03646491
206	0x3dbe3941	0.09288264
207	0x3e048605	0.1294175
208	0xbe35d764	-0.17757946
209	0x3debd448	0.11515099
210	0x3e02fa97	0.12790905
211	0x3ee0cda6	0.43906897
212	0x3dcc3038	0.099701345
213	0x3df0d1b2	0.11758746
214	0xbd37f9c6	-0.044915937
215	0x3d78d6ff	0.06075191
216	0xbd694a76	-0.056955777
217	0x3d1df496	0.038563333
218	0xbe2aaf04	-0.16668326
219	0xbccc684b	-0.024952075
220	0xbddb1480	-0.106972694
221	0xbd32608b	-0.0435491
222	0x3d5dd4a0	0.054157853
223	0xbd02f0ca	-0.031967916
224	0x3cdd8400	0.027040482
225	0x3e639cb6	0.22227749
226	0x3df993b8	0.12186378
227	0xbe22e421	-0.15907337
228	0xbea9b93c	-0.33149135
229	0xbe2c860e	-0.16848013
230	0x3eb69c6e	0.3566622
231	0xbde6ecaf	-0.112756126
232	0x3db5f4f6	0.08884613
233	0x3ddacd31	0.106836684
234	0xbdf8fe4a	-0.12157877
235	0x3eaa4548	0.33255982
236	0xbd0cf2de	-0.034411304
237	0x3df9ab18	0.12190837
238	0xbd960dd2	-0.07326855
239	0x3d99e0ac	0.07513556
240	0x3deccf0f	0.11562931
241	0x3d00f55d	0.031483997
242	0x3d2549e8	0.040353686
243	0xbe4101b7	-0.1884831
244	0x3e1d4834	0.15359575
245	0x3e4b28ce	0.19839785
246	0x3ddd915e	0.10818742
247	0x3eb74c0d	0.3580021
248	0x3e782725	0.24233682
249	0x3cd061e5	0.025437305
250	0x3d9f5b71	0.07781113
251	0x3d6207c0	0.055183172
252	0xbdcd6224	-0.100284845
253	0xbe4d1dc3	-0.20030884
254	0xba31d548	-0.00067837955
255	0x3e0e3cd2	0.13890389

network.6.bias f4 [5]
0	0x3e4bc5be	0.19899651
1	0xbe1640e0	-0.14673185
2	0x3c9f8651	0.019473227
3	0x3e908582	0.28226858
4	0x3d03d9fe	0.032190315

network.0.weight f4 [128, 43]
0	0xbba516b0	-0.005038105
1	0xbf5d85e5	-0.8653243
2	0x3f2b40a3	0.668955
3	0xbfacae00	-1.34906
4	0xbfe147b9	-1.7600013
5	0xbe23f0cc	-0.16009825
6	0x3f65e8c3	0.8980829
7	0x3e0cba4a	0.13742939
8	0x3e281da5	0.16417558
9	0xbe260874	-0.16214162
10	0xbc90cf01	-0.017676832
11	0xbdecae38	-0.11556667
12	0x3f9c4a43	1.2210163
13	0xbdcf94e6	-0.10135822
14	0x3e5f9c1e	0.21836898
15	0xbf373a02	-0.7157289
16	0xbfa84afb	-1.3147882
17	0x4010e9f6	2.2642798
18	0x3f975842	1.1823809
19	0xbda3ad03	-0.07991984
20	0xbe0c73f5	-0.13716109
21	0xbdb3bed6	-0.087766334
22	0x3e04f83c	0.12985319
23	0xbaa768af	-0.0012772287
24	0xbdbb1633	-0.091350935
25	0x3e2b9e1f	0.16759537
26	0xbd3c7f56	-0.046019875
27	0xbfe0838e	-1.7540147
28	0x3ff1f032	1.8901427
29	0xbfb7fcb6	-1.4373996
30	0x3d8bc035	0.0682377
31	0x3f7c048c	0.9844444
32	0xbe3ac577	-0.1823939
33	0xbfc0c677	-1.5060567
34	0x3e23ad9c	0.15984195
35	0xbd473950	-0.04863864
36	0xbf897b02	-1.0740664
37	0x3fac0815	1.3439966
38	0xc0156536	-2.3343024
39	0xc04ba927	-3.1821992
40	0x40285780	2.6303406
41	0xbffbf525	-1.9684187
42	0x3d1a9b04	0.03774549
43	0xbe2927d1	-0.16519095
44	0x400537e7	2.081537
45	0xbff77e86	-1.9335487
46	0xbf35b132	-0.70973504
47	0xbef54647	-0.4790518
48	0xbe3d0570	-0.18459105
49	0xc0a0757b	-5.014341
50	0x3da94854	0.082657486
51	0x3dbbbb85	0.09166626
52	0xbd1bbe7b	-0.038023453
53	0x3d2c077f	0.041999336
54	0x3d34abc5	0.044109125
55	0xbfa4d919	-1.2878753
56	0xc019bde0	-2.402214
57	0x3e5708ae	0.20999405
58	0x3facdfc0	1.3505783
59	0xbff49548	-1.9108057
60	0xbf054ba7	-0.5206856
61	0xbf0df784	-0.55455804
62	0xbe3e60d6	-0.18591627
63	0x3d7b8b31	0.06141204
64	0x3da80e0f	0.082058065
65	0xbda6aadc	-0.081380576
66	0x3dedc522	0.11609866
67	0xbd3ed13a	-0.046586253
68	0xbdc55758	-0.096358
69	0x3dc6877a	0.09693809
70	0x3f251e8b	0.6449973
71	0xbfe5c2c3	-1.7950062
72	0x3fd899a8	1.6921892
73	0x3e2097d8	0.15682924
74	0xbfca0773	-1.5783523
75	0xbd893b11	-0.06700719
76	0x3f1f9720	0.62339973
77	0xbdfc5650	-0.1232115
78	0xbfe6575b	-1.7995409
79	0x3fb709e2	1.4299891
80	0xc03bb245	-2.9327557
81	0xbf8827f7	-1.0637196
82	0xbef7ac3b	-0.4837359
83	0x403fc788	2.9965534
84	0xbf65b213	-0.89724845
85	0x3dc63fb6	0.09680121
86	0x3da9e739	0.08296055
87	0xbfa1002d	-1.2578179
88	0x3fa8dd5b	1.3192552
89	0x3fb3530f	1.4009722
90	0xbfb55e8f	-1.4169482
91	0xbda57b22	-0.08080126
92	0x3fe46711	1.7843953
93	0x3d31cc3f	0.043407675
94	0x3d26b0ad	0.040695835
95	0xbdbfcfa9	-0.0936578
96	0xbd09e661	-0.033666972
97	0xbb9b7777	-0.004744466
98	0xc0d2defa	-6.589719
99	0xc02019e2	-2.5015798
100	0xbfa23e9f	-1.267536
101	0x3e70c629	0.23513092
102	0xbfe8d3f5	-1.8189684
103	0x40633c1d	3.550544
104	0xbdc1bb90	-0.09459603
105	0x3d1c576d	0.038169313
106	0xbe3c52b5	-0.18390925
107	0x3e23852d	0.15968771
108	0x3dc7dab6	0.09758513
109	0xbe33d824	-0.1756292
110	0x3d757e98	0.059935182
111	0xbe19b20a	-0.15009323
112	0x3c885dd5	0.016646305
113	0xbf0b6bb9	-0.54461247
114	0xbdc26be6	-0.09493236
115	0xc007f468	-2.1242924
116	0xbe2ade46	-0.16686353
117	0xbf570a1d	-0.83999807
118	0x3e0d0a16	0.13773379
119	0xbf136d42	-0.5758859
120	0xbdcaf9f5	-0.09910957
121	0xbe535bd6	-0.20640501
122	0x3ff0308b	1.8764814
123	0x3fea967b	1.8327173
124	0xbf387081	-0.7204667
125	0xbe6511a7	-0.22370015
126	0x3fca5c4d	1.5809418
127	0x3f96fce6	1.1795928
128	0xbd14a007	-0.036285426
129	0x3c378205	0.011200433
130	0x3fbe031e	1.4844701
131	0xbfbba758	-1.4660444
132	0x3e915f4e	0.28393024
133	0xbf959b63	-1.1688045
134	0xbe3a2b94	-0.18180686
135	0xc03c3089	-2.9404624
136	0xbe37f633	-0.17965011
137	0xbcdcd212	-0.026955638
138	0x3d6fac1c	0.058513746
139	0xbe09770d	-0.1342432
140	0x3c4c31f2	0.01246308
141	0xbf81c6bb	-1.0138773
142	0xc0b728e5	-5.723742
143	0xbf0583f3	-0.52154464
144	0xbf558570	-0.83406734
145	0xc03c92c2	-2.9464574
146	0x3fc60abe	1.5472028
147	0xbf830b65	-1.0237852
148	0x3db4f41f	0.08835625
149	0xbd91e78f	-0.071242444
150	0x3e3c1c45	0.18370159
151	0xbc92a2d4	-0.017899908
152	0xbca005f0	-0.019534081
153	0xbdf6b375	-0.120459475
154	0x3daf9287	0.0857287
155	0xbe3f2a96	-0.18668589
156	0xbe99891c	-0.2998742
157	0x3f3ebd18	0.74507284
158	0xbf887567	-1.0660828
159	0xbdd318d0	-0.10307467
160	0xc02384ac	-2.5549726
161	0x3dabc7bf	0.08387708
162	0xbe6a2909	-0.22867216
163	0xbd0210a8	-0.031754166
164	0xbf85e8a3	-1.046162
165	0x3ff6b1ce	1.9273012
166	0x3f8a1984	1.0789037
167	0xbfc08741	-1.5041276
168	0x4004a960	2.0728378
169	0x3fa2ef18	1.2729216
170	0xbfda3d6f	-1.7049998
171	0x3d1c057a	0.03809116
172	0xbe153f34	-0.14574891
173	0x3f8a13a1	1.078724
174	0xbf8ac41d	-1.0841099
175	0x3fff2899	1.9934264
176	0xbfe90d4b	-1.8207182
177	0x3e095f1e	0.1341519
178	0x3fc9d322	1.5767558
179	0xbdb287ae	-0.08717285
180	0xbd3c083a	-0.045906283
181	0x3e0ff048	0.14056504
182	0xbdd4df66	-0.10394172
183	0xbe2f40ab	-0.17114513
184	0xbe2da56f	-0.16957639
185	0xc033e499	-2.8108275
186	0xbed6ce52	-0.41954285
187	0x3ef240c4	0.47315037
188	0x3ee95376	0.45571488
189	0x3dbdf474	0.09275141
190	0x3f8ba018	1.0908232
191	0xbdabb1c6	-0.08383517
192	0x3e311e53	0.17296724
193	0xbe32da30	-0.17466044
194	0x3d0d1649	0.03444508
195	0x3e211557	0.15730797
196	0xbc872108	-0.016495243
197	0x3da52c43	0.08065083
198	0x3e0edda6	0.1395174
199	0xbf87b355	-1.0601603
200	0x406583e2	3.5861745
201	0xc0cf84d3	-6.484964
202	0xbd251bd0	-0.040309727
203	0x3fa71952	1.3054602
204	0xbe3837bc	-0.17990011
205	0xbfb4ae09	-1.4115611
206	0x3ddaf054	0.1069037
207	0x3fced467	1.615857
208	0x3f976604	1.1828008
209	0x3fab9e3c	1.3407664
210	0xc017110c	-2.3604155
211	0x3e5934ad	0.212115
212	0x3eb9f09c	0.36316383
213	0xbfddb0c7	-1.7319573
214	0x3df00d09	0.11721236
215	0xbd01593a	-0.031579234
216	0xbf5b714d	-0.8571976
217	0x3f891356	1.0709026
218	0x3f799c2f	0.9750394
219	0x3c36ab34	0.011149216
220	0x3e04a312	0.12952831
221	0x3f900016	1.1250026
222	0x3cb6f0e6	0.022331666
223	0x3d14f2c0	0.036364317
224	0xbe21a78f	-0.15786575
225	0x3d4bf386	0.04979279
226	0xbd386458	-0.04501757
227	0x3eb45a63	0.3522521
228	0xbf08e914	-0.5348065
229	0x3fb2bdd0	1.3964176
230	0xbd4ebae4	-0.0504712
231	0x3f57d377	0.84307045
232	0xc00fe38d	-2.2482636
233	0xbff91ecc	-1.9462523
234	0x3d81b958	0.0633418
235	0x3da6c859	0.08143682
236	0x3df4403a	0.11926313
237	0x3dcf846c	0.10132679
238	0xbe027fa9	-0.12744011
239	0xbda34b77	-0.07973378
240	0xbe028256	-0.12745032
241	0xbdf1912e	-0.11795269
242	0xbf18a94f	-0.59633344
243	0xbe592c10	-0.21208215
244	0xbfaf23ca	-1.3682797
245	0x3e0aa927	0.13541089
246	0xbe4cc0ab	-0.19995372
247	0x3c5cac0c	0.013468754
248	0xbf14e15a	-0.5815636
249	0x3dc4fdc3	0.09618714
250	0xbf062868	-0.52405405
251	0xbe9e7b73	-0.3095356
252	0x3a4fa656	0.00079212093
253	0xbfe2f4fc	-1.7731013
254	0x3f74562d	0.95443994
255	0xbf0be1fc	-0.546417

network.0.bias f4 [128]
0	0xc13fc418	-11.985374
1	0xc128b312	-10.543718
2	0xc0cdc7e6	-6.4306517
3	0xc11d39f9	-9.8266535
4	0xc13ce4eb	-11.805888
5	0xc11121d6	-9.070761
6	0xc1176df4	-9.464344
7	0xc11beba6	-9.745031
8	0xc10390f0	-8.222885
9	0xc1161f0f	-9.382583
10	0xc129b1a6	-10.605871
11	0xc0b10c8f	-5.532783
12	0xc11ac75e	-9.673674
13	0xc137e717	-11.493918
14	0xc106e4eb	-8.430888
15	0xc12bdaee	-10.74095
16	0xc11aaad0	-9.666702
17	0xc1381c64	-11.506931
18	0xc08c589a	-4.3858156
19	0xc1220d8b	-10.128306
20	0xc11f9aca	-9.97529
21	0xc1055e2e	-8.335493
22	0xc0f9666b	-7.793752
23	0xc125afb3	-10.355395
24	0xc0ddcd0e	-6.931281
25	0xc10aadfb	-8.667476
26	0xc0c84810	-6.2587967
27	0xc0fd7145	-7.920077
28	0xc0ecc9a1	-7.399613
29	0xc102a0f1	-8.164292
30	0xc1340658	-11.251549
31	0xc11c604f	-9.773513
32	0xc0c4d982	-6.1515512
33	0xc10cc33a	-8.797663
34	0xc141917e	-12.098021
35	0xc095d4da	-4.682233
36	0xc12f6e82	-10.964479
37	0xc12bca56	-10.736898
38	0xc12d9f2a	-10.851358
39	0xc109536d	-8.582868
40	0xc128edd3	-10.558063
41	0xc0f5885c	-7.6728954
42	0xc11b5f6e	-9.710798
43	0xc0a0ce57	-5.025188
44	0xc12ce99c	-10.807034
45	0xc12d0819	-10.814477
46	0xc1125bf9	-9.147454
47	0xc1273228	-10.449745
48	0xc14415e4	-12.255344
49	0xc121f904	-10.123295
50	0xc1482db2	-12.511156
51	0xc116efbb	-9.433528
52	0xc0c00116	-6.0001326
53	0xc123acfb	-10.229732
54	0xc102bc7a	-8.171015
55	0xc13245ba	-11.142023
56	0xc10d68ca	-8.838083
57	0xc12d163b	-10.817927
58	0xc114e484	-9.30579
59	0xc10d3dd8	-8.827599
60	0xc1300b19	-11.002709
61	0xc10c493a	-8.767878
62	0xc0a9841c	-5.2973766
63	0xc0f90dae	-7.78292
64	0xc0c1c44e	-6.055213
65	0xc0eacb0a	-7.337285
66	0xc0ef9aa5	-7.4876275
67	0xc0fc94b4	-7.893152
68	0xc10f17bd	-8.9432955
69	0xc11e21c5	-9.8832445
70	0xc1371128	-11.441689
71	0xc0fb4eeb	-7.8533835
72	0xc0e824ac	-7.2544765
73	0xc102567c	-8.146114
74	0xc13aff49	-11.6873255
75	0xc128e042	-10.55475
76	0xc0cc704d	-6.3887086
77	0xc0b4adae	-5.646201
78	0xc11c422c	-9.766155
79	0xc110d54d	-9.052075
80	0xc1299b06	-10.6003475
81	0xc106186b	-8.380961
82	0xc0f75438	-7.7290306
83	0xbfe7fcef	-1.8124064
84	0xc10b34fc	-8.700436
85	0xc11a39ee	-9.639143
86	0xc109ef12	-8.620867
87	0xc10e90e3	-8.910373
88	0xc118afe5	-9.542943
89	0xc09fbf1d	-4.9920793
90	0xc121dea0	-10.116852
91	0xc13e6351	-11.899247
92	0xc0a21e13	-5.066171
93	0xc1037d55	-8.218099
94	0xc0555456	-3.3332725
95	0xc1162e56	-9.3863125
96	0xc1020ecd	-8.128613
97	0xc1326808	-11.150398
98	0xc12c9d26	-10.788366
99	0xc0a0eff3	-5.0292907
100	0xc1229b1b	-10.162868
101	0xc0b58457	-5.672405
102	0xc12083c7	-10.032172
103	0xc0fcc555	-7.8990884
104	0xc13243e4	-11.141575
105	0xc1194f40	-9.581848
106	0xc0e8706f	-7.263725
107	0xc10f0fa7	-8.941321
108	0xc1029ee0	-8.163788
109	0xc1140036	-9.2500515
110	0xc101b23e	-8.106016
111	0xc0b663e5	-5.699694
112	0xc136164a	-11.380442
113	0xc139c3c0	-11.610291
114	0xc1126850	-9.150467
115	0xc11a1a43	-9.631412
116	0xc1360647	-11.376533
117	0xc0e11e9d	-7.034987
118	0xc0fcfff7	-7.9062457
119	0xc10c6a81	-8.776002
120	0xc0a1a071	-5.050835
121	0xc10beb27	-8.74491
122	0xc09aa50c	-4.8326473
123	0xc11dad10	-9.854752
124	0xc1307870	-11.029404
125	0xc11062a2	-9.02408
126	0xc0b3cc64	-5.6187
127	0xc11f4ce6	-9.956274

network.3.weight f4 [64, 128]
0	0xbd784331	-0.060610954
1	0xbd83e1b5	-0.064395346
2	0xbdaea3da	-0.08527346
3	0xbf18fba3	-0.5975897
4	0xbd75f6e9	-0.060049925
5	0x3de58385	0.11206726
6	0xbe7c5eaf	-0.24645494
7	0xbe29fd83	-0.16600613
8	0xbea2ac02	-0.31771857
9	0x3e16456b	0.14674918
10	0xbe09d93d	-0.13461776
11	0xbe8a1c30	-0.2697463
12	0xbe65bd93	-0.22435598
13	0xbeb294de	-0.34879202
14	0xbe66c037	-0.22534262
15	0xbf235578	-0.6380229
16	0xbd980731	-0.07423247
17	0xbe9caa72	-0.3059879
18	0xbe643a6c	-0.22287911
19	0xbe3bb803	-0.18331914
20	0xbf0310e2	-0.51197636
21	0xbf13451f	-0.57527345
22	0xbf76a09e	-0.9633883
23	0xbeab67ae	-0.3347754
24	0xbd2bd645	-0.04195239
25	0xbd78c170	-0.06073135
26	0x3cc950e2	0.0245747
27	0xbf136ab8	-0.57584715
28	0xbf98e3d5	-1.1944529
29	0xbf29b34a	-0.662892
30	0x3d590e30	0.052992046
31	0xbee8af18	-0.45446086
32	0x3b2aa11c	0.002603597
33	0xbed20be8	-0.4102471
34	0xbe2461f8	-0.16052997
35	0xbf218946	-0.6310009
36	0xbefc1407	-0.4923403
37	0xbe9850ea	-0.29749233
38	0xbe7c6833	-0.24649124
39	0xbf0db378	-0.5535197
40	0xbec8b210	-0.3919835
41	0xbeb441dd	-0.352065
42	0xbdec3111	-0.11532796
43	0xbf5dff85	-0.86718017
44	0xbf3947a3	-0.72374934
45	0xbf4b3aa1	-0.79386336
46	0xbeb7038f	-0.35744902
47	0x3e21ae2c	0.15789098
48	0xbecc9f6d	-0.39965382
49	0xbea15dfc	-0.31517017
50	0xbed43204	-0.4144441
51	0xbf1b1553	-0.60579413
52	0xbe3cf442	-0.18452552
53	0x3dcca2c9	0.09991986
54	0xbf2bbb9b	-0.6708314
55	0xbae68be4	-0.0017589298
56	0xbeac8506	-0.3369524
57	0xbebfc493	-0.37454662
58	0xbe58b6cb	-0.2116348
59	0xbecd1623	-0.4005595
60	0xbe02b814	-0.12765533
61	0xbe3ef384	-0.18647581
62	0xbef882d0	-0.48537302
63	0xbe17cc0c	-0.14823931
64	0xbd68ec2b	-0.056865852
65	0xbe43b729	-0.19112839
66	0xbdccf1a8	-0.1000703
67	0xbd61d1d9	-0.055131767
68	0xbeb83a24	-0.35981858
69	0xbdf04f57	-0.11733883
70	0x3e56bdef	0.20970891
71	0xbf12c04e	-0.57324684
72	0xbf6cd42c	-0.9251125
73	0xbe53e0e3	-0.20691256
74	0xbebfe01f	-0.37475678
75	0xbe4b36bc	-0.19845098
76	0xbe867bcd	-0.26266328
77	0xbedd1a00	-0.431839
78	0xbe552a90	-0.20817018
79	0xbf4eec4f	-0.8082933
80	0xbede6ddf	-0.434432
81	0xbe382db5	-0.17986186
82	0xbec9477a	-0.39312345
83	0xbf082e23	-0.531954
84	0xbeba8c82	-0.36435324
85	0xbe6701a6	-0.22559223
86	0xbe977e63	-0.29588613
87	0xbedf373a	-0.43596822
88	0xbf110a19	-0.5665603
89	0xbc5eaa47	-0.013590402
90	0xbf12ae40	-0.57297134
91	0xbe4e96ee	-0.20174763
92	0xbebbd262	-0.36683947
93	0xbeafb0da	-0.34314615
94	0xbf01d7b7	-0.5071978
95	0xbe87fb4a	-0.26558906
96	0xbeace940	-0.33771706
97	0xbe28103a	-0.1641244
98	0xbf0ebe72	-0.55759346
99	0xbe8d5d48	-0.2761023
100	0xbe92a498	-0.286412
101	0xbe93c03b	-0.28857598
102	0xbe20a359	-0.15687312
103	0x3e8a2b82	0.2698632
104	0xbd620fc1	-0.055190805
105	0xbd600c7a	-0.0546994
106	0xbf012b8e	-0.50457084
107	0xbe1415fb	-0.1446151
108	0xbf815b3a	-1.0105965
109	0xbd270cdd	-0.04078375
110	0xbf103289	-0.5632711
111	0xbed5564e	-0.41667408
112	0xbd8042e9	-0.06262762
113	0xbcb2939f	-0.021798907
114	0x3c8bcb75	0.01706479
115	0xbdebbd3b	-0.11510702
116	0xbe9b474e	-0.3032784
117	0xbe1caf22	-0.15301183
118	0x3e0969f5	0.13419326
119	0xbf29b452	-0.6629077
120	0xbdc1910d	-0.09451494
121	0xbe45bf15	-0.19311173
122	0xbea3df35	-0.3200623
123	0xbed9ab29	-0.42513397
124	0xbe22910a	-0.1587564
125	0xbc1f5f76	-0.0097273495
126	0xbdf721ea	-0.120670155
127	0xbe9e7721	-0.30950263
128	0xbda525a0	-0.08063817
129	0xbef2c4c5	-0.47415748
130	0xbea529df	-0.32258508
131	0xbe9977ad	-0.29974118
132	0xbead63e7	-0.33865282
133	0xbdd8c300	-0.10584068
134	0xbeb44939	-0.35212114
135	0xbdcba3e6	-0.099433705
136	0xbe9c9a14	-0.30586302
137	0xbef87451	-0.48526242
138	0xbe5578f8	-0.20846927
139	0xbe53ab5a	-0.20670834
140	0xbef32ebe	-0.474966
141	0xbe9ab7b4	-0.3021828
142	0xbf76b564	-0.9637053
143	0xbf9d2c0a	-1.2279065
144	0xbdb8f10a	-0.090303496
145	0xbe8e9cd1	-0.27854016
146	0xbf18e9e3	-0.5973188
147	0x3a833df4	0.001001297
148	0xbcd80252	-0.026368294
149	0xbed72ebf	-0.42027852
150	0xbedc21b9	-0.42994478
151	0xbeca72bb	-0.39540657
152	0xbe9399fe	-0.28828424
153	0xbe84630b	-0.25856814
154	0xbd71390b	-0.05889229
155	0x3cee2d32	0.029074285
156	0xbd10d9cc	-0.035363957
157	0xbf3aae4c	-0.72922206
158	0xbea5547f	-0.32291028
159	0xbf92914d	-1.1450592
160	0xbf8b1a99	-1.0867492
161	0xbe8738df	-0.26410577
162	0xbdb58372	-0.08862962
163	0xbf0144bd	-0.5049551
164	0xbe29717d	-0.16547199
165	0xbe9bbd67	-0.3041794
166	0xbef637c1	-0.48089412
167	0xbf40cf65	-0.7531646
168	0xbe8452c3	-0.25844392
169	0xbfc0e352	-1.5069373
170	0xbd12358c	-0.035695598
171	0xbed4c07b	-0.415531
172	0xbc918541	-0.017763736
173	0xbf36f7b2	-0.71471703
174	0xbfbdf628	-1.4840746
175	0xbeaa8f3a	-0.33312398
176	0xbf32d1bf	-0.698513
177	0xbd231227	-0.039812233
178	0xbf6f7a80	-0.93546295
179	0xbd498688	-0.049200565
180	0xbee75154	-0.45179236
181	0xbe7022d6	-0.23450789
182	0xbff0b997	-1.8806638
183	0x3c67971a	0.0141351465
184	0xbf2abb06	-0.66691625
185	0xbe0df44f	-0.13862728
186	0xbec5bad9	-0.38619116
187	0xbf77bc29	-0.96771485
188	0xbe9a3449	-0.30118015
189	0xbe1d55b0	-0.15364718
190	0xbe3f2607	-0.1866685
191	0xbf15d217	-0.58523697
192	0xbf1f297a	-0.62172663
193	0xbf238173	-0.638694
194	0x3dee341f	0.11631035
195	0xbdf30b9b	-0.11867448
196	0xbebf9dc2	-0.37425047
197	0xbe4589b6	-0.19290814
198	0x3cd344f3	0.025789713
199	0xbebf3541	-0.37345317
200	0xbdf24d4a	-0.11831148
201	0xbedbe88b	-0.42950854
202	0xbed5e8d5	-0.417792
203	0xbe1216e2	-0.14266542
204	0xbdcabe2b	-0.09899553
205	0xbea0b81e	-0.3139047
206	0xbee77d7e	-0.4521293
207	0xbef40ba8	-0.47665143
208	0x3cc1e202	0.02366734
209	0xbddf0b79	-0.1089086
210	0xbeed81c0	-0.46388054
211	0xbf117579	-0.56819874
212	0xbf340702	-0.70323193
213	0xbf8d17d7	-1.10229
214	0xbf2a896d	-0.66615945
215	0xbf35ac34	-0.70965886
216	0xbe86d5e6	-0.26335067
217	0xbe521396	-0.20515284
218	0xbe766d91	-0.24065234
219	0xbf0a88f7	-0.5411524
220	0xbf13be30	-0.5771208
221	0xbea73e23	-0.32664594
222	0xbf6e8c74	-0.93183064
223	0xbf08572b	-0.5325801
224	0xbec7bcd1	-0.39011243
225	0xbee468a5	-0.44611087
226	0xbf1a5fe5	-0.60302573
227	0xbf0f5939	-0.5599552
228	0xbf5916f4	-0.8480065
229	0xbd49fd44	-0.0493138
230	0xbf16fa09	-0.58975273
231	0xbdc79f3d	-0.09747169
232	0x3cbb5b7d	0.022870773
233	0xbe01919a	-0.12653199
234	0xbf1bc75a	-0.6085106
235	0xbeecb52d	-0.46231976
236	0xbdf19b2c	-0.11797175
237	0xbd1ddab3	-0.038538646
238	0xbeb7a6fb	-0.35869583
239	0xbdefdfcd	-0.117126085
240	0xbf61b361	-0.88164335
241	0xbde34c28	-0.1109851
242	0xbedfde72	-0.437244
243	0xbee1cc42	-0.4410115
244	0xbeb7c555	-0.3589274
245	0xbe9a89fb	-0.30183396
246	0x3dd716ca	0.105023935
247	0xbe7658ed	-0.2405736
248	0xbea55c5f	-0.32297036
249	0xbe18f5e7	-0.14937554
250	0xbe92d272	-0.28676182
251	0xbf871ac5	-1.0555044
252	0xbf315058	-0.6926322
253	0x3c9ccb63	0.019139951
254	0xbf625932	-0.8841735
255	0xbfaae884	-1.3352208

network.3.bias f4 [64]
0	0xc02f6bb3	-2.7409484
1	0xc009433a	-2.1447282
2	0xbff53cb3	-1.9159149
3	0xc033e83b	-2.8110492
4	0xc00d0404	-2.20337
5	0xc01f0f55	-2.4853108
6	0xc00516d0	-2.0795174
7	0xc036b960	-2.8550644
8	0xbfc7f6a8	-1.5622149
9	0xc006d9c9	-2.1070426
10	0xc010156d	-2.2513077
11	0xbff0479a	-1.8771851
12	0xc02de8c9	-2.717333
13	0xc04db7b7	-3.214338
14	0xc002b6d3	-2.0424087
15	0xc006e80a	-2.1079125
16	0xbfe6a0e8	-1.8017855
17	0xc067cf0d	-3.6220124
18	0xbfb5596b	-1.4167913
19	0xc013e704	-2.310975
20	0xc00d3d40	-2.2068634
21	0xc01ca811	-2.447758
22	0xbff0ed59	-1.8822433
23	0xc011e520	-2.2796097
24	0xc003f573	-2.061856
25	0xbfc1e539	-1.5148078
26	0xc01c86ad	-2.44572
27	0xc0549ea4	-3.3221827
28	0xc02601f1	-2.5938685
29	0xbff61a62	-1.9226801
30	0xc03ba8ca	-2.932177
31	0xc020453e	-2.5042262
32	0xbf88850c	-1.0665603
33	0xc01ad3f1	-2.4191859
34	0xc0562600	-3.3460693
35	0xbff0bae5	-1.8807036
36	0xc024238c	-2.5646696
37	0xc017f915	-2.3745778
38	0x3f6dab13	0.92839164
39	0xbfd8d9fa	-1.6941521
40	0xc01a0230	-2.4063835
41	0xc040a0ae	-3.009807
42	0xbfe0815f	-1.7539481
43	0xc02da20a	-2.713015
44	0xc030fbf3	-2.7653778
45	0xc041a414	-3.0256395
46	0xc05dccfb	-3.465636
47	0xc00f0f4a	-2.2353082
48	0xbf9ac993	-1.2092766
49	0xc000424f	-2.0040472
50	0xbfc0806a	-1.5039189
51	0xc02bce36	-2.684461
52	0xc056f088	-3.3584309
53	0x3fb50d2a	1.4144642
54	0xc07e825e	-3.976707
55	0xc058e633	-3.3890502
56	0xc0802f46	-4.0057707
57	0xbfa4348c	-1.2828536
58	0xc03c14b0	-2.9387627
59	0xbfee0dcb	-1.8597959
60	0xbffa88d4	-1.9573007
61	0xc024c6db	-2.5746372
62	0x3f6a4433	0.91510314
63	0xbfef4b94	-1.869494

network.6.weight f4 [5, 64]
0	0xbe6d13cd	-0.23152085
1	0xbe2ca6ec	-0.1686055
2	0xbda0de3a	-0.07854886
3	0xbd6be2fb	-0.057589512
4	0xbe21e785	-0.15810974
5	0xbe8cd93b	-0.27509484
6	0x3e45f3b1	0.19331242
7	0xbe0cdab2	-0.137553
8	0xbe1ac9c5	-0.15116031
9	0xbc2b137e	-0.010441659
10	0xbe6f1428	-0.23347533
11	0xbe39cb29	-0.18143906
12	0xbae32627	-0.0017330096
13	0x3d5dba0e	0.054132514
14	0x3dde3253	0.10849442
15	0xbd12c72a	-0.03583447
16	0x3dacb5f7	0.084331445
17	0x3d879abd	0.06621311
18	0x3def7744	0.1169267
19	0xbdc5bee9	-0.09655554
20	0xbe6d24fc	-0.2315864
21	0xbe45c32d	-0.19312735
22	0xbe683810	-0.22677636
23	0x3de010bf	0.10940694
24	0x3d960429	0.07325012
25	0x3ca9b608	0.020716682
26	0xbe51747d	-0.20454593
27	0xbe680e28	-0.2266165
28	0x3e58cac1	0.21171094
29	0xbdcd7278	-0.10031599
30	0x3d85d892	0.06535448
31	0xbda99107	-0.08279615
32	0x3bce5cc7	0.006297681
33	0x3e8b17fe	0.27166742
34	0xbb9a2465	-0.0047040456
35	0x3d55b70a	0.052176513
36	0x3d3d7579	0.04625461
37	0xbe51da3b	-0.20493405
38	0xbde958ca	-0.11393888
39	0xbe20c067	-0.15698396
40	0xbe816a7c	-0.25276554
41	0x3e055874	0.13022023
42	0x3e8fd91e	0.28095335
43	0x3e25ca0d	0.16190358
44	0xbd8e3bff	-0.06945037
45	0x3e0d047e	0.13771245
46	0xbe902578	-0.28153586
47	0xbd903da0	-0.07043004
48	0xbdf911ab	-0.12161573
49	0x3d835b20	0.06413865
50	0x3d322485	0.04349186
51	0x3dbb1e79	0.091366716
52	0xbd1227af	-0.035682376
53	0xbdb3bda4	-0.087764055
54	0x3cdf34f6	0.027246933
55	0xbe1972a6	-0.14985141
56	0xbc023330	-0.007946774
57	0xbe5d1a9c	-0.21592182
58	0x3d9276fd	0.071516015
59	0x3e3364df	0.17518948
60	0x3a1d1b56	0.0005993148
61	0x3d96ccb6	0.07363264
62	0xbdeea9a9	-0.11653454
63	0xbbd049d1	-0.006356456
64	0xbd42c472	-0.047550626
65	0x3e6d99da	0.23203221
66	0x3e53333c	0.20625013
67	0x3d80b102	0.062837616
68	0xbee67366	-0.45009917
69	0x3e1553e3	0.14582781
70	0xbe0594e4	-0.13045079
71	0x3dbdbd3b	0.092646085
72	0x3d348a69	0.04407731
73	0x3d8107d4	0.06300321
74	0xbe84594e	-0.25849384
75	0xbe60f815	-0.21969636
76	0x3e4cda3f	0.2000513
77	0x3e1462fa	0.14490882
78	0xbe053918	-0.13010061
79	0xbdf2722e	-0.11838184
80	0xbd864a67	-0.0655716
81	0x3ef6fd88	0.48240304
82	0xbec1c142	-0.37842757
83	0x3bd8fa90	0.0066216663
84	0x3e59411e	0.21216246
85	0xbdefa848	-0.11702019
86	0xbe9f76a6	-0.3114521
87	0x3e560206	0.2089921
88	0xbde1c0bd	-0.1102309
89	0xbe97b2ed	-0.29628697
90	0xbf147341	-0.57988364
91	0xbdda70ff	-0.106660835
92	0xbe311cc6	-0.17296132
93	0x3e087206	0.13324746
94	0xbe4b6e25	-0.19866236
95	0xbd77c253	-0.060488056
96	0xbeebdd63	-0.46067342
97	0x3ebd6b04	0.3699571
98	0x3bb9f501	0.0056749587
99	0x3e2bba8c	0.1677038
100	0xbe34eace	-0.17667696
101	0x3e6d949a	0.23201218
102	0x3d7a31b5	0.06108256
103	0xbe11a350	-0.14222455
104	0xbdd11c49	-0.10210473
105	0xbe7e9b7a	-0.24863997
106	0x3e276668	0.16347659
107	0xbe9e6a6b	-0.30940565
108	0xbd12dc50	-0.035854638
109	0x3d1a4391	0.037662093
110	0x3ea628bc	0.32452953
111	0x3cb471d5	0.022026936
112	0x3c34799c	0.011015322
113	0xbe5c4a1c	-0.21512645
114	0xbe80d333	-0.25161132
115	0x3dcdd29d	0.10049937
116	0x3ed4e4fc	0.4158095
117	0xbe7541bd	-0.23950858
118	0xbe9292dd	-0.28627673
119	0xbeee6d5f	-0.4656782
120	0xbf47a491	-0.77985483
121	0x3e558ad7	0.20853744
122	0x3e32f195	0.17474969
123	0xbd862930	-0.06550825
124	0x3e76a98d	0.24088116
125	0xbe020af0	-0.12699485
126	0xbe27d800	-0.16390991
127	0xbec5c853	-0.38629398
128	0x3d87d5dd	0.06632588
129	0xbe154310	-0.14576364
130	0xbea92c4b	-0.33041605
131	0xbc2ed01e	-0.010669736
132	0x3c93cd02	0.018042091
133	0xbe419b61	-0.18906929
134	0x3e7baf85	0.24578674
135	0x3e59f26b	0.21283881
136	0x3e015aef	0.12632345
137	0xbf14cb35	-0.5812257
138	0xbe4b4a1a	-0.19852486
139	0x3eae0515	0.33988252
140	0xbdb03745	-0.08604292
141	0x3e1ec69b	0.1550545
142	0xbe624ef9	-0.22100438
143	0xbe63a25e	-0.22229907
144	0xbc1ee2ae	-0.009697599
145	0xbe12b833	-0.14328079
146	0xbd1df1f7	-0.038560834
147	0x3ed69511	0.41910604
148	0x3e147ef6	0.14501557
149	0xbdd82f9c	-0.10555956
150	0x3d9b2cf1	0.07576931
151	0xbd2dd7fe	-0.042442314
152	0x3e5b26fe	0.21401593
153	0xbe66c2d3	-0.22535257
154	0x3e16dfca	0.14733806
155	0x3d9ee5b1	0.07758654
156	0x3cb670fe	0.022270676
157	0xbe4d4dfe	-0.20049283
158	0x3e7f8cfd	0.24956127
159	0xbd894562	-0.06702687
160	0x3dc42cf1	0.095788844
161	0xbc90107b	-0.017585983
162	0xbc5848e0	-0.0132009685
163	0x3da883e2	0.0822828
164	0xbe85d779	-0.26140955
165	0xbe08c14b	-0.13354985
166	0x3e598b91	0.21244647
167	0xbe25bdfd	-0.16185756
168	0xbe52fe07	-0.20604716
169	0x3e454a58	0.19266641
170	0x3e6fb2ea	0.23408094
171	0xbebd7a40	-0.37007332
172	0x3e86ab79	0.26302698
173	0xbea52d0b	-0.32260928
174	0xbd7f49ac	-0.06232612
175	0xbe9b8eae	-0.30382293
176	0xbd02af28	-0.031905323
177	0xbc856722	-0.01628453
178	0xbe4ea70e	-0.20180914
179	0x3e9cef3a	0.30651265
180	0xbe840f4c	-0.2579292
181	0x3e331016	0.17486605
182	0xbe0cd570	-0.13753295
183	0xbe8d70cf	-0.2762513
184	0x3e866c91	0.26254705
185	0xbe7b3c83	-0.24534802
186	0xbeaf8e8c	-0.34288442
187	0x3ea0a802	0.3137818
188	0xbda630ac	-0.08114752
189	0x3ef0d02c	0.47033823
190	0xbf0918c4	-0.53553414
191	0x3dfef5ee	0.12449251
192	0xbe6c7748	-0.23092377
193	0x3e170c01	0.14750673
194	0xbd53757c	-0.051625714
195	0xbddf0b5f	-0.10890841
196	0x3c918762	0.01776475
197	0x3d532024	0.051544324
198	0x3e642488	0.2227956
199	0xbec88bd5	-0.39169183
200	0xbe3c8de9	-0.1841351
201	0xbeed2936	-0.46320504
202	0x3dbf84b8	0.09351486
203	0xbde233fe	-0.11045073
204	0x3db3906b	0.0876778
205	0x3d15a17f	0.036530968
206	0x3dbdf8ad	0.09275947
207	0x3e044135	0.129155
208	0xbe358c59	-0.1772932
209	0x3deb5e02	0.1149254
210	0x3e02eac2	0.12784865
211	0x3ee07d42	0.43845564
212	0x3dcbec2b	0.09957155
213	0x3df0cce4	0.1175783
214	0xbd3771fa	-0.04478643
215	0x3d78b22c	0.060716793
216	0xbd69f13e	-0.057114832
217	0x3d1df8d0	0.038567364
218	0xbe2aa3aa	-0.16663995
219	0xbccb97b6	-0.024852615
220	0xbddb02eb	-0.10693916
221	0xbd32767d	-0.04357003
222	0x3d5e4a3c	0.054270014
223	0xbd021852	-0.031761475
224	0x3cdebda7	0.027190043
225	0x3e633d9d	0.22191472
226	0x3df9d7e8	0.12199384
227	0xbe22dbc7	-0.15904151
228	0xbea98203	-0.33107004
229	0xbe2c9545	-0.16853817
230	0x3eb668d7	0.3562686
231	0xbde6f0dc	-0.11276409
232	0x3db5a043	0.08868458
233	0x3ddae1b3	0.1068758
234	0xbdf936e5	-0.121686734
235	0x3eaa1d75	0.332256
236	0xbd0d1c98	-0.034451097
237	0x3df96b55	0.12178675
238	0xbd9632ae	-0.07333885
239	0x3d9a316c	0.07528958
240	0x3dece5c2	0.1156726
241	0x3d00bf24	0.031432286
242	0x3d257288	0.04039243
243	0xbe41123a	-0.18854609
244	0x3e1d5c3e	0.15367219
245	0x3e4b29d6	0.19840178
246	0x3ddd8a26	0.10817365
247	0x3eb72700	0.35771942
248	0x3e77e23b	0.24207394
249	0x3cd01538	0.025400743
250	0x3d9f9577	0.0779218
251	0x3d61f943	0.055169355
252	0xbdcd5fed	-0.10028062
253	0xbe4ccba6	-0.1999956
254	0xba41002a	-0.000736239
255	0x3e0e48ad	0.13894911

network.6.bias f4 [5]
0	0x3e597cf0	0.21239066
1	0xbe1613e2	-0.14656022
2	0x3c9fbfcd	0.019500637
3	0x3e906dcb	0.28208765
4	0x3d042113	0.032258105
