experiments/checkpoints/20251210_110803/checkpoint_ep29.pt (torch, 246569 bytes, 24 tensors)

network.0.weight f4 [128, 43]
-0.005038105 -0.043853268 -0.15251683 -0.014778892 -0.04665172 -0.16009825 -0.12763917 0.13742939
0.16417558 -0.16214162 -0.017676832 -0.11556667 -0.25658727 0.008270521 -0.18103448 -0.09115127
-0.20763913 0.10529659 0.03463922 -0.07991984 -0.13716109 -0.087766334 0.12985319 -0.0012772282
-0.091350935 0.16759537 -0.046019875 0.028427688 -0.0088193845 0.038927775 0.06823768 0.03380082
-0.1823939 0.27638102 0.15984195 0.04513597 0.20023504 0.0742592 -0.11453603 -0.3386926
0.07927073 0.0029161882 0.03774549 -0.16519095 0.20023082 -0.052245423 -0.042104818 0.011269608
-0.18459105 -0.34593078 0.082657486 0.09166626 -0.038023453 0.041999325 0.044109125 -0.4541816
-0.609176 0.58382964 -0.03813672 -0.91687477 -0.48198792 -0.4654806 -0.18591627 0.06141204
0.082058065 -0.081380576 0.11609866 -0.046586253 -0.096358 0.09693809 0.29859927 -0.042599224
-0.16673107 0.15682924 0.3633043 -0.06700719 0.27700716 -0.1232115 0.36629477 -0.4173709
-0.20987824 0.16041 -0.31714472 -0.11500853 -0.52293867 0.09680121 0.08296055 0.03843286
0.023006037 -0.20663562 0.37910762 -0.08080126 -0.12372549 0.043407675 0.040695835 -0.0936578
-0.033666972 -0.004744466 -0.59413856 -0.41134214 -0.4756615 0.29141283 -0.61403227 0.32499138
0.21885596 0.038169313 -0.18390925 0.15968771 0.09758513 -0.1756292 0.059935182 -0.15009323
0.016646305 0.39491093 0.1842842 -0.06294532 -0.16686353 0.1764459 0.13773379 0.3636397
-0.09910957 -0.06719796 0.25219995 0.6697682 -0.19782776 -0.05647036 -0.15845716 -0.72044724
-0.036285426 0.011200433 0.11724867 -0.09882927 0.2886654 -0.1774754 -0.18180686 -0.0380225
-0.17965011 -0.026955638 0.058513746 -0.13424315 0.01246308 -0.28567788 -0.47053096 0.3454814
0.14961173 -0.7487132 -0.013533289 -0.21730998 0.08835625 -0.071242444 0.18370159 -0.017899908
-0.019534081 -0.120459475 0.08572864 -0.18668589 0.18660192 0.088009946 0.38133898 -0.10307467
0.35690168 0.08387708 0.2578013 -0.031754166 -0.25421745 0.03841396 0.20830636 0.09241846
0.07934907 -0.06163544 -0.4334808 0.03809116 -0.14574891 -0.033145964 0.027760418 -0.22606237
-0.07961182 0.1341519 0.04130115 -0.08717285 -0.045906283 0.14056504 -0.10394172 -0.17114513
-0.14166246 -0.27348125 -0.100344256 0.054704633 -0.13309145 0.021061482 -0.18000175 -0.08383517
0.17296724 -0.17466044 0.03444508 0.15730797 -0.016495243 0.08065083 0.1395174 -0.033836696
0.12991442 0.08192318 -0.040309727 0.111195214 -0.17990011 -0.38523316 0.1069037 -0.06924077
0.091310255 0.20720786 0.027187297 -0.3238663 -0.0035041315 0.20012045 0.11721236 -0.031579234
0.05360027 0.16009499 -0.6400379 0.7636058 0.12952831 0.18682161 0.022331666 0.036364317
-0.15786575 0.04979279 -0.04501753 -0.41649342 -0.0031989014 0.348683 0.16513944 -0.6983452
-0.2775631 -0.2851029 0.0633418 0.08143682 0.11926313 0.10132679 -0.12744011 -0.07973378
-0.12745032 -0.11795269 0.13228291 0.37167293 0.005971651 0.13541089 -0.41426265 0.013468754
0.14704746 0.09618714 -0.05899128 0.07713189 0.023736235 -0.6413436 -0.20262268 -0.19668832
00000000: b016 a5bb 7c9f 33bd 5f2d 1cbe 2a23 72bc
00000010: e015 3fbd ccf0 23be d8b3 02be 4aba 0c3e
00000020: a51d 283e 7408 26be 01cf 90bc 38ae ecbd
00000030: 685f 83be 1481 073c 1a61 39be 84ad babd
00000040: 5a9f 54be bda5 d73d dbe1 0d3d 03ad a3bd
00000050: f573 0cbe d6be b3bd 3cf8 043e ab68 a7ba
00000060: 3316 bbbd 1f9e 2b3e 567f 3cbd 2fe1 e83c
00000070: 2e7f 10bc bb72 1f3d 32c0 8b3d bb72 0a3d
00000080: 77c5 3abe d081 8d3e 9cad 233e 7fe0 383d
00000090: 6a0a 4d3e 3515 983d de91 eabd 1e69 adbe
000000a0: b158 a23d 851d 3f3b 049b 1a3d d127 29be
000000b0: 4f09 4d3e 4cff 55bd 1a76 2cbd 29a4 383c
000000c0: 7005 3dbe d71d b1be 5448 a93d 85bb bb3d
000000d0: 7bbe 1bbd 7c07 2c3d c5ab 343d 7e8a e8be
000000e0: f5f2 1bbf dc75 153f 4035 1cbd 4eb8 6abf
000000f0: 1fc7 f6be 7953 eebe d660 3ebe 318b 7b3d
00000100: 0f0e a83d dcaa a6bd 22c5 ed3d 3ad1 3ebd
00000110: 5857 c5bd 7a87 c63d 01e2 983e 867c 2ebd
00000120: 8dbb 2abe d897 203e 0503 ba3e 113b 89bd
00000130: e2d3 8d3e 5056 fcbd fd8a bb3e a3b1 d5be
00000140: 52ea 56be 8542 243e cb60 a2be 9889 ebbd
00000150: 4fdf 05bf b63f c63d 39e7 a93d c66b 1d3d
00000160: 2877 bc3c 4a98 53be 651a c23e 227b a5bd
00000170: ca63 fdbd 3fcc 313d adb0 263d a9cf bfbd
00000180: 61e6 09bd 7777 9bbb 7719 18bf 709b d2be
00000190: e789 f3be 1034 953e 3831 1dbf 4565 a63e
000001a0: c71b 603e 6d57 1c3d b552 3cbe 2d85 233e
000001b0: b6da c73d 24d8 33be 987e 753d 0ab2 19be
000001c0: d55d 883c c431 ca3e ffb4 3c3e 7ae9 80bd
000001d0: 46de 2abe 3cae 343e 160a 0d3e fc2e ba3e
000001e0: f5f9 cabd 169f 89bd 5a20 813e ee75 2b3f
000001f0: 5c93 4abe 774d 67bd 9842 22be 3b6f 38bf
00000200: 07a0 14bd 0582 373c 1220 f03d 0067 cabd
00000210: f4cb 933e 1cbc 35be 942b 3abe 7bbd 1bbd
00000220: 33f6 37be 12d2 dcbc 1cac 6f3d 0977 09be
00000230: f231 4c3c 5f44 92be 6fe9 f0be f0e2 b03e
00000240: d133 193e abab 3fbf baba 5dbc 8286 5ebe
00000250: 1ff4 b43d 8fe7 91bd 451c 3c3e d4a2 92bc
00000260: f005 a0bc 75b3 f6bd 7f92 af3d 962a 3fbe
00000270: 9314 3f3e 8f3e b43d dd3e c33e d018 d3bd
00000280: d1bb b63e bfc7 ab3d 88fe 833e a810 02bd
00000290: ca28 82be f557 1d3d 434e 553e e445 bd3d
000002a0: c481 a23d 7175 7cbd 32f1 ddbe 7a05 1c3d
000002b0: 343f 15be 10c4 07bd d169 e33c e57c 67be
000002c0: 860b a3bd 1e5f 093e 652b 293d ae87 b2bd
000002d0: 3a08 3cbd 48f0 0f3e 66df d4bd ab40 2fbe
000002e0: f70f 11be bc05 8cbe 4a81 cdbd f711 603d
000002f0: 2049 08be 2189 ac3c 6152 38be c6b1 abbd
00000300: 531e 313e 30da 32be 4916 0d3d 5715 213e
00000310: 0821 87bc 432c a53d a6dd 0e3e 5998 0abd
00000320: 4908 053e 57c7 a73d d01b 25bd 51ba e33d
00000330: bc37 38be 483d c5be 54f0 da3d 1bce 8dbd
00000340: df00 bb3d 4c2e 543e e5b7 de3c ced1 a5be
00000350: 92a5 65bb 60ec 4c3e 090d f03d 3a59 01bd
00000360: f58b 5b3d f1ef 233e 86d9 23bf ab7b 433f
00000370: 12a3 043e 2a4e 3f3e e6f0 b63c c0f2 143d
00000380: 8fa7 21be 86f3 4b3d 4d64 38bd a03e d5be
00000390: a9a4 51bb 9486 b23e 501a 293e c0c6 32bf
000003a0: c01c 8ebe 02f9 91be 58b9 813d 59c8 a63d
000003b0: 3a40 f43d 6c84 cf3d a97f 02be 774b a3bd
000003c0: 5682 02be 2e91 f1bd 2c75 073e ea4b be3e
000003d0: d7ad c33b 27a9 0a3e 3c1a d4be 0cac 5c3c
000003e0: 9c93 163e c3fd c43d d7a0 71bd 53f7 9d3d
000003f0: 7e72 c23c 182f 24bf 527c 4fbe aa68 49be

network.0.bias f4 [128]
-0.59232306 -0.9728772 -0.56025213 -0.80261254 -0.6812245 -0.17463313 -1.0204505 -0.9479339
-0.79490805 -0.52338946 -0.94245416 -0.8008707 -0.7351351 -0.5226012 -0.7495816 -0.46972898
-0.659241 -1.0267783 -0.42432022 -0.6539469 -1.3461518 -0.56647927 0.35628054 -1.2956288
-0.6737195 -0.7813326 -0.31053028 -0.9482534 -1.0412744 -0.36971438 -0.64770424 -0.7838614
-0.6406762 -0.9998485 -0.6822376 -0.0010499335 -0.76275927 -0.97638935 -0.77052724 -0.6998023
-0.5970294 0.2104869 -0.6280538 -0.3331929 -1.3936203 -0.5964763 -0.4432361 -0.8950881
-0.696374 -0.72496563 -1.2487762 -0.98898983 -0.90185493 -0.65282816 -0.38853338 -1.3082031
-0.3686777 -0.804979 -0.5047432 -0.5336169 -0.68894553 -0.592744 -0.6228953 -0.7352887
-1.0580697 -0.06587562 -1.3081144 -0.7199829 -0.92101353 -0.69582105 -1.0165106 -0.23850375
-0.81668854 -0.8358212 -0.19672222 -0.44836703 -0.57258457 -0.5379166 -1.3482145 -0.3943042
-0.6332808 -0.76225704 -1.1970762 -0.27671492 -1.0512663 -1.0929374 0.038363058 -0.45593393
-0.45544514 -0.79090166 -0.7810179 -1.0717047 -0.4285098 -0.7974683 -0.06839751 -0.7390352
-0.26609948 -0.4675433 -1.1043806 -0.35169747 -0.9862861 -0.3427238 -0.9306551 -0.80772555
-0.87241 -1.1809174 -0.65646696 -0.26727268 0.17797908 -1.19658 -0.7283912 -0.7027729
-0.83012986 -0.80547553 -0.8746952 -0.4358271 -1.2178937 -0.82815367 -0.6859179 -0.32327566
-0.6639666 -0.6931594 -0.6998062 -0.77579576 -0.6634503 -0.45822722 -0.79069895 -0.6858693
00000000: 7ca2 17bf 7b0e 79bf af6c 0fbf 0478 4dbf
00000010: bb64 2ebf 07d3 32be 1f9e 82bf ccab 72bf
00000020: 187f 4bbf dafc 05bf ad44 71bf dd05 4dbf
00000030: d031 3cbf 31c9 05bf 94e4 3fbf 5180 f0be
00000040: 05c4 28bf 796d 83bf 8040 d9be 1069 27bf
00000050: b44e acbf c904 11bf 676a b63e 2ad7 a5bf
00000060: e278 2cbf 6a05 48bf d3fd 9ebe bcc0 72bf
00000070: 7b48 85bf 344b bdbe f2cf 25bf 24ab 48bf
00000080: 5b03 24bf 12f6 7fbf 20a7 2ebf ec9d 89ba
00000090: 3144 43bf a7f4 79bf 4641 45bf 3e26 33bf
000000a0: ebd6 18bf e189 573e 22c8 20bf 4398 aabe
000000b0: 2662 b2bf acb2 18bf d8ef e2be 7e24 65bf
000000c0: 9145 32bf 5997 39bf e6d7 9fbf 702e 7dbf
000000d0: f7df 66bf bf1f 27bf d9ed c6be 3373 a7bf
000000e0: 53c3 bcbe 1b13 4ebf da36 01bf 1e9b 08bf
000000f0: bc5e 30bf 12be 17bf 1176 1fbf e13b 3cbf
00000100: d46e 87bf cce9 86bd 4b70 a7bf cd50 38bf
00000110: 8bc7 6bbf 5421 32bf 051d 82bf 543a 74be
00000120: 8012 51bf 61f8 55bf 8d71 49be 5d90 e5be
00000130: e794 12bf e7b4 09bf 4b92 acbf 3de2 c9be
00000140: b11e 22bf 4723 43bf cb39 99bf 94ad 8dbe
00000150: e58f 86bf 5fe5 8bbf 9522 1d3d 2c70 e9be
00000160: 1b30 e9be 8878 4abf caf0 47bf 9f2d 89bf
00000170: a365 dbbe e226 4cbf fe13 8cbd 6931 3dbf
00000180: 313e 88be d661 efbe 585c 8dbf b111 b4be
00000190: 3f7d 7cbf 7e79 afbe 6a3f 6ebf 1ac7 4ebf
000001a0: 4356 5fbf 4d28 97bf 380e 28bf f7d7 88be
000001b0: 2640 363e 8929 99bf d877 3abf ede8 33bf
000001c0: 6483 54bf a533 4ebf 06ec 5fbf bb24 dfbe
000001d0: f1e3 9bbf e101 54bf 5198 2fbf 6384 a5be
000001e0: b7f9 29bf e572 31bf 8026 33bf 8d9a 46bf
000001f0: e1d7 29bf c29c eabe 3f6b 4abf 2195 2fbf

network.3.weight f4 [64, 128]
0.041596297 -0.06439843 -0.085266605 -0.58749926 -0.060084023 0.11206979 -0.24649991 -0.16609035
-0.31800002 0.14675213 -0.13462414 -0.2699036 -0.13742542 -0.15700759 -0.22538161 -0.17956749
-0.07423435 -0.23027807 -0.22292858 0.024485502 -0.6216933 -0.0057909563 -0.6470934 -0.04234922
-0.041997775 0.31802693 0.024660507 -0.60702586 -1.1953039 -0.34540063 0.05296651 -0.13751313
0.0025038123 -0.20789178 -0.16068551 -0.6313543 -0.49268466 -0.15259974 -0.24670523 -0.1672916
-0.39222544 -0.14221995 -0.115349755 -0.85650814 -0.4070216 0.09194316 -0.009231588 0.15791139
-0.3999016 -0.116345465 -0.21616808 -0.6061311 -0.18465653 0.0999628 -0.3543347 -0.0018046976
-0.22042313 -0.374825 -0.20783275 -0.08376933 -0.12766375 0.055645775 -0.48572865 -0.14830017
-0.31690535 -0.19117995 0.03789309 -0.055189442 -0.35562465 -0.117532514 0.2098401 -0.57368064
-0.5929148 -0.2069672 -0.37491435 -0.06883972 -0.2628316 -0.43221065 -0.20824787 -0.49163356
-0.16056208 -0.1798712 -0.28292817 -0.2155537 -0.12182208 0.0913745 -0.30155438 -0.11935232
-0.45230153 -0.013544622 -0.16689976 -0.20187782 -0.36705396 -0.026435884 -0.18657476 -0.2657048
-0.3379187 0.048224602 -0.55567855 -0.18805873 0.030557994 0.043071248 -0.15690559 -0.023877278
-0.05522723 -0.106915936 -0.5049689 -0.14465511 -0.5508152 -0.03861673 -0.24667853 -0.106787935
-0.062676385 -0.021838564 0.18256044 -0.11527273 -0.30336997 -0.15308027 0.400522 -0.34601173
-0.09452588 -0.1932252 -0.32032856 -0.42540553 -0.27132455 -0.009731192 -0.120852225 0.09131814
-0.0806992 -0.3511072 -0.32286814 -0.19546565 -0.33880496 -0.105881855 -0.0010497381 0.26479143
-0.11679528 -0.15947725 -0.2086172 -0.304943 -0.47518206 -0.42678064 -0.80517703 -1.2542868
-0.40038276 -0.2648073 -0.51348 0.2579975 -0.033274114 -0.79472417 -0.4595151 -0.3656394
-0.11710347 -0.048027687 -0.05882889 0.49856395 0.55616796 -0.71441007 -0.009669468 -0.8291978
-0.5394273 -0.3735934 -0.1674475 -0.12807994 -0.16549242 -0.30430475 -0.48123154 -0.5316212
-0.4309337 -1.0051726 -0.12691589 -0.3226281 0.025726212 -0.44391778 -1.2623804 -0.0922717
-0.4950776 -0.039868783 -0.12039258 -0.33126646 -0.13462561 -0.23470284 -1.6806008 0.37837365
-0.3593693 -0.25434646 -0.39114073 -1.0350349 -0.17396289 -0.15384041 -0.33290496 -0.5856239
-0.6080728 -0.7285962 0.2179794 -0.118862934 -0.29915938 0.030712254 0.025897821 -0.21588428
-0.13721988 -0.22314635 -0.5340957 -0.6533155 -0.15195282 -0.31425703 0.04089942 -0.24542251
0.12877153 -0.13476454 -0.1363214 -0.23765175 -0.23631078 -0.85167503 -0.79719645 -0.7101794
-0.3532152 -0.23870774 0.22758563 -0.5203604 -0.22125408 -0.32694256 -0.31857607 -0.5297131
-0.33768407 -0.5503851 -0.13140579 -0.09312352 -0.59678483 0.06334399 -0.31360185 -0.032653246
0.04500923 -0.06969596 -0.8130559 -0.12768635 -0.039132513 0.33376506 -0.059825994 -0.11718408
-0.4842861 -0.11080259 -0.5195373 -0.75818104 -0.35911846 -0.3214319 0.47313276 -0.5580786
-0.3231531 -0.07180577 -0.010853867 -0.72104883 -0.30764243 0.11239102 -0.331213 -0.3823951
00000000: e160 2a3d 53e3 83bd 42a0 aebd 5a66 16bf
00000010: aa1a 76bd d984 e53d 796a 7cbe 9713 2abe
00000020: e6d0 a2be 3146 163e e9da 09be ce30 8abe
00000030: 40b9 0cbe 99c6 20be 70ca 66be 8ae0 37be
00000040: 2e08 98bd 04ce 6bbe 6447 64be d295 c83c
00000050: 4b27 1fbf 10c2 bdbb eaa7 25bf 6076 2dbd
00000060: dc05 2cbd 6dd4 a23e d504 ca3c 0c66 1bbf
00000070: b8ff 98bf 5ad8 b0be 69f3 583d 3ed0 0cbe
00000080: 0017 243b 95e1 54be be8a 24be 6fa0 21bf
00000090: 2a41 fcbe 1b43 1cbe 4ca0 7cbe 7d4e 2bbe
000000a0: c6d1 c8be 1ba2 11be 7e3c ecbd 1e44 5bbf
000000b0: 2365 d0be b24c bc3d 1640 17bc 86b3 213e
000000c0: e7bf ccbe 8846 eebd 2a5b 5dbe 682b 1bbf
000000d0: 9a16 3dbe 4cb9 cc3d 5c6b b5be 9a8b ecba
000000e0: 9ab6 61be 10e9 bfbe 1cd2 54be 418f abbd
000000f0: 49ba 02be d3ec 633d 6db1 f8be 00dc 17be
00000100: 6b41 a2be adc4 43be c935 1b3d 530e 62bd
00000110: 6f14 b6be e3b4 f0bd 53e0 563e bcdc 12bf
00000120: 44c9 17bf 36ef 53be c6f4 bfbe d7fb 8cbd
00000130: dd91 86be b74a ddbe ee3e 55be 65b7 fbbe
00000140: 636a 24be 2830 38be f6db 90be 1cba 5cbe
00000150: db7d f9bd 8e22 bb3d 5665 9abe fd6e f4bd
00000160: 1194 e7be 43ea 5dbc c5e7 2abe 0fb9 4ebe
00000170: 7fee bbbe 1190 d8bc 740d 3fbe 760a 88be
00000180: ae03 adbe 2987 453d f340 0ebf 7892 40be
00000190: c254 fa3c 7a6b 303d dcab 20be 489a c3bc
000001a0: f335 62bd bef6 dabd a445 01bf 7820 14be
000001b0: 3a02 0dbf 942c 1ebd 4c99 7cbe a2b3 dabd
000001c0: 7a5c 80bd cae6 b2bc 20f1 3a3e 1c14 ecbd
000001d0: 4f53 9bbe 13c1 1cbe 3811 cd3e 7328 b1be
000001e0: c996 c1bd d4dc 45be 1b02 a4be c1ce d9be
000001f0: 0deb 8abe 946f 1fbc 5f81 f7bd 0105 bb3d
00000200: 9f45 a5bd 53c4 b3be f94e a5be 2628 48be
00000210: d877 adbe 96d8 d8bd 5e97 89ba be92 873e
00000220: 5d32 efbd 014e 23be bf9f 55be 7d21 9cbe
00000230: 104b f3be fe82 dabe 1520 4ebf 788c a0bf
00000240: f8fe ccbe d394 87be 6d73 03bf 4018 843e
00000250: 704a 08bd 0b73 4bbf 9045 ebbe 1635 bbbe
00000260: f2d3 efbd aeb8 44bd 90f6 70bd c643 ff3e
00000270: 0661 0e3f 94e3 36bf b06c 1ebc 4f46 54bf
00000280: e817 0abf a247 bfbe 5c77 2bbe 6327 03be
00000290: d876 29be d5cd 9bbe fb63 f6be 5418 08bf
000002a0: 58a3 dcbe 7fa9 80bf 3df6 01be 832f a5be
000002b0: c7bf d23c 3149 e3be ae95 a1bf f2f8 bcbd
000002c0: d07a fdbe 734d 23bd 6390 f6bd c29b a9be
000002d0: 4cdb 09be f155 70be ed1d d7bf 31ba c13e
000002e0: 41ff b7be b339 82be 9943 c8be 067c 84bf
000002f0: 5423 32be 5788 1dbe 8572 aabe 73eb 15bf
00000300: a9aa 1bbf 4885 3abf fe35 5f3e 696e f3bd
00000310: 6b2b 99be 4498 fb3c ab27 d43c c510 5dbe
00000320: 5e83 0cbe 7a80 64be 7fba 08bf af3f 27bf
00000330: 8599 1bbe 4ce6 a0be 2686 273d 0a50 7bbe
00000340: afdc 033e b7ff 09be d697 0bbe fb5a 73be
00000350: 74fb 71be 6007 5abf 1115 4cbf 51ce 35bf
00000360: 9fd8 b4be cd6f 74be 350c 693e 5736 05bf
00000370: 6e90 62be 0465 a7be 671c a3be 479b 07bf
00000380: ede4 acbe 0ae6 0cbf 3d8f 06be 8bb7 bebd
00000390: e4c6 18bf 7eba 813d 6c90 a0be 69bf 05bd
000003a0: 995b 383d c1bc 8ebd 6e24 50bf 36c0 02be
000003b0: 6a49 20bd 41e3 aa3e 1a0c 75bd 35fe efbd
000003c0: 59f4 f7be 78ec e2bd 6600 05bf 2718 42bf
000003d0: 60de b7be b992 a4be 753e f23e 3dde 0ebf
000003e0: 5374 a5be e70e 93bd 6bd4 31bc a896 38bf
000003f0: 4f83 9dbe 432d e63d c094 a9be 4ac9 c3be

network.3.bias f4 [64]
-0.92614484 -0.2610984 -0.40108904 0.16851185 -0.5974054 -0.40907937 -0.52637273 -0.67272747
-0.2191117 -0.18304624 -0.6159049 -0.32866707 -0.17734414 -0.44593602 -0.16813004 -0.56274366
-0.39715734 -0.5921642 -0.24639829 0.4581541 -0.48288634 -0.40899682 -0.27303514 -0.6525899
-0.26365504 0.49027336 -0.63509417 -0.36871088 -0.6241164 -0.5955948 -0.29940248 -0.2493571
0.28637472 -0.4568185 -0.3863694 -0.470974 -0.31665418 -0.27546477 0.7139684 -0.48968214
-0.3751538 -0.15977097 -0.3548969 0.008814089 -0.6149174 -0.4990589 0.34010372 0.1746036
-0.3674267 -0.4018116 -0.6920016 -0.42585656 -0.22798021 0.7143931 -0.35515782 -0.23512891
0.37101147 -0.44648862 -0.25818825 -0.42920762 -0.12102732 -0.49151805 0.11937856 1.4482284
00000000: d417 6dbf b1ae 85be 8b5b cdbe 5f8e 2c3e
00000010: 8fef 18bf da72 d1be 5dc0 06bf de37 2cbf
00000020: d15e 60be 7970 3bbe f2ab 1dbf 0d47 a8be
00000030: b499 35be ba51 e4be 482a 2cbe f80f 10bf
00000040: 3558 cbbe 1398 17bf d54f 7cbe 2d93 ea3e
00000050: e13c f7be 0868 d1be 43cb 8bbe 2210 27bf
00000060: cbfd 86be 1c05 fb3e 8895 22bf acc7 bcbe
00000070: 18c6 1fbf e778 18bf 484b 99be 7857 7fbe
00000080: b59f 923e 1de4 e9be 36d2 c5be 8123 f1be
00000090: 7f20 a2be b809 8dbe a2c6 363f 9eb7 fabe
000000a0: 2914 c0be 009b 23be 0cb5 b5be f868 103c
000000b0: 3a6b 1dbf a684 ffbe 1322 ae3e 49cb 323e
000000c0: 5a1f bcbe 40ba cdbe 0427 31bf df09 dabe
000000d0: a573 69be 77e2 363f 3fd7 b5be a2c5 70be
000000e0: 37f5 bd3e 289a e4be 4031 84be 1ac1 dbbe
000000f0: 2cdd f7bd 41a8 fbbe bf7c f43d 8c5f b93f

network.6.weight f4 [5, 64]
0.15364297 0.059586212 -0.08395384 0.049573757 0.14243402 -0.054377846 -0.009090904 0.31435823
-0.04947531 -0.042065296 0.0030942194 0.06803189 0.034721397 -0.15920386 0.10346544 0.044861212
0.06867534 0.10525709 0.022958921 -0.048029397 -0.09575885 0.10832953 -0.09434061 -0.08648311
-0.0092299655 -0.07841992 -0.044326134 -0.14754276 0.047501907 0.10491507 0.16788243 0.007437812
-0.044517767 -0.030398851 -0.07535067 0.00095224445 -0.0009748526 0.09889186 -0.047098897 0.0035028877
-0.033027463 -0.012670041 0.14214252 -0.10462267 0.028636893 0.035666183 0.056551114 -0.009960919
0.16709067 0.21144357 0.053071726 0.2755118 0.018966313 -0.096572444 0.039655317 -0.06300006
-0.18670256 -0.046146173 -0.11462709 0.11815933 0.04045716 0.14196402 -0.09125371 -0.04208817
-0.047550626 0.061999258 0.20623735 0.043912154 -0.13279061 0.14596456 -0.13057514 0.09262877
0.044179007 0.06301328 -0.25861096 -0.219808 0.20011877 0.14498638 -0.122567356 -0.11834477
-0.06551449 0.19211777 -0.06193518 0.0074706567 0.21219635 -0.11938348 0.0031204987 0.2090351
-0.11013488 -0.24693109 -0.26565078 -0.10660894 -0.17292513 0.13331985 -0.19866444 -0.03713376
-0.09253941 -0.021851236 0.005877733 0.16787708 -0.17663467 0.23207457 0.16062903 -0.14229064
-0.10221848 -0.24871975 0.16352987 0.016891351 -0.035817884 0.037843805 0.05167868 -0.44109476
0.011102104 -0.21521418 0.0102338 0.10049937 0.4158948 0.04539858 -0.28883278 -0.46599713
-0.04084612 0.2085828 -0.145484 -0.0654388 0.29197797 -0.12725124 -0.37154695 -0.3801259
0.06632583 -0.32184708 -0.33066586 -0.03239817 0.018077493 -0.18910244 0.24800652 0.2131152
0.12626776 -0.5814778 -0.19884832 0.3399969 -0.08610032 0.15525123 -0.22580731 -0.22249995
-0.009747398 -0.14341404 -0.03847612 0.34676778 0.14503597 0.21175188 0.016781725 -0.042312775
0.214169 -0.2780601 0.14741866 0.077600375 0.022211118 -0.20043647 0.24958752 -0.07036039
0.1301212 -0.017534692 -0.012975034 0.39068836 0.022361169 -0.13361093 0.14225574 -0.16182761
-0.20600657 0.11975816 0.234117 -0.47747794 0.26302698 -0.32284907 0.16546278 -0.23103277
-0.031752687 -0.01627508 -0.20179658 0.3067272 -0.2579365 0.30377764 0.09444366 -0.28152654
0.13978721 -0.24535014 -0.14092211 0.31384432 0.043978106 0.47054777 -0.3510143 0.16278358
-0.23092377 -0.048153676 -0.051628213 -0.07687659 0.017777383 0.05158075 0.20826449 -0.3919326
-0.18411236 -0.15416889 0.09374242 0.20587662 0.08778834 0.17051977 0.0339183 0.1294175
0.1378529 0.11515099 0.12790905 0.15249024 0.099701345 0.10168666 -0.044915937 0.06075191
-0.056955777 0.0051907464 -0.16668326 -0.024952075 -0.106972694 -0.0435491 0.3373413 -0.012905484
0.25577003 0.22227749 0.044282448 -0.15907337 -0.014981823 -0.16848013 0.14008208 0.096579224
0.08884613 0.106836684 -0.12157877 0.05887211 -0.034411304 0.12190837 -0.06855649 0.1621205
0.11562931 0.031483997 0.040353686 -0.1884831 0.15359575 0.06743219 0.10656879 0.098450735
0.10618158 0.025437305 0.31302148 0.055183172 -0.1704781 -0.20030884 0.017146476 0.21627687
00000000: 9554 1d3e ac10 743d feef abbd da0d 4b3d
00000010: 39da 113e 4ebb 5ebd 04f2 14bc 90f3 a03e
00000020: 9fa6 4abd a94c 2cbd 63c8 4a3b 4e54 8b3d
00000030: 0638 0e3d 5606 23be b0e5 d33d 64c0 373d
00000040: a8a5 8c3d 0791 d73d 5914 bc3c 79ba 44bd
00000050: 371d c4bd dfdb dd3d a635 c1bd 0f1e b1bd
00000060: 4839 17bc 9f9a a0bd 528f 35bd 7315 17be
00000070: 5c91 423d b6dd d63d 5fe9 2b3e e4b8 f33b
00000080: 4358 36bd 0307 f9bc 7451 9abd 0ba0 793a
00000090: 408d 7fba d187 ca3d c6ea 40bd b490 653b
000000a0: ce47 07bd 0196 4fbc cf8d 113e 6944 d6bd
000000b0: eb97 ea3c b416 123d 24a2 673d 1f33 23bc
000000c0: d119 2b3e aa84 583e bd61 593d e20f 8d3e
000000d0: 3e5f 9b3c c6c7 c5bd 9d6d 223d 2d06 81bd
000000e0: f52e 3fbe c503 3dbd 9cc1 eabd 85fd f13d
000000f0: 68b6 253d 045f 113e 3ae3 babd a564 2cbd
00000100: 72c4 42bd eff2 7d3d e22f 533e 3bdd 333d
00000110: 43fa 07be bc77 153e 7db5 05be 27b4 bd3d
00000120: 0cf5 343d 1b0d 813d a868 84be 5915 61be
00000130: efeb 4c3e 4f77 143e 9804 fbbd be5e f2bd
00000140: 762c 86bd 85ba 443e beaf 7dbd 69cc f43b
00000150: 004a 593e 537f f4bd 4881 4c3b 4c0d 563e
00000160: 658e e1bd 81db 7cbe 6103 88be ca55 dabd
00000170: 4913 31be 0085 083e b16e 4bbe 9219 18bd
00000180: 4d85 bdbd 5d01 b3bc 009a c03b f8e7 2b3e
00000190: b8df 34be f5a4 6d3e f07b 243e a3b4 11be
000001a0: ec57 d1bd 64b0 7ebe 6074 273e bb5f 8a3c
000001b0: c6b5 12bd 1b02 1b3d 06ad 533d 2cd7 e1be
000001c0: 99e5 353c 1b61 5cbe abab 273c 9dd2 cd3d
000001d0: 2af0 d43e ddf3 393d e4e1 93be 2d97 eebe
000001e0: 434e 27bd bb96 553e c2f9 14be c704 86bd
000001f0: 237e 953e 264e 02be 673b bebe dd9f c2be
00000200: d6d5 873d 24c9 a4be 094d a9be f2b3 04bd
00000210: 4017 943c 12a4 41be 6cf5 7d3e df3a 5a3e
00000220: 564c 013e bbdb 14bf e59e 4bbe 1314 ae3e
00000230: 5d55 b0bd 2efa 1e3e 083a 67be 07d7 63be
00000240: 8db3 1fbc 21db 12be 2399 1dbd 8c8b b13e
00000250: 4f84 143e 7cd5 583e d479 893c 2950 2dbd
00000260: 1e4f 5b3e e55d 8ebe ebf4 163e f2ec 9e3d
00000270: 17f4 b53c 383f 4dbe df93 7f3e 1c19 90bd
00000280: 7e3e 053e eaa4 8fbc 3d95 54bc 4e08 c83e
00000290: c52e b73c 4ed1 08be 7dab 113e 23b6 25be
000002a0: 63f3 52be c443 f53d 5ebc 6f3e fd77 f4be
000002b0: 79ab 863e 794c a5be 136f 293e db93 6cbe
000002c0: 1b0f 02bd 5153 85bc c3a3 4ebe 590b 9d3e
000002d0: 4110 84be be88 9b3e ad6b c13d 3f24 90be
000002e0: 6124 0f3e 113d 7bbe e34d 10be 34b0 a03e
000002f0: 6322 343d a3eb f03e 25b8 b3be bdb0 263e
00000300: 4877 6cbe ca3c 45bd 1b78 53bd 7971 9dbd
00000310: e0a1 913c 5646 533d 4943 553e 64ab c8be
00000320: f387 3cbe 73de 1dbe 07fc bf3d 52d1 523e
00000330: 60ca b33d bc9c 2e3e eaed 0a3d 0586 043e
00000340: 5029 0d3e 48d4 eb3d 97fa 023e 6726 1c3e
00000350: 3830 cc3d 1841 d03d c6f9 37bd ffd6 783d
00000360: 764a 69bd 2317 aa3b 04af 2abe 4b68 ccbc
00000370: 8014 dbbd 8b60 32bd 00b8 ac3e 8671 53bc
00000380: 4af4 823e b69c 633e 8361 353d 21e4 22be
00000390: 5276 75bc 0e86 2cbe ad71 0f3e 54cb c53d
000003a0: f6f4 b53d 31cd da3d 4afe f8bd e223 713d
000003b0: def2 0cbd 18ab f93d 5867 8cbd eb02 263e
000003c0: 0fcf ec3d 5df5 003d e849 253d b701 41be
000003d0: 3448 1d3e e319 8a3d bd40 da3d 8aa0 c93d
000003e0: ba75 d93d e561 d03c 5a44 a03e c007 623d
000003f0: d091 2ebe c31d 4dbe c476 8c3c af77 5d3e

network.6.bias f4 [5]
-0.063711226 0.02669517 0.1035623 0.17606825 0.2788249
00000000: 087b 82bd d4af da3c 7918 d43d 3c4b 343e
00000010: 23c2 8e3e

network.0.weight f4 [128, 43]
-0.005038105 -0.062503465 -0.13386677 0.09086024 -0.10850515 -0.16009825 -0.14845097 0.13742939
0.16417558 -0.16214162 -0.017676832 -0.11556667 -0.10905797 0.15198588 -0.009901559 -0.10279771
-0.035118565 0.081556 0.015412014 -0.07991984 -0.13716109 -0.087766334 0.12985319 -0.0012772287
-0.091350935 0.16759537 -0.046019875 -0.116836086 -0.09387365 0.003456388 0.0682377 0.06296028
-0.1823939 0.13111843 0.15984195 0.028615618 0.15809089 0.092772044 0.07063929 -0.18533388
0.07926403 -0.13874951 0.03774549 -0.16519095 0.19087055 -0.042885337 0.019717509 -0.062470533
-0.18459105 0.03811884 0.082657486 0.09166626 -0.038023453 0.041999336 0.044109125 0.10834246
0.06899757 0.019612916 0.06754651 0.04373976 0.084506206 -0.16827607 -0.18591627 0.06141204
0.082058065 -0.081380576 0.11609866 -0.046586253 -0.096358 0.09693809 0.1676991 0.15610465
-0.15535747 0.15682924 -0.14828083 -0.06700719 0.14610748 -0.1232115 0.08602594 -0.18384105
-0.03229166 0.15164894 -0.034659296 -0.026360402 -0.068069324 0.09680121 0.08296055 0.023352541
0.038086355 -0.06068068 0.14675766 -0.08080126 0.027691258 0.043407675 0.040695835 -0.0936578
-0.033666972 -0.004744466 -0.09998538 -0.084784634 -0.045245267 -0.090956375 -0.078694716 0.017606901
0.16648419 0.038169313 -0.18390925 0.15968771 0.09758513 -0.1756292 0.059935182 -0.15009323
0.016646305 0.13425244 -0.08311891 -0.00074993924 -0.16686353 0.056184024 0.13773379 0.102981344
-0.09910957 -0.17913511 0.17778854 0.19716454 0.0776235 -0.016547723 0.040423643 -0.18748926
-0.036285426 0.011200433 0.08304159 -0.06462228 0.16570418 -0.08584633 -0.18180686 -0.11857137
-0.17965011 -0.026955638 0.058513746 -0.1342432 0.01246308 0.028839702 -0.105034314 0.19079417
-0.065414414 -0.19576953 0.09274339 0.14754812 0.08835625 -0.071242444 0.18370159 -0.017899908
-0.019534081 -0.120459475 0.0857287 -0.18668589 -0.13428512 -0.09679276 0.20113441 -0.10307467
-0.10709551 0.08387708 -0.06308598 -0.031754166 -0.104296155 0.14531514 0.036023203 0.1775957
-0.020481326 -0.12484218 -0.14931133 0.03809116 -0.14574891 -0.17383033 0.16844468 -0.14266087
-0.1272876 0.1341519 0.12503009 -0.08717285 -0.045906283 0.14056504 -0.10394172 -0.17114513
0.057718124 0.0064843465 -0.11021429 0.020236006 0.048813697 -0.1012446 -0.02115989 -0.08383517
0.17296724 -0.17466044 0.03444508 0.15730797 -0.016495243 0.08065083 0.1395174 0.15871543
0.037444938 0.101107605 -0.040309727 0.019739615 -0.17990011 -0.19268069 0.1069037 -0.13781373
0.14053167 -0.08555789 0.014980599 -0.16365167 -0.003167469 0.1465032 0.11721236 -0.031579234
0.16573606 0.047959197 -0.060953718 0.09550112 0.12952831 0.11684766 0.022331666 0.036364317
-0.15786575 0.04979279 -0.04501757 -0.09996503 0.12269681 0.18990201 0.15476833 -0.09677141
0.026362803 -0.11942083 0.0633418 0.08143682 0.11926313 0.10132679 -0.12744011 -0.07973378
-0.12745032 -0.11795269 -0.10049351 0.14110126 0.1609747 0.13541089 -0.082852505 0.013468754
-0.08572882 0.09618714 0.07646347 0.10931281 -0.023716122 -0.018096417 -0.055215634 -0.119151324
00000000: b016 a5bb d101 80bd 5f14 09be ef14 ba3d
00000010: f337 debd ccf0 23be 8803 18be 4aba 0c3e
00000020: a51d 283e 7408 26be 01cf 90bc 38ae ecbd
00000030: c959 dfbd 30a2 1b3e 263a 22bc 9b87 d2bd
00000040: 7cd8 0fbd d506 a73d ac82 7c3c 03ad a3bd
00000050: f573 0cbe d6be b3bd 3cf8 043e af68 a7ba
00000060: 3316 bbbd 1f9e 2b3e 567f 3cbd c247 efbd
00000070: d440 c0bd 9184 623b 35c0 8b3d 52f1 803d
00000080: 77c5 3abe e943 063e 9cad 233e 4d6b ea3c
00000090: 94e2 213e 45ff bd3d 55ab 903d 2ac8 3dbe
000000a0: 2e55 a23d 5a14 0ebe 049b 1a3d d127 29be
000000b0: 9273 433e 89a8 2fbd 9d86 a13c 1ae1 7fbd
000000c0: 7005 3dbe 8022 1c3d 5448 a93d 85bb bb3d
000000d0: 7bbe 1bbd 7f07 2c3d c5ab 343d a7e2 dd3d
000000e0: 994e 8d3d 44ab a03c d355 8a3d 7628 333d
000000f0: 9711 ad3d 9050 2cbe d660 3ebe 318b 7b3d
00000100: 0f0e a83d dcaa a6bd 22c5 ed3d 3ad1 3ebd
00000110: 5857 c5bd 7a87 c63d 50b9 2b3e e6d9 1f3e
00000120: 0716 1fbe d897 203e eed6 17be 113b 89bd
00000130: 339d 153e 5056 fcbd 5e2e b03d d440 3cbe
00000140: 4244 04bd dc49 1b3e e8f6 0dbd c5f1 d7bc
00000150: ee67 8bbd b63f c63d 39e7 a93d d44d bf3c
00000160: 7000 1c3d 4e8c 78bd a447 163e 227b a5bd
00000170: c7d8 e23c 3fcc 313d adb0 263d a9cf bfbd
00000180: 61e6 09bd 7777 9bbb 23c5 ccbd 91a3 adbd
00000190: 1a53 39bd 5647 babd b22a a1bd 593c 903c
000001a0: d57a 2a3e 6d57 1c3d b552 3cbe 2d85 233e
000001b0: b6da c73d 24d8 33be 987e 753d 0ab2 19be
000001c0: d55d 883c 7979 093e 3f3a aabd 9297 44ba
000001d0: 46de 2abe 3821 663d 160a 0d3e e2e7 d23d
000001e0: f5f9 cabd 326f 37be 330e 363e 80e5 493e
000001f0: 12f9 9e3d 178f 87bc 4393 253d 2ffd 3fbe
00000200: 07a0 14bd 0582 373c b611 aa3d b058 84bd
00000210: 5bae 293e 33d0 afbd 942b 3abe 8cd5 f2bd
00000220: 33f6 37be 12d2 dcbc 1cac 6f3d 0d77 09be
00000230: f231 4c3c 3d41 ec3c 3b1c d7bd 8c5f 433e
00000240: fef7 85bd cf77 48be 3ff0 bd3d db16 173e
00000250: 1ff4 b43d 8fe7 91bd 451c 3c3e d4a2 92bc
00000260: f005 a0bc 75b3 f6bd 8792 af3d 962a 3fbe
00000270: 0a82 09be 483b c6bd 2ef6 4d3e d018 d3bd
00000280: e454 dbbd bfc7 ab3d 3933 81bd a810 02bd
00000290: 3999 d5bd 7ecd 143e 118d 133d a6db 353e
000002a0: 74c8 a7bc 42ad ffbd 12e5 18be 7a05 1c3d
000002b0: 343f 15be 9400 32be c37c 2c3e b115 12be
000002c0: ae57 02be 1e5f 093e e307 003e ae87 b2bd
000002d0: 3a08 3cbd 48f0 0f3e 66df d4bd ab40 2fbe
000002e0: d769 6c3d a47a d43b 08b8 e1bd fbc5 a53c
000002f0: dff0 473d 5459 cfbd 8157 adbc c6b1 abbd
00000300: 531e 313e 30da 32be 4916 0d3d 5715 213e
00000310: 0821 87bc 432c a53d a6dd 0e3e 4c86 223e
00000320: dd5f 193d 8111 cf3d d01b 25bd f9b4 a13c
00000330: bc37 38be 164e 45be 54f0 da3d 0b1f 0dbe
00000340: 89e7 0f3e fa38 afbd 3071 753c 4e94 27be
00000350: 5095 4fbb ef04 163e 090d f03d 3a59 01bd
00000360: b7b6 293e dd70 443d 9baa 79bd 1796 c33d
00000370: 12a3 043e d34d ef3d e6f0 b63c c0f2 143d
00000380: 8fa7 21be 86f3 4b3d 5864 38bd 77ba ccbd
00000390: 7748 fb3d ac75 423e 977b 1e3e 1730 c6bd
000003a0: cef6 d73c e892 f4bd 58b9 813d 59c8 a63d
000003b0: 3a40 f43d 6c84 cf3d a97f 02be 774b a3bd
000003c0: 5682 02be 2e91 f1bd 8bcf cdbd d97c 103e
000003d0: 8dd6 243e 27a9 0a3e 93ae a9bd 0cac 5c3c
000003e0: 9792 afbd c3fd c43d e198 9c3d 65df df3d
000003f0: 5048 c2bc f03e 94bc ca29 62bd 9c05 f4bd

network.0.bias f4 [128]
-0.08628557 -0.10654859 -0.082455255 -0.09407806 -0.10152301 -0.020787163 -0.12350306 -0.11669496
-0.08049562 -0.07973139 -0.10535214 -0.115522064 -0.088760994 -0.07034059 -0.080358826 -0.053495195
-0.11260098 -0.119637445 -0.052971672 -0.08159906 -0.13899697 -0.08372969 0.04859352 -0.14998001
-0.09112555 -0.08050833 -0.042346023 -0.12754294 -0.10189134 -0.04575087 -0.10954952 -0.10875977
-0.08055254 -0.09226365 -0.13511008 -0.0025218367 -0.092463836 -0.13925916 -0.0862358 -0.07805805
-0.07868657 0.032160982 -0.084163204 -0.020987354 -0.16420594 -0.09717116 -0.04524682 -0.122453734
-0.08459863 -0.096930146 -0.12869425 -0.1289241 -0.12916756 -0.074669376 -0.055998884 -0.14826724
-0.03766433 -0.10162307 -0.049440823 -0.097808175 -0.099473126 -0.09380014 -0.09421058 -0.08520664
-0.12818788 -0.007937581 -0.11097464 -0.09259392 -0.08832428 -0.089750685 -0.1369313 -0.00051373057
-0.09332843 -0.08505806 -0.032076906 -0.04321551 -0.050833073 -0.020271882 -0.14608717 -0.025316767
-0.07902811 -0.10843521 -0.12945038 -0.02376007 -0.1381684 -0.14258622 0.0012451997 -0.06443738
-0.06084465 -0.09216205 -0.07134225 -0.13088726 -0.049408086 -0.10875529 -0.035077125 -0.066136494
-0.03759789 -0.04384577 -0.10246056 -0.06037148 -0.10452198 -0.05236314 -0.07868998 -0.0995933
-0.10964759 -0.11798471 -0.06588843 -0.050709844 0.010749943 -0.12729217 -0.07655284 -0.102082215
-0.07971135 -0.1167603 -0.09677744 -0.05424858 -0.12012973 -0.08397961 -0.07489922 -0.03414663
-0.057357684 -0.090055965 -0.0747911 -0.06804872 -0.08993316 -0.08227475 -0.09865815 -0.06600514
00000000: 7db6 b0bd 2636 dabd 4dde a8bd ffab c0bd
00000010: 4ceb cfbd d749 aabc 2cef fcbd c4fd eebd
00000020: e3da a4bd 364a a3bd ddc2 d7bd d596 ecbd
00000030: 53c8 b5bd ba0e 90bd 2b93 a4bd c71d 5bbd
00000040: 589b e6bd 7a04 f5bd d3f8 58bd 681d a7bd
00000050: 3955 0ebe 797a abbd 000a 473d 5c94 19be
00000060: 08a0 babd 8de1 a4bd 0673 2dbd 9e9a 02be
00000070: 68ac d0bd 4465 3bbd 805b e0bd 71bd debd
00000080: bbf8 a4bd b9f4 bcbd 4c5a 0abe 6645 25bb
00000090: ae5d bdbd f499 0ebe 659c b0bd e6dc 9fbd
000000a0: 6d26 a1bd 3cbb 033d c25d acbd aced abbc
000000b0: 9a25 28be ac01 c7bd bb54 39bd 06c9 fabd
000000c0: 0c42 adbd 5083 c6bd 6dc8 03be ae04 04be
000000d0: 8044 04be 42ec 98bd 165f 65bd 5ed3 17be
000000e0: ea45 1abd c21f d0bd 7682 4abd a74f c8bd
000000f0: 91b8 cbbd 4a1a c0bd 7af1 c0bd d280 aebd
00000100: af43 03be a10c 02bc ac46 e3bd e2a1 bdbd
00000110: 5ce3 b4bd 35cf b7bd b837 0cbe e0ab 06ba
00000120: fa22 bfbd ec32 aebd 1363 03bd bf02 31bd
00000130: 5736 50bd 3811 a6bc e097 15be 1c65 cfbc
00000140: 7dd9 a1bd 4813 debd a48e 04be 7aa4 c2bc
00000150: 047c 0dbe 1f02 12be f835 a33a bff7 83bd
00000160: 3d38 79bd 75bf bcbd e31b 92bd 4f07 06be
00000170: 2260 4abd 18bb debd 08ad 0fbd 9272 87bd
00000180: 3f00 1abd 9f97 33bd d8d6 d1bd 1648 77bd
00000190: 9f0f d6bd bb7a 56bd 3628 a1bd 92f7 cbbd
000001a0: ea8e e0bd f8a1 f1bd 83f0 86bd 20b5 4fbd
000001b0: 8720 303c e158 02be bcc7 9cbd 7b10 d1bd
000001c0: b43f a3bd 0620 efbd 4033 c6bd c233 5ebd
000001d0: 9306 f6bd 80fd abbd c364 99bd 56dd 0bbd
000001e0: e4ef 6abd 436f b8bd 142c 99bd 215d 8bbd
000001f0: e02e b8bd aa7f a8bd 490d cabd b42d 87bd

network.3.weight f4 [64, 128]
0.12475598 -0.060748186 -0.09429967 -0.12693247 -0.01895062 0.108499646 -0.1903075 -0.06243031
0.02755402 0.14268292 -0.12814127 -0.080673255 0.054839876 0.09762924 -0.17600343 -0.124921866
-0.07151481 -0.17762992 -0.164038 0.122052535 -0.10318427 -0.031093286 -0.04506048 0.01988771
0.012807484 0.14145456 -0.07985979 -0.16013531 -0.15091269 0.11085365 0.08433649 -0.15178263
0.1237733 0.12030505 0.028128605 -0.1986106 -0.07189693 0.00045415672 0.0152755985 -0.014816064
-0.094125815 -0.06935927 -0.08856445 -0.16331755 -0.028342789 0.114485234 0.048075467 0.13387182
-0.10097557 -0.0718251 -0.104006454 -0.1955805 -0.026892312 0.047466405 -0.07223259 0.053815182
0.08641729 -0.037649304 -0.07378194 0.13455516 -0.1168208 0.072896376 -0.05114518 -0.075148255
-0.08848616 -0.12952933 0.05358738 0.014962785 -0.10353761 0.12028447 0.048912287 -0.04341873
-0.19065142 -0.13910232 -0.18445069 -0.075264715 -0.056775127 0.020538162 -0.11503685 -0.027011532
-0.084219 -0.16742435 -0.18821774 0.10267858 0.11800846 0.13661222 -0.022932833 -0.109316014
-0.028661706 -0.0691915 0.09945775 -0.04327968 -0.10905527 0.010301288 -0.105951846 -0.12372811
-0.094964914 -0.04749501 0.0024933121 -0.13605808 0.104490556 0.11058677 -0.11643013 -0.031246347
-0.010650116 -0.037382208 -0.01900363 -0.09658824 -0.16104853 0.0058172364 -0.1700413 -0.025603624
-0.003527493 0.02618268 0.1188747 0.0858989 -0.19191602 -0.07050822 -0.06782522 -0.17365605
-0.08156746 -0.053708583 0.0019522003 -0.096428365 -0.17888467 -0.0050372216 0.10140619 0.09520506
-0.006993197 -0.16547722 0.01932661 -0.036505856 -0.15366803 -0.05591385 0.038388245 -0.051647983
-0.10952903 -0.054376263 -0.029732682 -0.017087149 -0.21439922 -0.13323341 -0.13715751 -0.015665647
-0.15441068 -0.1647186 -0.16131568 0.18708052 0.024767604 -0.06932807 -0.14507137 -0.15157977
0.0624035 -0.058603697 -0.13564609 -0.11044217 0.18397667 -0.029097699 0.037564173 -0.17076962
-0.13043335 -0.20450379 0.046602488 0.01968884 -0.14063244 -0.15058698 -0.072304875 -0.1384701
0.1172401 -0.23252872 0.114874996 -0.13095894 0.025038088 -0.16491134 -0.16762933 -0.0062046633
-0.024136167 0.028934153 -0.08967723 -0.033726696 -0.064104624 0.005407192 -0.07691483 0.111476764
-0.17393537 0.026075872 0.06954355 -0.1821048 0.07267706 0.08020975 -0.18497422 -0.11029273
-0.14639096 -0.008397579 0.027413178 0.11110094 -0.19434564 0.15999573 -0.025935132 -0.10793373
-0.1678796 -0.102680385 -0.14139925 -0.14403895 -0.09094342 0.11735927 0.027541628 -0.13650891
0.06333732 -0.086596005 -0.055776715 0.005531231 0.0640812 -0.1493904 -0.23174226 -0.07917548
-0.1788201 -0.112158686 0.09164809 -0.07980946 -0.12352225 0.034878377 0.10863786 -0.19982326
-0.20856285 -0.17568663 -0.02655843 0.072121225 -0.03904663 0.11539793 -0.08350192 0.09352039
0.15076113 0.018518241 -0.12596327 -0.15996985 0.00455342 0.14764158 -0.115696065 -0.046412796
-0.1088256 0.121022105 -0.15983087 -0.26059443 -0.1269796 0.016385593 0.003444679 -0.20207405
-0.101257674 0.075236976 -0.13516223 -0.19996955 -0.1543432 0.15748826 -0.026464691 0.037661634
00000000: 1080 ff3d 17d3 78bd 2f20 c1bd 96fa 01be
00000010: 553e 9bbc 1035 de3d f8df 42be edb6 7fbd
00000020: f8b8 e13c 791b 123e 7737 03be 0538 a5bd
00000030: c79f 603d d7f1 c73d 3e3a 34be 09d7 ffbd
00000040: 5b76 92bd 9ee4 35be 94f9 27be aef6 f93d
00000050: 4652 d3bd 59b7 febc 5691 38bd 8deb a23c
00000060: 7bd6 513c 77d9 103e 888d a3bd 83fa 23be
00000070: db88 1abe 3d07 e33d 9cb8 ac3d e86c 1bbe
00000080: db7c fd3d 7e62 f63d f66d e63c 9460 4bbe
00000090: b33e 93bd e21b ee39 8146 7a3c 14bf 72bc
000000a0: 09c5 c0bd 3c0c 8ebd 4761 b5bd b73c 27be
000000b0: 232f e8bc 3c77 ea3d c8ea 443d b215 093e
000000c0: 48cc cebd 0a19 93bd 5601 d5bd 4146 48be
000000d0: 444d dcbc 226c 423d aeee 93bd 4f6d 5c3d
000000e0: 8cfb b03d 2836 1abd fc1a 97bd d4c8 093e
000000f0: be3f efbd b24a 953d 9c7d 51bd 54e7 99bd
00000100: 3b38 b5bd 56a3 04be 717e 5b3d 7826 753c
00000110: 870b d4bd b457 f63d 4058 483d d7d7 31bd
00000120: 203a 43be d770 0ebe a4e0 3cbe 6324 9abd
00000130: 098d 68bd a63f a83c 7198 ebbd 4a47 ddbc
00000140: 037b acbd 4a71 2bbe 27bc 40be 2649 d23d
00000150: 6bae f13d 13e4 0b3e a3dd bbbc 13e1 dfbd
00000160: f4cb eabc 46b4 8dbd 81b0 cb3d 0946 31bd
00000170: 5f58 dfbd bcc6 283c 48fd d8bd 2a65 fdbd
00000180: f77c c2bd 218a 42bd d666 233b cf52 0bbe
00000190: 25ff d53d 517b e23d ec72 eebd 57f8 ffbc
000001a0: d37d 2ebc 161e 19bd 80ad 9bbc 0ed0 c5bd
000001b0: e8e9 24be 849e be3b 4e1f 2ebe b1be d1bc
000001c0: 832d 67bb 0f7d d63c 9474 f33d c3eb af3d
000001d0: a285 44be 9d66 90bd f3e7 8abd e4d2 31be
000001e0: d70c a7bd 88fd 5bbd f9e0 ff3a 3c7c c5bd
000001f0: 8b2d 37be 470f a5bb 0cae cf3d dffa c23d
00000200: 3027 e5bb dc72 29be d752 9e3c 2a87 15bd
00000210: 275b 1dbe ec05 65bd fe3c 1d3d d68c 53bd
00000220: c250 e0bd a5b9 5ebd f491 f3bc 59fa 8bbc
00000230: 788b 5bbe 576e 08be 0573 0cbe 3e55 80bc
00000240: d51d 1ebe feab 28be f02f 25be 0992 3f3e
00000250: 6ee5 ca3c e0fb 8dbd 978d 14be ba37 1bbe
00000260: d09a 7f3d 6e0a 70bd cfe6 0abe 812f e2bd
00000270: 6164 3c3e 4c5e eebc e4dc 193d 3bde 2ebe
00000280: 5290 05be 7169 51be 40e2 3e3d 7d4a a13c
00000290: f301 10be 7933 1abe 9414 94bd 1bcb 0dbe
000002a0: 941b f03d 021c 6ebe 9543 eb3d 1a1a 06be
000002b0: ad1c cd3c 85de 28be 06a7 2bbe 7d50 cbbb
000002c0: 36b9 c5bc 5107 ed3c b2a8 b7bd 0125 0abd
000002d0: 4949 83bd d02e b13b 8685 9dbd ee4d e43d
000002e0: 1d1c 32be 119d d53c d96c 8e3d ae79 3abe
000002f0: b6d7 943d 0245 a43d e269 3dbe 28e1 e1bd
00000300: 83e7 15be 0096 09bc 9a91 e03c e488 e33d
00000310: 8b02 47be ecd5 233e ea75 d4bc 5c0c ddbd
00000320: a1e8 2bbe 184a d2bd f7ca 10be f27e 13be
00000330: 8b40 babd 0f5a f03d fb9e e13c fec8 0bbe
00000340: ffb6 813d 3f59 b1bd 2076 64bd 543f b53b
00000350: 013d 833d ccf9 18be d84d 6dbe c126 a2bd
00000360: 9e1c 37be 74b3 e5bd feb1 bb3d 2473 a3bd
00000370: 3cf9 fcbd a1dc 0e3d 877d de3d 789e 4cbe
00000380: 8091 55be 32e7 33be 1191 d9bc 4bb4 933d
00000390: 5cef 1fbd c055 ec3d 0e03 abbd 9e87 bf3d
000003a0: 2061 1a3e 91b3 973c 84fc 00be 23cf 23be
000003b0: db34 953b 5b2f 173e 0ff2 ecbd 581b 3ebd
000003c0: f5df debd 70da f73d b4aa 23be a26c 85be
000003d0: f106 02be 143b 863c 20c0 613b 80ec 4ebe
000003e0: 2f60 cfbd d815 9a3d f867 0abe d1c4 4cbe
000003f0: 250c 1ebe 9a44 213e 7bcc d8bc 1643 1a3d

network.3.bias f4 [64]
-0.076032855 -0.017885461 -0.053392347 0.03620415 -0.0619226 -0.036327537 -0.055758223 -0.05335348
-0.03617651 -0.020644972 -0.0974787 -0.039476175 -0.029103154 -0.07372629 -0.034898385 -0.06575335
-0.02796359 -0.06989715 -0.03829746 0.02626194 -0.060490552 -0.026646681 -0.051712025 -0.07726945
-0.03679295 0.025410589 -0.07116889 -0.040785216 -0.07956945 -0.07980342 -0.035997298 -0.018844701
0.002566154 -0.052617997 -0.04198934 -0.060871523 -0.05811521 -0.029422302 0.055304624 -0.05959417
-0.027628668 -0.026819704 -0.047933165 -0.0424874 -0.049535707 -0.07885536 0.05848371 0.013041579
-0.0538111 -0.0315879 -0.076095834 -0.045987494 -0.03425078 0.035551857 -0.03530053 -0.03081414
0.011655855 -0.053262293 -0.052121893 -0.039813146 -0.025104003 -0.043628868 -0.006239392 0.13714145
00000000: 1db7 9bbd 8884 92bc efb1 5abd ce4a 143d
00000010: 8da2 7dbd 2fcc 14bd bc62 64bd 2e89 5abd
00000020: d22d 14bd a51f a9bc eaa2 c7bd c5b1 21bd
00000030: bd69 eebc cffd 96bd 9cf1 0ebd b1a9 86bd
00000040: e613 e5bc 3d26 8fbd ccdd 1cbd 4823 d73c
00000050: f1c4 77bd 244a dabc fdcf 53bd 723f 9ebd
00000060: 34b4 16bd de29 d03c ffc0 91bd 660e 27bd
00000070: 4ff5 a2bd fa6f a3bd e771 13bd 3460 9abc
00000080: ec2c 283b f885 57bd 04fd 2bbd 6b54 79bd
00000090: 370a 6ebd 0a07 f1bc 1a87 623d 0419 74bd
000000a0: 8455 e2bc ffb4 dbbc 9155 44bd 4507 2ebd
000000b0: f4e5 4abd eb7e a1bd 9d8c 6f3d 59ac 553c
000000c0: 0769 5cbd 5062 01bd 22d8 9bbd 625d 3cbd
000000d0: 8c4a 0cbd d39e 113d 4a97 10bd ef6d fcbc
000000e0: 33f8 3e3c 9029 5abd c47d 55bd 1c13 23bd
000000f0: e9a6 cdbc 2fb4 32bd d073 ccbb cf6e 0c3e

network.6.weight f4 [5, 64]
0.20554778 -0.18358727 -0.23136522 0.06081533 -0.018031834 -0.22373351 0.18598144 -0.044436425
-0.24241878 -0.051086467 0.010679211 -0.1502335 -0.072319485 0.020066582 -0.25533095 0.070604086
0.107436255 -0.06375291 -0.15599793 -0.08026845 -0.16524872 0.2484796 0.11065456 0.06176281
0.07697605 -0.004937579 0.07496226 0.1041281 -0.21365327 -0.13640647 0.21349572 0.10802211
0.20059828 0.10650808 -0.23308404 -0.06330433 0.22995287 0.16974674 0.09703279 -0.11067195
0.14334379 -0.1918102 -0.2117138 -0.16143002 0.14849037 -0.0030905446 0.13280746 0.00292467
-0.17361294 -0.22264497 0.22634207 -0.05254963 0.17069903 -0.06217353 0.16601478 0.20616701
-0.0967179 0.22729541 -0.051952925 0.2237444 0.038908593 0.037888207 0.056329075 -0.12663464
-0.047550626 0.059902374 0.22062309 0.19760865 -0.13279061 -0.021939432 0.021591904 0.11378118
-0.079408824 0.05157627 -0.11396084 -0.084980436 0.11679832 0.05182032 -0.13551745 -0.162931
-0.1349008 0.064436115 -0.04168196 -0.10347838 0.17182216 -0.15802366 -0.11007785 0.15485296
-0.22720589 -0.1388789 -0.2630212 -0.16961507 -0.21684907 0.04423718 -0.1951819 -0.07031855
0.26482934 0.12927812 -0.24059457 -0.04218817 -0.22693205 0.15705372 0.27998 -0.06109909
0.0367625 -0.15148127 0.09683357 0.04616621 -0.08040347 -0.18296964 0.24582629 -0.2391072
-0.0943865 -0.10799867 0.1658223 0.10049937 0.3086075 0.1258431 -0.08512358 -0.08032242
-0.1569139 0.15241686 0.18332641 -0.15015447 0.05859114 0.18320356 0.017293692 -0.23114769
0.06632588 -0.30054983 -0.023211986 0.034147993 -0.02479667 -0.14952588 0.07960377 -0.124553226
0.19530128 -0.27290177 0.1929505 0.2007249 -0.01615067 -0.0852473 -0.02442325 0.023356268
0.05079745 0.019556332 -0.14118145 0.15383969 0.12011552 0.20003839 -0.047167674 -0.19989383
0.02858086 -0.22544216 0.0510284 0.060188122 0.094362505 -0.26984224 0.21624964 0.10340785
0.14719775 -0.07999438 0.22227989 0.30668986 0.13527903 -0.060687706 0.107603386 -0.19924323
-0.25628406 0.21624666 0.18865322 -0.26296282 0.26302698 -0.031708226 -0.056715712 0.029714549
-0.21698289 -0.027785065 -0.2156628 0.04762776 -0.24570307 0.15000919 0.04399107 -0.16144587
0.15913136 -0.24217598 -0.24534355 0.23997611 -0.18021442 0.2138996 0.21334088 0.10495292
-0.23092377 -0.005753175 -0.048742685 -0.16009036 0.0023110064 0.006826541 -0.22617361 -0.10166508
-0.21100399 0.13882217 -0.18211439 -0.08079107 -0.047104873 0.1057759 -0.0560558 -0.18882228
0.16327175 -0.15995787 0.054952383 -0.22330551 -0.05733931 0.10895924 0.112373345 0.017845502
-0.24999276 0.014765008 -0.112494126 0.095858775 -0.066346064 -0.0685687 0.17624772 0.22361945
0.19312179 -0.21899015 0.2315692 -0.120731525 0.17285788 -0.23713928 -0.09045795 -0.14157715
-0.10830031 0.15406509 -0.25289294 0.0034524659 -0.08280143 -0.025468465 -0.16539313 0.24669343
0.16721743 -0.03139566 0.087202884 -0.26634377 0.24699676 0.21050762 0.10367836 0.024451924
-0.0339455 -0.019147668 0.19894978 0.037962418 -0.09509107 0.17879376 -0.1082828 0.18195859
00000000: 1e7b 523e 4dfe 3bbe 01eb 6cbe 7f19 793d
00000010: 7fb7 93bc 661a 65be eb71 3e3e f802 36bd
00000020: a13c 78be 0b40 51bd dbf7 2e3c d0d6 19be
00000030: 3d1c 94bd ac62 a43c bdba 82be e098 903d
00000040: 8a07 dc3d e390 82bd ecbd 1fbe c963 a4bd
00000050: f636 29be 7071 7e3e dc9e e23d 00fb 7c3d
00000060: 9fa5 9d3d 6acb a1bb d085 993d 1d41 d53d
00000070: ecc7 5abe 23ae 0bbe 9f9e 5a3e b23a dd3d
00000080: a369 4d3e e920 da3d 95ad 6ebe b3a5 81bd
00000090: c478 6b3e 17d2 2d3e 21b9 c63d faa7 e2bd
000000a0: b7c8 123e e569 44be 81cb 58be e94d 25be
000000b0: dc0d 183e bc8a 4abb aefe 073e d2ab 3f3b
000000c0: 97c7 31be 0bfd 63be 37c6 673e 483e 57bd
000000d0: bacb 2e3e aca9 7ebd c7ff 293e 721d 533e
000000e0: 0914 c6bd 21c0 683e 97cc 54bd 411d 653e
000000f0: 9e5e 1f3d aa30 1b3d 51b9 663d 83ac 01be
00000100: 72c4 42bd 315c 753d 05eb 613e ec59 4a3e
00000110: 43fa 07be 53ba b3bc 81e1 b03c 1b06 e93d
00000120: 18a1 a2bd a441 533d 4d64 e9bd 390a aebd
00000130: f533 ef3d 8b41 543d 16c5 0abe 62d7 26be
00000140: 6f23 0abe 15f7 833d b4ba 2abd 79ec d3bd
00000150: 26f2 2f3e f4d0 21be 7f70 e1bd c691 1e3e
00000160: a9a8 68be 4536 0ebe b7aa 86be 93af 2dbe
00000170: af0d 5ebe 0c32 353d c4dd 47be 2c03 90bd
00000180: b697 873e 7c61 043e 6c5e 76be 81cd 2cbd
00000190: e060 68be b1d2 203e 8a59 8f3e 0a43 7abd
000001a0: 4694 163d e81d 1bbe ae50 c63d c818 3d3d
000001b0: 93aa a4bd 655c 3bbe e3b9 7b3e 85d8 74be
000001c0: b64d c1bd 682e ddbd 52cd 293e 9dd2 cd3d
000001d0: cd01 9e3e 03dd 003e 4655 aebd 1580 a4bd
000001e0: 0aae 20be 2a13 1c3e ebb9 3b3e 18c2 19be
000001f0: 43fd 6f3d b799 3b3e 80ab 8d3c fbb1 6cbe
00000200: ddd5 873d abe1 99be 1027 bebc c4de 0b3d
00000210: 6322 cbbc 501d 19be 4d07 a33d c315 ffbd
00000220: 0ffd 473e c8b9 8bbe d194 453e d48a 4d3e
00000230: 694e 84bc 2396 aebd 4513 c8bc a555 bf3c
00000240: fd10 503d 9a34 a03c df91 10be 2788 1d3e
00000250: 20ff f53d ddd6 4c3e e432 41bd f8b0 4cbe
00000260: 6822 ea3c 4fda 66be 2803 513d d287 763d
00000270: 2141 c13d c328 8abe 8c70 5d3e 7fc7 d33d
00000280: 02bb 163e 18d4 a3bd 579d 633e 7406 9d3e
00000290: 9686 0a3e ac93 78bd 2a5f dc3d 6b06 4cbe
000002a0: aa37 83be c46f 5d3e 4f2e 413e 10a3 86be
000002b0: 79ab 863e 7ce0 01bd bc4e 68bd ed6b f33c
000002c0: c330 5ebe 819d e3bc b6d6 5cbe 5315 433d
000002d0: 9699 7bbe 029c 193e fb2f 343d 1152 25be
000002e0: 55f3 223e fbfc 77be 573b 7bbe 4cbc 753e
000002f0: 218a 38be 7f08 5b3e 0876 5a3e 8ef1 d63d
00000300: 4877 6cbe 2185 bcbb 69a6 47bd baee 23be
00000310: 4174 173b 2db1 df3b 0e9a 67be c835 d0bd
00000320: 6e11 58be 6627 0e3e 327c 3abe ca75 a5bd
00000330: 0af1 40bd 09a1 d83d c49a 65bd a15a 41be
00000340: b630 273e ffcb 23be c015 613d 33aa 64be
00000350: a0dc 6abd 0626 df3d ff23 e63d bb30 923c
00000360: 1afe 7fbe efe8 713c 5263 e6bd 9b51 c43d
00000370: 72e0 87bd bf6d 8cbd 487a 343e 7ffc 643e
00000380: b8c1 453e f43e 60be 7a20 6d3e 1742 f7bd
00000390: a801 313e a4d4 72be 0542 b9bd 9af9 10be
000003a0: 8ecc ddbd 3dc3 1d3e 2f7b 81be c442 623b
000003b0: cc93 a9bd 3ea3 d0bc d15c 29be 349d 7c3e
000003c0: 0c3b 2b3e bc98 00bd 6d97 b23d 365e 88be
000003d0: b8ec 7c3e 4f8f 573e 5255 d43d 674f c83c
000003e0: 700a 0bbd 92db 9cbc 7eb9 4b3e 7b7e 1b3d
000003f0: 1bbf c2bd b615 373e 5fc3 ddbd 5a53 3a3e

network.6.bias f4 [5]
0.018980434 0.011329766 0.029500784 0.07872669 0.06978014
00000000: db7c 9b3c 7ca0 393c a1ab f13c 753b a13d
00000010: e4e8 8e3d
