experiments/checkpoints/20251210_110803/checkpoint_ep19.pt (torch, 246569 bytes, 24 tensors)

network.0.weight f4 [128, 43]
0	0xbba516b0	-0.005038105
1	0xbd889a3a	-0.066700414
2	0xbe04c81f	-0.12966965
3	0xbd60487e	-0.054756634
4	0x39dce026	0.00042128674
5	0xbe23f0cc	-0.16009825
6	0xbe318fdf	-0.17340039
7	0x3e0cba4a	0.13742939
8	0x3e281da5	0.16417558
9	0xbe260874	-0.16214162
10	0xbc90cf01	-0.017676832
11	0xbdecae38	-0.11556667
12	0xbe8d1c0b	-0.27560458
13	0xbbdaa480	-0.006672442
14	0xbe456cd9	-0.19279803
15	0xbd969c9f	-0.07354092
16	0xbe7a33d8	-0.2443384
17	0x3d82ceef	0.06387126
18	0x3d407284	0.04698421
19	0xbda3ad03	-0.07991984
20	0xbe0c73f5	-0.13716109
21	0xbdb3bed6	-0.087766334
22	0x3e04f83c	0.12985319
23	0xbaa768ab	-0.0012772282
24	0xbdbb1633	-0.091350935
25	0x3e2b9e1f	0.16759537
26	0xbd3c7f56	-0.046019875
27	0x3ca4dc89	0.02012469
28	0xbc71cf22	-0.014758857
29	0xbcbe833a	-0.023255933
30	0x3d8bc032	0.06823768
31	0x3cb569e0	0.022145212
32	0xbe3ac577	-0.1823939
33	0x3e8941a6	0.26807898
34	0x3e23ad9c	0.15984195
35	0x3cf9c583	0.030489689
36	0x3e436592	0.19081715
37	0x3e178098	0.14795148
38	0xbe29911c	-0.16559261
39	0xbeb4e452	-0.35330445
40	0x3d361e4c	0.044462487
41	0xbcc688e0	-0.024235189
42	0x3d1a9b04	0.03774549
43	0xbe2927d1	-0.16519095
44	0x3e934f86	0.2877161
45	0xbe0f15a4	-0.13973099
46	0xbdd2e78e	-0.10298072
47	0x3cf54052	0.029937897
48	0xbe3d0570	-0.18459105
49	0xbe558607	-0.20851909
50	0x3da94854	0.082657486
51	0x3dbbbb85	0.09166626
52	0xbd1bbe7b	-0.038023453
53	0x3d2c077c	0.041999325
54	0x3d34abc5	0.044109125
55	0xbe35530a	-0.17707458
56	0xbe9a8dbb	-0.30186257
57	0x3eb13054	0.34607184
58	0xbc09c7af	-0.008409425
59	0xbebb25da	-0.36552316
60	0xbdb68967	-0.08912926
61	0xbe621fd0	-0.22082448
62	0xbe3e60d6	-0.18591627
63	0x3d7b8b31	0.06141204
64	0x3da80e0f	0.082058065
65	0xbda6aadc	-0.081380576
66	0x3dedc522	0.11609866
67	0xbd3ed13a	-0.046586253
68	0xbdc55758	-0.096358
69	0x3dc6877a	0.09693809
70	0x3e7cf896	0.24704203
71	0x3dd63c3d	0.10460708
72	0xbe9fd066	-0.31213683
73	0x3e2097d8	0.15682924
74	0xbe2c2aa4	-0.16813141
75	0xbd893b11	-0.06700719
76	0x3e66dc70	0.22545028
77	0xbdfc5650	-0.1232115
78	0x3df30785	0.118666686
79	0xbec382d3	-0.38185748
80	0xbd862cac	-0.06551489
81	0x3e417aa5	0.18894441
82	0xbe6d6027	-0.2318121
83	0xbe3b7ec3	-0.18310075
84	0xbea4e528	-0.32206082
85	0x3dc63fb6	0.09680121
86	0x3da9e739	0.08296055
87	0x3d5ad0f7	0.05342194
88	0x3c0359bf	0.008017003
89	0xbd14e7ad	-0.036353756
90	0x3e4fe7d2	0.20303276
91	0xbda57b22	-0.08080126
92	0xbdd0e1bd	-0.10199306
93	0x3d31cc3f	0.043407675
94	0x3d26b0ad	0.040695835
95	0xbdbfcfa9	-0.0936578
96	0xbd09e661	-0.033666972
97	0xbb9b7777	-0.004744466
98	0xbec2cb79	-0.38045862
99	0xbe8aebc1	-0.2713299
100	0xbe6e2fcf	-0.23260425
101	0x3db92d59	0.090418525
102	0xbee82bc9	-0.45345905
103	0x3e1dc84b	0.15408437
104	0x3e78fb81	0.24314691
105	0x3d1c576d	0.038169313
106	0xbe3c52b5	-0.18390925
107	0x3e23852d	0.15968771
108	0x3dc7dab6	0.09758513
109	0xbe33d824	-0.1756292
110	0x3d757e98	0.059935182
111	0xbe19b20a	-0.15009323
112	0x3c885dd5	0.016646305
113	0x3dc79b02	0.09746362
114	0xbd483eb1	-0.048887912
115	0x3e23b84e	0.15988275
116	0xbe2ade46	-0.16686353
117	0x3df72014	0.12066665
118	0x3e0d0a16	0.13773379
119	0x3d878ff0	0.06619251
120	0xbdcaf9f5	-0.09910957
121	0xbe647f7f	-0.22314261
122	0x3d9ca332	0.076483145
123	0x3f0f8550	0.56062794
124	0xbe82e199	-0.25562742
125	0xbeae1d4a	-0.3400672
126	0xbdb75541	-0.08951808
127	0xbed9476f	-0.42437312
128	0xbd14a007	-0.036285426
129	0x3c378205	0.011200433
130	0x3d00b4c5	0.031422395
131	0xbc550a92	-0.013003008
132	0x3e44df5b	0.19225828
133	0xbd9d55a6	-0.07682352
134	0xbe3a2b94	-0.18180686
135	0xbe4d8bb2	-0.20072821
136	0xbe37f633	-0.17965011
137	0xbcdcd212	-0.026955638
138	0x3d6fac1c	0.058513746
139	0xbe097709	-0.13424315
140	0x3c4c31f2	0.01246308
141	0xbe441d2e	-0.19151756
142	0xbeab3645	-0.33439842
143	0x3f17f748	0.59361696
144	0x3e107bf3	0.14109783
145	0xbf215a41	-0.6302834
146	0x3d1805b9	0.037114833
147	0xbc40267c	-0.011727925
148	0x3db4f41f	0.08835625
149	0xbd91e78f	-0.071242444
150	0x3e3c1c45	0.18370159
151	0xbc92a2d4	-0.017899908
152	0xbca005f0	-0.019534081
153	0xbdf6b375	-0.120459475
154	0x3daf927f	0.08572864
155	0xbe3f2a96	-0.18668589
156	0xbdbd1995	-0.09233395
157	0xbe193494	-0.14961463
158	0x3e876666	0.2644531
159	0xbdd318d0	-0.10307467
160	0x3c816374	0.015794493
161	0x3dabc7bf	0.08387708
162	0xbcad22b5	-0.021134714
163	0xbd0210a8	-0.031754166
164	0x3d6ec5eb	0.058294218
165	0x3e3c862e	0.1841056
166	0x3e216966	0.15762863
167	0x3e03a79a	0.12856904
168	0x3e2d75a2	0.16939405
169	0xbc5e146f	-0.013554676
170	0xbe7b155f	-0.24519871
171	0x3d1c057a	0.03809116
172	0xbe153f34	-0.14574891
173	0xbe120b34	-0.14262086
174	0x3e0c8768	0.13723528
175	0xbe3df010	-0.18548608
176	0xbded5dd1	-0.1159016
177	0x3e095f1e	0.1341519
178	0x3db8480d	0.089981176
179	0xbdb287ae	-0.08717285
180	0xbd3c083a	-0.045906283
181	0x3e0ff048	0.14056504
182	0xbdd4df66	-0.10394172
183	0xbe2f40ab	-0.17114513
184	0xbda228ec	-0.079179615
185	0xbe27ffea	-0.16406217
186	0x3cf4a0a4	0.029861756
187	0x3d9e61a0	0.07733464
188	0xbdc5d9cb	-0.09660681
189	0x3c43ae3b	0.011943395
190	0xbdb09432	-0.08622016
191	0xbdabb1c6	-0.08383517
192	0x3e311e53	0.17296724
193	0xbe32da30	-0.17466044
194	0x3d0d1649	0.03444508
195	0x3e211557	0.15730797
196	0xbc872108	-0.016495243
197	0x3da52c43	0.08065083
198	0x3e0edda6	0.1395174
199	0x3d70d703	0.0587988
200	0x3e169e1a	0.14708748
201	0x3d3b24ae	0.045689277
202	0xbd251bd0	-0.040309727
203	0xbc98e274	-0.018662669
204	0xbe3837bc	-0.17990011
205	0xbe95cf4e	-0.29259723
206	0x3ddaf054	0.1069037
207	0xbe143510	-0.14473367
208	0x3e11f2cf	0.1425278
209	0x3dff6882	0.12471105
210	0x3c92b1b4	0.017907001
211	0xbe52130e	-0.20515081
212	0x3bfd051f	0.0077215577
213	0x3e9c062f	0.30473468
214	0x3df00d09	0.11721236
215	0xbd01593a	-0.031579234
216	0x3de8fa37	0.1137585
217	0x3dccabb3	0.099936865
218	0xbf0e12d4	-0.5549748
219	0x3f243251	0.64139277
220	0x3e04a312	0.12952831
221	0x3d775234	0.06038113
222	0x3cb6f0e6	0.022331666
223	0x3d14f2c0	0.036364317
224	0xbe21a78f	-0.15786575
225	0x3d4bf386	0.04979279
226	0xbd38644d	-0.04501753
227	0xbe65ee54	-0.22454196
228	0x3daf50cb	0.08560332
229	0x3d9a207c	0.07525727
230	0x3e97648d	0.29568902
231	0xbef9be72	-0.4877811
232	0xbec299e6	-0.3800804
233	0xbe69b8d4	-0.22824413
234	0x3d81b958	0.0633418
235	0x3da6c859	0.08143682
236	0x3df4403a	0.11926313
237	0x3dcf846c	0.10132679
238	0xbe027fa9	-0.12744011
239	0xbda34b77	-0.07973378
240	0xbe028256	-0.12745032
241	0xbdf1912e	-0.11795269
242	0x3dfa6c50	0.1222769
243	0x3eef4bbf	0.46737477
244	0x3d16e824	0.03684248
245	0x3e0aa927	0.13541089
246	0xbe7fb232	-0.2497032
247	0x3c5cac0c	0.013468754
248	0x3e0c549d	0.13704152
249	0x3dc4fdc3	0.09618714
250	0xbdd79d91	-0.105281
251	0x3c080436	0.008301785
252	0x3e017da2	0.12645581
253	0xbf00bd8a	-0.50289214
254	0xbe3dcbc2	-0.18534759
255	0xbea260fc	-0.31714618

network.0.bias f4 [128]
0	0xbf03fe84	-0.51560235
1	0xbf022c8f	-0.5084924
2	0xbf12c7b0	-0.5733595
3	0xbf147a31	-0.5799895
4	0xbf042b0d	-0.5162819
5	0xbda7c6df	-0.081922285
6	0xbf18c272	-0.596717
7	0xbf3f0d4a	-0.7462965
8	0xbed5e8be	-0.4177913
9	0xbf094b5c	-0.53630614
10	0xbf20abbd	-0.6276205
11	0xbf26e742	-0.6519662
12	0xbf114f36	-0.5676149
13	0xbefd24a0	-0.49442005
14	0xbee9410a	-0.45557433
15	0xbeaf7b55	-0.34273782
16	0xbf2828df	-0.65687364
17	0xbf2da976	-0.678367
18	0xbe684539	-0.22682656
19	0xbf08c234	-0.5342133
20	0xbf563b3b	-0.8368413
21	0xbf07c1d3	-0.5303013
22	0x3ec6e5d7	0.3884723
23	0xbf5fd632	-0.8743621
24	0xbefc97a9	-0.49334458
25	0xbef57b50	-0.47945642
26	0xbebc1015	-0.3673102
27	0xbf5849f8	-0.8448787
28	0xbedce9db	-0.43147168
29	0xbe9d08c8	-0.30670762
30	0xbf25cfef	-0.64770406
31	0xbf1e418c	-0.61818767
32	0xbee3e0df	-0.445075
33	0xbf2eb377	-0.6824259
34	0xbf4a6540	-0.79060745
35	0x3b90a226	0.004413861
36	0xbeff8c69	-0.49911812
37	0xbf4c8337	-0.7988772
38	0xbf0d5530	-0.5520811
39	0xbea8081e	-0.32818693
40	0xbee5bba1	-0.44869712
41	0xbd168bc2	-0.036754377
42	0xbef92b8b	-0.48666033
43	0xbd8e86bf	-0.069592945
44	0xbf722147	-0.9458203
45	0xbf1869ae	-0.59536254
46	0xbe93a474	-0.28836405
47	0xbf11a502	-0.56892407
48	0xbf07da2e	-0.5306729
49	0xbf092178	-0.53566694
50	0xbf17e30f	-0.5933084
51	0xbf551f61	-0.83251005
52	0xbf379fd7	-0.7172827
53	0xbe6f8047	-0.23388778
54	0xbebe0a49	-0.37117222
55	0xbf6645c3	-0.899502
56	0xbe975236	-0.2955491
57	0xbf17c6b6	-0.59287584
58	0xbe34e9e2	-0.17667344
59	0xbf2729c5	-0.6529811
60	0xbf037585	-0.51351196
61	0xbf0db9af	-0.55361456
62	0xbf33bcf3	-0.7021019
63	0xbf0c5137	-0.54811424
64	0xbf2b7a18	-0.66983175
65	0xbda01a53	-0.07817521
66	0xbf272ada	-0.6529976
67	0xbf04bd24	-0.51851106
68	0xbed831ad	-0.422254
69	0xbf241e84	-0.64109063
70	0xbf549f7a	-0.8305584
71	0x3aad7020	0.0013232268
72	0xbf094c15	-0.53631717
73	0xbf07b9fc	-0.53018165
74	0xbdf2c612	-0.11854185
75	0xbe8ebcac	-0.2787832
76	0xbe0ea3e8	-0.13929713
77	0xbd96d550	-0.07364905
78	0xbf57e647	-0.8433575
79	0xbd96302d	-0.073334076
80	0xbef272f9	-0.47353342
81	0xbf1a9025	-0.603762
82	0xbf333092	-0.6999599
83	0xbe2aed72	-0.1669214
84	0xbf3df4f3	-0.7420189
85	0xbf8126d1	-1.0089971
86	0xbd827fe1	-0.06372047
87	0xbea9e60b	-0.3318332
88	0xbebf2cd3	-0.37338886
89	0xbed07ca1	-0.40720084
90	0xbeef205c	-0.46704376
91	0xbf545b85	-0.8295215
92	0xbead2b55	-0.33822122
93	0xbee9b82e	-0.4564833
94	0xbe7ba065	-0.24572904
95	0xbea1c3c9	-0.31594685
96	0xbdac6b8c	-0.084189504
97	0xbe947cb0	-0.2900138
98	0xbf251a39	-0.6449314
99	0xbeb26871	-0.34845307
100	0xbf0431a3	-0.5163824
101	0xbe9bc180	-0.30421066
102	0xbeb80f00	-0.35948944
103	0xbeefd929	-0.46845368
104	0xbeefae43	-0.4681264
105	0xbee66376	-0.44997758
106	0xbe6fb3ee	-0.23408481
107	0xbe9b82b4	-0.30373156
108	0x3d82cc5b	0.06386634
109	0xbf3b2298	-0.7309966
110	0xbede4452	-0.434115
111	0xbf048687	-0.5176777
112	0xbefa266a	-0.48857433
113	0xbf377734	-0.71666265
114	0xbf140a80	-0.5782852
115	0xbec9df7a	-0.39428312
116	0xbf0f48dd	-0.55970556
117	0xbf02de2d	-0.51120263
118	0xbeaf6ce0	-0.34262753
119	0xbecf2fbf	-0.40466115
120	0xbe862f54	-0.26207983
121	0xbf197bfb	-0.59954804
122	0xbec571be	-0.3856334
123	0xbeb3d8f2	-0.35126454
124	0xbf0c5b5d	-0.5482691
125	0xbeea9cc2	-0.45822722
126	0xbf0e640c	-0.5562141
127	0xbea66288	-0.32497048

network.3.weight f4 [64, 128]
0	0x3d2a60e1	0.041596297
1	0xbd83e353	-0.06439843
2	0xbdaea042	-0.085266605
3	0xbe03b625	-0.12862451
4	0xbd761aaa	-0.060084023
5	0x3de584d9	0.11206979
6	0xbe7c6a79	-0.24649991
7	0xbe2a1397	-0.16609035
8	0xbd646868	-0.055763632
9	0x3e164631	0.14675213
10	0xbe09dae9	-0.13462414
11	0xbdb1e005	-0.086853065
12	0xbcb3a6b9	-0.021930085
13	0x3e2427c3	0.16030793
14	0xbe66ca70	-0.22538161
15	0xbe37e08a	-0.17956749
16	0xbd98082e	-0.07423435
17	0xbe6bce04	-0.23027807
18	0xbe644764	-0.22292858
19	0x3cc895d2	0.024485502
20	0xbec35c38	-0.38156295
21	0xbbbdc210	-0.0057909563
22	0xbd85a7b7	-0.0652613
23	0xbd2d7660	-0.04234922
24	0xbded96e7	-0.11601048
25	0x3c85702a	0.016288836
26	0xbe049da9	-0.12950768
27	0xbe999dfc	-0.30003345
28	0xbeab82ec	-0.33498323
29	0xbcecf9cf	-0.028927712
30	0x3d58f369	0.05296651
31	0xbe0cd03e	-0.13751313
32	0x3e31aec6	0.17351827
33	0xbd7f70ad	-0.062363315
34	0xbe248abe	-0.16068551
35	0xbe4a6e57	-0.19768654
36	0xbde2a715	-0.110670246
37	0xbdbf54d3	-0.09342351
38	0xbe47b75f	-0.19503544
39	0xbdf5340a	-0.11972816
40	0xbe0d437a	-0.13795272
41	0xbc1047b6	-0.00880616
42	0xbdec3c7e	-0.115349755
43	0xbe285613	-0.16439085
44	0xbdfcd585	-0.12345413
45	0x3dbc4cb2	0.09194316
46	0xbc174016	-0.009231588
47	0x3c132d55	0.008982976
48	0xbeb13fcf	-0.34618995
49	0xbdee4688	-0.116345465
50	0xbe5d5b2a	-0.21616808
51	0xbe07ab54	-0.1324895
52	0xbe3d169a	-0.18465653
53	0x3d3927d0	0.045203984
54	0xbeb56b5c	-0.3543347
55	0xbaec8b9a	-0.0018046976
56	0x3d62cca6	0.05537095
57	0xbd263dba	-0.04058621
58	0xbe54d21c	-0.20783275
59	0x3d8ac41b	0.067756854
60	0xbe02ba49	-0.12766375
61	0x3d63ecd3	0.055645775
62	0xbd86bb12	-0.065786496
63	0xbe688a0c	-0.2270891
64	0xbea2416b	-0.31690535
65	0xbe43c4ad	-0.19117995
66	0x3d1b35c9	0.03789309
67	0xbd620e53	-0.055189442
68	0xbe3909f7	-0.18070208
69	0x3d254f99	0.040359113
70	0x3e56e053	0.2098401
71	0xbe064353	-0.1311162
72	0xbe0499c8	-0.12949288
73	0xbe53ef36	-0.2069672
74	0xbebff4c6	-0.37491435
75	0xbe7beb86	-0.24601564
76	0xbe8691dd	-0.2628316
77	0xbe22735b	-0.15864317
78	0xbe553eee	-0.20824787
79	0x3d0b4f18	0.034010977
80	0xbe246a63	-0.16056208
81	0xbe63db13	-0.22251539
82	0xbe90dbf6	-0.28292817
83	0x3da0082b	0.07814058
84	0x3cd7d9af	0.026348917
85	0x3dbb228e	0.0913745
86	0xbdc90573	-0.098154925
87	0xbdf46efd	-0.11935232
88	0xbe06ff97	-0.13183437
89	0xbe105b35	-0.14097293
90	0xbd8568b2	-0.0651411
91	0xbe629aeb	-0.22129409
92	0xbdc39680	-0.0955019
93	0xbcd89011	-0.026435884
94	0xbe3f0d74	-0.18657476
95	0xbd2420e5	-0.040070433
96	0xbead03ae	-0.3379187
97	0xbd97fdb4	-0.07421437
98	0x3aad4a69	0.0013221028
99	0xbe409278	-0.18805873
100	0x3ceae0fa	0.02867173
101	0x3d4785c7	0.048711564
102	0xbe20abdc	-0.15690559
103	0xbce4366b	-0.02785798
104	0xbd6235f3	-0.05522723
105	0xbde92558	-0.11384076
106	0xbe61b131	-0.2204025
107	0xbe142078	-0.14465511
108	0xbde24969	-0.11049158
109	0xbd1e2c94	-0.03861673
110	0xbe7c994c	-0.24667853
111	0xbddab3a2	-0.106787935
112	0xbd805c7a	-0.062676385
113	0xbcb2e6ca	-0.021838564
114	0xbdf19c85	-0.11797432
115	0xbdec141c	-0.11527273
116	0xbe9b534f	-0.30336997
117	0xbe1cc113	-0.15308027
118	0xbdcb7bed	-0.09935746
119	0xbe55cf06	-0.20879754
120	0xbdc196c9	-0.09452588
121	0xbd35dae0	-0.04439819
122	0xbe228926	-0.1587263
123	0xbe110c65	-0.14164884
124	0xbe8aeb0d	-0.27132455
125	0xbc1f6f94	-0.009731192
126	0xbdf7815f	-0.120852225
127	0x3dbb0501	0.09131814
128	0xbd607392	-0.054797716
129	0xbeb0c067	-0.3452179
130	0xbcb13cec	-0.021635495
131	0xbe36c2e3	-0.17847781
132	0xbead77d8	-0.33880496
133	0xbdd32b46	-0.10310988
134	0xba89975e	-0.0010497381
135	0xbd86a670	-0.06574714
136	0xbdbe5179	-0.092928834
137	0xbdcaeef3	-0.09908857
138	0xbd135586	-0.035970233
139	0xbe94b7f5	-0.29046598
140	0xbef2a529	-0.47391632
141	0xbdea24aa	-0.11432774
142	0xbf4e2015	-0.80517703
143	0xbeb5b8fc	-0.35492694
144	0xbeccfef8	-0.40038276
145	0xbe84e293	-0.25954112
146	0xbe4d1725	-0.2002836
147	0x3e8400fa	0.25781995
148	0xbe2e49c9	-0.17020334
149	0xbea10c58	-0.3145473
150	0xbed45850	-0.41473627
151	0xbefe9757	-0.49724838
152	0xbdefd3f2	-0.11710347
153	0xbecea26a	-0.40358287
154	0xbd5aad52	-0.053387947
155	0xbe4f864d	-0.20266075
156	0x3e8c375c	0.27385986
157	0xbe8d32ab	-0.2757772
158	0xbc1e6cb0	-0.009669468
159	0xbe3e8dc0	-0.18608761
160	0xbee5d24d	-0.4488701
161	0xbefb0e29	-0.4903424
162	0xbe49ab8b	-0.19694345
163	0xbe890edd	-0.26769152
164	0xbe29782b	-0.16549747
165	0xbe9e87d7	-0.30963013
166	0xbe6fd50a	-0.23421112
167	0xbec0bcf3	-0.37644157
168	0x3d6a8dfd	0.057264317
169	0xbf1df207	-0.6169743
170	0x3d90a33e	0.07062386
171	0xbe8cf615	-0.27531496
172	0x3c6dd3c3	0.01451582
173	0xbe81c9a9	-0.25349167
174	0xbe696b3d	-0.22794814
175	0xbe24fb3e	-0.16111466
176	0xbd8c6504	-0.06855205
177	0xbdf7959d	-0.12089083
178	0xbe2d37f4	-0.16915876
179	0xbea550a8	-0.32288098
180	0xbe09db4c	-0.13462561
181	0xbe731694	-0.23739082
182	0xbec66f20	-0.38756657
183	0x3e48a8d5	0.19595654
184	0xbeb4a177	-0.35279438
185	0xbe59c06e	-0.21264812
186	0x3caf5222	0.021401469
187	0xbece2630	-0.4026351
188	0xbe322354	-0.17396289
189	0xbbaa3234	-0.005193973
190	0xbeaa7285	-0.33290496
191	0xbed66688	-0.418751
192	0xbe9a9cfe	-0.301979
193	0xba9a0e2c	-0.0011753491
194	0xbe1865c2	-0.14882568
195	0xbddf9ccd	-0.10918579
196	0xbe81f017	-0.25378487
197	0x3e5c2257	0.21497475
198	0x3cd418e8	0.025890782
199	0xbde1bc9d	-0.11022303
200	0xbe0831bc	-0.13300222
201	0xbe3cd044	-0.18438822
202	0xbeb1c773	-0.3472248
203	0xbedfdffa	-0.43725568
204	0xbe0ef34f	-0.13960002
205	0xbd21ced4	-0.039503887
206	0x3e264da0	0.16240549
207	0xbe6759a7	-0.22592793
208	0x3e0c427b	0.13697235
209	0xbe09ffb7	-0.13476454
210	0xbe060f52	-0.13091782
211	0xbe5afd92	-0.21385792
212	0xbdc0419a	-0.093875125
213	0xbe33bf39	-0.17553414
214	0xbf4973c0	-0.78692245
215	0xbeeb949c	-0.46011817
216	0xbeb4d89f	-0.3532152
217	0xbe7623cf	-0.24037097
218	0xbd0011d1	-0.03126699
219	0xbecc2068	-0.39868474
220	0xbe62906e	-0.22125408
221	0x3dacea60	0.08443141
222	0xbdfa9960	-0.12236285
223	0xbec9a340	-0.39382362
224	0xbecb7640	-0.39738655
225	0xbf0ca5ed	-0.5494068
226	0xbdbb7bf3	-0.09154501
227	0xbe5f3b05	-0.21799858
228	0xbea5367a	-0.32268125
229	0x3e15d050	0.14630246
230	0xbdfed8c2	-0.12443687
231	0xbe16acef	-0.14714406
232	0x3de6eeca	0.11276014
233	0xbe81fe90	-0.25389528
234	0xbea13b3f	-0.31490514
235	0xbed17ac1	-0.40913966
236	0xbcacafda	-0.021079946
237	0x3db98ec2	0.09060432
238	0xbecd4b95	-0.40096727
239	0xbdeffe35	-0.11718408
240	0xbdcf89ea	-0.10133727
241	0x3d41098b	0.04712824
242	0xbe5aaf10	-0.21355844
243	0xbf3cc6d9	-0.7374092
244	0xbe7b76f2	-0.24557093
245	0xbea492b9	-0.3214319
246	0x3d0a7413	0.033802103
247	0xbf0d6cd1	-0.55244166
248	0xbea57453	-0.3231531
249	0x3d202631	0.039098922
250	0xbc31d46b	-0.010853867
251	0xbef3d82f	-0.47625872
252	0xbe270306	-0.16309747
253	0x3de62d43	0.11239102
254	0xbe81e752	-0.25371796
255	0xbe33b0b1	-0.17547871

network.3.bias f4 [64]
0	0xbe558e3a	-0.20855036
1	0xbdb0a242	-0.08624698
2	0xbe8f3bb1	-0.27975228
3	0x3eb8bd11	0.36081746
4	0xbed76587	-0.42069647
5	0xbdcc1c43	-0.09966328
6	0xbe8c7c71	-0.2743869
7	0xbe0a61bd	-0.13513847
8	0xbe3c3c9f	-0.183825
9	0xbdb3b813	-0.08775344
10	0xbf1dabf2	-0.6159049
11	0xbe484d2c	-0.19560689
12	0xbe155ef6	-0.14587006
13	0xbed7f6c2	-0.4218045
14	0xbe3e4411	-0.18580653
15	0xbe9063f2	-0.28201252
16	0xbdfea788	-0.12434298
17	0xbea02a0d	-0.31282082
18	0xbe71ed6d	-0.23625727
19	0x3e522c74	0.2052477
20	0xbea38392	-0.31936318
21	0xbe1836eb	-0.148647
22	0xbe8bcb43	-0.27303514
23	0xbeba057b	-0.36332306
24	0xbe5dd5cf	-0.21663593
25	0xbd41d285	-0.047319908
26	0xbebd2dd5	-0.3694903
27	0xbe44f7aa	-0.19235101
28	0xbec8754d	-0.39151993
29	0xbf02a726	-0.510363
30	0xbe679194	-0.22614127
31	0xbdc3f6c3	-0.095685504
32	0xbb65639b	-0.0035001996
33	0xbe8e9789	-0.27849987
34	0xbe8340b1	-0.25635293
35	0xbe86b271	-0.26308015
36	0xbea9a825	-0.33136097
37	0xbe07958b	-0.1324064
38	0x3e69637b	0.22791855
39	0xbe8b3685	-0.27190033
40	0xbdbfc009	-0.093628
41	0xbe275f20	-0.16344881
42	0xbe897a01	-0.26850894
43	0xbe9d7844	-0.30755818
44	0xbe882f62	-0.2659865
45	0xbedea3ff	-0.43484494
46	0x3edf36f5	0.43596616
47	0x3d2a9430	0.04164523
48	0xbe8f9837	-0.28045818
49	0xbe0c537d	-0.13703723
50	0xbefb78ba	-0.49115545
51	0xbe286248	-0.16443741
52	0xbe6a4943	-0.2287951
53	0x3e2d3f5a	0.16918698
54	0xbe72b966	-0.23703536
55	0xbe3064c7	-0.17225944
56	0xbd175a65	-0.03695144
57	0xbed24e28	-0.41075253
58	0xbebdcded	-0.3707117
59	0xbe442e37	-0.19158255
60	0xbe2225f4	-0.1583479
61	0xbe846ab8	-0.2586267
62	0xbd84cea5	-0.06484727
63	0x3f4a1cb0	0.78950024

network.6.weight f4 [5, 64]
0	0x3dca6f91	0.09884561
1	0x3d68b697	0.056814756
2	0x3d924bb4	0.071433455
3	0x3d30a135	0.04312249
4	0x3e1c5e9b	0.15270464
5	0xbde956f4	-0.11393538
6	0x3d6d0dbf	0.057874437
7	0xbd8d07cd	-0.068862535
8	0x3af3e2dc	0.0018607038
9	0x3c0d6680	0.008630395
10	0x3b4ac863	0.0030942194
11	0x3d925f1e	0.071470484
12	0x3d1ef461	0.038807277
13	0x3cfdde57	0.030989809
14	0xbe1ab94d	-0.15109749
15	0x3d686fe5	0.056747336
16	0x3d201844	0.03908564
17	0xbd1009ae	-0.03516548
18	0x3c37319d	0.011181262
19	0xbe319e42	-0.17345527
20	0x3e062c82	0.13102916
21	0xbd219da9	-0.039456997
22	0xbdc135a6	-0.09434061
23	0x3e4aa641	0.19789983
24	0x3c0cb06c	0.008586984
25	0x3d4ec5a4	0.050481454
26	0x3ba535f6	0.005041833
27	0x3d9241a3	0.071414255
28	0xbdca178b	-0.09867772
29	0xbdc5f314	-0.09665504
30	0x3e3d3211	0.1847613
31	0xbc34c727	-0.01103381
32	0xbd5271e8	-0.05137816
33	0xbd47ec60	-0.04880941
34	0xbd9f0672	-0.07764901
35	0xbc93d480	-0.018045664
36	0xbd878c3b	-0.06618544
37	0xbc1af340	-0.009457409
38	0x3b5436bb	0.0032381255
39	0x3d0527c2	0.03250862
40	0x3ca0dd0d	0.019636655
41	0x3b68ce5f	0.0035523397
42	0xbd7fcad8	-0.062449306
43	0xbc18bb8b	-0.0093220575
44	0x3cba5e47	0.022750033
45	0x3d4ca441	0.049961332
46	0x3d3eb181	0.046556
47	0x3d3e9bd2	0.04653532
48	0x3ca9f6c8	0.020747557
49	0x3931eb8d	0.00016967785
50	0x3d596344	0.053073183
51	0x3ea4a840	0.32159615
52	0x3ca02e16	0.019553225
53	0xbd9fdcea	-0.07805808
54	0xbdaff8c5	-0.08592371
55	0xbddd0d36	-0.107935354
56	0xbdafb4f5	-0.08579437
57	0xbd2bcfae	-0.041946106
58	0xbd9a1ff4	-0.07525626
59	0xbbd2e145	-0.0064355456
60	0x3d9fe18a	0.0780669
61	0xbdc5c1d9	-0.09656114
62	0x3c029ca5	0.007971917
63	0xbd893941	-0.067003734
64	0xbd42c472	-0.047550626
65	0x3d7df2ef	0.061999258
66	0x3e532fe2	0.20623735
67	0x3da73d44	0.08165982
68	0xbe07fa43	-0.13279061
69	0x3e1577bc	0.14596456
70	0xbce0be5e	-0.027434524
71	0x3dbdb427	0.09262877
72	0x3d34f50c	0.044179007
73	0x3d810d1b	0.06301328
74	0xbe8468a8	-0.25861096
75	0xbe611559	-0.219808
76	0x3e4cebef	0.20011877
77	0x3e14774f	0.14498638
78	0xbdfb0498	-0.122567356
79	0xbdf25ebe	-0.11834477
80	0xbd862c76	-0.06551449
81	0xbdd51566	-0.10404472
82	0xbd7dafbe	-0.06193518
83	0x3bf4cc69	0.0074706567
84	0x3e594a00	0.21219635
85	0xbdf47f53	-0.11938348
86	0x3b4c8148	0.0031204987
87	0x3e560d4c	0.2090351
88	0xbde18e65	-0.11013488
89	0xbe8889f2	-0.26667744
90	0xbe880361	-0.26565078
91	0xbdda55ca	-0.10660894
92	0xbe311349	-0.17292513
93	0x3e088500	0.13331985
94	0xbe4b6eb1	-0.19866444
95	0xbcf4a63a	-0.02986442
96	0x3eb0d9de	0.3454122
97	0x3d694642	0.05695177
98	0x3bc09a00	0.005877733
99	0x3e2be7f8	0.16787708
100	0xbe34dfb8	-0.17663467
101	0x3e6da4f5	0.23207457
102	0x3e5e07c3	0.21682648
103	0xbe11b4a3	-0.14229064
104	0x3e498042	0.19677833
105	0xbe7eb064	-0.24871975
106	0x3e1dc42a	0.15406862
107	0x3bfd00e0	0.0077210516
108	0xbd12b5c6	-0.035817884
109	0x3d1b021b	0.037843805
110	0x3d4aee4e	0.04954367
111	0xbe8522a2	-0.26002985
112	0x3c35e599	0.011102104
113	0xbe5c611b	-0.21521418
114	0x3c2aeb66	0.0104321
115	0x3dcdd29d	0.10049937
116	0x3ed4f02a	0.4158948
117	0x3e10a59b	0.14125673
118	0xbe31ab11	-0.17350413
119	0xbeee972d	-0.46599713
120	0xbde670e3	-0.11252
121	0x3e5596bb	0.2085828
122	0xbe14f9c2	-0.145484
123	0xbd8604c7	-0.0654388
124	0x3e29064e	0.16506311
125	0xbe024e26	-0.12725124
126	0x3dc508e0	0.096208334
127	0xbeda6ba7	-0.42660257
128	0x3d87d5d6	0.06632583
129	0xbe95acc6	-0.29233378
130	0x3e041a82	0.12900737
131	0x3beaba26	0.007163304
132	0x3c941740	0.018077493
133	0xbe9d6feb	-0.3074945
134	0x3f0a0eaf	0.53928655
135	0xbdca2ac8	-0.09871441
136	0x3e014c56	0.12626776
137	0xbe8066aa	-0.25078326
138	0xbe4b9ee5	-0.19884832
139	0x3eae1413	0.3399969
140	0xbdb0555d	-0.08610032
141	0x3e1efa2e	0.15525123
142	0xbe673a08	-0.22580731
143	0xbe63d707	-0.22249995
144	0xbc1fb38d	-0.009747398
145	0xbe12db21	-0.14341404
146	0xbd1d9923	-0.03847612
147	0x3cc24877	0.023716195
148	0x3e14844f	0.14503597
149	0x3e450c4d	0.19242974
150	0x3c8979d4	0.016781725
151	0xbd2d5029	-0.042312775
152	0x3e5b4f1e	0.214169
153	0xbe212c3f	-0.15739535
154	0xbdbfbe23	-0.093624376
155	0x3d9eecf2	0.077600375
156	0x3cb5f417	0.022211118
157	0xbe4d3f38	-0.20043647
158	0x3e7f93df	0.24958752
159	0xb8cb55bf	-9.695766e-05
160	0x3d8df206	0.06930928
161	0xbc5ab000	-0.013347626
162	0x3e493503	0.19649129
163	0x3efe5bb5	0.49679342
164	0x3cb72ec5	0.022361169
165	0xbe08d14e	-0.13361093
166	0x3e3651d2	0.1780465
167	0xbeefe467	-0.46853945
168	0xbe52f363	-0.20600657
169	0x3df543c4	0.11975816
170	0x3e6fbc5e	0.234117
171	0xbe86c79c	-0.26324165
172	0x3e86ab79	0.26302698
173	0xbea54c79	-0.32284907
174	0x3df8d821	0.12150598
175	0xbbe1c377	-0.0068897563
176	0xbd020f1b	-0.031752687
177	0xbc855351	-0.01627508
178	0x3dcf9028	0.101349175
179	0x3e9d0b59	0.3067272
180	0xbe841041	-0.2579365
181	0x3d6939aa	0.05693976
182	0x3c7faf23	0.015605721
183	0xbe90243f	-0.28152654
184	0x3d9c21ba	0.0762362
185	0xbe7b3d11	-0.24535014
186	0xbe05a342	-0.13050559
187	0x3ea0b034	0.31384432
188	0x3b32ca3f	0.0027281193
189	0x3e61df45	0.22057827
190	0x3e67c479	0.22633542
191	0x3e2bfd98	0.16795957
192	0xbe6c7748	-0.23092377
193	0xbc271ff1	-0.0102004865
194	0xbd53781b	-0.051628213
195	0xbdd2e95d	-0.10298417
196	0x3c91a1e0	0.017777383
197	0x3d534656	0.05158075
198	0x3cd783d0	0.02630797
199	0xbdae8348	-0.08521134
200	0xbe3c87f3	-0.18411236
201	0x3d9a9968	0.07548791
202	0x3dbffc07	0.09374242
203	0xbdd34dab	-0.10317548
204	0x3db3ca60	0.08778834
205	0x3e2e9cbc	0.17051977
206	0x3d0aedea	0.0339183
207	0xbdf65367	-0.120276265
208	0x3e0d2950	0.1378529
209	0x3da82271	0.08209694
210	0x3e02fa97	0.12790905
211	0xbdc1bfec	-0.09460434
212	0x3dcc3038	0.099701345
213	0x3dd04176	0.10168736
214	0xbd37f9c6	-0.044915937
215	0x3d78d6ff	0.06075191
216	0xbd694a76	-0.056955777
217	0x3e62e8fd	0.2215919
218	0xbe2aaf04	-0.16668326
219	0xbccc684b	-0.024952075
220	0xbddb1480	-0.106972694
221	0xbd32608b	-0.0435491
222	0x3eacb800	0.3373413
223	0xbcd4a000	-0.0259552
224	0x3e8d563f	0.27604863
225	0x3e639cb8	0.22227752
226	0x3e639261	0.22223808
227	0xbe22e421	-0.15907337
228	0xbc757652	-0.014981823
229	0xbe2c860e	-0.16848013
230	0xbe3f3330	-0.1867187
231	0x3dc5cb54	0.096579224
232	0x3db5f4f6	0.08884613
233	0x3ddacd31	0.106836684
234	0xbe5cf1d9	-0.21576633
235	0xbda6a5f8	-0.08137125
236	0xbd0cf2de	-0.034411304
237	0x3df9ab18	0.12190837
238	0x3d003785	0.031302948
239	0x3e8bcc7a	0.2730444
240	0x3deccf0f	0.11562931
241	0x3cb2b1c0	0.021813273
242	0x3d2549e8	0.040353686
243	0xbe4101b7	-0.1884831
244	0x3e1d4834	0.15359575
245	0x3e38da61	0.18052055
246	0x3d3abebb	0.04559205
247	0x3dc9a08a	0.098450735
248	0xbe032b44	-0.12809473
249	0x3cd061e5	0.025437305
250	0x3e94c5e7	0.29057238
251	0x3d6207c0	0.055183172
252	0xbd66b240	-0.056322336
253	0xbe4d1dc3	-0.20030884
254	0x3da8adc8	0.08236271
255	0x3e3980e9	0.18115582

network.6.bias f4 [5]
0	0x3d3cb7e9	0.046073828
1	0x3d807ccd	0.06273804
2	0x3d6131f6	0.054979287
3	0x3f08405c	0.53223205
4	0x3eb55f64	0.3542434

network.0.weight f4 [128, 43]
0	0xbba516b0	-0.005038105
1	0xbd817fad	-0.0632318
2	0xbe085570	-0.13313842
3	0x3dd1c64e	0.10242902
4	0xbdedf897	-0.116196804
5	0xbe23f0cc	-0.16009825
6	0xbe18cb02	-0.14921191
7	0x3e0cba4a	0.13742939
8	0x3e281da5	0.16417558
9	0xbe260874	-0.16214162
10	0xbc90cf01	-0.017676832
11	0xbdecae38	-0.11556667
12	0xbdc07360	-0.09397006
13	0x3e2a6824	0.16641289
14	0x3baade38	0.005214479
15	0xbdd60120	-0.10449433
16	0xbc8f3584	-0.017481573
17	0x3da4b9d1	0.08043254
18	0x3c602f31	0.013683126
19	0xbda3ad03	-0.07991984
20	0xbe0c73f5	-0.13716109
21	0xbdb3bed6	-0.087766334
22	0x3e04f83c	0.12985319
23	0xbaa768af	-0.0012772287
24	0xbdbb1633	-0.091350935
25	0x3e2b9e1f	0.16759537
26	0xbd3c7f56	-0.046019875
27	0xbe063d48	-0.13109314
28	0xbdd1cf68	-0.10244638
29	0x3b0955e2	0.002095573
30	0x3d8bc035	0.0682377
31	0x3d878926	0.06617956
32	0xbe3ac577	-0.1823939
33	0x3def5511	0.11686147
34	0x3e23ad9c	0.15984195
35	0x3ce1532e	0.027505483
36	0x3e1dc0e9	0.1540562
37	0x3db9fc73	0.09081354
38	0x3db8ab34	0.090170294
39	0xbe2e40a0	-0.1701684
40	0x3da4177f	0.08012294
41	0xbe1c67cd	-0.15273972
42	0x3d1a9b04	0.03774549
43	0xbe2927d1	-0.16519095
44	0x3e393466	0.18086395
45	0xbd06abd8	-0.032878727
46	0x3ca27489	0.019830959
47	0xbd817eb4	-0.06322995
48	0xbe3d0570	-0.18459105
49	0x3d944ffd	0.07241819
50	0x3da94854	0.082657486
51	0x3dbbbb85	0.09166626
52	0xbd1bbe7b	-0.038023453
53	0x3d2c077f	0.041999336
54	0x3d34abc5	0.044109125
55	0x3e11612d	0.14197226
56	0x3de9138f	0.11380684
57	0xbcd01c7a	-0.025404204
58	0x3d8966b7	0.067090444
59	0x3dd91822	0.10600306
60	0x3dea3861	0.11436535
61	0xbe1ad590	-0.1512053
62	0xbe3e60d6	-0.18591627
63	0x3d7b8b31	0.06141204
64	0x3da80e0f	0.082058065
65	0xbda6aadc	-0.081380576
66	0x3dedc522	0.11609866
67	0xbd3ed13a	-0.046586253
68	0xbdc55758	-0.096358
69	0x3dc6877a	0.09693809
70	0x3e1edcb2	0.15513876
71	0x3e270469	0.16310276
72	0xbe16d4ab	-0.14729564
73	0x3e2097d8	0.15682924
74	0xbe33b540	-0.1754961
75	0xbd893b11	-0.06700719
76	0x3e08c099	0.1335472
77	0xbdfc5650	-0.1232115
78	0x3d9573e0	0.07297492
79	0xbe27e641	-0.16396429
80	0xbcc35317	-0.023843331
81	0x3e0c3f79	0.13696088
82	0xbc97323f	-0.018456576
83	0xbc663700	-0.014051199
84	0xbcbcf471	-0.023065777
85	0x3dc63fb6	0.09680121
86	0x3da9e739	0.08296055
87	0x3cbf8b81	0.02338195
88	0x3d1be199	0.038056944
89	0xbd5262c8	-0.051363736
90	0x3e063563	0.13106303
91	0xbda57b22	-0.08080126
92	0x3d271e7b	0.040800553
93	0x3d31cc3f	0.043407675
94	0x3d26b0ad	0.040695835
95	0xbdbfcfa9	-0.0936578
96	0xbd09e661	-0.033666972
97	0xbb9b7777	-0.004744466
98	0xbd8154fe	-0.06315039
99	0xbd7dc0cf	-0.061951455
100	0xbbf13f9d	-0.0073623196
101	0xbe02d504	-0.12776572
102	0xbd1df87d	-0.038567055
103	0xbc4a816d	-0.012359959
104	0x3e1fadc3	0.15593629
105	0x3d1c576d	0.038169313
106	0xbe3c52b5	-0.18390925
107	0x3e23852d	0.15968771
108	0x3dc7dab6	0.09758513
109	0xbe33d824	-0.1756292
110	0x3d757e98	0.059935182
111	0xbe19b20a	-0.15009323
112	0x3c885dd5	0.016646305
113	0x3defd508	0.11710554
114	0xbdd130eb	-0.102144085
115	0x3b03ecd1	0.0020130167
116	0xbe2ade46	-0.16686353
117	0x3d52c5f2	0.051458307
118	0x3e0d0a16	0.13773379
119	0x3dafc9fa	0.08583446
120	0xbdcaf9f5	-0.09910957
121	0xbe412c0a	-0.18864456
122	0x3e34b5d6	0.1764749
123	0x3e1e422c	0.1545493
124	0x3ddbec04	0.10738376
125	0xbaff75bc	-0.0019490044
126	0x3d662f33	0.056197356
127	0xbe0fcbac	-0.14042538
128	0xbd14a007	-0.036285426
129	0x3c378205	0.011200433
130	0x3db33fba	0.08752389
131	0xbd8d86b4	-0.06910458
132	0x3e1be913	0.1522563
133	0xbd9cb2a5	-0.07651261
134	0xbe3a2b94	-0.18180686
135	0xbdfeae00	-0.124355316
136	0xbe37f633	-0.17965011
137	0xbcdcd212	-0.026955638
138	0x3d6fac1c	0.058513746
139	0xbe09770d	-0.1342432
140	0x3c4c31f2	0.01246308
141	0x3d4ea4f4	0.05045028
142	0xbda3eea3	-0.08004501
143	0x3e2bdde7	0.16783868
144	0xbdaf1e44	-0.085506946
145	0xbe19c59d	-0.1501679
146	0x3dd44e6d	0.10366521
147	0x3e320793	0.17385702
148	0x3db4f41f	0.08835625
149	0xbd91e78f	-0.071242444
150	0x3e3c1c45	0.18370159
151	0xbc92a2d4	-0.017899908
152	0xbca005f0	-0.019534081
153	0xbdf6b375	-0.120459475
154	0x3daf9287	0.0857287
155	0xbe3f2a96	-0.18668589
156	0xbe1d6e68	-0.15374148
157	0xbddbdc78	-0.107354105
158	0x3e4402ed	0.19141741
159	0xbdd318d0	-0.10307467
160	0xbe0c4a1b	-0.13700144
161	0x3dabc7bf	0.08387708
162	0xbda90bf3	-0.08254232
163	0xbd0210a8	-0.031754166
164	0xbdda2d78	-0.10653204
165	0x3e15d89e	0.14633414
166	0x3cb87fda	0.022521902
167	0x3e36fe9d	0.17870565
168	0xbd1a215d	-0.037629474
169	0xbe0ca686	-0.13735399
170	0xbe02d32e	-0.12775871
171	0x3d1c057a	0.03809116
172	0xbe153f34	-0.14574891
173	0xbe3aa764	-0.18227917
174	0x3e352395	0.17689355
175	0xbe09755d	-0.13423677
176	0xbe07db2c	-0.13267201
177	0x3e095f1e	0.1341519
178	0x3e04f158	0.1298269
179	0xbdb287ae	-0.08717285
180	0xbd3c083a	-0.045906283
181	0x3e0ff048	0.14056504
182	0xbdd4df66	-0.10394172
183	0xbe2f40ab	-0.17114513
184	0x3d9a4652	0.07532944
185	0x3cfb572c	0.030681215
186	0xbdf43850	-0.11924803
187	0x3c3c5862	0.0114956815
188	0x3d73f434	0.059559062
189	0xbdf54e94	-0.11977878
190	0xbc00e400	-0.007866859
191	0xbdabb1c6	-0.08383517
192	0x3e311e53	0.17296724
193	0xbe32da30	-0.17466044
194	0x3d0d1649	0.03444508
195	0x3e211557	0.15730797
196	0xbc872108	-0.016495243
197	0x3da52c43	0.08065083
198	0x3e0edda6	0.1395174
199	0x3e2fe78d	0.17178173
200	0x3cdb2d58	0.02675502
201	0x3dce39bb	0.10069605
202	0xbd251bd0	-0.040309727
203	0x3c6029bf	0.013681828
204	0xbe3837bc	-0.17990011
205	0xbe37ecd4	-0.17961437
206	0x3ddaf054	0.1069037
207	0xbe10e5d1	-0.14150168
208	0x3e0fd2e8	0.14045298
209	0xbdde4a6e	-0.1085404
210	0x3c58f850	0.013242796
211	0xbe2109a2	-0.15726331
212	0xbba29711	-0.004961856
213	0x3e0e0a08	0.13871014
214	0x3df00d09	0.11721236
215	0xbd01593a	-0.031579234
216	0x3e32b47f	0.17451666
217	0x3d2079ba	0.039178587
218	0xbc2613a4	-0.010136519
219	0x3d17f92d	0.037102867
220	0x3e04a312	0.12952831
221	0x3ded0a5b	0.11574241
222	0x3cb6f0e6	0.022331666
223	0x3d14f2c0	0.036364317
224	0xbe21a78f	-0.15786575
225	0x3d4bf386	0.04979279
226	0xbd386458	-0.04501757
227	0xbd98ab75	-0.07454578
228	0x3e0b1989	0.1358396
229	0x3e3fe026	0.1873785
230	0x3e1c6040	0.15271091
231	0xbd4587f0	-0.048225343
232	0x3d738f4b	0.059462827
233	0xbdd13221	-0.102146395
234	0x3d81b958	0.0633418
235	0x3da6c859	0.08143682
236	0x3df4403a	0.11926313
237	0x3dcf846c	0.10132679
238	0xbe027fa9	-0.12744011
239	0xbda34b77	-0.07973378
240	0xbe028256	-0.12745032
241	0xbdf1912e	-0.11795269
242	0xbdf41f33	-0.11920013
243	0x3df3e207	0.11908346
244	0x3e2fc3c9	0.1716453
245	0x3e0aa927	0.13541089
246	0xbd7b9f84	-0.061431423
247	0x3c5cac0c	0.013468754
248	0xbdd5e23a	-0.1044354
249	0x3dc4fdc3	0.09618714
250	0x3db9f7c2	0.09080459
251	0x3deadc50	0.114678025
252	0xbd1db4dc	-0.03850256
253	0x3cfa0914	0.030521907
254	0xbd3c8671	-0.04602665
255	0xbddbd34a	-0.107336596

network.0.bias f4 [128]
0	0xbd2b4e1d	-0.04182254
1	0xbd3f587d	-0.04671525
2	0xbd328952	-0.04358799
3	0xbd21760e	-0.039419226
4	0xbd57a734	-0.05264969
5	0xbbbfe43e	-0.005856066
6	0xbd6d32bc	-0.057909712
7	0xbd4044b8	-0.046940535
8	0xbd0ab5c8	-0.033864766
9	0xbd1fcb37	-0.03901216
10	0xbd40f75b	-0.047110897
11	0xbd72285a	-0.059120513
12	0xbd245194	-0.04011686
13	0xbd11b36c	-0.0355715
14	0xbcfa5c32	-0.03056154
15	0xbcc9c753	-0.024631178
16	0xbd850fca	-0.06497152
17	0xbd4fa442	-0.050693758
18	0xbcaf6fa6	-0.021415543
19	0xbd0dcae0	-0.034617305
20	0xbd6a6781	-0.057227615
21	0xbd2251ed	-0.03962891
22	0x3cc8c0b6	0.024505954
23	0xbd843c52	-0.06456818
24	0xbd2c6842	-0.042091615
25	0xbcfa4696	-0.030551236
26	0xbc88b790	-0.016689092
27	0xbd761c04	-0.06008531
28	0xbd125bbf	-0.035732027
29	0xbc969c08	-0.018384948
30	0xbd70956a	-0.058736242
31	0xbd448b38	-0.04798433
32	0xbd197349	-0.03746346
33	0xbd085a87	-0.03328946
34	0xbd9eca07	-0.077533774
35	0xba7d7023	-0.0009667894
36	0xbd3c3cf8	-0.04595658
37	0xbd7b1808	-0.061302215
38	0xbd15c05a	-0.036560394
39	0xbd14d244	-0.036333337
40	0xbd1e4445	-0.038639326
41	0x3ccca8ed	0.024982894
42	0xbd37eb41	-0.04490209
43	0xbb86b890	-0.004111357
44	0xbd9d5d50	-0.076838136
45	0xbd422572	-0.047398992
46	0xbca2885c	-0.019840412
47	0xbd76cd69	-0.06025449
48	0xbd14ce53	-0.03632958
49	0xbd4106d5	-0.047125656
50	0xbd52062f	-0.05127543
51	0xbd63f211	-0.055650774
52	0xbd7ef92f	-0.06224936
53	0xbcc36ee0	-0.02385658
54	0xbcd1044e	-0.025514748
55	0xbd747106	-0.0596781
56	0xbc55d8ba	-0.01305216
57	0xbd501660	-0.05080259
58	0xbc90960f	-0.017649679
59	0xbd49a77e	-0.049232
60	0xbd38b7b2	-0.04509706
61	0xbd40c108	-0.04705909
62	0xbd2a24b9	-0.041538928
63	0xbd0781ca	-0.03308276
64	0xbd534b06	-0.05158522
65	0xbaef111c	-0.0018239352
66	0xbccd586e	-0.02506658
67	0xbd34f252	-0.044176407
68	0xbd0d5af3	-0.034510564
69	0xbd1a5573	-0.037679147
70	0xbd809628	-0.0627864
71	0xbc0f2890	-0.008737698
72	0xbd224b35	-0.039622504
73	0xbd118dd0	-0.035535634
74	0xbc9b72bc	-0.018975608
75	0xbc6eb101	-0.014568568
76	0xbc82b60d	-0.01595595
77	0xbbfeda68	-0.007777501
78	0xbd532b8e	-0.05155521
79	0xbaefe9dc	-0.0018303948
80	0xbd1f98fe	-0.038964264
81	0xbd5a8493	-0.05334909
82	0xbd2d1f3a	-0.042266108
83	0xbc6a42ea	-0.01429818
84	0xbd74f0a9	-0.059799824
85	0xbd803227	-0.06259566
86	0x3b965087	0.0045872363
87	0xbd0bff6e	-0.034179144
88	0xbccb96d1	-0.024852188
89	0xbd3a9c95	-0.045559485
90	0xbcd079bd	-0.025448674
91	0xbd56d691	-0.05245072
92	0xbc48ca70	-0.012255296
93	0xbd71204d	-0.058868695
94	0xbcbb81bb	-0.022889009
95	0xbcabdff6	-0.020980816
96	0xbc84b718	-0.016200587
97	0xbc5f1f7c	-0.013618346
98	0xbd0819e3	-0.033227812
99	0xbd084e1f	-0.033277627
100	0xbd1c998d	-0.038232375
101	0xbcd084c3	-0.02545393
102	0xbcfcd812	-0.03086475
103	0xbd48b6bc	-0.049002394
104	0xbd54dac0	-0.05196643
105	0xbd31c076	-0.043396436
106	0xbcfe2aa8	-0.0310262
107	0xbd02a1fc	-0.03189276
108	0x3bf98b0c	0.0076154526
109	0xbd64cf41	-0.055861715
110	0xbcffaf6f	-0.031211583
111	0xbd4c4975	-0.04987474
112	0xbd051508	-0.03249076
113	0xbd71eb80	-0.05906248
114	0xbd2fc27c	-0.042910084
115	0xbcbc3cca	-0.022978205
116	0xbd488326	-0.048953198
117	0xbcdded59	-0.027090715
118	0xbd14fc5e	-0.03637349
119	0xbbae4346	-0.005318078
120	0xbc6de336	-0.014519503
121	0xbd2420c4	-0.04007031
122	0xbd0e800c	-0.034790084
123	0xbcae426e	-0.02127191
124	0xbd318158	-0.043336242
125	0xbd3f990e	-0.046776824
126	0xbd4aa43c	-0.049473032
127	0xbc99bc4d	-0.018766547

network.3.weight f4 [64, 128]
0	0x3e07ca6c	0.13260812
1	0xbd7769b1	-0.06040353
2	0xbdc2df62	-0.09515263
3	0xbdc2efb0	-0.09518373
4	0xbc76da7f	-0.015066742
5	0x3ddd8450	0.10816252
6	0xbe3d7111	-0.18500163
7	0xbd579fbb	-0.052642565
8	0x3d5a9d60	0.05337274
9	0x3e11b6be	0.14229867
10	0xbe029707	-0.12752925
11	0xbd8a4d57	-0.06753033
12	0x3d44391a	0.04790602
13	0x3de7e8b2	0.1132368
14	0xbe2f73fd	-0.1713409
15	0xbdf545d5	-0.1197621
16	0xbd91efb5	-0.071257986
17	0xbe30cd72	-0.17265871
18	0xbe2247f1	-0.15847756
19	0x3e066a50	0.13126493
20	0xbd7713e8	-0.06032172
21	0xbd0924d5	-0.03348239
22	0xbb4f4946	-0.0031629368
23	0x3cd30f6c	0.02576419
24	0x3ca2bba6	0.019864868
25	0x3e079ea4	0.1324411
26	0xbdafbbb5	-0.08580724
27	0xbe00bfe5	-0.12573202
28	0xbd983f4e	-0.074339494
29	0x3e152f7b	0.14568894
30	0x3db2c991	0.08729852
31	0xbe1cce18	-0.15312994
32	0x3e05fc4f	0.1308453
33	0x3e167bc8	0.14695656
34	0x3d3c3d0a	0.04595665
35	0xbe2cf4dc	-0.16890281
36	0xbd2be91e	-0.041970365
37	0x3c5b8dbc	0.013400491
38	0x3d1e8472	0.03870053
39	0xbad523be	-0.0016261262
40	0xbd94581a	-0.072433665
41	0xbd873cbd	-0.06603382
42	0xbdb0334a	-0.086035326
43	0xbdecaf9d	-0.11556933
44	0x39609610	0.00021418207
45	0x3deed328	0.116613686
46	0x3d5b1498	0.053486437
47	0x3e0aa1b6	0.1353825
48	0xbd9b5999	-0.07585449
49	0xbd8a7d1c	-0.06762144
50	0xbdbf50e1	-0.09341598
51	0xbe2d1616	-0.16902956
52	0xbc448ad8	-0.011995994
53	0x3d205f49	0.03915337
54	0xbd3ac302	-0.04559613
55	0x3d71f01a	0.05906687
56	0x3dddfad6	0.10838859
57	0xbc6ae1e8	-0.014336087
58	0xbd7a5de4	-0.061124697
59	0x3e1aeaa9	0.15128578
60	0xbded26f2	-0.11579694
61	0x3d98a0af	0.07452523
62	0xbcab4bbe	-0.02091014
63	0xbd87a746	-0.06623702
64	0xbd890c8b	-0.066918455
65	0xbdfd5abe	-0.12370823
66	0x3d619052	0.055069275
67	0x3cb0d67a	0.021586645
68	0xbdacc24d	-0.084354974
69	0x3df3cb20	0.119039774
70	0x3d0a1b15	0.033717234
71	0xbb9be867	-0.004757929
72	0xbe2876da	-0.16451588
73	0xbe07e107	-0.13269435
74	0xbe2a764e	-0.16646692
75	0xbd922cca	-0.07137449
76	0xbd18dbc7	-0.03731897
77	0x3d6623dd	0.056186546
78	0xbdd9921a	-0.1062357
79	0x3b58629b	0.0033017758
80	0xbd9db7c0	-0.07701063
81	0xbe2920d5	-0.1651643
82	0xbe3793e2	-0.17927507
83	0x3e00141b	0.1250767
84	0x3e0c2d63	0.13689189
85	0x3e1043cf	0.14088367
86	0xbb01a708	-0.0019783396
87	0xbdddf03c	-0.10836837
88	0x3b4ba766	0.003107512
89	0xbd922cf9	-0.07137484
90	0x3df9e29a	0.12201424
91	0xbce40f7e	-0.027839419
92	0xbdbb9284	-0.09158805
93	0x3c619bd9	0.013770067
94	0xbdc96622	-0.098339334
95	0xbdee06a2	-0.11622359
96	0xbd9381d2	-0.07202496
97	0xbd5ad465	-0.05342521
98	0x3d273ad4	0.040827587
99	0xbe064bb1	-0.13114811
100	0x3de46434	0.11151925
101	0x3deee5ab	0.116648994
102	0xbde69f30	-0.11260831
103	0xbd026cb8	-0.031841964
104	0xbbd30fb7	-0.0064410823
105	0xbcfb02d1	-0.030640991
106	0x3ca06863	0.019581025
107	0xbdbc8492	-0.09204973
108	0xbe0ac7a2	-0.13552716
109	0x3c240c83	0.010012749
110	0xbe26b659	-0.16280498
111	0xbc92f2e2	-0.017938081
112	0x3b06d5d7	0.0020574236
113	0x3cfba1fe	0.030716892
114	0x3df6c345	0.120489635
115	0x3dd6d289	0.10489375
116	0xbe39beed	-0.18139239
117	0xbd806eff	-0.06271171
118	0xbdcb7bed	-0.09935746
119	0xbe24b9e6	-0.1608654
120	0xbda48b5b	-0.080343924
121	0xbd3581b3	-0.044313144
122	0x3ce6f785	0.028194198
123	0xbd949ef7	-0.07256883
124	0xbe2e3d80	-0.17015648
125	0xbb96895a	-0.0045940103
126	0x3dfaa8c0	0.12239218
127	0x3dc3bb42	0.09557201
128	0xbb086018	-0.002080923
129	0xbe1a944f	-0.15095638
130	0x3d1a9178	0.037736386
131	0xbcbcddf5	-0.023055056
132	0xbe0b74a7	-0.13618718
133	0xbd5294b6	-0.051411353
134	0x3d2c7dab	0.042112034
135	0xbd5dc848	-0.05414608
136	0xbde12a7c	-0.109944314
137	0xbd49a5ac	-0.049230263
138	0xbcc94c68	-0.024572566
139	0x3c167233	0.009182501
140	0xbe42658f	-0.18984054
141	0xbdffcd2b	-0.124903046
142	0xbd97b86a	-0.07408221
143	0x3d083fa7	0.03326383
144	0xbe06558d	-0.13118573
145	0xbe1f717e	-0.15570638
146	0xbe171c80	-0.14756966
147	0x3e38b997	0.18039547
148	0x3d215c6a	0.039394774
149	0xbd31c9e1	-0.043405417
150	0xbdf379d7	-0.118884735
151	0xbdfe0dfd	-0.12405012
152	0x3da283bc	0.079352826
153	0xbd16be00	-0.036802292
154	0xbe127af2	-0.14304712
155	0xbdf9d975	-0.1219968
156	0x3e31f57f	0.17378806
157	0x3ba0b57e	0.004904448
158	0x3d2c2161	0.04202402
159	0xbe2347b1	-0.15945317
160	0xbdc8a28b	-0.097966276
161	0xbe395f51	-0.18102767
162	0x3d8fa88a	0.07014568
163	0x3d268c1d	0.040660966
164	0xbe0d9a80	-0.13828468
165	0xbe0aff97	-0.13574062
166	0xbd38b0c4	-0.04509045
167	0xbde05483	-0.10953619
168	0x3e099e1c	0.1343922
169	0xbe402c10	-0.18766809
170	0x3dfc9934	0.12333909
171	0xbdedda5b	-0.116139136
172	0x3cd30a6e	0.02576181
173	0xbe1a0cac	-0.15043896
174	0xbe16b0d1	-0.14715888
175	0x3bef18ae	0.007296643
176	0x3bc76eba	0.0060861977
177	0x3d241775	0.040061433
178	0xbdab53c9	-0.0836559
179	0xbbcc9600	-0.0062434673
180	0xbd6b4c74	-0.05744596
181	0x3ce79f1b	0.02827411
182	0xbcf9561c	-0.030436568
183	0x3dc1f28d	0.09470091
184	0xbe20b21b	-0.15692942
185	0x3d567026	0.052353047
186	0x3daa09b1	0.0830263
187	0xbe193cf2	-0.14964655
188	0x3dc48962	0.09596516
189	0x3db5c820	0.088760614
190	0xbe2f1c53	-0.17100649
191	0xbd9625ee	-0.07331453
192	0xbdf99494	-0.12186542
193	0xba9a0e2c	-0.0011753491
194	0x3d2a2a1f	0.041544076
195	0x3e072e11	0.13201167
196	0xbe3aa947	-0.18228637
197	0x3e2194c5	0.15779407
198	0xbcfc8c7f	-0.030828713
199	0xbdd8de00	-0.10589218
200	0xbe2f291a	-0.17105523
201	0xbdbffd84	-0.09374526
202	0xbdef8be6	-0.116966054
203	0xbde5c420	-0.112190485
204	0xbdb04b5e	-0.08608125
205	0x3e0d05e0	0.13771772
206	0x3cc031da	0.023461271
207	0xbe02b574	-0.12764531
208	0x3d6808c3	0.05664898
209	0xbda808b4	-0.08204785
210	0xbd475ac2	-0.048670538
211	0x3ce012b5	0.02735267
212	0x3da435d0	0.080180764
213	0xbdfb880f	-0.122818105
214	0xbe3765d4	-0.17909938
215	0xbd21b518	-0.039479345
216	0xbe264004	-0.16235358
217	0xbdcd0094	-0.10009876
218	0x3dc2e83b	0.09516951
219	0xbd4a4748	-0.049384385
220	0xbdea1320	-0.11429429
221	0x3d11f928	0.035638005
222	0x3e02e03c	0.12780851
223	0xbe333049	-0.17498888
224	0xbe42e7ac	-0.19033688
225	0xbe0fc7ea	-0.14041105
226	0xbcc401c8	-0.02392663
227	0x3dc7f52f	0.09763562
228	0xbbde3242	-0.0067808935
229	0x3de6be94	0.11266819
230	0xbd86cc9b	-0.06581994
231	0x3dee5d30	0.11638868
232	0x3e297214	0.16547424
233	0x3d44a869	0.04801217
234	0xbdce6aa9	-0.100789376
235	0xbe109856	-0.14120612
236	0x3be923ba	0.0071148546
237	0x3e12c28f	0.1433203
238	0xbdc8db9b	-0.098075114
239	0xbd22bc67	-0.039730456
240	0xbdcf89ea	-0.10133727
241	0x3e05e705	0.13076408
242	0xbe0ffb4b	-0.14060704
243	0xbe5c6a70	-0.21524978
244	0xbde3b012	-0.11117567
245	0x3d45c429	0.048282776
246	0xbc75a35b	-0.01499256
247	0xbe2d0329	-0.16895737
248	0xbda47781	-0.08030606
249	0x3dab89f3	0.08375921
250	0xbe166cd5	-0.14689954
251	0xbe2c2d69	-0.16814198
252	0xbe160e40	-0.14653873
253	0x3e25a0db	0.16174643
254	0xbb2b9de6	-0.0026186644
255	0x3d9884ed	0.074472286

network.3.bias f4 [64]
0	0xbcb1643c	-0.02165424
1	0xbc28e519	-0.010308527
2	0xbcd22c18	-0.025655791
3	0x3c9213f5	0.017831782
4	0xbc8f4d8c	-0.017493032
5	0xbc42b42f	-0.011883779
6	0xbcc450c4	-0.023964293
7	0xbc69837f	-0.0142525425
8	0xbca301d8	-0.01989834
9	0xbc17706f	-0.009243115
10	0xbd46c57c	-0.04852818
11	0xbc907d17	-0.017637772
12	0xbc864cb8	-0.016394004
13	0xbd26b6b4	-0.040701583
14	0xbca148d6	-0.019688051
15	0xbcb380ad	-0.021911943
16	0xbc4f12d8	-0.01263877
17	0xbd0fabfb	-0.035076123
18	0xbc99bf91	-0.018768104
19	0x3b0b0359	0.0021211712
20	0xbce905aa	-0.028445084
21	0xbc64204a	-0.013923714
22	0xbcfc6e72	-0.030814383
23	0xbcf0fe1d	-0.029418046
24	0xbc980b13	-0.018559968
25	0x3a2c0440	0.00065619126
26	0xbd25fd11	-0.040524546
27	0xbc8bab7b	-0.017049542
28	0xbcfc6153	-0.030808127
29	0xbd185562	-0.037190802
30	0xbc7545f3	-0.0149702905
31	0xbbea1619	-0.0071437475
32	0xbbac76e1	-0.005263195
33	0xbc960553	-0.018313086
34	0xbc9917bc	-0.018688075
35	0xbccc8692	-0.024966512
36	0xbd05bac3	-0.032648813
37	0xbc5aae34	-0.013347197
38	0x3c8d6e76	0.017264586
39	0xbcd12ddc	-0.025534563
40	0xbc24843b	-0.010041292
41	0xbc66a8ae	-0.014078302
42	0xbcd21a1f	-0.025647221
43	0xbcfb2a12	-0.03065971
44	0xbca1b7b5	-0.019740919
45	0xbd2e49d2	-0.04255087
46	0x3ccae7da	0.024768759
47	0x3b699cc6	0.0035646423
48	0xbcfa07eb	-0.030521354
49	0xbc801474	-0.015634753
50	0xbcd7324c	-0.0262691
51	0xbc8943f5	-0.016756037
52	0xbc822a9a	-0.015889455
53	0x3bf120db	0.007358653
54	0xbc8f1072	-0.017463896
55	0xbc774fbe	-0.015094696
56	0xb996545e	-0.00028673088
57	0xbc8c7b15	-0.017148534
58	0xbcfa7d88	-0.030577436
59	0xbc79ce5c	-0.015246954
60	0xbc4d87ef	-0.012544616
61	0xbc9f5f82	-0.019454721
62	0xbbabc12b	-0.0052415333
63	0x3d364d31	0.04450721
