experiments/checkpoints/best_diverse.pt (torch, 246569 bytes, 24 tensors)

network.0.weight f4 [128, 43]
0	0xbba516b0	-0.005038105
1	0xbe6e3cca	-0.23265377
2	0x3d149e69	0.036283884
3	0xbeeed656	-0.466479
4	0x3dce3e5e	0.10070489
5	0xbe23f0cc	-0.16009825
6	0xbe7e66ea	-0.24843946
7	0x3e0cba4a	0.13742939
8	0x3e281da5	0.16417558
9	0xbe260874	-0.16214162
10	0xbc90cf01	-0.017676832
11	0xbdecae38	-0.11556667
12	0xbe43d3db	-0.19123785
13	0xbd87796a	-0.06614955
14	0xbf67445b	-0.9033868
15	0x3e8a9434	0.27066195
16	0xbf72b575	-0.9480813
17	0x3f1ef6d2	0.6209537
18	0x3d731d71	0.05935425
19	0xbda3ad03	-0.07991984
20	0xbe0c73f5	-0.13716109
21	0xbdb3bed6	-0.087766334
22	0x3e04f83c	0.12985319
23	0xbaa768ab	-0.0012772282
24	0xbdbb1633	-0.091350935
25	0x3e2b9e1f	0.16759537
26	0xbd3c7f56	-0.046019875
27	0x3f1f3151	0.62184626
28	0xbc1c4e6e	-0.0095401835
29	0x3e241321	0.16022922
30	0x3d8bc032	0.06823768
31	0x3cb01ae8	0.021497205
32	0xbe3ac577	-0.1823939
33	0x3f5eab25	0.86979896
34	0x3e23ad9c	0.15984195
35	0x3e8c6e4f	0.2742791
36	0x3f11e212	0.5698558
37	0x3ed2a513	0.41141567
38	0xbf41e0e5	-0.75733787
39	0xbf88c683	-1.0685581
40	0x3f292bdc	0.6608255
41	0xbf257952	-0.64638245
42	0x3d1a9b04	0.03774549
43	0xbe2927d1	-0.16519095
44	0x3f6b55fa	0.91928065
45	0xbf4573ac	-0.77129626
46	0xbd211230	-0.039323986
47	0x3bd22746	0.006413373
48	0xbe3d0570	-0.18459105
49	0xbfd2900c	-1.645021
50	0x3da94854	0.082657486
51	0x3dbbbb85	0.09166626
52	0xbd1bbe7b	-0.038023453
53	0x3d2c077c	0.041999325
54	0x3d34abc5	0.044109125
55	0x3f357e1a	0.7089554
56	0x3e7220d8	0.23645341
57	0x3f7b0ed3	0.98069495
58	0x3efa430f	0.48879287
59	0xbfd90709	-1.6955272
60	0x3f85000a	1.0390637
61	0xbe00f9ef	-0.12595342
62	0xbe3e60d6	-0.18591627
63	0x3d7b8b31	0.06141204
64	0x3da80e0f	0.082058065
65	0xbda6aadc	-0.081380576
66	0x3dedc522	0.11609866
67	0xbd3ed13a	-0.046586253
68	0xbdc55758	-0.096358
69	0x3dc6877a	0.09693809
70	0x3ec61ba7	0.38692972
71	0xbeb299fe	-0.34883112
72	0x3f0d5f54	0.55223584
73	0x3e2097d8	0.15682924
74	0xbe51cd8d	-0.20488568
75	0xbd893b11	-0.06700719
76	0x3ebb0d72	0.36533695
77	0xbdfc5650	-0.1232115
78	0x3f01baf1	0.50675875
79	0x3e9d0d79	0.3067434
80	0xbfa15126	-1.260289
81	0x3eb50ff2	0.35363728
82	0xbf40f1dd	-0.75369054
83	0x3f1c07d6	0.60949457
84	0xbef1469e	-0.4712419
85	0x3dc63fb6	0.09680121
86	0x3da9e739	0.08296055
87	0x3e6695cd	0.22518082
88	0xbe27abf5	-0.1637419
89	0x3da9a7d6	0.08283965
90	0x3d88d2d5	0.06680838
91	0xbda57b22	-0.08080126
92	0x3ec720af	0.38892123
93	0x3d31cc3f	0.043407675
94	0x3d26b0ad	0.040695835
95	0xbdbfcfa9	-0.0936578
96	0xbd09e661	-0.033666972
97	0xbb9b7777	-0.004744466
98	0xbfbf17e7	-1.492917
99	0xbf8cbc55	-1.0994974
100	0xbc7bae1f	-0.015361338
101	0x3b2ab3f3	0.00260472
102	0xbf9cd011	-1.2250997
103	0x3fe554b3	1.7916473
104	0x3f7d2ec0	0.9889946
105	0x3d1c576d	0.038169313
106	0xbe3c52b5	-0.18390925
107	0x3e23852d	0.15968771
108	0x3dc7dab6	0.09758513
109	0xbe33d824	-0.1756292
110	0x3d757e98	0.059935182
111	0xbe19b20a	-0.15009323
112	0x3c885dd5	0.016646305
113	0x3e86ea96	0.2635085
114	0x3e2f0aae	0.17093918
115	0xbf045f50	-0.51707935
116	0xbe2ade46	-0.16686353
117	0xbe15269d	-0.14565511
118	0x3e0d0a16	0.13773379
119	0x3e6dcf7d	0.23223682
120	0xbdcaf9f5	-0.09910957
121	0xbf0c8ed7	-0.54905456
122	0x3f04b277	0.51834816
123	0xbea89bf4	-0.32931483
124	0xbe244fb2	-0.16046026
125	0xbece1682	-0.40251547
126	0x3b5be785	0.0033554744
127	0xbe351a4f	-0.17685817
128	0xbd14a007	-0.036285426
129	0x3c378205	0.011200433
130	0x3f27e558	0.65584326
131	0xbf232e2e	-0.6374234
132	0x3f23d300	0.63993835
133	0x3e998181	0.29981616
134	0xbe3a2b94	-0.18180686
135	0xbef489fd	-0.47761527
136	0xbe37f633	-0.17965011
137	0xbcdcd212	-0.026955638
138	0x3d6fac1c	0.058513746
139	0xbe097709	-0.13424315
140	0x3c4c31f2	0.01246308
141	0x3ea4c600	0.32182312
142	0xbf451442	-0.76984036
143	0x3d35d81a	0.044395544
144	0x3da5022c	0.08057055
145	0xbf889ec9	-1.0673457
146	0x3f090651	0.53525263
147	0xbf6e1cfb	-0.9301297
148	0x3db4f41f	0.08835625
149	0xbd91e78f	-0.071242444
150	0x3e3c1c45	0.18370159
151	0xbc92a2d4	-0.017899908
152	0xbca005f0	-0.019534081
153	0xbdf6b375	-0.120459475
154	0x3daf927f	0.08572864
155	0xbe3f2a96	-0.18668589
156	0xbe995c42	-0.299532
157	0xbeb75bc7	-0.35812208
158	0x3ccc2b06	0.024922859
159	0xbdd318d0	-0.10307467
160	0xbe94b2f2	-0.29042774
161	0x3dabc7bf	0.08387708
162	0xbe69cffc	-0.22833246
163	0xbd0210a8	-0.031754166
164	0xbf283537	-0.657062
165	0x3f1faae6	0.62370145
166	0xbf93f1cf	-1.1558169
167	0xbe82895e	-0.25495428
168	0x3e8a552d	0.2701811
169	0x3f3d79ae	0.74013793
170	0xbf433549	-0.7625318
171	0x3d1c057a	0.03809116
172	0xbe153f34	-0.14574891
173	0x3e9c356a	0.30509502
174	0xbe9ef746	-0.3104803
175	0x3e4a1f4b	0.197385
176	0xbf500562	-0.81258214
177	0x3e095f1e	0.1341519
178	0x3f05a752	0.52208436
179	0xbdb287ae	-0.08717285
180	0xbd3c083a	-0.045906283
181	0x3e0ff048	0.14056504
182	0xbdd4df66	-0.10394172
183	0xbe2f40ab	-0.17114513
184	0x3ed7fc37	0.42184612
185	0xbee9337e	-0.45547098
186	0x3efe8b54	0.49715674
187	0x3f003d56	0.5009359
188	0xbf1eeb5a	-0.6207787
189	0xbe6ae191	-0.2293761
190	0xbf1b2dff	-0.6061706
191	0xbdabb1c6	-0.08383517
192	0x3e311e53	0.17296724
193	0xbe32da30	-0.17466044
194	0x3d0d1649	0.03444508
195	0x3e211557	0.15730797
196	0xbc872108	-0.016495243
197	0x3da52c43	0.08065083
198	0x3e0edda6	0.1395174
199	0xbf475cc0	-0.778759
200	0x3fccd0bd	1.6001202
201	0xbf967738	-1.1755133
202	0xbd251bd0	-0.040309727
203	0x3f5adffc	0.85498023
204	0xbe3837bc	-0.17990011
205	0xbf90a900	-1.1301575
206	0x3ddaf054	0.1069037
207	0xbf8c85ca	-1.0978329
208	0x3f5da180	0.86574554
209	0x3e833aa3	0.25630674
210	0xbf881c54	-1.0633645
211	0xbf08f757	-0.5350241
212	0x3f3557d2	0.7083713
213	0x3e3783ca	0.17921367
214	0x3df00d09	0.11721236
215	0xbd01593a	-0.031579234
216	0x3f329e8a	0.6977316
217	0xbef7d37b	-0.48403534
218	0x3e87cf0a	0.26525146
219	0xbe316346	-0.17323026
220	0x3e04a312	0.12952831
221	0x3e293aa5	0.16526277
222	0x3cb6f0e6	0.022331666
223	0x3d14f2c0	0.036364317
224	0xbe21a78f	-0.15786575
225	0x3d4bf386	0.04979279
226	0xbd38644d	-0.04501753
227	0xbf347807	-0.7049565
228	0xbf449547	-0.7679028
229	0x3ef2f276	0.47450608
230	0xbf031b16	-0.51213205
231	0xbf954abe	-1.1663435
232	0xbf09d0ff	-0.5383453
233	0xbf8493c4	-1.0357594
234	0x3d81b958	0.0633418
235	0x3da6c859	0.08143682
236	0x3df4403a	0.11926313
237	0x3dcf846c	0.10132679
238	0xbe027fa9	-0.12744011
239	0xbda34b77	-0.07973378
240	0xbe028256	-0.12745032
241	0xbdf1912e	-0.11795269
242	0xbe8716e5	-0.26384655
243	0x3e9f97b1	0.3117042
244	0x3eb8a9f9	0.3606718
245	0x3e0aa927	0.13541089
246	0x3e6bf573	0.2304285
247	0x3c5cac0c	0.013468754
248	0xbe7f0f70	-0.24908233
249	0x3dc4fdc3	0.09618714
250	0xbf15f81a	-0.585817
251	0x3cf4757f	0.029841183
252	0x3f535216	0.8254713
253	0xbd83dc74	-0.064385325
254	0x3cd0fc51	0.025510939
255	0xbe2343bf	-0.15943812

network.0.bias f4 [128]
0	0xc05aa57e	-3.4163508
1	0xc06aeb78	-3.6706219
2	0xbfb49d13	-1.4110435
3	0xc0703cd5	-3.753713
4	0xc0551346	-3.3293014
5	0xbfd0fdf5	-1.6327502
6	0xc0371986	-2.8609328
7	0xc01f5f11	-2.4901774
8	0xbff84783	-1.9396824
9	0xbff0f60c	-1.8825088
10	0xc048ada3	-3.135598
11	0xbf11e9c4	-0.56997323
12	0xc032f44f	-2.7961614
13	0xc003d3a5	-2.0597928
14	0xc03f5cc2	-2.9900365
15	0xc0510ce2	-3.2664113
16	0xc014e8c6	-2.3267074
17	0xc0623b78	-3.5348797
18	0xbf200910	-0.6251383
19	0xc0274e7a	-2.6141648
20	0xc0712ab5	-3.7682316
21	0xc027db1d	-2.6227486
22	0xbee2077d	-0.44146338
23	0xc07b0b92	-3.9225812
24	0xc0448b78	-3.0710125
25	0xbfef5396	-1.8697383
26	0xbfd7ad01	-1.6849672
27	0xc007739e	-2.1164317
28	0xc04299ea	-3.0406442
29	0xbfcc731d	-1.597263
30	0xc02dc58a	-2.7151818
31	0xc053d9e9	-3.3101752
32	0xbfd1e689	-1.6398479
33	0xc0141df0	-2.3143272
34	0xc040dfa7	-3.0136507
35	0xbea922f1	-0.3303447
36	0xc06ad06b	-3.6689708
37	0xc05957ea	-3.3959908
38	0xc02bf440	-2.6867828
39	0xbf8d4b5f	-1.1038626
40	0xc01d776e	-2.4604144
41	0xbf19329c	-0.5984285
42	0xc054fa48	-3.327776
43	0xbff5006e	-1.9140756
44	0xc087feda	-4.24986
45	0xbfd828d4	-1.688746
46	0xc0100791	-2.2504618
47	0xc03b6b89	-2.9284384
48	0xbfe59842	-1.793709
49	0xc03c5b1b	-2.9430606
50	0xc074fa9a	-3.8277955
51	0xbfec2fd3	-1.8452095
52	0xc0213706	-2.5189834
53	0xc001762f	-2.0228384
54	0xbf8c50ad	-1.096212
55	0xc06dc4ba	-3.7151322
56	0xbf7dd5b7	-0.9915423
57	0xc02ab6ea	-2.6674142
58	0xc04517b5	-3.079572
59	0xbfc5c3b1	-1.5450345
60	0xc06a7407	-3.6633317
61	0xc0357f20	-2.835884
62	0xc010262f	-2.2523305
63	0xc04395b4	-3.0560122
64	0xc01c22d1	-2.439625
65	0xbfc624d1	-1.5479985
66	0xc05542b7	-3.332197
67	0xbf9c0e93	-1.2191948
68	0xc00e01a4	-2.2188501
69	0xbffc4c68	-1.9710817
70	0xc065573d	-3.5834496
71	0xbf0d30b3	-0.55152434
72	0xbf9ceb6b	-1.2259344
73	0xbfe9dab5	-1.8269869
74	0xc023a7fe	-2.5571284
75	0xbfbe1d60	-1.4852715
76	0xbf57da5a	-0.84317553
77	0xc0264457	-2.5979211
78	0xc068e6d2	-3.6390882
79	0xbf8b21f3	-1.0869735
80	0xc0315dfb	-2.771361
81	0xc01b8682	-2.4300847
82	0xc0128ccd	-2.2898438
83	0x3d063cd1	0.032772843
84	0xc032bf96	-2.7929435
85	0xc0565efd	-3.3495476
86	0xbf81d384	-1.0142674
87	0xbfd94ff4	-1.6977525
88	0xc00be02b	-2.1855571
89	0xc015a750	-2.338337
90	0xc00f5d4b	-2.2400692
91	0xc058eaed	-3.3893387
92	0xbefc10eb	-0.49231657
93	0xbf97846e	-1.1837289
94	0xbfb80ae6	-1.4378326
95	0xc031513d	-2.7705834
96	0xbfd2206a	-1.6416142
97	0xbfdb8c63	-1.7152218
98	0xc04dd74c	-3.2162657
99	0xbfa8d4cd	-1.3189942
100	0xc07b15ca	-3.923205
101	0xbf161e3b	-0.5863988
102	0xc04f2d30	-3.237133
103	0xc0159818	-2.337408
104	0xc05bd1d1	-3.4346812
105	0xc0589abf	-3.384445
106	0xbfe6c961	-1.8030206
107	0xbfc50323	-1.5391582
108	0xbf90db61	-1.1316949
109	0xc00fe965	-2.2486203
110	0xbf8af035	-1.0854555
111	0xbfd02053	-1.6259865
112	0xc0408d67	-3.0086305
113	0xc0406145	-3.0059369
114	0xc05bd228	-3.434702
115	0xc03a8f80	-2.9150085
116	0xc078145f	-3.8762434
117	0xc0823337	-4.068752
118	0xbf3c8b1b	-0.7364976
119	0xbfa9f97f	-1.3279265
120	0xc018ec6c	-2.38943
121	0xbfddce7c	-1.7328639
122	0xc0390a4b	-2.8912532
123	0xc011b67f	-2.2767637
124	0xc0610e95	-3.516515
125	0xc04defeb	-3.2177684
126	0xbfc9607b	-1.5732569
127	0xbfc82691	-1.563677

network.3.weight f4 [64, 128]
0	0xbd790fbb	-0.060806017
1	0xbd83e353	-0.06439843
2	0xbdaea042	-0.085266605
3	0xbf19155f	-0.59798235
4	0xbd761aaa	-0.060084023
5	0x3de584d9	0.11206979
6	0xbe7c6a79	-0.24649991
7	0xbe2a1397	-0.16609035
8	0xbea2d0e6	-0.31800002
9	0x3e164631	0.14675213
10	0xbe09dae9	-0.13462414
11	0xbe8a30ce	-0.2699036
12	0xbe0cb9aa	-0.137427
13	0xbe20c699	-0.15700759
14	0xbe66ca70	-0.22538161
15	0xbf2373bc	-0.6384847
16	0xbd98082e	-0.07423435
17	0xbe9cb8d0	-0.3060975
18	0xbe644764	-0.22292858
19	0xbe3bfea5	-0.18358858
20	0xbf032698	-0.51230764
21	0xbf13657b	-0.5757672
22	0xbf25a7ea	-0.6470934
23	0xbeab9174	-0.3350941
24	0xbd2c05dc	-0.041997775
25	0x3e824640	0.25444221
26	0x3cca04d5	0.024660507
27	0xbf1380f3	-0.57618636
28	0xbf98ffb8	-1.1953039
29	0xbf29df23	-0.66356105
30	0x3d58f369	0.05296651
31	0xbee8d4f2	-0.45474964
32	0x3b241700	0.0025038123
33	0xbed24848	-0.4107077
34	0xbe248abe	-0.16068551
35	0xbf21a06f	-0.6313543
36	0xbefc412a	-0.49268466
37	0xbe9872ac	-0.29774988
38	0xbe7ca04c	-0.24670523
39	0xbe725800	-0.23666382
40	0xbec8d1c6	-0.39222544
41	0xbeb4675b	-0.35235104
42	0xbdec3c7e	-0.115349755
43	0xbf5e2552	-0.86775696
44	0xbed06523	-0.4070216
45	0xbf4b70de	-0.79469097
46	0xbeb7339a	-0.35781556
47	0x3e21b386	0.15791139
48	0xbeccbfe7	-0.3999016
49	0xbea179f7	-0.31538364
50	0xbed45a18	-0.41474986
51	0xbf1b2b68	-0.6061311
52	0xbe3d169a	-0.18465653
53	0x3dccb91a	0.09996243
54	0xbf2bddcc	-0.6713531
55	0xbaec8b9a	-0.0018046976
56	0xbeacb43e	-0.33731264
57	0xbebfe910	-0.374825
58	0xbe58d49c	-0.21174854
59	0xbecd52f1	-0.40102342
60	0xbe02ba49	-0.12766375
61	0xbe3f3151	-0.18671156
62	0xbef8b16d	-0.48572865
63	0xbe17dc00	-0.14830017
64	0xbea2416b	-0.31690535
65	0xbe43c4ad	-0.19117995
66	0xbdcd3bc3	-0.10021164
67	0xbd620e53	-0.055189442
68	0xbeb855c7	-0.36002943
69	0xbdf0b5b5	-0.11753408
70	0x3e56e053	0.2098401
71	0xbf12dcbc	-0.57368064
72	0xbe9637de	-0.29339498
73	0xbe53ef36	-0.2069672
74	0xbebff4c6	-0.37491435
75	0xbe4b5202	-0.19855502
76	0xbe8691dd	-0.2628316
77	0xbedd4ab7	-0.43221065
78	0xbe553eee	-0.20824787
79	0xbefbb765	-0.49163356
80	0xbe246a63	-0.16056208
81	0xbe383028	-0.1798712
82	0xbec95e6e	-0.39329857
83	0xbe5cba1c	-0.2155537
84	0xbebac3d3	-0.36477527
85	0xbe675690	-0.22591615
86	0xbe979b61	-0.29610732
87	0xbdf46efd	-0.11935232
88	0xbf112862	-0.56702244
89	0xbc5dea43	-0.013544622
90	0xbe833070	-0.25622892
91	0xbe4eb90f	-0.20187782
92	0xbebbee7f	-0.36705396
93	0xbeafdb67	-0.34347078
94	0xbf01ef3a	-0.50755656
95	0xbe880a76	-0.2657048
96	0xbead03ae	-0.3379187
97	0x3d458729	0.048224602
98	0xbf0edc48	-0.5580487
99	0xbe8d6d5e	-0.27622503
100	0x3cfa54c2	0.030557994
101	0x3ce83cd6	0.028349321
102	0xbe20abdc	-0.15690559
103	0x3e18f46a	0.14936987
104	0xbd6235f3	-0.05522723
105	0xbd6014df	-0.054707404
106	0xbf0145a4	-0.5049689
107	0xbe142078	-0.14465511
108	0xbf8173b3	-1.0113434
109	0xbd1e2c94	-0.03861673
110	0xbf104932	-0.5636169
111	0xbed584ef	-0.41702983
112	0xbd805c7a	-0.062676385
113	0xbcb2e6ca	-0.021838564
114	0x3c8afbae	0.016965713
115	0xbdec141c	-0.11527273
116	0xbe9b534f	-0.30336997
117	0xbe1cc113	-0.15308027
118	0x3ebc6b1b	0.36800465
119	0xbeb12873	-0.34601173
120	0xbdc196c9	-0.09452588
121	0xbe45dcd4	-0.1932252
122	0xbea4021b	-0.32032856
123	0xbed9cec1	-0.42540553
124	0x3d3c6238	0.045992106
125	0xbc1f6f94	-0.009731192
126	0xbdf7815f	-0.120852225
127	0xbe9ea98c	-0.3098873
128	0xbda5459f	-0.0806992
129	0xbef2e5c9	-0.47440937
130	0xbea54ef9	-0.32286814
131	0xbe9994b3	-0.2999626
132	0xbead77d8	-0.33880496
133	0xbdd8d896	-0.105881855
134	0xbeb474a8	-0.35245252
135	0xbdcbb9ba	-0.09947534
136	0xbe9cb0c1	-0.30603603
137	0xbef8ade2	-0.48570162
138	0xbe559fbf	-0.2086172
139	0xbe53d392	-0.20686176
140	0xbef34b10	-0.47518206
141	0xbe9ac92d	-0.3023161
142	0xbf76e27d	-0.96439344
143	0xbf9d4d21	-1.2289163
144	0xbdb8b5d2	-0.090190545
145	0xbe8ea964	-0.2786361
146	0xbf1901bc	-0.5976827
147	0x3ea29fb1	0.3176246
148	0xbcd861f6	-0.026413899
149	0xbed75463	-0.4205657
150	0xbedc4a0f	-0.43025252
151	0xbeca8bf9	-0.39559916
152	0xbe93c07a	-0.28857785
153	0xbe84792a	-0.2587369
154	0xbd70f690	-0.05882889
155	0x3cee81f3	0.029114699
156	0x3e901a22	0.28144938
157	0xbf3ad3f5	-0.7297967
158	0xbbd35c2d	-0.006450197
159	0xbf92abb7	-1.1458653
160	0xbf8b34a5	-1.0875441
161	0xbe874265	-0.26417843
162	0xbdb5bdbf	-0.08874082
163	0xbe41f7a1	-0.18942119
164	0xbe2976d8	-0.16549242
165	0xbe9bcdd5	-0.30430475
166	0xbef663fb	-0.48123154
167	0xbf40f6b4	-0.7537644
168	0xbe847ba0	-0.25875568
169	0xbfc10ae1	-1.5081445
170	0xbd12b705	-0.035819072
171	0xbed4e11c	-0.41577995
172	0xbc91d523	-0.017801827
173	0xbf371595	-0.71517307
174	0xbfbe1607	-1.4850472
175	0xbeaaba73	-0.33345374
176	0xbf32f98b	-0.6991202
177	0xbd234d73	-0.039868783
178	0xbf6fabc6	-0.9362148
179	0xbd498d4d	-0.04920702
180	0xbee78d06	-0.4522478
181	0xbe705687	-0.23470508
182	0xbff0e9e1	-1.8821374
183	0x3ea96b69	0.3308976
184	0xbf2ad961	-0.66737944
185	0xbe0e16bf	-0.13875864
186	0xbec5eb98	-0.38656306
187	0xbf77e64c	-0.9683578
188	0xbe9a5d53	-0.30149326
189	0xbe1d8857	-0.15384041
190	0xbe3f25a9	-0.1866671
191	0xbf15eb73	-0.5856239
192	0xbf1f432d	-0.6221188
193	0xbf23a30b	-0.6392066
194	0x3dee5a01	0.11638261
195	0xbdf36e69	-0.118862934
196	0xbebfb1ad	-0.37440243
197	0xbe45d6a0	-0.19320154
198	0x3cd39e8a	0.025832433
199	0xbebf5296	-0.37367696
200	0xbdf256b9	-0.11832947
201	0xbedc10bf	-0.42981526
202	0xbed606d7	-0.41802093
203	0xbe1216c2	-0.14266494
204	0xbdcad0c5	-0.09903101
205	0xbea0e64c	-0.31425703
206	0xbee7cb3d	-0.45272246
207	0xbef43b24	-0.4770137
208	0x3cc16f23	0.023612564
209	0xbddf14b7	-0.10892623
210	0xbeedbfe8	-0.46435475
211	0xbf119473	-0.5686714
212	0xbf343af5	-0.7040246
213	0xbf8d323b	-1.1030954
214	0xbf2aa019	-0.6665054
215	0xbf35ce51	-0.7101794
216	0xbe86df55	-0.26342264
217	0xbe52279c	-0.20522922
218	0xbe76b79d	-0.2409348
219	0xbf0aa21b	-0.54153603
220	0xbf13dfdd	-0.57763463
221	0xbea76504	-0.32694256
222	0xbf6ec4ca	-0.93269026
223	0xbf0868f7	-0.53285164
224	0xbec7d539	-0.39029863
225	0xbee48575	-0.4463307
226	0xbf1a813f	-0.60353464
227	0xbf0f7bf6	-0.56048524
228	0xbf59429c	-0.8486726
229	0xbd4ab93e	-0.049493067
230	0xbf17158f	-0.5901727
231	0x3e60b8b7	0.21945463
232	0x3cba7e17	0.022765202
233	0xbe01b08c	-0.12665004
234	0xbf1be1bd	-0.60891324
235	0xbeecd67e	-0.46257395
236	0xbdf1d27f	-0.11807727
237	0xbd1efed0	-0.038817227
238	0xbeb7c980	-0.3589592
239	0xbdeffe35	-0.11718408
240	0xbf61dff1	-0.8823233
241	0xbde3b0aa	-0.1111768
242	0xbedffc3c	-0.43747127
243	0xbee1df86	-0.44115847
244	0xbeb7de60	-0.35911846
245	0xbe9aac59	-0.30209616
246	0x3dd700d7	0.10498207
247	0xbe763b42	-0.24046043
248	0xbea57453	-0.3231531
249	0xbe1927e1	-0.14956619
250	0xbe92e302	-0.28688818
251	0xbf8733a2	-1.0562632
252	0xbf317a0f	-0.6932687
253	0x3eabf966	0.33588713
254	0xbf628e67	-0.8849854
255	0xbfab166e	-1.336622

network.3.bias f4 [64]
0	0xbfd8e39d	-1.6944462
1	0xbf913e26	-1.1347091
2	0xbf56a49d	-0.8384493
3	0x3dad27a9	0.0845483
4	0xbf920f89	-1.1410991
5	0xbf795d2a	-0.9740778
6	0xbfa3921c	-1.2778964
7	0xbf8cc665	-1.0998045
8	0xbf457126	-0.77125776
9	0xbf8457c2	-1.0339282
10	0xbf75f645	-0.960789
11	0xbfd4f13e	-1.6636121
12	0xbf9ec063	-1.2402462
13	0xbfced24a	-1.6157925
14	0xbf647cc1	-0.8925286
15	0xbf50570e	-0.81382835
16	0xbf83b4a5	-1.0289503
17	0xc007f533	-2.1243408
18	0xbf48edb5	-0.7848771
19	0x3f4a51a6	0.79030836
20	0xbfab76be	-1.3395612
21	0xbfc5a60a	-1.5441296
22	0xbf75c370	-0.9600134
23	0xbf5b8fa1	-0.85766035
24	0xbf435784	-0.76305413
25	0x3ec09be7	0.37618944
26	0xbfe7ed76	-1.8119342
27	0xbf9883a2	-1.1915171
28	0xbf9c0c63	-1.219128
29	0xbf8de319	-1.108493
30	0xbf6b0ed2	-0.9181949
31	0xbf8f569f	-1.119831
32	0x3f9f6917	1.2453946
33	0xbf96609e	-1.1748235
34	0xbff6a3a1	-1.9268686
35	0xbf9d165f	-1.2272452
36	0xbf2fffd0	-0.68749714
37	0xbf6eca35	-0.93277293
38	0x3f54d15e	0.8313197
39	0xbf8f5b03	-1.119965
40	0xbf3537c2	-0.70788205
41	0xbf4efb20	-0.80851936
42	0xbf6f0ddf	-0.9338054
43	0xbf802d8d	-1.0013901
44	0xbf9269ff	-1.1438597
45	0xbf90b8ce	-1.1306398
46	0xbf9b46e7	-1.2131013
47	0x3efc1344	0.49233449
48	0xbf14ed48	-0.5817456
49	0xbf8b304f	-1.0874118
50	0xbf491576	-0.7854837
51	0xbf8310d3	-1.0239509
52	0xbf98b136	-1.192908
53	0x401283fd	2.289306
54	0xbf94e2b6	-1.1631687
55	0xbf9d10ea	-1.2270787
56	0x3e57fd2b	0.2109267
57	0xbf14bf11	-0.58104044
58	0xbf885d70	-1.0653515
59	0xbf8befb6	-1.0932529
60	0xbfa57343	-1.29258
61	0xbfb155b2	-1.3854277
62	0x3fed9fe6	1.8564422
63	0x3f9e641a	1.2374299

network.6.weight f4 [5, 64]
0	0xbcc8c000	-0.024505615
1	0x3d36e7ab	0.04465453
2	0x3e8336e5	0.2562782
3	0x3ca971c5	0.020684132
4	0xbdacad4a	-0.0843149
5	0xbe0b6b60	-0.13615179
6	0x3ce3cbb5	0.027807096
7	0xbd232f15	-0.039839823
8	0xbe17cbfc	-0.14823908
9	0xbce7211a	-0.028214026
10	0xbc292273	-0.010323155
11	0x3be97f01	0.0071257357
12	0x3cbd9c90	0.023145944
13	0xbdd9ba0d	-0.106311895
14	0xbd43aacb	-0.047770303
15	0xbe2c832c	-0.16846913
16	0x3e682f13	0.22674207
17	0xbe804a0c	-0.25056493
18	0x3da852d2	0.08218922
19	0xbda8dbd6	-0.082450554
20	0xbc6dfdcc	-0.014525842
21	0xbe41a373	-0.18910007
22	0x3e86babe	0.26314348
23	0x3d2ba515	0.04190548
24	0x3d137bfb	0.03600691
25	0x3d826b4a	0.0636812
26	0x3e2d8864	0.1694656
27	0x3db93cf7	0.09044831
28	0xbe391c6a	-0.18077245
29	0xbe682008	-0.22668469
30	0x3e16ecc2	0.14738753
31	0xbdfb1d8b	-0.12261494
32	0xbd4aedb5	-0.0495431
33	0xbc424266	-0.011856651
34	0xbdd740b7	-0.1051039
35	0x3e31c602	0.1736069
36	0xbddecac9	-0.10878522
37	0x3e907a14	0.28218138
38	0xbdc02dc1	-0.09383727
39	0xbe39d7dd	-0.18148752
40	0x3dacdfbb	0.08441111
41	0xbdfb3a04	-0.12266925
42	0xbb25e07b	-0.0025310803
43	0xbcb32b95	-0.021871367
44	0xbd67f7cf	-0.056632813
45	0x3dea1ab3	0.11430874
46	0x3e518063	0.20459132
47	0xbc29c312	-0.01036145
48	0x3e1217de	0.14266917
49	0xbe556ef9	-0.20843114
50	0xbd3adc1a	-0.04562006
51	0xbdd8912b	-0.105745636
52	0xbe4199c4	-0.18906313
53	0xbd449c6b	-0.048000734
54	0x3e84af6b	0.25915083
55	0x3d0134a3	0.03154434
56	0x3e2e737e	0.17036244
57	0xbb8064ff	-0.0039182897
58	0xbde3645a	-0.11103125
59	0xbda99f24	-0.08282307
60	0x3c8066c0	0.015673995
61	0x3ddec488	0.10877329
62	0xbd93f8ce	-0.0722519
63	0xbd7aaa2d	-0.06119745
64	0xbd42c472	-0.047550626
65	0x3e6dc171	0.23218323
66	0x3e532fe2	0.20623735
67	0x3d807b07	0.062734656
68	0xbee69e63	-0.45042714
69	0x3e1577bc	0.14596456
70	0xbe05b57d	-0.13057514
71	0x3dbdb427	0.09262877
72	0x3d34f50c	0.044179007
73	0x3d810d1b	0.06301328
74	0xbe8468a8	-0.25861096
75	0xbe611559	-0.219808
76	0x3e4cebef	0.20011877
77	0x3e14774f	0.14498638
78	0xbe0537d6	-0.13009581
79	0xbdf25ebe	-0.11834477
80	0xbd862c76	-0.06551449
81	0x3ef7329b	0.48280796
82	0xbec1e72f	-0.37871692
83	0x3bdbdfb1	0.0067100157
84	0x3e594a00	0.21219635
85	0xbdef9693	-0.11698642
86	0xbe9f8c8f	-0.31161925
87	0x3e560d4c	0.2090351
88	0xbde18e65	-0.11013488
89	0xbe97c23b	-0.29640374
90	0xbf148405	-0.58013946
91	0xbdda55ca	-0.10660894
92	0xbe311349	-0.17292513
93	0x3e088500	0.13331985
94	0xbe4b6eb1	-0.19866444
95	0xbd77b91d	-0.060479272
96	0xbeec29b9	-0.46125582
97	0x3ebd8905	0.370186
98	0x3bc09a00	0.005877733
99	0x3e2be7f8	0.16787708
100	0xbe34dfb8	-0.17663467
101	0x3e6da4f5	0.23207457
102	0x3d796501	0.06088734
103	0xbe11b4a3	-0.14229064
104	0xbdd157ec	-0.10221848
105	0xbe7eb064	-0.24871975
106	0x3e277460	0.16352987
107	0xbe9e938c	-0.30971944
108	0xbd12b5c6	-0.035817884
109	0x3d1b021b	0.037843805
110	0x3ea637ff	0.32464597
111	0x3cb6c4b0	0.022310585
112	0x3c35e599	0.011102104
113	0xbe5c611b	-0.21521418
114	0xbe81030f	-0.25197646
115	0x3dcdd29d	0.10049937
116	0x3ed4f02a	0.4158948
117	0xbe75a013	-0.23986845
118	0xbe92a887	-0.286442
119	0xbeee972d	-0.46599713
120	0xbf47c938	-0.7804141
121	0x3e5596bb	0.2085828
122	0x3e32f5a7	0.17476521
123	0xbd8604c7	-0.0654388
124	0x3e76d031	0.24102856
125	0xbe024e26	-0.12725124
126	0xbe27fd95	-0.16405328
127	0xbec5d75d	-0.38640872
128	0x3d87d5d6	0.06632583
129	0xbe151e0e	-0.14562246
130	0xbea94d09	-0.33066586
131	0xbc2f71e9	-0.010708311
132	0x3c941740	0.018077493
133	0xbe41a412	-0.18910244
134	0x3e7bd304	0.24592215
135	0x3e5a3adf	0.2131152
136	0x3e014c56	0.12626776
137	0xbf14dbbb	-0.5814778
138	0xbe4b9ee5	-0.19884832
139	0x3eae1413	0.3399969
140	0xbdb0555d	-0.08610032
141	0x3e1efa2e	0.15525123
142	0xbe6279a8	-0.2211672
143	0xbe63d707	-0.22249995
144	0xbc1fb38d	-0.009747398
145	0xbe12db21	-0.14341404
146	0xbd1d9923	-0.03847612
147	0x3ed6b59e	0.41935438
148	0x3e14844f	0.14503597
149	0xbdd8d374	-0.105872065
150	0x3d9b61c6	0.07587008
151	0xbd2d5029	-0.042312775
152	0x3e5b4f1e	0.214169
153	0xbe66c56b	-0.22536246
154	0x3e16f4eb	0.14741866
155	0x3d9eecf2	0.077600375
156	0x3cb5f417	0.022211118
157	0xbe4d3f38	-0.20043647
158	0x3e7f93df	0.24958752
159	0xbd898f30	-0.06716764
160	0x3dc40c11	0.09572614
161	0xbc8fa4ea	-0.017534692
162	0xbc5b3f08	-0.013381727
163	0x3da822d8	0.08209771
164	0xbe86034a	-0.26174384
165	0xbe08d14e	-0.13361093
166	0x3e59a426	0.21254024
167	0xbe25b623	-0.16182761
168	0xbe52f363	-0.20600657
169	0x3e4548c5	0.1926604
170	0x3e6fbc5e	0.234117
171	0xbebd8332	-0.37014157
172	0x3e86ab79	0.26302698
173	0xbea54c79	-0.32284907
174	0xbd7f65cd	-0.062352944
175	0xbe9bb671	-0.3041263
176	0xbd020f1b	-0.031752687
177	0xbc855351	-0.01627508
178	0xbe4ea3c3	-0.20179658
179	0x3e9d0b59	0.3067272
180	0xbe841041	-0.2579365
181	0x3e3313af	0.17487977
182	0xbe0cfe5d	-0.13768907
183	0xbe8d7d24	-0.27634537
184	0x3e867af7	0.2626569
185	0xbe7b3d11	-0.24535014
186	0xbeaf99e3	-0.34297094
187	0x3ea0b034	0.31384432
188	0xbda5fd89	-0.081049986
189	0x3ef0eba3	0.47054777
190	0xbf094361	-0.5361844
191	0x3dfef21a	0.12448521
192	0xbe6c7748	-0.23092377
193	0x3e172eca	0.14763942
194	0xbd53781b	-0.051628213
195	0xbddef91f	-0.1088736
196	0x3c91a1e0	0.017777383
197	0x3d534656	0.05158075
198	0x3e6485a5	0.22316606
199	0xbec8ab64	-0.3919326
200	0xbe3c87f3	-0.18411236
201	0xbeed70f8	-0.4637525
202	0x3dbffc07	0.09374242
203	0xbde243db	-0.11048099
204	0x3db3ca60	0.08778834
205	0x3d155c3b	0.03646491
206	0x3dbe3941	0.09288264
207	0x3e048605	0.1294175
208	0xbe35d764	-0.17757946
209	0x3debd448	0.11515099
210	0x3e02fa97	0.12790905
211	0x3ee0cda6	0.43906897
212	0x3dcc3038	0.099701345
213	0x3df0d1b2	0.11758746
214	0xbd37f9c6	-0.044915937
215	0x3d78d6ff	0.06075191
216	0xbd694a76	-0.056955777
217	0x3d1df496	0.038563333
218	0xbe2aaf04	-0.16668326
219	0xbccc684b	-0.024952075
220	0xbddb1480	-0.106972694
221	0xbd32608b	-0.0435491
222	0x3d5dd4a0	0.054157853
223	0xbd02f0ca	-0.031967916
224	0x3cdd8400	0.027040482
225	0x3e639cb6	0.22227749
226	0x3df993b8	0.12186378
227	0xbe22e421	-0.15907337
228	0xbea9b93c	-0.33149135
229	0xbe2c860e	-0.16848013
230	0x3eb69c6e	0.3566622
231	0xbde6ecaf	-0.112756126
232	0x3db5f4f6	0.08884613
233	0x3ddacd31	0.106836684
234	0xbdf8fe4a	-0.12157877
235	0x3eaa4548	0.33255982
236	0xbd0cf2de	-0.034411304
237	0x3df9ab18	0.12190837
238	0xbd960dd2	-0.07326855
239	0x3d99e0ac	0.07513556
240	0x3deccf0f	0.11562931
241	0x3d00f55d	0.031483997
242	0x3d2549e8	0.040353686
243	0xbe4101b7	-0.1884831
244	0x3e1d4834	0.15359575
245	0x3e4b28ce	0.19839785
246	0x3ddd915e	0.10818742
247	0x3eb74c0d	0.3580021
248	0x3e782725	0.24233682
249	0x3cd061e5	0.025437305
250	0x3d9f5b71	0.07781113
251	0x3d6207c0	0.055183172
252	0xbdcd6224	-0.100284845
253	0xbe4d1dc3	-0.20030884
254	0xba31d548	-0.00067837955
255	0x3e0e3cd2	0.13890389

network.6.bias f4 [5]
0	0xbd3b8752	-0.04578335
1	0xbe1640e0	-0.14673185
2	0x3c9f8651	0.019473227
3	0x3e908582	0.28226858
4	0x3d03d9fe	0.032190315

network.0.weight f4 [128, 43]
0	0xbba516b0	-0.005038105
1	0xbdd5b9ee	-0.10435854
2	0xbdbc70a0	-0.09201169
3	0xbd8cadca	-0.06869085
4	0xbd50d548	-0.05098465
5	0xbe23f0cc	-0.16009825
6	0xbe2c9de7	-0.1685711
7	0x3e0cba4a	0.13742939
8	0x3e281da5	0.16417558
9	0xbe260874	-0.16214162
10	0xbc90cf01	-0.017676832
11	0xbdecae38	-0.11556667
12	0xbe541c0e	-0.20713827
13	0x3d68b90b	0.056817096
14	0xbe86f554	-0.26359046
15	0x3c0af33f	0.008480846
16	0xbe7f25fc	-0.24916834
17	0x3e232d26	0.15935192
18	0x3b8e7e4c	0.004348552
19	0xbda3ad03	-0.07991984
20	0xbe0c73f5	-0.13716109
21	0xbdb3bed6	-0.087766334
22	0x3e04f83c	0.12985319
23	0xbaa768af	-0.0012772287
24	0xbdbb1633	-0.091350935
25	0x3e2b9e1f	0.16759537
26	0xbd3c7f56	-0.046019875
27	0x3daeb9d7	0.0853154
28	0xbd32313c	-0.043503985
29	0x3b503d14	0.0031774687
30	0x3d8bc035	0.0682377
31	0x3da03da9	0.07824261
32	0xbe3ac577	-0.1823939
33	0x3eaaa24c	0.33326948
34	0x3e23ad9c	0.15984195
35	0x3dd62d74	0.10457888
36	0x3e75c56a	0.24001089
37	0x3e301766	0.17196426
38	0xbe7183f0	-0.23585486
39	0xbec778ab	-0.3895925
40	0x3e1ce1a6	0.15320453
41	0xbe683da9	-0.22679771
42	0x3d1a9b04	0.03774549
43	0xbe2927d1	-0.16519095
44	0x3ebafff8	0.36523414
45	0xbe5e7682	-0.21724895
46	0x3b56698c	0.003271672
47	0x3bd9997e	0.006640612
48	0xbe3d0570	-0.18459105
49	0xbebcaad5	-0.36849084
50	0x3da94854	0.082657486
51	0x3dbbbb85	0.09166626
52	0xbd1bbe7b	-0.038023453
53	0x3d2c077f	0.041999336
54	0x3d34abc5	0.044109125
55	0x3d9d9c02	0.07695772
56	0xbe0506d8	-0.12990892
57	0x3eb096bc	0.3449
58	0x3e89482c	0.26812875
59	0xbeedebd8	-0.46468997
60	0x3e4041ac	0.18775052
61	0xbe1c31f4	-0.1525343
62	0xbe3e60d6	-0.18591627
63	0x3d7b8b31	0.06141204
64	0x3da80e0f	0.082058065
65	0xbda6aadc	-0.081380576
66	0x3dedc522	0.11609866
67	0xbd3ed13a	-0.046586253
68	0xbdc55758	-0.096358
69	0x3dc6877a	0.09693809
70	0x3e8ce047	0.2751486
71	0xbd8ed9f3	-0.06975164
72	0x3d85f97d	0.06541727
73	0x3e2097d8	0.15682924
74	0xbdaa9244	-0.08328679
75	0xbd893b11	-0.06700719
76	0x3e81d227	0.25355646
77	0xbdfc5650	-0.1232115
78	0x3e3787a0	0.1792283
79	0xbdfacd6d	-0.12246213
80	0xbedde050	-0.433352
81	0x3e4ad466	0.19807586
82	0xbe977afa	-0.2958601
83	0x3def7b24	0.11693409
84	0xbeb3feac	-0.35155237
85	0x3dc63fb6	0.09680121
86	0x3da9e739	0.08296055
87	0x3dcd19a1	0.10014654
88	0xbd1e8bdf	-0.03870761
89	0xbdf8a8f8	-0.12141603
90	0x3e7e8470	0.24855208
91	0xbda57b22	-0.08080126
92	0x3c7769b3	0.015100884
93	0x3d31cc3f	0.043407675
94	0x3d26b0ad	0.040695835
95	0xbdbfcfa9	-0.0936578
96	0xbd09e661	-0.033666972
97	0xbb9b7777	-0.004744466
98	0xbedd768b	-0.43254504
99	0xbea8006f	-0.3281283
100	0xbd99c5f0	-0.07508457
101	0xbdae92a2	-0.08524062
102	0xbef27707	-0.47356436
103	0x3ec0a33e	0.37624544
104	0x3ea93fbe	0.33056444
105	0x3d1c576d	0.038169313
106	0xbe3c52b5	-0.18390925
107	0x3e23852d	0.15968771
108	0x3dc7dab6	0.09758513
109	0xbe33d824	-0.1756292
110	0x3d757e98	0.059935182
111	0xbe19b20a	-0.15009323
112	0x3c885dd5	0.016646305
113	0x3e493f2f	0.19653009
114	0x3d3f517e	0.046708576
115	0xbe2fdb6e	-0.1717355
116	0xbe2ade46	-0.16686353
117	0x3c0fb8e2	0.008772107
118	0x3e0d0a16	0.13773379
119	0x3e293997	0.16525875
120	0xbdcaf9f5	-0.09910957
121	0xbeb393ae	-0.35073608
122	0x3e6adc03	0.2293549
123	0x3e85113b	0.25989708
124	0xbe0edd3c	-0.13951582
125	0xbe2ad900	-0.16684341
126	0xbd8d2619	-0.06892032
127	0xbeaf5ebb	-0.3425196
128	0xbd14a007	-0.036285426
129	0x3c378205	0.011200433
130	0x3e8c04ff	0.27347562
131	0xbe8296bb	-0.25505623
132	0x3e7b88a9	0.2456385
133	0xbbea2363	-0.0071453317
134	0xbe3a2b94	-0.18180686
135	0xbe10d70e	-0.14144537
136	0xbe37f633	-0.17965011
137	0xbcdcd212	-0.026955638
138	0x3d6fac1c	0.058513746
139	0xbe09770d	-0.1342432
140	0x3c4c31f2	0.01246308
141	0xbcfc3d1c	-0.030790858
142	0xbeab0b22	-0.3340693
143	0x3eab4cd6	0.3345706
144	0x3db039d3	0.08604779
145	0xbf0dc727	-0.5538201
146	0x3e366635	0.17812426
147	0xbe13a7ae	-0.14419433
148	0x3db4f41f	0.08835625
149	0xbd91e78f	-0.071242444
150	0x3e3c1c45	0.18370159
151	0xbc92a2d4	-0.017899908
152	0xbca005f0	-0.019534081
153	0xbdf6b375	-0.120459475
154	0x3daf9287	0.0857287
155	0xbe3f2a96	-0.18668589
156	0xbdcc8d4a	-0.09987886
157	0xbe391775	-0.18075354
158	0x3dc13809	0.09434516
159	0xbdd318d0	-0.10307467
160	0x3cf580f6	0.02996872
161	0x3dabc7bf	0.08387708
162	0xbceaf17e	-0.028679606
163	0xbd0210a8	-0.031754166
164	0xbe7606a0	-0.24025965
165	0x3eb4fef4	0.35350764
166	0xbe453a23	-0.19260459
167	0x3c61da34	0.013784934
168	0x3d230016	0.039795004
169	0x3d83a63f	0.06428193
170	0xbe8f81f7	-0.28028843
171	0x3d1c057a	0.03809116
172	0xbe153f34	-0.14574891
173	0x3d35cf56	0.044387184
174	0xbd4bde7a	-0.049772717
175	0xbd967775	-0.07347003
176	0xbe7d32f6	-0.24726471
177	0x3e095f1e	0.1341519
178	0x3e5a2c7e	0.21306035
179	0xbdb287ae	-0.08717285
180	0xbd3c083a	-0.045906283
181	0x3e0ff048	0.14056504
182	0xbdd4df66	-0.10394172
183	0xbe2f40ab	-0.17114513
184	0x3d28000a	0.041015662
185	0xbe233078	-0.15936458
186	0xbc998bf6	-0.018743496
187	0x3d2908d4	0.041268185
188	0xbe604d91	-0.21904589
189	0xbdd527b2	-0.10407962
190	0xbe0e444b	-0.13893239
191	0xbdabb1c6	-0.08383517
192	0x3e311e53	0.17296724
193	0xbe32da30	-0.17466044
194	0x3d0d1649	0.03444508
195	0x3e211557	0.15730797
196	0xbc872108	-0.016495243
197	0x3da52c43	0.08065083
198	0x3e0edda6	0.1395174
199	0xbd8148fd	-0.063127495
200	0x3ed95c1f	0.42453095
201	0xbe3056aa	-0.1722056
202	0xbd251bd0	-0.040309727
203	0x3e49d6b4	0.19710809
204	0xbe3837bc	-0.17990011
205	0xbed43c88	-0.41452432
206	0x3ddaf054	0.1069037
207	0xbe897ad1	-0.26851514
208	0x3e945354	0.28969824
209	0x3d892509	0.06696517
210	0xbe5e3572	-0.21700075
211	0xbe414a60	-0.18876028
212	0x3e2fc98a	0.17166725
213	0x3e5d66d4	0.21621257
214	0x3df00d09	0.11721236
215	0xbd01593a	-0.031579234
216	0x3ea15c31	0.3151565
217	0xbdcfca9b	-0.10146066
218	0xbd11a53e	-0.035557978
219	0x3dd7d4dc	0.105386466
220	0x3e04a312	0.12952831
221	0x3e6c77b9	0.23092546
222	0x3cb6f0e6	0.022331666
223	0x3d14f2c0	0.036364317
224	0xbe21a78f	-0.15786575
225	0x3d4bf386	0.04979279
226	0xbd386458	-0.04501757
227	0xbec4a553	-0.38407382
228	0xbde99580	-0.11405468
229	0x3e6c4dfb	0.23076622
230	0x3d8ebb16	0.069692776
231	0xbf1049fd	-0.563629
232	0xbdcfbd0a	-0.10143478
233	0xbec48b34	-0.38387454
234	0x3d81b958	0.0633418
235	0x3da6c859	0.08143682
236	0x3df4403a	0.11926313
237	0x3dcf846c	0.10132679
238	0xbe027fa9	-0.12744011
239	0xbda34b77	-0.07973378
240	0xbe028256	-0.12745032
241	0xbdf1912e	-0.11795269
242	0x3d02cd7f	0.031934258
243	0x3e928344	0.28615773
244	0x3e480ab9	0.1953534
245	0x3e0aa927	0.13541089
246	0xbc92f021	-0.017936768
247	0x3c5cac0c	0.013468754
248	0x3d3f4752	0.046698876
249	0x3dc4fdc3	0.09618714
250	0x3ca28f25	0.019843647
251	0x3e067cc3	0.1313353
252	0x3e17e737	0.14834295
253	0xbe0478ec	-0.12936753
254	0xbd3a3be9	-0.04546729
255	0xbdb3c8ef	-0.087785594

network.0.bias f4 [128]
0	0xbf813fab	-1.0097555
1	0xbf9f06e3	-1.2423977
2	0xbefff0ea	-0.4998849
3	0xbf98cfff	-1.1938475
4	0xbf7d0ca5	-0.9884742
5	0xbefdfd43	-0.49607286
6	0xbf68693c	-0.90785575
7	0xbf49e4b6	-0.7886461
8	0xbf306e5d	-0.689184
9	0xbee9ba7b	-0.45650086
10	0xbf87f302	-1.0621035
11	0xbec006ec	-0.3750528
12	0xbf412fe6	-0.7546371
13	0xbf223b58	-0.633718
14	0xbf720b16	-0.94548166
15	0xbf81aef8	-1.0131521
16	0xbf5b2be2	-0.85613835
17	0xbf8e7379	-1.112899
18	0xbe894959	-0.26813772
19	0xbf3bfb84	-0.7343066
20	0xbfa1a494	-1.262835
21	0xbf605e34	-0.8764374
22	0x3d439591	0.04775006
23	0xbfa7a81d	-1.3098179
24	0xbf6a5dd6	-0.9154943
25	0xbf36ef1d	-0.7145861
26	0xbf0a3888	-0.5399251
27	0xbf54f73f	-0.8318977
28	0xbf88cee8	-1.0688143
29	0xbf042ec6	-0.5163387
30	0xbf412b78	-0.75456953
31	0xbf8578cc	-1.0427489
32	0xbf1b2016	-0.60595834
33	0xbf51f943	-0.8202097
34	0xbf6f36e5	-0.9344314
35	0xbe1f66de	-0.15566584
36	0xbf7a7c45	-0.9784587
37	0xbf8fb189	-1.1226054
38	0xbf56a3bc	-0.8384359
39	0xbeab0df5	-0.33409086
40	0xbf40887d	-0.75208265
41	0xbb96c806	-0.0046014814
42	0xbf74564f	-0.95444196
43	0xbf0215ce	-0.5081452
44	0xbfb0ec46	-1.3822105
45	0xbee67376	-0.45009965
46	0xbf264561	-0.64949614
47	0xbf75ea7d	-0.96060926
48	0xbf283e90	-0.6572046
49	0xbf61cb3d	-0.8820074
50	0xbfb39d25	-1.4032332
51	0xbf4c0bcd	-0.79705507
52	0xbf67b9ab	-0.9051768
53	0xbf19e63b	-0.6011693
54	0xbecd8261	-0.40138534
55	0xbfa3e66a	-1.2804692
56	0xbe7f1ce1	-0.2491336
57	0xbf3d054b	-0.738362
58	0xbf7c165a	-0.98471606
59	0xbf0916f7	-0.53550667
60	0xbf9250af	-1.1430873
61	0xbf53a98a	-0.8268057
62	0xbf499e9d	-0.7875765
63	0xbf685e55	-0.9076894
64	0xbf787009	-0.9704595
65	0xbeb919d3	-0.36152515
66	0xbfa001ca	-1.2500546
67	0xbef45521	-0.47721198
68	0xbf578b3d	-0.84196836
69	0xbf31bc6c	-0.69428134
70	0xbf8d600a	-1.1044934
71	0xbe8e065e	-0.27739233
72	0xbed54365	-0.4165298
73	0xbf46f561	-0.7771817
74	0xbf108a36	-0.56460893
75	0xbef29bdb	-0.47384533
76	0xbec7fa9f	-0.39058396
77	0xbf39e303	-0.7261202
78	0xbfa730e0	-1.306179
79	0xbed1cb0b	-0.40975222
80	0xbf675518	-0.9036422
81	0xbf77d2c0	-0.96805954
82	0xbf847c0c	-1.0350356
83	0xbd302611	-0.043005053
84	0xbf8bd4e5	-1.0924345
85	0xbf976e8b	-1.183061
86	0xbe8314b3	-0.2560173
87	0xbec40eb6	-0.38292474
88	0xbf2d44fe	-0.676834
89	0xbf2ca3da	-0.6743752
90	0xbf4d2b47	-0.8014416
91	0xbf94860b	-1.1603407
92	0xbe28fd04	-0.16502768
93	0xbeed766e	-0.46379417
94	0xbea29095	-0.31750932
95	0xbf4c1bef	-0.79730123
96	0xbf02743d	-0.50958616
97	0xbf0a7e58	-0.54099035
98	0xbf6b1c98	-0.91840506
99	0xbee7c283	-0.45265588
100	0xbfaa0dcb	-1.3285459
101	0xbe46837d	-0.19386096
102	0xbf8e36db	-1.111049
103	0xbf442edf	-0.7663402
104	0xbf875c7c	-1.0575099
105	0xbf9029cb	-1.1262754
106	0xbf1cb450	-0.61212635
107	0xbeddff7a	-0.43358976
108	0xbea01299	-0.3126419
109	0xbf532eeb	-0.82493466
110	0xbec64184	-0.3872186
111	0xbf222839	-0.63342625
112	0xbf80c197	-1.0059079
113	0xbf7690a4	-0.96314454
114	0xbf67566a	-0.9036623
115	0xbf510e8b	-0.81662816
116	0xbfa925f3	-1.3214706
117	0xbf915d68	-1.135663
118	0xbe9e3e67	-0.30906984
119	0xbeaa7738	-0.33294082
120	0xbf3c1c35	-0.7348054
121	0xbf17d5e2	-0.59310734
122	0xbf5ed916	-0.87049997
123	0xbf423cdc	-0.75874114
124	0xbf915a18	-1.135562
125	0xbf5b1ee9	-0.8559404
126	0xbf236cf5	-0.6383813
127	0xbef7cabd	-0.48396865

network.3.weight f4 [64, 128]
0	0x3d892e18	0.06698245
1	0xbd7fb480	-0.062427998
2	0xbdb89c99	-0.09014244
3	0xbeafad35	-0.34311834
4	0xbd1b27e8	-0.037879854
5	0x3de19294	0.11014286
6	0xbe5d5afa	-0.21616736
7	0xbde18dc0	-0.11013365
8	0xbe069f5c	-0.13146728
9	0x3e140672	0.14455584
10	0xbe06456a	-0.13112417
11	0xbe2bc836	-0.16775593
12	0xbd09c9fb	-0.03363989
13	0xbca02cf2	-0.019552682
14	0xbe4b7f41	-0.19872762
15	0xbeab8086	-0.33496493
16	0xbd950693	-0.072766446
17	0xbe6e2b54	-0.23258716
18	0xbe43b9d0	-0.1911385
19	0xbbe2e8cb	-0.0069247237
20	0xbe98c08d	-0.29834405
21	0xbe803053	-0.25036868
22	0xbea4ebcf	-0.32211158
23	0xbe02aa9a	-0.12760392
24	0xbc4b61f9	-0.012413495
25	0x3e4e1f09	0.20129026
26	0xbd021728	-0.031760365
27	0xbeb4ffe1	-0.3535147
28	0xbf21ac2e	-0.6315335
29	0xbe61cc78	-0.22050655
30	0x3d8f27d2	0.06990017
31	0xbe885d2e	-0.2663359
32	0x3d8b31ac	0.067965835
33	0xbde025a5	-0.1094468
34	0xbd70b09b	-0.058762174
35	0xbecba6c5	-0.39775673
36	0xbe87f4f9	-0.26554087
37	0xbe0440c2	-0.12915328
38	0xbdd7a02f	-0.105285995
39	0xbde4af2c	-0.11166224
40	0xbe6cdc48	-0.23130906
41	0xbe272fe2	-0.1632686
42	0xbdce9fef	-0.10089099
43	0xbef93fe8	-0.4868157
44	0xbe4f7886	-0.2026082
45	0xbe7d4355	-0.24732716
46	0xbdf3b496	-0.118996784
47	0x3e1469a5	0.14493425
48	0xbe7443b5	-0.23853953
49	0xbe31a455	-0.17347844
50	0xbe5cf54a	-0.21577945
51	0xbec4dee4	-0.38451302
52	0xbdcbc3ad	-0.099494316
53	0x3d92b003	0.07162478
54	0xbea909da	-0.3301533
55	0x3ce72c68	0.028219417
56	0xbdcba3ac	-0.09943327
57	0xbe45713b	-0.19281475
58	0xbe0c50bb	-0.13702671
59	0xbdc1f36c	-0.09470257
60	0xbdf97800	-0.12181091
61	0xbd02df92	-0.031951495
62	0xbe809501	-0.2511368
63	0xbdded91a	-0.108812526
64	0xbe463ff2	-0.1936033
65	0xbe21b08c	-0.15790004
66	0xbbef6122	-0.0073052803
67	0xbc8de43a	-0.017320741
68	0xbe6289ba	-0.22122851
69	0x3c31a30a	0.010842094
70	0x3dfbd7ab	0.12296995
71	0xbe932b86	-0.28744143
72	0xbe91ef90	-0.28503084
73	0xbe2e6bf9	-0.17033376
74	0xbe8b50ba	-0.27210027
75	0xbe055611	-0.13021113
76	0xbe1b3d47	-0.15160094
77	0xbe40523a	-0.18781367
78	0xbe21b8c9	-0.15793146
79	0xbe769b71	-0.24082734
80	0xbdf46e75	-0.119351305
81	0xbe314ef1	-0.1731527
82	0xbe8d84a3	-0.27640256
83	0xbd3347af	-0.043769535
84	0xbdb48aad	-0.08815513
85	0xbc55593f	-0.013021766
86	0xbe18a652	-0.14907196
87	0xbde95699	-0.1139347
88	0xbe88003b	-0.26562676
89	0xbd32844a	-0.043583192
90	0xbd6f5faf	-0.05844086
91	0xbdee1c91	-0.11626542
92	0xbe69405e	-0.2277846
93	0xbe04c41a	-0.12965432
94	0xbe8af2af	-0.27138278
95	0xbe419a4d	-0.18906517
96	0xbe53bbbb	-0.20677082
97	0xbb61ceed	-0.0034455613
98	0xbe82b89c	-0.2553147
99	0xbe47cbf3	-0.19511394
100	0x3d90512d	0.07046733
101	0x3d96b6be	0.07359074
102	0xbe0a4c61	-0.13505699
103	0x3cfa17f7	0.030529005
104	0xbcff4bdf	-0.031164108
105	0xbd4a8085	-0.049438972
106	0xbe7876db	-0.2426409
107	0xbdf31d2c	-0.118707985
108	0xbf049698	-0.5179229
109	0xbc6fb6a2	-0.014630945
110	0xbeaab041	-0.33337596
111	0xbe3bc733	-0.18337707
112	0xbcfbe204	-0.030747421
113	0x3b85d07a	0.0040836902
114	0x3da7d4a9	0.081948586
115	0xbbdad91e	-0.0066787144
116	0xbe790b11	-0.24320628
117	0xbdde38ec	-0.10850701
118	0x3e1cf03e	0.1532602
119	0xbe81859f	-0.25297257
120	0xbdb34347	-0.087530665
121	0xbdf17c59	-0.117912956
122	0xbe15df21	-0.14635898
123	0xbe7dc4bd	-0.24782081
124	0xbe004cdf	-0.12529324
125	0xbbebd7d6	-0.0071973605
126	0xba65817c	-0.00087549514
127	0xbd72472c	-0.059149906
128	0xbd27938e	-0.040912203
129	0xbe9d7e60	-0.3076048
130	0xbe0d76e6	-0.13814887
131	0xbe1fac47	-0.15593062
132	0xbe749977	-0.23886667
133	0xbda19ae2	-0.0789087
134	0xbe08ebc9	-0.13371195
135	0xbd932f26	-0.07186727
136	0xbe4651c4	-0.19367129
137	0xbe4addbd	-0.19811149
138	0xbde57ca8	-0.11205417
139	0xbdda59af	-0.10661637
140	0xbeab37ad	-0.33440915
141	0xbe5cb5b4	-0.21553689
142	0xbf038480	-0.51374054
143	0xbf12cfa9	-0.57348114
144	0xbe280851	-0.16409422
145	0xbe5e46e9	-0.21706738
146	0xbeb89573	-0.3605152
147	0x3e80fb2d	0.25191632
148	0x3b628307	0.0034562962
149	0xbe6e4c5b	-0.23271315
150	0xbe6b1bea	-0.22959867
151	0xbe88c443	-0.26712236
152	0xbdc6cfa3	-0.09707572
153	0xbe16ca64	-0.14725643
154	0xbdcd679a	-0.10029526
155	0x3b2c40aa	0.002628366
156	0x3e926e3a	0.2859972
157	0xbeb39756	-0.35076398
158	0x3c8ba91b	0.01704841
159	0xbf1e23ed	-0.6177357
160	0xbf1042a4	-0.56351686
161	0xbe5cadb6	-0.2155064
162	0xbc806d46	-0.015677106
163	0xbde0dc9a	-0.109795764
164	0xbe1bb8f9	-0.1520728
165	0xbe62a396	-0.22132716
166	0xbe855eee	-0.26048988
167	0xbeb983a0	-0.36233234
168	0xbd5d3d2e	-0.054013424
169	0xbf37b739	-0.7176395
170	0x3d3a09d0	0.045419514
171	0xbe81b642	-0.25334364
172	0x3be8a9b7	0.0071003097
173	0xbed50b39	-0.41610125
174	0xbf5a3929	-0.8524347
175	0xbdf17095	-0.117890514
176	0xbe9b889c	-0.30377662
177	0xbb32cfb2	-0.002728444
178	0xbee41127	-0.44544336
179	0xbd3734d3	-0.04472811
180	0xbe1b48b8	-0.15164459
181	0xbdd739cb	-0.1050907
182	0xbf6842e5	-0.9072707
183	0x3e61f143	0.2206469
184	0xbeb95f23	-0.36205396
185	0xbd54739f	-0.051868077
186	0xbe0fce8d	-0.14043637
187	0xbf0b3d63	-0.54390544
188	0xbdc5d5da	-0.096599296
189	0xbce14440	-0.027498364
190	0xbe3fd784	-0.18734556
191	0xbea8776f	-0.3290362
192	0xbebafd69	-0.36521462
193	0xbe990356	-0.29885358
194	0x3d8d2d64	0.06893423
195	0x3baccb23	0.005273239
196	0xbe8d2a19	-0.2757118
197	0x379f8dc0	1.9020285e-05
198	0xbb0a653e	-0.0021117474
199	0xbe666ea3	-0.22503142
200	0xbdd921b8	-0.106021345
201	0xbe69e731	-0.22842099
202	0xbe898977	-0.2686269
203	0xbe133c08	-0.14378369
204	0xbd9a2dee	-0.07528292
205	0xbda66f75	-0.081267275
206	0xbd83733e	-0.06418465
207	0xbe73428e	-0.23755857
208	0x3d7451ba	0.059648253
209	0xbdc79020	-0.097442865
210	0xbe1bd4c0	-0.15217876
211	0xbe82b40c	-0.2552799
212	0xbe3ad86a	-0.18246618
213	0xbf139290	-0.5764551
214	0xbedee43a	-0.43533498
215	0xbebd36c5	-0.36955848
216	0xbe5d342a	-0.2160193
217	0xbe1eb8c0	-0.15500164
218	0xbd658fc8	-0.056045324
219	0xbe9587a1	-0.2920504
220	0xbe71fb55	-0.23631032
221	0xbe06c9b6	-0.13162884
222	0xbebb771c	-0.3661431
223	0xbeb4c6d5	-0.35307947
224	0xbe899d1e	-0.26877683
225	0xbe9a44ad	-0.3013052
226	0xbe8a7e86	-0.27049655
227	0xbe58b860	-0.21164083
228	0xbed1b746	-0.4096014
229	0x3d8b1e40	0.06792879
230	0xbea20cc6	-0.3165037
231	0x3dfd3578	0.12363714
232	0x3dbc5f4c	0.09197864
233	0xbd471f31	-0.04861373
234	0xbeb1a50f	-0.34696242
235	0xbe97636a	-0.29568034
236	0xbd491c37	-0.049099173
237	0x3e13a03c	0.14416593
238	0xbe3fd26f	-0.18732618
239	0xbda1c0ef	-0.07898127
240	0xbeddb811	-0.43304494
241	0x3c682149	0.014168092
242	0xbe9382e8	-0.2881081
243	0xbeb0998f	-0.34492156
244	0xbe6f6b60	-0.23380804
245	0xbe064094	-0.13110572
246	0x3e07d4d0	0.13264775
247	0xbea12d0d	-0.31479684
248	0xbe5040c8	-0.20337212
249	0xbcc90028	-0.024536207
250	0xbe5021df	-0.20325421
251	0xbf0e71b4	-0.5564225
252	0xbe8b5711	-0.27214864
253	0x3e6afa3f	0.22947024
254	0xbeb3f807	-0.35150167
255	0xbed52e23	-0.41636762

network.3.bias f4 [64]
0	0xbf3eb5df	-0.74496263
1	0xbec1daef	-0.37862346
2	0xbea5ec6e	-0.32406944
3	0x3cdd2bbd	0.026998395
4	0xbec58f24	-0.3858577
5	0xbeacffa0	-0.33788776
6	0xbec85959	-0.39130667
7	0xbeead178	-0.45862937
8	0xbeaf4247	-0.34230253
9	0xbeba4dfc	-0.36387622
10	0xbef45237	-0.47718975
11	0xbf09d623	-0.5384237
12	0xbedf06c1	-0.4355984
13	0xbf229b2a	-0.6351801
14	0xbec60178	-0.38672996
15	0xbec8afc6	-0.39196604
16	0xbeb3d174	-0.35120738
17	0xbf3c3464	-0.7351744
18	0xbebcf6b8	-0.3690698
19	0x3edbc91a	0.42926866
20	0xbf069389	-0.5256887
21	0xbed6518a	-0.41859084
22	0xbea35ec8	-0.3190825
23	0xbeceed71	-0.40415528
24	0xbeb7b0e5	-0.35877147
25	0x3e9c7037	0.30554363
26	0xbf20ef62	-0.6286527
27	0xbeb9d820	-0.36297703
28	0xbf0d779b	-0.5526063
29	0xbef17c0a	-0.47164947
30	0xbed9840b	-0.42483553
31	0xbed995a0	-0.42496967
32	0x3eefbad3	0.46822223
33	0xbed89669	-0.42302254
34	0xbf2246b4	-0.63389134
35	0xbf04eb73	-0.51921767
36	0xbea3f24d	-0.32020798
37	0xbeaf1a85	-0.3419992
38	0x3edf49ff	0.43611142
39	0xbefe03cf	-0.4961228
40	0xbe9e4f2d	-0.3091978
41	0xbea90dc0	-0.33018303
42	0xbebd18f3	-0.36933097
43	0xbe50b046	-0.20379743
44	0xbef1d0dd	-0.47229663
45	0xbef56b8e	-0.4793362
46	0xbea227db	-0.31671032
47	0x3e919a17	0.28437874
48	0xbe976788	-0.29571176
49	0xbecd5015	-0.4010016
50	0xbecbb866	-0.39789122
51	0xbece94d0	-0.4034791
52	0xbeaef1f0	-0.3416896
53	0x3f49bc31	0.7880278
54	0xbec34e79	-0.38145807
55	0xbeb1cdc2	-0.34727293
56	0x3e829734	0.25505984
57	0xbea0bc0a	-0.31393462
58	0xbec32cc6	-0.38120097
59	0xbee5e637	-0.44902202
60	0xbee8d64e	-0.45476002
61	0xbef8a9fd	-0.4856719
62	0x3ee152f8	0.44008613
63	0x3f282641	0.6568337
